{"config": {"input_layers": [["input_1", 0, 0]], "layers": [{"config": {"sparse": false, "batch_input_shape": [null, null, null, 3], "dtype": "float32", "name": "input_1"}, "class_name": "InputLayer", "name": "input_1", "inbound_nodes": []}, {"config": {"bias_initializer": {"config": {}, "class_name": "Zeros"}, "dilation_rate": [1, 1], "padding": "valid", "activity_regularizer": null, "kernel_size": [3, 3], "strides": [2, 2], "data_format": "channels_last", "activation": "linear", "trainable": true, "name": "conv2d_1", "use_bias": false, "bias_constraint": null, "bias_regularizer": null, "filters": 32, "kernel_regularizer": null, "kernel_initializer": {"config": {"scale": 1.0, "distribution": "uniform", "seed": null, "mode": "fan_avg"}, "class_name": "VarianceScaling"}, "kernel_constraint": null}, "class_name": "Conv2D", "name": "conv2d_1", "inbound_nodes": [[["input_1", 0, 0, {}]]]}, {"config": {"beta_constraint": null, "gamma_constraint": null, "moving_mean_initializer": {"config": {}, "class_name": "Zeros"}, "axis": 3, "beta_initializer": {"config": {}, "class_name": "Zeros"}, "momentum": 0.99, "gamma_initializer": {"config": {}, "class_name": "Ones"}, "epsilon": 0.001, "trainable": true, "name": "batch_normalization_1", "scale": false, "center": true, "beta_regularizer": null, "moving_variance_initializer": {"config": {}, "class_name": "Ones"}, "gamma_regularizer": null}, "class_name": "BatchNormalization", "name": "batch_normalization_1", "inbound_nodes": [[["conv2d_1", 0, 0, {}]]]}, {"config": {"activation": "relu", "trainable": true, "name": "activation_1"}, "class_name": "Activation", "name": "activation_1", "inbound_nodes": [[["batch_normalization_1", 0, 0, {}]]]}, {"config": {"bias_initializer": {"config": {}, "class_name": "Zeros"}, "dilation_rate": [1, 1], "padding": "valid", "activity_regularizer": null, "kernel_size": [3, 3], "strides": [1, 1], "data_format": "channels_last", "activation": "linear", "trainable": true, "name": "conv2d_2", "use_bias": false, "bias_constraint": null, "bias_regularizer": null, "filters": 32, "kernel_regularizer": null, "kernel_initializer": {"config": {"scale": 1.0, "distribution": "uniform", "seed": null, "mode": "fan_avg"}, "class_name": "VarianceScaling"}, "kernel_constraint": null}, "class_name": "Conv2D", "name": "conv2d_2", "inbound_nodes": [[["activation_1", 0, 0, {}]]]}, {"config": {"beta_constraint": null, "gamma_constraint": null, "moving_mean_initializer": {"config": {}, "class_name": "Zeros"}, "axis": 3, "beta_initializer": {"config": {}, "class_name": "Zeros"}, "momentum": 0.99, "gamma_initializer": {"config": {}, "class_name": "Ones"}, "epsilon": 0.001, "trainable": true, "name": "batch_normalization_2", "scale": false, "center": true, "beta_regularizer": null, "moving_variance_initializer": {"config": {}, "class_name": "Ones"}, "gamma_regularizer": null}, "class_name": "BatchNormalization", "name": "batch_normalization_2", "inbound_nodes": [[["conv2d_2", 0, 0, {}]]]}, {"config": {"activation": "relu", "trainable": true, "name": "activation_2"}, "class_name": "Activation", "name": "activation_2", "inbound_nodes": [[["batch_normalization_2", 0, 0, {}]]]}, {"config": {"bias_initializer": {"config": {}, "class_name": "Zeros"}, "dilation_rate": [1, 1], "padding": "same", "activity_regularizer": null, "kernel_size": [3, 3], "strides": [1, 1], "data_format": "channels_last", "activation": "linear", "trainable": true, "name": "conv2d_3", "use_bias": false, "bias_constraint": null, "bias_regularizer": null, "filters": 64, "kernel_regularizer": null, "kernel_initializer": {"config": {"scale": 1.0, "distribution": "uniform", "seed": null, "mode": "fan_avg"}, "class_name": "VarianceScaling"}, "kernel_constraint": null}, "class_name": "Conv2D", "name": "conv2d_3", "inbound_nodes": [[["activation_2", 0, 0, {}]]]}, {"config": {"beta_constraint": null, "gamma_constraint": null, "moving_mean_initializer": {"config": {}, "class_name": "Zeros"}, "axis": 3, "beta_initializer": {"config": {}, "class_name": "Zeros"}, "momentum": 0.99, "gamma_initializer": {"config": {}, "class_name": "Ones"}, "epsilon": 0.001, "trainable": true, "name": "batch_normalization_3", "scale": false, "center": true, "beta_regularizer": null, "moving_variance_initializer": {"config": {}, "class_name": "Ones"}, "gamma_regularizer": null}, "class_name": "BatchNormalization", "name": "batch_normalization_3", "inbound_nodes": [[["conv2d_3", 0, 0, {}]]]}, {"config": {"activation": "relu", "trainable": true, "name": "activation_3"}, "class_name": "Activation", "name": "activation_3", "inbound_nodes": [[["batch_normalization_3", 0, 0, {}]]]}, {"config": {"data_format": "channels_last", "trainable": true, "name": "max_pooling2d_1", "padding": "valid", "pool_size": [3, 3], "strides": [2, 2]}, "class_name": "MaxPooling2D", "name": "max_pooling2d_1", "inbound_nodes": [[["activation_3", 0, 0, {}]]]}, {"config": {"bias_initializer": {"config": {}, "class_name": "Zeros"}, "dilation_rate": [1, 1], "padding": "valid", "activity_regularizer": null, "kernel_size": [1, 1], "strides": [1, 1], "data_format": "channels_last", "activation": "linear", "trainable": true, "name": "conv2d_4", "use_bias": false, "bias_constraint": null, "bias_regularizer": null, "filters": 80, "kernel_regularizer": null, "kernel_initializer": {"config": {"scale": 1.0, "distribution": "uniform", "seed": null, "mode": "fan_avg"}, "class_name": "VarianceScaling"}, "kernel_constraint": null}, "class_name": "Conv2D", "name": "conv2d_4", "inbound_nodes": [[["max_pooling2d_1", 0, 0, {}]]]}, {"config": {"beta_constraint": null, "gamma_constraint": null, "moving_mean_initializer": {"config": {}, "class_name": "Zeros"}, "axis": 3, "beta_initializer": {"config": {}, "class_name": "Zeros"}, "momentum": 0.99, "gamma_initializer": {"config": {}, "class_name": "Ones"}, "epsilon": 0.001, "trainable": true, "name": "batch_normalization_4", "scale": false, "center": true, "beta_regularizer": null, "moving_variance_initializer": {"config": {}, "class_name": "Ones"}, "gamma_regularizer": null}, "class_name": "BatchNormalization", "name": "batch_normalization_4", "inbound_nodes": [[["conv2d_4", 0, 0, {}]]]}, {"config": {"activation": "relu", "trainable": true, "name": "activation_4"}, "class_name": "Activation", "name": "activation_4", "inbound_nodes": [[["batch_normalization_4", 0, 0, {}]]]}, {"config": {"bias_initializer": {"config": {}, "class_name": "Zeros"}, "dilation_rate": [1, 1], "padding": "valid", "activity_regularizer": null, "kernel_size": [3, 3], "strides": [1, 1], "data_format": "channels_last", "activation": "linear", "trainable": true, "name": "conv2d_5", "use_bias": false, "bias_constraint": null, "bias_regularizer": null, "filters": 192, "kernel_regularizer": null, "kernel_initializer": {"config": {"scale": 1.0, "distribution": "uniform", "seed": null, "mode": "fan_avg"}, "class_name": "VarianceScaling"}, "kernel_constraint": null}, "class_name": "Conv2D", "name": "conv2d_5", "inbound_nodes": [[["activation_4", 0, 0, {}]]]}, {"config": {"beta_constraint": null, "gamma_constraint": null, "moving_mean_initializer": {"config": {}, "class_name": "Zeros"}, "axis": 3, "beta_initializer": {"config": {}, "class_name": "Zeros"}, "momentum": 0.99, "gamma_initializer": {"config": {}, "class_name": "Ones"}, "epsilon": 0.001, "trainable": true, "name": "batch_normalization_5", "scale": false, "center": true, "beta_regularizer": null, "moving_variance_initializer": {"config": {}, "class_name": "Ones"}, "gamma_regularizer": null}, "class_name": "BatchNormalization", "name": "batch_normalization_5", "inbound_nodes": [[["conv2d_5", 0, 0, {}]]]}, {"config": {"activation": "relu", "trainable": true, "name": "activation_5"}, "class_name": "Activation", "name": "activation_5", "inbound_nodes": [[["batch_normalization_5", 0, 0, {}]]]}, {"config": {"data_format": "channels_last", "trainable": true, "name": "max_pooling2d_2", "padding": "valid", "pool_size": [3, 3], "strides": [2, 2]}, "class_name": "MaxPooling2D", "name": "max_pooling2d_2", "inbound_nodes": [[["activation_5", 0, 0, {}]]]}, {"config": {"bias_initializer": {"config": {}, "class_name": "Zeros"}, "dilation_rate": [1, 1], "padding": "same", "activity_regularizer": null, "kernel_size": [1, 1], "strides": [1, 1], "data_format": "channels_last", "activation": "linear", "trainable": true, "name": "conv2d_9", "use_bias": false, "bias_constraint": null, "bias_regularizer": null, "filters": 64, "kernel_regularizer": null, "kernel_initializer": {"config": {"scale": 1.0, "distribution": "uniform", "seed": null, "mode": "fan_avg"}, "class_name": "VarianceScaling"}, "kernel_constraint": null}, "class_name": "Conv2D", "name": "conv2d_9", "inbound_nodes": [[["max_pooling2d_2", 0, 0, {}]]]}, {"config": {"beta_constraint": null, "gamma_constraint": null, "moving_mean_initializer": {"config": {}, "class_name": "Zeros"}, "axis": 3, "beta_initializer": {"config": {}, "class_name": "Zeros"}, "momentum": 0.99, "gamma_initializer": {"config": {}, "class_name": "Ones"}, "epsilon": 0.001, "trainable": true, "name": "batch_normalization_9", "scale": false, "center": true, "beta_regularizer": null, "moving_variance_initializer": {"config": {}, "class_name": "Ones"}, "gamma_regularizer": null}, "class_name": "BatchNormalization", "name": "batch_normalization_9", "inbound_nodes": [[["conv2d_9", 0, 0, {}]]]}, {"config": {"activation": "relu", "trainable": true, "name": "activation_9"}, "class_name": "Activation", "name": "activation_9", "inbound_nodes": [[["batch_normalization_9", 0, 0, {}]]]}, {"config": {"bias_initializer": {"config": {}, "class_name": "Zeros"}, "dilation_rate": [1, 1], "padding": "same", "activity_regularizer": null, "kernel_size": [1, 1], "strides": [1, 1], "data_format": "channels_last", "activation": "linear", "trainable": true, "name": "conv2d_7", "use_bias": false, "bias_constraint": null, "bias_regularizer": null, "filters": 48, "kernel_regularizer": null, "kernel_initializer": {"config": {"scale": 1.0, "distribution": "uniform", "seed": null, "mode": "fan_avg"}, "class_name": "VarianceScaling"}, "kernel_constraint": null}, "class_name": "Conv2D", "name": "conv2d_7", "inbound_nodes": [[["max_pooling2d_2", 0, 0, {}]]]}, {"config": {"bias_initializer": {"config": {}, "class_name": "Zeros"}, "dilation_rate": [1, 1], "padding": "same", "activity_regularizer": null, "kernel_size": [3, 3], "strides": [1, 1], "data_format": "channels_last", "activation": "linear", "trainable": true, "name": "conv2d_10", "use_bias": false, "bias_constraint": null, "bias_regularizer": null, "filters": 96, "kernel_regularizer": null, "kernel_initializer": {"config": {"scale": 1.0, "distribution": "uniform", "seed": null, "mode": "fan_avg"}, "class_name": "VarianceScaling"}, "kernel_constraint": null}, "class_name": "Conv2D", "name": "conv2d_10", "inbound_nodes": [[["activation_9", 0, 0, {}]]]}, {"config": {"beta_constraint": null, "gamma_constraint": null, "moving_mean_initializer": {"config": {}, "class_name": "Zeros"}, "axis": 3, "beta_initializer": {"config": {}, "class_name": "Zeros"}, "momentum": 0.99, "gamma_initializer": {"config": {}, "class_name": "Ones"}, "epsilon": 0.001, "trainable": true, "name": "batch_normalization_7", "scale": false, "center": true, "beta_regularizer": null, "moving_variance_initializer": {"config": {}, "class_name": "Ones"}, "gamma_regularizer": null}, "class_name": "BatchNormalization", "name": "batch_normalization_7", "inbound_nodes": [[["conv2d_7", 0, 0, {}]]]}, {"config": {"beta_constraint": null, "gamma_constraint": null, "moving_mean_initializer": {"config": {}, "class_name": "Zeros"}, "axis": 3, "beta_initializer": {"config": {}, "class_name": "Zeros"}, "momentum": 0.99, "gamma_initializer": {"config": {}, "class_name": "Ones"}, "epsilon": 0.001, "trainable": true, "name": "batch_normalization_10", "scale": false, "center": true, "beta_regularizer": null, "moving_variance_initializer": {"config": {}, "class_name": "Ones"}, "gamma_regularizer": null}, "class_name": "BatchNormalization", "name": "batch_normalization_10", "inbound_nodes": [[["conv2d_10", 0, 0, {}]]]}, {"config": {"activation": "relu", "trainable": true, "name": "activation_7"}, "class_name": "Activation", "name": "activation_7", "inbound_nodes": [[["batch_normalization_7", 0, 0, {}]]]}, {"config": {"activation": "relu", "trainable": true, "name": "activation_10"}, "class_name": "Activation", "name": "activation_10", "inbound_nodes": [[["batch_normalization_10", 0, 0, {}]]]}, {"config": {"data_format": "channels_last", "trainable": true, "name": "average_pooling2d_1", "padding": "same", "pool_size": [3, 3], "strides": [1, 1]}, "class_name": "AveragePooling2D", "name": "average_pooling2d_1", "inbound_nodes": [[["max_pooling2d_2", 0, 0, {}]]]}, {"config": {"bias_initializer": {"config": {}, "class_name": "Zeros"}, "dilation_rate": [1, 1], "padding": "same", "activity_regularizer": null, "kernel_size": [1, 1], "strides": [1, 1], "data_format": "channels_last", "activation": "linear", "trainable": true, "name": "conv2d_6", "use_bias": false, "bias_constraint": null, "bias_regularizer": null, "filters": 64, "kernel_regularizer": null, "kernel_initializer": {"config": {"scale": 1.0, "distribution": "uniform", "seed": null, "mode": "fan_avg"}, "class_name": "VarianceScaling"}, "kernel_constraint": null}, "class_name": "Conv2D", "name": "conv2d_6", "inbound_nodes": [[["max_pooling2d_2", 0, 0, {}]]]}, {"config": {"bias_initializer": {"config": {}, "class_name": "Zeros"}, "dilation_rate": [1, 1], "padding": "same", "activity_regularizer": null, "kernel_size": [5, 5], "strides": [1, 1], "data_format": "channels_last", "activation": "linear", "trainable": true, "name": "conv2d_8", "use_bias": false, "bias_constraint": null, "bias_regularizer": null, "filters": 64, "kernel_regularizer": null, "kernel_initializer": {"config": {"scale": 1.0, "distribution": "uniform", "seed": null, "mode": "fan_avg"}, "class_name": "VarianceScaling"}, "kernel_constraint": null}, "class_name": "Conv2D", "name": "conv2d_8", "inbound_nodes": [[["activation_7", 0, 0, {}]]]}, {"config": {"bias_initializer": {"config": {}, "class_name": "Zeros"}, "dilation_rate": [1, 1], "padding": "same", "activity_regularizer": null, "kernel_size": [3, 3], "strides": [1, 1], "data_format": "channels_last", "activation": "linear", "trainable": true, "name": "conv2d_11", "use_bias": false, "bias_constraint": null, "bias_regularizer": null, "filters": 96, "kernel_regularizer": null, "kernel_initializer": {"config": {"scale": 1.0, "distribution": "uniform", "seed": null, "mode": "fan_avg"}, "class_name": "VarianceScaling"}, "kernel_constraint": null}, "class_name": "Conv2D", "name": "conv2d_11", "inbound_nodes": [[["activation_10", 0, 0, {}]]]}, {"config": {"bias_initializer": {"config": {}, "class_name": "Zeros"}, "dilation_rate": [1, 1], "padding": "same", "activity_regularizer": null, "kernel_size": [1, 1], "strides": [1, 1], "data_format": "channels_last", "activation": "linear", "trainable": true, "name": "conv2d_12", "use_bias": false, "bias_constraint": null, "bias_regularizer": null, "filters": 32, "kernel_regularizer": null, "kernel_initializer": {"config": {"scale": 1.0, "distribution": "uniform", "seed": null, "mode": "fan_avg"}, "class_name": "VarianceScaling"}, "kernel_constraint": null}, "class_name": "Conv2D", "name": "conv2d_12", "inbound_nodes": [[["average_pooling2d_1", 0, 0, {}]]]}, {"config": {"beta_constraint": null, "gamma_constraint": null, "moving_mean_initializer": {"config": {}, "class_name": "Zeros"}, "axis": 3, "beta_initializer": {"config": {}, "class_name": "Zeros"}, "momentum": 0.99, "gamma_initializer": {"config": {}, "class_name": "Ones"}, "epsilon": 0.001, "trainable": true, "name": "batch_normalization_6", "scale": false, "center": true, "beta_regularizer": null, "moving_variance_initializer": {"config": {}, "class_name": "Ones"}, "gamma_regularizer": null}, "class_name": "BatchNormalization", "name": "batch_normalization_6", "inbound_nodes": [[["conv2d_6", 0, 0, {}]]]}, {"config": {"beta_constraint": null, "gamma_constraint": null, "moving_mean_initializer": {"config": {}, "class_name": "Zeros"}, "axis": 3, "beta_initializer": {"config": {}, "class_name": "Zeros"}, "momentum": 0.99, "gamma_initializer": {"config": {}, "class_name": "Ones"}, "epsilon": 0.001, "trainable": true, "name": "batch_normalization_8", "scale": false, "center": true, "beta_regularizer": null, "moving_variance_initializer": {"config": {}, "class_name": "Ones"}, "gamma_regularizer": null}, "class_name": "BatchNormalization", "name": "batch_normalization_8", "inbound_nodes": [[["conv2d_8", 0, 0, {}]]]}, {"config": {"beta_constraint": null, "gamma_constraint": null, "moving_mean_initializer": {"config": {}, "class_name": "Zeros"}, "axis": 3, "beta_initializer": {"config": {}, "class_name": "Zeros"}, "momentum": 0.99, "gamma_initializer": {"config": {}, "class_name": "Ones"}, "epsilon": 0.001, "trainable": true, "name": "batch_normalization_11", "scale": false, "center": true, "beta_regularizer": null, "moving_variance_initializer": {"config": {}, "class_name": "Ones"}, "gamma_regularizer": null}, "class_name": "BatchNormalization", "name": "batch_normalization_11", "inbound_nodes": [[["conv2d_11", 0, 0, {}]]]}, {"config": {"beta_constraint": null, "gamma_constraint": null, "moving_mean_initializer": {"config": {}, "class_name": "Zeros"}, "axis": 3, "beta_initializer": {"config": {}, "class_name": "Zeros"}, "momentum": 0.99, "gamma_initializer": {"config": {}, "class_name": "Ones"}, "epsilon": 0.001, "trainable": true, "name": "batch_normalization_12", "scale": false, "center": true, "beta_regularizer": null, "moving_variance_initializer": {"config": {}, "class_name": "Ones"}, "gamma_regularizer": null}, "class_name": "BatchNormalization", "name": "batch_normalization_12", "inbound_nodes": [[["conv2d_12", 0, 0, {}]]]}, {"config": {"activation": "relu", "trainable": true, "name": "activation_6"}, "class_name": "Activation", "name": "activation_6", "inbound_nodes": [[["batch_normalization_6", 0, 0, {}]]]}, {"config": {"activation": "relu", "trainable": true, "name": "activation_8"}, "class_name": "Activation", "name": "activation_8", "inbound_nodes": [[["batch_normalization_8", 0, 0, {}]]]}, {"config": {"activation": "relu", "trainable": true, "name": "activation_11"}, "class_name": "Activation", "name": "activation_11", "inbound_nodes": [[["batch_normalization_11", 0, 0, {}]]]}, {"config": {"activation": "relu", "trainable": true, "name": "activation_12"}, "class_name": "Activation", "name": "activation_12", "inbound_nodes": [[["batch_normalization_12", 0, 0, {}]]]}, {"config": {"trainable": true, "axis": 3, "name": "mixed0"}, "class_name": "Concatenate", "name": "mixed0", "inbound_nodes": [[["activation_6", 0, 0, {}], ["activation_8", 0, 0, {}], ["activation_11", 0, 0, {}], ["activation_12", 0, 0, {}]]]}, {"config": {"bias_initializer": {"config": {}, "class_name": "Zeros"}, "dilation_rate": [1, 1], "padding": "same", "activity_regularizer": null, "kernel_size": [1, 1], "strides": [1, 1], "data_format": "channels_last", "activation": "linear", "trainable": true, "name": "conv2d_16", "use_bias": false, "bias_constraint": null, "bias_regularizer": null, "filters": 64, "kernel_regularizer": null, "kernel_initializer": {"config": {"scale": 1.0, "distribution": "uniform", "seed": null, "mode": "fan_avg"}, "class_name": "VarianceScaling"}, "kernel_constraint": null}, "class_name": "Conv2D", "name": "conv2d_16", "inbound_nodes": [[["mixed0", 0, 0, {}]]]}, {"config": {"beta_constraint": null, "gamma_constraint": null, "moving_mean_initializer": {"config": {}, "class_name": "Zeros"}, "axis": 3, "beta_initializer": {"config": {}, "class_name": "Zeros"}, "momentum": 0.99, "gamma_initializer": {"config": {}, "class_name": "Ones"}, "epsilon": 0.001, "trainable": true, "name": "batch_normalization_16", "scale": false, "center": true, "beta_regularizer": null, "moving_variance_initializer": {"config": {}, "class_name": "Ones"}, "gamma_regularizer": null}, "class_name": "BatchNormalization", "name": "batch_normalization_16", "inbound_nodes": [[["conv2d_16", 0, 0, {}]]]}, {"config": {"activation": "relu", "trainable": true, "name": "activation_16"}, "class_name": "Activation", "name": "activation_16", "inbound_nodes": [[["batch_normalization_16", 0, 0, {}]]]}, {"config": {"bias_initializer": {"config": {}, "class_name": "Zeros"}, "dilation_rate": [1, 1], "padding": "same", "activity_regularizer": null, "kernel_size": [1, 1], "strides": [1, 1], "data_format": "channels_last", "activation": "linear", "trainable": true, "name": "conv2d_14", "use_bias": false, "bias_constraint": null, "bias_regularizer": null, "filters": 48, "kernel_regularizer": null, "kernel_initializer": {"config": {"scale": 1.0, "distribution": "uniform", "seed": null, "mode": "fan_avg"}, "class_name": "VarianceScaling"}, "kernel_constraint": null}, "class_name": "Conv2D", "name": "conv2d_14", "inbound_nodes": [[["mixed0", 0, 0, {}]]]}, {"config": {"bias_initializer": {"config": {}, "class_name": "Zeros"}, "dilation_rate": [1, 1], "padding": "same", "activity_regularizer": null, "kernel_size": [3, 3], "strides": [1, 1], "data_format": "channels_last", "activation": "linear", "trainable": true, "name": "conv2d_17", "use_bias": false, "bias_constraint": null, "bias_regularizer": null, "filters": 96, "kernel_regularizer": null, "kernel_initializer": {"config": {"scale": 1.0, "distribution": "uniform", "seed": null, "mode": "fan_avg"}, "class_name": "VarianceScaling"}, "kernel_constraint": null}, "class_name": "Conv2D", "name": "conv2d_17", "inbound_nodes": [[["activation_16", 0, 0, {}]]]}, {"config": {"beta_constraint": null, "gamma_constraint": null, "moving_mean_initializer": {"config": {}, "class_name": "Zeros"}, "axis": 3, "beta_initializer": {"config": {}, "class_name": "Zeros"}, "momentum": 0.99, "gamma_initializer": {"config": {}, "class_name": "Ones"}, "epsilon": 0.001, "trainable": true, "name": "batch_normalization_14", "scale": false, "center": true, "beta_regularizer": null, "moving_variance_initializer": {"config": {}, "class_name": "Ones"}, "gamma_regularizer": null}, "class_name": "BatchNormalization", "name": "batch_normalization_14", "inbound_nodes": [[["conv2d_14", 0, 0, {}]]]}, {"config": {"beta_constraint": null, "gamma_constraint": null, "moving_mean_initializer": {"config": {}, "class_name": "Zeros"}, "axis": 3, "beta_initializer": {"config": {}, "class_name": "Zeros"}, "momentum": 0.99, "gamma_initializer": {"config": {}, "class_name": "Ones"}, "epsilon": 0.001, "trainable": true, "name": "batch_normalization_17", "scale": false, "center": true, "beta_regularizer": null, "moving_variance_initializer": {"config": {}, "class_name": "Ones"}, "gamma_regularizer": null}, "class_name": "BatchNormalization", "name": "batch_normalization_17", "inbound_nodes": [[["conv2d_17", 0, 0, {}]]]}, {"config": {"activation": "relu", "trainable": true, "name": "activation_14"}, "class_name": "Activation", "name": "activation_14", "inbound_nodes": [[["batch_normalization_14", 0, 0, {}]]]}, {"config": {"activation": "relu", "trainable": true, "name": "activation_17"}, "class_name": "Activation", "name": "activation_17", "inbound_nodes": [[["batch_normalization_17", 0, 0, {}]]]}, {"config": {"data_format": "channels_last", "trainable": true, "name": "average_pooling2d_2", "padding": "same", "pool_size": [3, 3], "strides": [1, 1]}, "class_name": "AveragePooling2D", "name": "average_pooling2d_2", "inbound_nodes": [[["mixed0", 0, 0, {}]]]}, {"config": {"bias_initializer": {"config": {}, "class_name": "Zeros"}, "dilation_rate": [1, 1], "padding": "same", "activity_regularizer": null, "kernel_size": [1, 1], "strides": [1, 1], "data_format": "channels_last", "activation": "linear", "trainable": true, "name": "conv2d_13", "use_bias": false, "bias_constraint": null, "bias_regularizer": null, "filters": 64, "kernel_regularizer": null, "kernel_initializer": {"config": {"scale": 1.0, "distribution": "uniform", "seed": null, "mode": "fan_avg"}, "class_name": "VarianceScaling"}, "kernel_constraint": null}, "class_name": "Conv2D", "name": "conv2d_13", "inbound_nodes": [[["mixed0", 0, 0, {}]]]}, {"config": {"bias_initializer": {"config": {}, "class_name": "Zeros"}, "dilation_rate": [1, 1], "padding": "same", "activity_regularizer": null, "kernel_size": [5, 5], "strides": [1, 1], "data_format": "channels_last", "activation": "linear", "trainable": true, "name": "conv2d_15", "use_bias": false, "bias_constraint": null, "bias_regularizer": null, "filters": 64, "kernel_regularizer": null, "kernel_initializer": {"config": {"scale": 1.0, "distribution": "uniform", "seed": null, "mode": "fan_avg"}, "class_name": "VarianceScaling"}, "kernel_constraint": null}, "class_name": "Conv2D", "name": "conv2d_15", "inbound_nodes": [[["activation_14", 0, 0, {}]]]}, {"config": {"bias_initializer": {"config": {}, "class_name": "Zeros"}, "dilation_rate": [1, 1], "padding": "same", "activity_regularizer": null, "kernel_size": [3, 3], "strides": [1, 1], "data_format": "channels_last", "activation": "linear", "trainable": true, "name": "conv2d_18", "use_bias": false, "bias_constraint": null, "bias_regularizer": null, "filters": 96, "kernel_regularizer": null, "kernel_initializer": {"config": {"scale": 1.0, "distribution": "uniform", "seed": null, "mode": "fan_avg"}, "class_name": "VarianceScaling"}, "kernel_constraint": null}, "class_name": "Conv2D", "name": "conv2d_18", "inbound_nodes": [[["activation_17", 0, 0, {}]]]}, {"config": {"bias_initializer": {"config": {}, "class_name": "Zeros"}, "dilation_rate": [1, 1], "padding": "same", "activity_regularizer": null, "kernel_size": [1, 1], "strides": [1, 1], "data_format": "channels_last", "activation": "linear", "trainable": true, "name": "conv2d_19", "use_bias": false, "bias_constraint": null, "bias_regularizer": null, "filters": 64, "kernel_regularizer": null, "kernel_initializer": {"config": {"scale": 1.0, "distribution": "uniform", "seed": null, "mode": "fan_avg"}, "class_name": "VarianceScaling"}, "kernel_constraint": null}, "class_name": "Conv2D", "name": "conv2d_19", "inbound_nodes": [[["average_pooling2d_2", 0, 0, {}]]]}, {"config": {"beta_constraint": null, "gamma_constraint": null, "moving_mean_initializer": {"config": {}, "class_name": "Zeros"}, "axis": 3, "beta_initializer": {"config": {}, "class_name": "Zeros"}, "momentum": 0.99, "gamma_initializer": {"config": {}, "class_name": "Ones"}, "epsilon": 0.001, "trainable": true, "name": "batch_normalization_13", "scale": false, "center": true, "beta_regularizer": null, "moving_variance_initializer": {"config": {}, "class_name": "Ones"}, "gamma_regularizer": null}, "class_name": "BatchNormalization", "name": "batch_normalization_13", "inbound_nodes": [[["conv2d_13", 0, 0, {}]]]}, {"config": {"beta_constraint": null, "gamma_constraint": null, "moving_mean_initializer": {"config": {}, "class_name": "Zeros"}, "axis": 3, "beta_initializer": {"config": {}, "class_name": "Zeros"}, "momentum": 0.99, "gamma_initializer": {"config": {}, "class_name": "Ones"}, "epsilon": 0.001, "trainable": true, "name": "batch_normalization_15", "scale": false, "center": true, "beta_regularizer": null, "moving_variance_initializer": {"config": {}, "class_name": "Ones"}, "gamma_regularizer": null}, "class_name": "BatchNormalization", "name": "batch_normalization_15", "inbound_nodes": [[["conv2d_15", 0, 0, {}]]]}, {"config": {"beta_constraint": null, "gamma_constraint": null, "moving_mean_initializer": {"config": {}, "class_name": "Zeros"}, "axis": 3, "beta_initializer": {"config": {}, "class_name": "Zeros"}, "momentum": 0.99, "gamma_initializer": {"config": {}, "class_name": "Ones"}, "epsilon": 0.001, "trainable": true, "name": "batch_normalization_18", "scale": false, "center": true, "beta_regularizer": null, "moving_variance_initializer": {"config": {}, "class_name": "Ones"}, "gamma_regularizer": null}, "class_name": "BatchNormalization", "name": "batch_normalization_18", "inbound_nodes": [[["conv2d_18", 0, 0, {}]]]}, {"config": {"beta_constraint": null, "gamma_constraint": null, "moving_mean_initializer": {"config": {}, "class_name": "Zeros"}, "axis": 3, "beta_initializer": {"config": {}, "class_name": "Zeros"}, "momentum": 0.99, "gamma_initializer": {"config": {}, "class_name": "Ones"}, "epsilon": 0.001, "trainable": true, "name": "batch_normalization_19", "scale": false, "center": true, "beta_regularizer": null, "moving_variance_initializer": {"config": {}, "class_name": "Ones"}, "gamma_regularizer": null}, "class_name": "BatchNormalization", "name": "batch_normalization_19", "inbound_nodes": [[["conv2d_19", 0, 0, {}]]]}, {"config": {"activation": "relu", "trainable": true, "name": "activation_13"}, "class_name": "Activation", "name": "activation_13", "inbound_nodes": [[["batch_normalization_13", 0, 0, {}]]]}, {"config": {"activation": "relu", "trainable": true, "name": "activation_15"}, "class_name": "Activation", "name": "activation_15", "inbound_nodes": [[["batch_normalization_15", 0, 0, {}]]]}, {"config": {"activation": "relu", "trainable": true, "name": "activation_18"}, "class_name": "Activation", "name": "activation_18", "inbound_nodes": [[["batch_normalization_18", 0, 0, {}]]]}, {"config": {"activation": "relu", "trainable": true, "name": "activation_19"}, "class_name": "Activation", "name": "activation_19", "inbound_nodes": [[["batch_normalization_19", 0, 0, {}]]]}, {"config": {"trainable": true, "axis": 3, "name": "mixed1"}, "class_name": "Concatenate", "name": "mixed1", "inbound_nodes": [[["activation_13", 0, 0, {}], ["activation_15", 0, 0, {}], ["activation_18", 0, 0, {}], ["activation_19", 0, 0, {}]]]}, {"config": {"bias_initializer": {"config": {}, "class_name": "Zeros"}, "dilation_rate": [1, 1], "padding": "same", "activity_regularizer": null, "kernel_size": [1, 1], "strides": [1, 1], "data_format": "channels_last", "activation": "linear", "trainable": true, "name": "conv2d_23", "use_bias": false, "bias_constraint": null, "bias_regularizer": null, "filters": 64, "kernel_regularizer": null, "kernel_initializer": {"config": {"scale": 1.0, "distribution": "uniform", "seed": null, "mode": "fan_avg"}, "class_name": "VarianceScaling"}, "kernel_constraint": null}, "class_name": "Conv2D", "name": "conv2d_23", "inbound_nodes": [[["mixed1", 0, 0, {}]]]}, {"config": {"beta_constraint": null, "gamma_constraint": null, "moving_mean_initializer": {"config": {}, "class_name": "Zeros"}, "axis": 3, "beta_initializer": {"config": {}, "class_name": "Zeros"}, "momentum": 0.99, "gamma_initializer": {"config": {}, "class_name": "Ones"}, "epsilon": 0.001, "trainable": true, "name": "batch_normalization_23", "scale": false, "center": true, "beta_regularizer": null, "moving_variance_initializer": {"config": {}, "class_name": "Ones"}, "gamma_regularizer": null}, "class_name": "BatchNormalization", "name": "batch_normalization_23", "inbound_nodes": [[["conv2d_23", 0, 0, {}]]]}, {"config": {"activation": "relu", "trainable": true, "name": "activation_23"}, "class_name": "Activation", "name": "activation_23", "inbound_nodes": [[["batch_normalization_23", 0, 0, {}]]]}, {"config": {"bias_initializer": {"config": {}, "class_name": "Zeros"}, "dilation_rate": [1, 1], "padding": "same", "activity_regularizer": null, "kernel_size": [1, 1], "strides": [1, 1], "data_format": "channels_last", "activation": "linear", "trainable": true, "name": "conv2d_21", "use_bias": false, "bias_constraint": null, "bias_regularizer": null, "filters": 48, "kernel_regularizer": null, "kernel_initializer": {"config": {"scale": 1.0, "distribution": "uniform", "seed": null, "mode": "fan_avg"}, "class_name": "VarianceScaling"}, "kernel_constraint": null}, "class_name": "Conv2D", "name": "conv2d_21", "inbound_nodes": [[["mixed1", 0, 0, {}]]]}, {"config": {"bias_initializer": {"config": {}, "class_name": "Zeros"}, "dilation_rate": [1, 1], "padding": "same", "activity_regularizer": null, "kernel_size": [3, 3], "strides": [1, 1], "data_format": "channels_last", "activation": "linear", "trainable": true, "name": "conv2d_24", "use_bias": false, "bias_constraint": null, "bias_regularizer": null, "filters": 96, "kernel_regularizer": null, "kernel_initializer": {"config": {"scale": 1.0, "distribution": "uniform", "seed": null, "mode": "fan_avg"}, "class_name": "VarianceScaling"}, "kernel_constraint": null}, "class_name": "Conv2D", "name": "conv2d_24", "inbound_nodes": [[["activation_23", 0, 0, {}]]]}, {"config": {"beta_constraint": null, "gamma_constraint": null, "moving_mean_initializer": {"config": {}, "class_name": "Zeros"}, "axis": 3, "beta_initializer": {"config": {}, "class_name": "Zeros"}, "momentum": 0.99, "gamma_initializer": {"config": {}, "class_name": "Ones"}, "epsilon": 0.001, "trainable": true, "name": "batch_normalization_21", "scale": false, "center": true, "beta_regularizer": null, "moving_variance_initializer": {"config": {}, "class_name": "Ones"}, "gamma_regularizer": null}, "class_name": "BatchNormalization", "name": "batch_normalization_21", "inbound_nodes": [[["conv2d_21", 0, 0, {}]]]}, {"config": {"beta_constraint": null, "gamma_constraint": null, "moving_mean_initializer": {"config": {}, "class_name": "Zeros"}, "axis": 3, "beta_initializer": {"config": {}, "class_name": "Zeros"}, "momentum": 0.99, "gamma_initializer": {"config": {}, "class_name": "Ones"}, "epsilon": 0.001, "trainable": true, "name": "batch_normalization_24", "scale": false, "center": true, "beta_regularizer": null, "moving_variance_initializer": {"config": {}, "class_name": "Ones"}, "gamma_regularizer": null}, "class_name": "BatchNormalization", "name": "batch_normalization_24", "inbound_nodes": [[["conv2d_24", 0, 0, {}]]]}, {"config": {"activation": "relu", "trainable": true, "name": "activation_21"}, "class_name": "Activation", "name": "activation_21", "inbound_nodes": [[["batch_normalization_21", 0, 0, {}]]]}, {"config": {"activation": "relu", "trainable": true, "name": "activation_24"}, "class_name": "Activation", "name": "activation_24", "inbound_nodes": [[["batch_normalization_24", 0, 0, {}]]]}, {"config": {"data_format": "channels_last", "trainable": true, "name": "average_pooling2d_3", "padding": "same", "pool_size": [3, 3], "strides": [1, 1]}, "class_name": "AveragePooling2D", "name": "average_pooling2d_3", "inbound_nodes": [[["mixed1", 0, 0, {}]]]}, {"config": {"bias_initializer": {"config": {}, "class_name": "Zeros"}, "dilation_rate": [1, 1], "padding": "same", "activity_regularizer": null, "kernel_size": [1, 1], "strides": [1, 1], "data_format": "channels_last", "activation": "linear", "trainable": true, "name": "conv2d_20", "use_bias": false, "bias_constraint": null, "bias_regularizer": null, "filters": 64, "kernel_regularizer": null, "kernel_initializer": {"config": {"scale": 1.0, "distribution": "uniform", "seed": null, "mode": "fan_avg"}, "class_name": "VarianceScaling"}, "kernel_constraint": null}, "class_name": "Conv2D", "name": "conv2d_20", "inbound_nodes": [[["mixed1", 0, 0, {}]]]}, {"config": {"bias_initializer": {"config": {}, "class_name": "Zeros"}, "dilation_rate": [1, 1], "padding": "same", "activity_regularizer": null, "kernel_size": [5, 5], "strides": [1, 1], "data_format": "channels_last", "activation": "linear", "trainable": true, "name": "conv2d_22", "use_bias": false, "bias_constraint": null, "bias_regularizer": null, "filters": 64, "kernel_regularizer": null, "kernel_initializer": {"config": {"scale": 1.0, "distribution": "uniform", "seed": null, "mode": "fan_avg"}, "class_name": "VarianceScaling"}, "kernel_constraint": null}, "class_name": "Conv2D", "name": "conv2d_22", "inbound_nodes": [[["activation_21", 0, 0, {}]]]}, {"config": {"bias_initializer": {"config": {}, "class_name": "Zeros"}, "dilation_rate": [1, 1], "padding": "same", "activity_regularizer": null, "kernel_size": [3, 3], "strides": [1, 1], "data_format": "channels_last", "activation": "linear", "trainable": true, "name": "conv2d_25", "use_bias": false, "bias_constraint": null, "bias_regularizer": null, "filters": 96, "kernel_regularizer": null, "kernel_initializer": {"config": {"scale": 1.0, "distribution": "uniform", "seed": null, "mode": "fan_avg"}, "class_name": "VarianceScaling"}, "kernel_constraint": null}, "class_name": "Conv2D", "name": "conv2d_25", "inbound_nodes": [[["activation_24", 0, 0, {}]]]}, {"config": {"bias_initializer": {"config": {}, "class_name": "Zeros"}, "dilation_rate": [1, 1], "padding": "same", "activity_regularizer": null, "kernel_size": [1, 1], "strides": [1, 1], "data_format": "channels_last", "activation": "linear", "trainable": true, "name": "conv2d_26", "use_bias": false, "bias_constraint": null, "bias_regularizer": null, "filters": 64, "kernel_regularizer": null, "kernel_initializer": {"config": {"scale": 1.0, "distribution": "uniform", "seed": null, "mode": "fan_avg"}, "class_name": "VarianceScaling"}, "kernel_constraint": null}, "class_name": "Conv2D", "name": "conv2d_26", "inbound_nodes": [[["average_pooling2d_3", 0, 0, {}]]]}, {"config": {"beta_constraint": null, "gamma_constraint": null, "moving_mean_initializer": {"config": {}, "class_name": "Zeros"}, "axis": 3, "beta_initializer": {"config": {}, "class_name": "Zeros"}, "momentum": 0.99, "gamma_initializer": {"config": {}, "class_name": "Ones"}, "epsilon": 0.001, "trainable": true, "name": "batch_normalization_20", "scale": false, "center": true, "beta_regularizer": null, "moving_variance_initializer": {"config": {}, "class_name": "Ones"}, "gamma_regularizer": null}, "class_name": "BatchNormalization", "name": "batch_normalization_20", "inbound_nodes": [[["conv2d_20", 0, 0, {}]]]}, {"config": {"beta_constraint": null, "gamma_constraint": null, "moving_mean_initializer": {"config": {}, "class_name": "Zeros"}, "axis": 3, "beta_initializer": {"config": {}, "class_name": "Zeros"}, "momentum": 0.99, "gamma_initializer": {"config": {}, "class_name": "Ones"}, "epsilon": 0.001, "trainable": true, "name": "batch_normalization_22", "scale": false, "center": true, "beta_regularizer": null, "moving_variance_initializer": {"config": {}, "class_name": "Ones"}, "gamma_regularizer": null}, "class_name": "BatchNormalization", "name": "batch_normalization_22", "inbound_nodes": [[["conv2d_22", 0, 0, {}]]]}, {"config": {"beta_constraint": null, "gamma_constraint": null, "moving_mean_initializer": {"config": {}, "class_name": "Zeros"}, "axis": 3, "beta_initializer": {"config": {}, "class_name": "Zeros"}, "momentum": 0.99, "gamma_initializer": {"config": {}, "class_name": "Ones"}, "epsilon": 0.001, "trainable": true, "name": "batch_normalization_25", "scale": false, "center": true, "beta_regularizer": null, "moving_variance_initializer": {"config": {}, "class_name": "Ones"}, "gamma_regularizer": null}, "class_name": "BatchNormalization", "name": "batch_normalization_25", "inbound_nodes": [[["conv2d_25", 0, 0, {}]]]}, {"config": {"beta_constraint": null, "gamma_constraint": null, "moving_mean_initializer": {"config": {}, "class_name": "Zeros"}, "axis": 3, "beta_initializer": {"config": {}, "class_name": "Zeros"}, "momentum": 0.99, "gamma_initializer": {"config": {}, "class_name": "Ones"}, "epsilon": 0.001, "trainable": true, "name": "batch_normalization_26", "scale": false, "center": true, "beta_regularizer": null, "moving_variance_initializer": {"config": {}, "class_name": "Ones"}, "gamma_regularizer": null}, "class_name": "BatchNormalization", "name": "batch_normalization_26", "inbound_nodes": [[["conv2d_26", 0, 0, {}]]]}, {"config": {"activation": "relu", "trainable": true, "name": "activation_20"}, "class_name": "Activation", "name": "activation_20", "inbound_nodes": [[["batch_normalization_20", 0, 0, {}]]]}, {"config": {"activation": "relu", "trainable": true, "name": "activation_22"}, "class_name": "Activation", "name": "activation_22", "inbound_nodes": [[["batch_normalization_22", 0, 0, {}]]]}, {"config": {"activation": "relu", "trainable": true, "name": "activation_25"}, "class_name": "Activation", "name": "activation_25", "inbound_nodes": [[["batch_normalization_25", 0, 0, {}]]]}, {"config": {"activation": "relu", "trainable": true, "name": "activation_26"}, "class_name": "Activation", "name": "activation_26", "inbound_nodes": [[["batch_normalization_26", 0, 0, {}]]]}, {"config": {"trainable": true, "axis": 3, "name": "mixed2"}, "class_name": "Concatenate", "name": "mixed2", "inbound_nodes": [[["activation_20", 0, 0, {}], ["activation_22", 0, 0, {}], ["activation_25", 0, 0, {}], ["activation_26", 0, 0, {}]]]}, {"config": {"bias_initializer": {"config": {}, "class_name": "Zeros"}, "dilation_rate": [1, 1], "padding": "same", "activity_regularizer": null, "kernel_size": [1, 1], "strides": [1, 1], "data_format": "channels_last", "activation": "linear", "trainable": true, "name": "conv2d_28", "use_bias": false, "bias_constraint": null, "bias_regularizer": null, "filters": 64, "kernel_regularizer": null, "kernel_initializer": {"config": {"scale": 1.0, "distribution": "uniform", "seed": null, "mode": "fan_avg"}, "class_name": "VarianceScaling"}, "kernel_constraint": null}, "class_name": "Conv2D", "name": "conv2d_28", "inbound_nodes": [[["mixed2", 0, 0, {}]]]}, {"config": {"beta_constraint": null, "gamma_constraint": null, "moving_mean_initializer": {"config": {}, "class_name": "Zeros"}, "axis": 3, "beta_initializer": {"config": {}, "class_name": "Zeros"}, "momentum": 0.99, "gamma_initializer": {"config": {}, "class_name": "Ones"}, "epsilon": 0.001, "trainable": true, "name": "batch_normalization_28", "scale": false, "center": true, "beta_regularizer": null, "moving_variance_initializer": {"config": {}, "class_name": "Ones"}, "gamma_regularizer": null}, "class_name": "BatchNormalization", "name": "batch_normalization_28", "inbound_nodes": [[["conv2d_28", 0, 0, {}]]]}, {"config": {"activation": "relu", "trainable": true, "name": "activation_28"}, "class_name": "Activation", "name": "activation_28", "inbound_nodes": [[["batch_normalization_28", 0, 0, {}]]]}, {"config": {"bias_initializer": {"config": {}, "class_name": "Zeros"}, "dilation_rate": [1, 1], "padding": "same", "activity_regularizer": null, "kernel_size": [3, 3], "strides": [1, 1], "data_format": "channels_last", "activation": "linear", "trainable": true, "name": "conv2d_29", "use_bias": false, "bias_constraint": null, "bias_regularizer": null, "filters": 96, "kernel_regularizer": null, "kernel_initializer": {"config": {"scale": 1.0, "distribution": "uniform", "seed": null, "mode": "fan_avg"}, "class_name": "VarianceScaling"}, "kernel_constraint": null}, "class_name": "Conv2D", "name": "conv2d_29", "inbound_nodes": [[["activation_28", 0, 0, {}]]]}, {"config": {"beta_constraint": null, "gamma_constraint": null, "moving_mean_initializer": {"config": {}, "class_name": "Zeros"}, "axis": 3, "beta_initializer": {"config": {}, "class_name": "Zeros"}, "momentum": 0.99, "gamma_initializer": {"config": {}, "class_name": "Ones"}, "epsilon": 0.001, "trainable": true, "name": "batch_normalization_29", "scale": false, "center": true, "beta_regularizer": null, "moving_variance_initializer": {"config": {}, "class_name": "Ones"}, "gamma_regularizer": null}, "class_name": "BatchNormalization", "name": "batch_normalization_29", "inbound_nodes": [[["conv2d_29", 0, 0, {}]]]}, {"config": {"activation": "relu", "trainable": true, "name": "activation_29"}, "class_name": "Activation", "name": "activation_29", "inbound_nodes": [[["batch_normalization_29", 0, 0, {}]]]}, {"config": {"bias_initializer": {"config": {}, "class_name": "Zeros"}, "dilation_rate": [1, 1], "padding": "valid", "activity_regularizer": null, "kernel_size": [3, 3], "strides": [2, 2], "data_format": "channels_last", "activation": "linear", "trainable": true, "name": "conv2d_27", "use_bias": false, "bias_constraint": null, "bias_regularizer": null, "filters": 384, "kernel_regularizer": null, "kernel_initializer": {"config": {"scale": 1.0, "distribution": "uniform", "seed": null, "mode": "fan_avg"}, "class_name": "VarianceScaling"}, "kernel_constraint": null}, "class_name": "Conv2D", "name": "conv2d_27", "inbound_nodes": [[["mixed2", 0, 0, {}]]]}, {"config": {"bias_initializer": {"config": {}, "class_name": "Zeros"}, "dilation_rate": [1, 1], "padding": "valid", "activity_regularizer": null, "kernel_size": [3, 3], "strides": [2, 2], "data_format": "channels_last", "activation": "linear", "trainable": true, "name": "conv2d_30", "use_bias": false, "bias_constraint": null, "bias_regularizer": null, "filters": 96, "kernel_regularizer": null, "kernel_initializer": {"config": {"scale": 1.0, "distribution": "uniform", "seed": null, "mode": "fan_avg"}, "class_name": "VarianceScaling"}, "kernel_constraint": null}, "class_name": "Conv2D", "name": "conv2d_30", "inbound_nodes": [[["activation_29", 0, 0, {}]]]}, {"config": {"beta_constraint": null, "gamma_constraint": null, "moving_mean_initializer": {"config": {}, "class_name": "Zeros"}, "axis": 3, "beta_initializer": {"config": {}, "class_name": "Zeros"}, "momentum": 0.99, "gamma_initializer": {"config": {}, "class_name": "Ones"}, "epsilon": 0.001, "trainable": true, "name": "batch_normalization_27", "scale": false, "center": true, "beta_regularizer": null, "moving_variance_initializer": {"config": {}, "class_name": "Ones"}, "gamma_regularizer": null}, "class_name": "BatchNormalization", "name": "batch_normalization_27", "inbound_nodes": [[["conv2d_27", 0, 0, {}]]]}, {"config": {"beta_constraint": null, "gamma_constraint": null, "moving_mean_initializer": {"config": {}, "class_name": "Zeros"}, "axis": 3, "beta_initializer": {"config": {}, "class_name": "Zeros"}, "momentum": 0.99, "gamma_initializer": {"config": {}, "class_name": "Ones"}, "epsilon": 0.001, "trainable": true, "name": "batch_normalization_30", "scale": false, "center": true, "beta_regularizer": null, "moving_variance_initializer": {"config": {}, "class_name": "Ones"}, "gamma_regularizer": null}, "class_name": "BatchNormalization", "name": "batch_normalization_30", "inbound_nodes": [[["conv2d_30", 0, 0, {}]]]}, {"config": {"activation": "relu", "trainable": true, "name": "activation_27"}, "class_name": "Activation", "name": "activation_27", "inbound_nodes": [[["batch_normalization_27", 0, 0, {}]]]}, {"config": {"activation": "relu", "trainable": true, "name": "activation_30"}, "class_name": "Activation", "name": "activation_30", "inbound_nodes": [[["batch_normalization_30", 0, 0, {}]]]}, {"config": {"data_format": "channels_last", "trainable": true, "name": "max_pooling2d_3", "padding": "valid", "pool_size": [3, 3], "strides": [2, 2]}, "class_name": "MaxPooling2D", "name": "max_pooling2d_3", "inbound_nodes": [[["mixed2", 0, 0, {}]]]}, {"config": {"trainable": true, "axis": 3, "name": "mixed3"}, "class_name": "Concatenate", "name": "mixed3", "inbound_nodes": [[["activation_27", 0, 0, {}], ["activation_30", 0, 0, {}], ["max_pooling2d_3", 0, 0, {}]]]}, {"config": {"bias_initializer": {"config": {}, "class_name": "Zeros"}, "dilation_rate": [1, 1], "padding": "same", "activity_regularizer": null, "kernel_size": [1, 1], "strides": [1, 1], "data_format": "channels_last", "activation": "linear", "trainable": true, "name": "conv2d_35", "use_bias": false, "bias_constraint": null, "bias_regularizer": null, "filters": 128, "kernel_regularizer": null, "kernel_initializer": {"config": {"scale": 1.0, "distribution": "uniform", "seed": null, "mode": "fan_avg"}, "class_name": "VarianceScaling"}, "kernel_constraint": null}, "class_name": "Conv2D", "name": "conv2d_35", "inbound_nodes": [[["mixed3", 0, 0, {}]]]}, {"config": {"beta_constraint": null, "gamma_constraint": null, "moving_mean_initializer": {"config": {}, "class_name": "Zeros"}, "axis": 3, "beta_initializer": {"config": {}, "class_name": "Zeros"}, "momentum": 0.99, "gamma_initializer": {"config": {}, "class_name": "Ones"}, "epsilon": 0.001, "trainable": true, "name": "batch_normalization_35", "scale": false, "center": true, "beta_regularizer": null, "moving_variance_initializer": {"config": {}, "class_name": "Ones"}, "gamma_regularizer": null}, "class_name": "BatchNormalization", "name": "batch_normalization_35", "inbound_nodes": [[["conv2d_35", 0, 0, {}]]]}, {"config": {"activation": "relu", "trainable": true, "name": "activation_35"}, "class_name": "Activation", "name": "activation_35", "inbound_nodes": [[["batch_normalization_35", 0, 0, {}]]]}, {"config": {"bias_initializer": {"config": {}, "class_name": "Zeros"}, "dilation_rate": [1, 1], "padding": "same", "activity_regularizer": null, "kernel_size": [7, 1], "strides": [1, 1], "data_format": "channels_last", "activation": "linear", "trainable": true, "name": "conv2d_36", "use_bias": false, "bias_constraint": null, "bias_regularizer": null, "filters": 128, "kernel_regularizer": null, "kernel_initializer": {"config": {"scale": 1.0, "distribution": "uniform", "seed": null, "mode": "fan_avg"}, "class_name": "VarianceScaling"}, "kernel_constraint": null}, "class_name": "Conv2D", "name": "conv2d_36", "inbound_nodes": [[["activation_35", 0, 0, {}]]]}, {"config": {"beta_constraint": null, "gamma_constraint": null, "moving_mean_initializer": {"config": {}, "class_name": "Zeros"}, "axis": 3, "beta_initializer": {"config": {}, "class_name": "Zeros"}, "momentum": 0.99, "gamma_initializer": {"config": {}, "class_name": "Ones"}, "epsilon": 0.001, "trainable": true, "name": "batch_normalization_36", "scale": false, "center": true, "beta_regularizer": null, "moving_variance_initializer": {"config": {}, "class_name": "Ones"}, "gamma_regularizer": null}, "class_name": "BatchNormalization", "name": "batch_normalization_36", "inbound_nodes": [[["conv2d_36", 0, 0, {}]]]}, {"config": {"activation": "relu", "trainable": true, "name": "activation_36"}, "class_name": "Activation", "name": "activation_36", "inbound_nodes": [[["batch_normalization_36", 0, 0, {}]]]}, {"config": {"bias_initializer": {"config": {}, "class_name": "Zeros"}, "dilation_rate": [1, 1], "padding": "same", "activity_regularizer": null, "kernel_size": [1, 1], "strides": [1, 1], "data_format": "channels_last", "activation": "linear", "trainable": true, "name": "conv2d_32", "use_bias": false, "bias_constraint": null, "bias_regularizer": null, "filters": 128, "kernel_regularizer": null, "kernel_initializer": {"config": {"scale": 1.0, "distribution": "uniform", "seed": null, "mode": "fan_avg"}, "class_name": "VarianceScaling"}, "kernel_constraint": null}, "class_name": "Conv2D", "name": "conv2d_32", "inbound_nodes": [[["mixed3", 0, 0, {}]]]}, {"config": {"bias_initializer": {"config": {}, "class_name": "Zeros"}, "dilation_rate": [1, 1], "padding": "same", "activity_regularizer": null, "kernel_size": [1, 7], "strides": [1, 1], "data_format": "channels_last", "activation": "linear", "trainable": true, "name": "conv2d_37", "use_bias": false, "bias_constraint": null, "bias_regularizer": null, "filters": 128, "kernel_regularizer": null, "kernel_initializer": {"config": {"scale": 1.0, "distribution": "uniform", "seed": null, "mode": "fan_avg"}, "class_name": "VarianceScaling"}, "kernel_constraint": null}, "class_name": "Conv2D", "name": "conv2d_37", "inbound_nodes": [[["activation_36", 0, 0, {}]]]}, {"config": {"beta_constraint": null, "gamma_constraint": null, "moving_mean_initializer": {"config": {}, "class_name": "Zeros"}, "axis": 3, "beta_initializer": {"config": {}, "class_name": "Zeros"}, "momentum": 0.99, "gamma_initializer": {"config": {}, "class_name": "Ones"}, "epsilon": 0.001, "trainable": true, "name": "batch_normalization_32", "scale": false, "center": true, "beta_regularizer": null, "moving_variance_initializer": {"config": {}, "class_name": "Ones"}, "gamma_regularizer": null}, "class_name": "BatchNormalization", "name": "batch_normalization_32", "inbound_nodes": [[["conv2d_32", 0, 0, {}]]]}, {"config": {"beta_constraint": null, "gamma_constraint": null, "moving_mean_initializer": {"config": {}, "class_name": "Zeros"}, "axis": 3, "beta_initializer": {"config": {}, "class_name": "Zeros"}, "momentum": 0.99, "gamma_initializer": {"config": {}, "class_name": "Ones"}, "epsilon": 0.001, "trainable": true, "name": "batch_normalization_37", "scale": false, "center": true, "beta_regularizer": null, "moving_variance_initializer": {"config": {}, "class_name": "Ones"}, "gamma_regularizer": null}, "class_name": "BatchNormalization", "name": "batch_normalization_37", "inbound_nodes": [[["conv2d_37", 0, 0, {}]]]}, {"config": {"activation": "relu", "trainable": true, "name": "activation_32"}, "class_name": "Activation", "name": "activation_32", "inbound_nodes": [[["batch_normalization_32", 0, 0, {}]]]}, {"config": {"activation": "relu", "trainable": true, "name": "activation_37"}, "class_name": "Activation", "name": "activation_37", "inbound_nodes": [[["batch_normalization_37", 0, 0, {}]]]}, {"config": {"bias_initializer": {"config": {}, "class_name": "Zeros"}, "dilation_rate": [1, 1], "padding": "same", "activity_regularizer": null, "kernel_size": [1, 7], "strides": [1, 1], "data_format": "channels_last", "activation": "linear", "trainable": true, "name": "conv2d_33", "use_bias": false, "bias_constraint": null, "bias_regularizer": null, "filters": 128, "kernel_regularizer": null, "kernel_initializer": {"config": {"scale": 1.0, "distribution": "uniform", "seed": null, "mode": "fan_avg"}, "class_name": "VarianceScaling"}, "kernel_constraint": null}, "class_name": "Conv2D", "name": "conv2d_33", "inbound_nodes": [[["activation_32", 0, 0, {}]]]}, {"config": {"bias_initializer": {"config": {}, "class_name": "Zeros"}, "dilation_rate": [1, 1], "padding": "same", "activity_regularizer": null, "kernel_size": [7, 1], "strides": [1, 1], "data_format": "channels_last", "activation": "linear", "trainable": true, "name": "conv2d_38", "use_bias": false, "bias_constraint": null, "bias_regularizer": null, "filters": 128, "kernel_regularizer": null, "kernel_initializer": {"config": {"scale": 1.0, "distribution": "uniform", "seed": null, "mode": "fan_avg"}, "class_name": "VarianceScaling"}, "kernel_constraint": null}, "class_name": "Conv2D", "name": "conv2d_38", "inbound_nodes": [[["activation_37", 0, 0, {}]]]}, {"config": {"beta_constraint": null, "gamma_constraint": null, "moving_mean_initializer": {"config": {}, "class_name": "Zeros"}, "axis": 3, "beta_initializer": {"config": {}, "class_name": "Zeros"}, "momentum": 0.99, "gamma_initializer": {"config": {}, "class_name": "Ones"}, "epsilon": 0.001, "trainable": true, "name": "batch_normalization_33", "scale": false, "center": true, "beta_regularizer": null, "moving_variance_initializer": {"config": {}, "class_name": "Ones"}, "gamma_regularizer": null}, "class_name": "BatchNormalization", "name": "batch_normalization_33", "inbound_nodes": [[["conv2d_33", 0, 0, {}]]]}, {"config": {"beta_constraint": null, "gamma_constraint": null, "moving_mean_initializer": {"config": {}, "class_name": "Zeros"}, "axis": 3, "beta_initializer": {"config": {}, "class_name": "Zeros"}, "momentum": 0.99, "gamma_initializer": {"config": {}, "class_name": "Ones"}, "epsilon": 0.001, "trainable": true, "name": "batch_normalization_38", "scale": false, "center": true, "beta_regularizer": null, "moving_variance_initializer": {"config": {}, "class_name": "Ones"}, "gamma_regularizer": null}, "class_name": "BatchNormalization", "name": "batch_normalization_38", "inbound_nodes": [[["conv2d_38", 0, 0, {}]]]}, {"config": {"activation": "relu", "trainable": true, "name": "activation_33"}, "class_name": "Activation", "name": "activation_33", "inbound_nodes": [[["batch_normalization_33", 0, 0, {}]]]}, {"config": {"activation": "relu", "trainable": true, "name": "activation_38"}, "class_name": "Activation", "name": "activation_38", "inbound_nodes": [[["batch_normalization_38", 0, 0, {}]]]}, {"config": {"data_format": "channels_last", "trainable": true, "name": "average_pooling2d_4", "padding": "same", "pool_size": [3, 3], "strides": [1, 1]}, "class_name": "AveragePooling2D", "name": "average_pooling2d_4", "inbound_nodes": [[["mixed3", 0, 0, {}]]]}, {"config": {"bias_initializer": {"config": {}, "class_name": "Zeros"}, "dilation_rate": [1, 1], "padding": "same", "activity_regularizer": null, "kernel_size": [1, 1], "strides": [1, 1], "data_format": "channels_last", "activation": "linear", "trainable": true, "name": "conv2d_31", "use_bias": false, "bias_constraint": null, "bias_regularizer": null, "filters": 192, "kernel_regularizer": null, "kernel_initializer": {"config": {"scale": 1.0, "distribution": "uniform", "seed": null, "mode": "fan_avg"}, "class_name": "VarianceScaling"}, "kernel_constraint": null}, "class_name": "Conv2D", "name": "conv2d_31", "inbound_nodes": [[["mixed3", 0, 0, {}]]]}, {"config": {"bias_initializer": {"config": {}, "class_name": "Zeros"}, "dilation_rate": [1, 1], "padding": "same", "activity_regularizer": null, "kernel_size": [7, 1], "strides": [1, 1], "data_format": "channels_last", "activation": "linear", "trainable": true, "name": "conv2d_34", "use_bias": false, "bias_constraint": null, "bias_regularizer": null, "filters": 192, "kernel_regularizer": null, "kernel_initializer": {"config": {"scale": 1.0, "distribution": "uniform", "seed": null, "mode": "fan_avg"}, "class_name": "VarianceScaling"}, "kernel_constraint": null}, "class_name": "Conv2D", "name": "conv2d_34", "inbound_nodes": [[["activation_33", 0, 0, {}]]]}, {"config": {"bias_initializer": {"config": {}, "class_name": "Zeros"}, "dilation_rate": [1, 1], "padding": "same", "activity_regularizer": null, "kernel_size": [1, 7], "strides": [1, 1], "data_format": "channels_last", "activation": "linear", "trainable": true, "name": "conv2d_39", "use_bias": false, "bias_constraint": null, "bias_regularizer": null, "filters": 192, "kernel_regularizer": null, "kernel_initializer": {"config": {"scale": 1.0, "distribution": "uniform", "seed": null, "mode": "fan_avg"}, "class_name": "VarianceScaling"}, "kernel_constraint": null}, "class_name": "Conv2D", "name": "conv2d_39", "inbound_nodes": [[["activation_38", 0, 0, {}]]]}, {"config": {"bias_initializer": {"config": {}, "class_name": "Zeros"}, "dilation_rate": [1, 1], "padding": "same", "activity_regularizer": null, "kernel_size": [1, 1], "strides": [1, 1], "data_format": "channels_last", "activation": "linear", "trainable": true, "name": "conv2d_40", "use_bias": false, "bias_constraint": null, "bias_regularizer": null, "filters": 192, "kernel_regularizer": null, "kernel_initializer": {"config": {"scale": 1.0, "distribution": "uniform", "seed": null, "mode": "fan_avg"}, "class_name": "VarianceScaling"}, "kernel_constraint": null}, "class_name": "Conv2D", "name": "conv2d_40", "inbound_nodes": [[["average_pooling2d_4", 0, 0, {}]]]}, {"config": {"beta_constraint": null, "gamma_constraint": null, "moving_mean_initializer": {"config": {}, "class_name": "Zeros"}, "axis": 3, "beta_initializer": {"config": {}, "class_name": "Zeros"}, "momentum": 0.99, "gamma_initializer": {"config": {}, "class_name": "Ones"}, "epsilon": 0.001, "trainable": true, "name": "batch_normalization_31", "scale": false, "center": true, "beta_regularizer": null, "moving_variance_initializer": {"config": {}, "class_name": "Ones"}, "gamma_regularizer": null}, "class_name": "BatchNormalization", "name": "batch_normalization_31", "inbound_nodes": [[["conv2d_31", 0, 0, {}]]]}, {"config": {"beta_constraint": null, "gamma_constraint": null, "moving_mean_initializer": {"config": {}, "class_name": "Zeros"}, "axis": 3, "beta_initializer": {"config": {}, "class_name": "Zeros"}, "momentum": 0.99, "gamma_initializer": {"config": {}, "class_name": "Ones"}, "epsilon": 0.001, "trainable": true, "name": "batch_normalization_34", "scale": false, "center": true, "beta_regularizer": null, "moving_variance_initializer": {"config": {}, "class_name": "Ones"}, "gamma_regularizer": null}, "class_name": "BatchNormalization", "name": "batch_normalization_34", "inbound_nodes": [[["conv2d_34", 0, 0, {}]]]}, {"config": {"beta_constraint": null, "gamma_constraint": null, "moving_mean_initializer": {"config": {}, "class_name": "Zeros"}, "axis": 3, "beta_initializer": {"config": {}, "class_name": "Zeros"}, "momentum": 0.99, "gamma_initializer": {"config": {}, "class_name": "Ones"}, "epsilon": 0.001, "trainable": true, "name": "batch_normalization_39", "scale": false, "center": true, "beta_regularizer": null, "moving_variance_initializer": {"config": {}, "class_name": "Ones"}, "gamma_regularizer": null}, "class_name": "BatchNormalization", "name": "batch_normalization_39", "inbound_nodes": [[["conv2d_39", 0, 0, {}]]]}, {"config": {"beta_constraint": null, "gamma_constraint": null, "moving_mean_initializer": {"config": {}, "class_name": "Zeros"}, "axis": 3, "beta_initializer": {"config": {}, "class_name": "Zeros"}, "momentum": 0.99, "gamma_initializer": {"config": {}, "class_name": "Ones"}, "epsilon": 0.001, "trainable": true, "name": "batch_normalization_40", "scale": false, "center": true, "beta_regularizer": null, "moving_variance_initializer": {"config": {}, "class_name": "Ones"}, "gamma_regularizer": null}, "class_name": "BatchNormalization", "name": "batch_normalization_40", "inbound_nodes": [[["conv2d_40", 0, 0, {}]]]}, {"config": {"activation": "relu", "trainable": true, "name": "activation_31"}, "class_name": "Activation", "name": "activation_31", "inbound_nodes": [[["batch_normalization_31", 0, 0, {}]]]}, {"config": {"activation": "relu", "trainable": true, "name": "activation_34"}, "class_name": "Activation", "name": "activation_34", "inbound_nodes": [[["batch_normalization_34", 0, 0, {}]]]}, {"config": {"activation": "relu", "trainable": true, "name": "activation_39"}, "class_name": "Activation", "name": "activation_39", "inbound_nodes": [[["batch_normalization_39", 0, 0, {}]]]}, {"config": {"activation": "relu", "trainable": true, "name": "activation_40"}, "class_name": "Activation", "name": "activation_40", "inbound_nodes": [[["batch_normalization_40", 0, 0, {}]]]}, {"config": {"trainable": true, "axis": 3, "name": "mixed4"}, "class_name": "Concatenate", "name": "mixed4", "inbound_nodes": [[["activation_31", 0, 0, {}], ["activation_34", 0, 0, {}], ["activation_39", 0, 0, {}], ["activation_40", 0, 0, {}]]]}, {"config": {"bias_initializer": {"config": {}, "class_name": "Zeros"}, "dilation_rate": [1, 1], "padding": "same", "activity_regularizer": null, "kernel_size": [1, 1], "strides": [1, 1], "data_format": "channels_last", "activation": "linear", "trainable": true, "name": "conv2d_45", "use_bias": false, "bias_constraint": null, "bias_regularizer": null, "filters": 160, "kernel_regularizer": null, "kernel_initializer": {"config": {"scale": 1.0, "distribution": "uniform", "seed": null, "mode": "fan_avg"}, "class_name": "VarianceScaling"}, "kernel_constraint": null}, "class_name": "Conv2D", "name": "conv2d_45", "inbound_nodes": [[["mixed4", 0, 0, {}]]]}, {"config": {"beta_constraint": null, "gamma_constraint": null, "moving_mean_initializer": {"config": {}, "class_name": "Zeros"}, "axis": 3, "beta_initializer": {"config": {}, "class_name": "Zeros"}, "momentum": 0.99, "gamma_initializer": {"config": {}, "class_name": "Ones"}, "epsilon": 0.001, "trainable": true, "name": "batch_normalization_45", "scale": false, "center": true, "beta_regularizer": null, "moving_variance_initializer": {"config": {}, "class_name": "Ones"}, "gamma_regularizer": null}, "class_name": "BatchNormalization", "name": "batch_normalization_45", "inbound_nodes": [[["conv2d_45", 0, 0, {}]]]}, {"config": {"activation": "relu", "trainable": true, "name": "activation_45"}, "class_name": "Activation", "name": "activation_45", "inbound_nodes": [[["batch_normalization_45", 0, 0, {}]]]}, {"config": {"bias_initializer": {"config": {}, "class_name": "Zeros"}, "dilation_rate": [1, 1], "padding": "same", "activity_regularizer": null, "kernel_size": [7, 1], "strides": [1, 1], "data_format": "channels_last", "activation": "linear", "trainable": true, "name": "conv2d_46", "use_bias": false, "bias_constraint": null, "bias_regularizer": null, "filters": 160, "kernel_regularizer": null, "kernel_initializer": {"config": {"scale": 1.0, "distribution": "uniform", "seed": null, "mode": "fan_avg"}, "class_name": "VarianceScaling"}, "kernel_constraint": null}, "class_name": "Conv2D", "name": "conv2d_46", "inbound_nodes": [[["activation_45", 0, 0, {}]]]}, {"config": {"beta_constraint": null, "gamma_constraint": null, "moving_mean_initializer": {"config": {}, "class_name": "Zeros"}, "axis": 3, "beta_initializer": {"config": {}, "class_name": "Zeros"}, "momentum": 0.99, "gamma_initializer": {"config": {}, "class_name": "Ones"}, "epsilon": 0.001, "trainable": true, "name": "batch_normalization_46", "scale": false, "center": true, "beta_regularizer": null, "moving_variance_initializer": {"config": {}, "class_name": "Ones"}, "gamma_regularizer": null}, "class_name": "BatchNormalization", "name": "batch_normalization_46", "inbound_nodes": [[["conv2d_46", 0, 0, {}]]]}, {"config": {"activation": "relu", "trainable": true, "name": "activation_46"}, "class_name": "Activation", "name": "activation_46", "inbound_nodes": [[["batch_normalization_46", 0, 0, {}]]]}, {"config": {"bias_initializer": {"config": {}, "class_name": "Zeros"}, "dilation_rate": [1, 1], "padding": "same", "activity_regularizer": null, "kernel_size": [1, 1], "strides": [1, 1], "data_format": "channels_last", "activation": "linear", "trainable": true, "name": "conv2d_42", "use_bias": false, "bias_constraint": null, "bias_regularizer": null, "filters": 160, "kernel_regularizer": null, "kernel_initializer": {"config": {"scale": 1.0, "distribution": "uniform", "seed": null, "mode": "fan_avg"}, "class_name": "VarianceScaling"}, "kernel_constraint": null}, "class_name": "Conv2D", "name": "conv2d_42", "inbound_nodes": [[["mixed4", 0, 0, {}]]]}, {"config": {"bias_initializer": {"config": {}, "class_name": "Zeros"}, "dilation_rate": [1, 1], "padding": "same", "activity_regularizer": null, "kernel_size": [1, 7], "strides": [1, 1], "data_format": "channels_last", "activation": "linear", "trainable": true, "name": "conv2d_47", "use_bias": false, "bias_constraint": null, "bias_regularizer": null, "filters": 160, "kernel_regularizer": null, "kernel_initializer": {"config": {"scale": 1.0, "distribution": "uniform", "seed": null, "mode": "fan_avg"}, "class_name": "VarianceScaling"}, "kernel_constraint": null}, "class_name": "Conv2D", "name": "conv2d_47", "inbound_nodes": [[["activation_46", 0, 0, {}]]]}, {"config": {"beta_constraint": null, "gamma_constraint": null, "moving_mean_initializer": {"config": {}, "class_name": "Zeros"}, "axis": 3, "beta_initializer": {"config": {}, "class_name": "Zeros"}, "momentum": 0.99, "gamma_initializer": {"config": {}, "class_name": "Ones"}, "epsilon": 0.001, "trainable": true, "name": "batch_normalization_42", "scale": false, "center": true, "beta_regularizer": null, "moving_variance_initializer": {"config": {}, "class_name": "Ones"}, "gamma_regularizer": null}, "class_name": "BatchNormalization", "name": "batch_normalization_42", "inbound_nodes": [[["conv2d_42", 0, 0, {}]]]}, {"config": {"beta_constraint": null, "gamma_constraint": null, "moving_mean_initializer": {"config": {}, "class_name": "Zeros"}, "axis": 3, "beta_initializer": {"config": {}, "class_name": "Zeros"}, "momentum": 0.99, "gamma_initializer": {"config": {}, "class_name": "Ones"}, "epsilon": 0.001, "trainable": true, "name": "batch_normalization_47", "scale": false, "center": true, "beta_regularizer": null, "moving_variance_initializer": {"config": {}, "class_name": "Ones"}, "gamma_regularizer": null}, "class_name": "BatchNormalization", "name": "batch_normalization_47", "inbound_nodes": [[["conv2d_47", 0, 0, {}]]]}, {"config": {"activation": "relu", "trainable": true, "name": "activation_42"}, "class_name": "Activation", "name": "activation_42", "inbound_nodes": [[["batch_normalization_42", 0, 0, {}]]]}, {"config": {"activation": "relu", "trainable": true, "name": "activation_47"}, "class_name": "Activation", "name": "activation_47", "inbound_nodes": [[["batch_normalization_47", 0, 0, {}]]]}, {"config": {"bias_initializer": {"config": {}, "class_name": "Zeros"}, "dilation_rate": [1, 1], "padding": "same", "activity_regularizer": null, "kernel_size": [1, 7], "strides": [1, 1], "data_format": "channels_last", "activation": "linear", "trainable": true, "name": "conv2d_43", "use_bias": false, "bias_constraint": null, "bias_regularizer": null, "filters": 160, "kernel_regularizer": null, "kernel_initializer": {"config": {"scale": 1.0, "distribution": "uniform", "seed": null, "mode": "fan_avg"}, "class_name": "VarianceScaling"}, "kernel_constraint": null}, "class_name": "Conv2D", "name": "conv2d_43", "inbound_nodes": [[["activation_42", 0, 0, {}]]]}, {"config": {"bias_initializer": {"config": {}, "class_name": "Zeros"}, "dilation_rate": [1, 1], "padding": "same", "activity_regularizer": null, "kernel_size": [7, 1], "strides": [1, 1], "data_format": "channels_last", "activation": "linear", "trainable": true, "name": "conv2d_48", "use_bias": false, "bias_constraint": null, "bias_regularizer": null, "filters": 160, "kernel_regularizer": null, "kernel_initializer": {"config": {"scale": 1.0, "distribution": "uniform", "seed": null, "mode": "fan_avg"}, "class_name": "VarianceScaling"}, "kernel_constraint": null}, "class_name": "Conv2D", "name": "conv2d_48", "inbound_nodes": [[["activation_47", 0, 0, {}]]]}, {"config": {"beta_constraint": null, "gamma_constraint": null, "moving_mean_initializer": {"config": {}, "class_name": "Zeros"}, "axis": 3, "beta_initializer": {"config": {}, "class_name": "Zeros"}, "momentum": 0.99, "gamma_initializer": {"config": {}, "class_name": "Ones"}, "epsilon": 0.001, "trainable": true, "name": "batch_normalization_43", "scale": false, "center": true, "beta_regularizer": null, "moving_variance_initializer": {"config": {}, "class_name": "Ones"}, "gamma_regularizer": null}, "class_name": "BatchNormalization", "name": "batch_normalization_43", "inbound_nodes": [[["conv2d_43", 0, 0, {}]]]}, {"config": {"beta_constraint": null, "gamma_constraint": null, "moving_mean_initializer": {"config": {}, "class_name": "Zeros"}, "axis": 3, "beta_initializer": {"config": {}, "class_name": "Zeros"}, "momentum": 0.99, "gamma_initializer": {"config": {}, "class_name": "Ones"}, "epsilon": 0.001, "trainable": true, "name": "batch_normalization_48", "scale": false, "center": true, "beta_regularizer": null, "moving_variance_initializer": {"config": {}, "class_name": "Ones"}, "gamma_regularizer": null}, "class_name": "BatchNormalization", "name": "batch_normalization_48", "inbound_nodes": [[["conv2d_48", 0, 0, {}]]]}, {"config": {"activation": "relu", "trainable": true, "name": "activation_43"}, "class_name": "Activation", "name": "activation_43", "inbound_nodes": [[["batch_normalization_43", 0, 0, {}]]]}, {"config": {"activation": "relu", "trainable": true, "name": "activation_48"}, "class_name": "Activation", "name": "activation_48", "inbound_nodes": [[["batch_normalization_48", 0, 0, {}]]]}, {"config": {"data_format": "channels_last", "trainable": true, "name": "average_pooling2d_5", "padding": "same", "pool_size": [3, 3], "strides": [1, 1]}, "class_name": "AveragePooling2D", "name": "average_pooling2d_5", "inbound_nodes": [[["mixed4", 0, 0, {}]]]}, {"config": {"bias_initializer": {"config": {}, "class_name": "Zeros"}, "dilation_rate": [1, 1], "padding": "same", "activity_regularizer": null, "kernel_size": [1, 1], "strides": [1, 1], "data_format": "channels_last", "activation": "linear", "trainable": true, "name": "conv2d_41", "use_bias": false, "bias_constraint": null, "bias_regularizer": null, "filters": 192, "kernel_regularizer": null, "kernel_initializer": {"config": {"scale": 1.0, "distribution": "uniform", "seed": null, "mode": "fan_avg"}, "class_name": "VarianceScaling"}, "kernel_constraint": null}, "class_name": "Conv2D", "name": "conv2d_41", "inbound_nodes": [[["mixed4", 0, 0, {}]]]}, {"config": {"bias_initializer": {"config": {}, "class_name": "Zeros"}, "dilation_rate": [1, 1], "padding": "same", "activity_regularizer": null, "kernel_size": [7, 1], "strides": [1, 1], "data_format": "channels_last", "activation": "linear", "trainable": true, "name": "conv2d_44", "use_bias": false, "bias_constraint": null, "bias_regularizer": null, "filters": 192, "kernel_regularizer": null, "kernel_initializer": {"config": {"scale": 1.0, "distribution": "uniform", "seed": null, "mode": "fan_avg"}, "class_name": "VarianceScaling"}, "kernel_constraint": null}, "class_name": "Conv2D", "name": "conv2d_44", "inbound_nodes": [[["activation_43", 0, 0, {}]]]}, {"config": {"bias_initializer": {"config": {}, "class_name": "Zeros"}, "dilation_rate": [1, 1], "padding": "same", "activity_regularizer": null, "kernel_size": [1, 7], "strides": [1, 1], "data_format": "channels_last", "activation": "linear", "trainable": true, "name": "conv2d_49", "use_bias": false, "bias_constraint": null, "bias_regularizer": null, "filters": 192, "kernel_regularizer": null, "kernel_initializer": {"config": {"scale": 1.0, "distribution": "uniform", "seed": null, "mode": "fan_avg"}, "class_name": "VarianceScaling"}, "kernel_constraint": null}, "class_name": "Conv2D", "name": "conv2d_49", "inbound_nodes": [[["activation_48", 0, 0, {}]]]}, {"config": {"bias_initializer": {"config": {}, "class_name": "Zeros"}, "dilation_rate": [1, 1], "padding": "same", "activity_regularizer": null, "kernel_size": [1, 1], "strides": [1, 1], "data_format": "channels_last", "activation": "linear", "trainable": true, "name": "conv2d_50", "use_bias": false, "bias_constraint": null, "bias_regularizer": null, "filters": 192, "kernel_regularizer": null, "kernel_initializer": {"config": {"scale": 1.0, "distribution": "uniform", "seed": null, "mode": "fan_avg"}, "class_name": "VarianceScaling"}, "kernel_constraint": null}, "class_name": "Conv2D", "name": "conv2d_50", "inbound_nodes": [[["average_pooling2d_5", 0, 0, {}]]]}, {"config": {"beta_constraint": null, "gamma_constraint": null, "moving_mean_initializer": {"config": {}, "class_name": "Zeros"}, "axis": 3, "beta_initializer": {"config": {}, "class_name": "Zeros"}, "momentum": 0.99, "gamma_initializer": {"config": {}, "class_name": "Ones"}, "epsilon": 0.001, "trainable": true, "name": "batch_normalization_41", "scale": false, "center": true, "beta_regularizer": null, "moving_variance_initializer": {"config": {}, "class_name": "Ones"}, "gamma_regularizer": null}, "class_name": "BatchNormalization", "name": "batch_normalization_41", "inbound_nodes": [[["conv2d_41", 0, 0, {}]]]}, {"config": {"beta_constraint": null, "gamma_constraint": null, "moving_mean_initializer": {"config": {}, "class_name": "Zeros"}, "axis": 3, "beta_initializer": {"config": {}, "class_name": "Zeros"}, "momentum": 0.99, "gamma_initializer": {"config": {}, "class_name": "Ones"}, "epsilon": 0.001, "trainable": true, "name": "batch_normalization_44", "scale": false, "center": true, "beta_regularizer": null, "moving_variance_initializer": {"config": {}, "class_name": "Ones"}, "gamma_regularizer": null}, "class_name": "BatchNormalization", "name": "batch_normalization_44", "inbound_nodes": [[["conv2d_44", 0, 0, {}]]]}, {"config": {"beta_constraint": null, "gamma_constraint": null, "moving_mean_initializer": {"config": {}, "class_name": "Zeros"}, "axis": 3, "beta_initializer": {"config": {}, "class_name": "Zeros"}, "momentum": 0.99, "gamma_initializer": {"config": {}, "class_name": "Ones"}, "epsilon": 0.001, "trainable": true, "name": "batch_normalization_49", "scale": false, "center": true, "beta_regularizer": null, "moving_variance_initializer": {"config": {}, "class_name": "Ones"}, "gamma_regularizer": null}, "class_name": "BatchNormalization", "name": "batch_normalization_49", "inbound_nodes": [[["conv2d_49", 0, 0, {}]]]}, {"config": {"beta_constraint": null, "gamma_constraint": null, "moving_mean_initializer": {"config": {}, "class_name": "Zeros"}, "axis": 3, "beta_initializer": {"config": {}, "class_name": "Zeros"}, "momentum": 0.99, "gamma_initializer": {"config": {}, "class_name": "Ones"}, "epsilon": 0.001, "trainable": true, "name": "batch_normalization_50", "scale": false, "center": true, "beta_regularizer": null, "moving_variance_initializer": {"config": {}, "class_name": "Ones"}, "gamma_regularizer": null}, "class_name": "BatchNormalization", "name": "batch_normalization_50", "inbound_nodes": [[["conv2d_50", 0, 0, {}]]]}, {"config": {"activation": "relu", "trainable": true, "name": "activation_41"}, "class_name": "Activation", "name": "activation_41", "inbound_nodes": [[["batch_normalization_41", 0, 0, {}]]]}, {"config": {"activation": "relu", "trainable": true, "name": "activation_44"}, "class_name": "Activation", "name": "activation_44", "inbound_nodes": [[["batch_normalization_44", 0, 0, {}]]]}, {"config": {"activation": "relu", "trainable": true, "name": "activation_49"}, "class_name": "Activation", "name": "activation_49", "inbound_nodes": [[["batch_normalization_49", 0, 0, {}]]]}, {"config": {"activation": "relu", "trainable": true, "name": "activation_50"}, "class_name": "Activation", "name": "activation_50", "inbound_nodes": [[["batch_normalization_50", 0, 0, {}]]]}, {"config": {"trainable": true, "axis": 3, "name": "mixed5"}, "class_name": "Concatenate", "name": "mixed5", "inbound_nodes": [[["activation_41", 0, 0, {}], ["activation_44", 0, 0, {}], ["activation_49", 0, 0, {}], ["activation_50", 0, 0, {}]]]}, {"config": {"data_format": "channels_last", "trainable": true, "name": "global_average_pooling2d_1"}, "class_name": "GlobalAveragePooling2D", "name": "global_average_pooling2d_1", "inbound_nodes": [[["mixed5", 0, 0, {}]]]}, {"config": {"bias_initializer": {"config": {}, "class_name": "Zeros"}, "activity_regularizer": null, "units": 1024, "activation": "relu", "trainable": true, "name": "dense_1", "use_bias": true, "bias_regularizer": null, "bias_constraint": null, "kernel_regularizer": null, "kernel_initializer": {"config": {"scale": 1.0, "distribution": "uniform", "seed": null, "mode": "fan_avg"}, "class_name": "VarianceScaling"}, "kernel_constraint": null}, "class_name": "Dense", "name": "dense_1", "inbound_nodes": [[["global_average_pooling2d_1", 0, 0, {}]]]}, {"config": {"bias_initializer": {"config": {}, "class_name": "Zeros"}, "activity_regularizer": null, "units": 128, "activation": "linear", "trainable": true, "name": "dense_2", "use_bias": true, "bias_regularizer": null, "bias_constraint": null, "kernel_regularizer": null, "kernel_initializer": {"config": {"scale": 1.0, "distribution": "uniform", "seed": null, "mode": "fan_avg"}, "class_name": "VarianceScaling"}, "kernel_constraint": null}, "class_name": "Dense", "name": "dense_2", "inbound_nodes": [[["dense_1", 0, 0, {}]]]}], "output_layers": [["dense_2", 0, 0]], "name": "model_1"}, "class_name": "Model", "backend": "tensorflow", "keras_version": "2.1.2"}