{"backend": "tensorflow", "class_name": "Model", "config": {"layers": [{"inbound_nodes": [], "class_name": "InputLayer", "config": {"sparse": false, "dtype": "float32", "batch_input_shape": [null, null, null, 3], "name": "input_1"}, "name": "input_1"}, {"inbound_nodes": [[["input_1", 0, 0, {}]]], "class_name": "Conv2D", "config": {"use_bias": false, "padding": "valid", "kernel_constraint": null, "strides": [2, 2], "kernel_initializer": {"class_name": "VarianceScaling", "config": {"mode": "fan_avg", "seed": null, "distribution": "uniform", "scale": 1.0}}, "data_format": "channels_last", "name": "conv2d_1", "bias_initializer": {"class_name": "Zeros", "config": {}}, "filters": 32, "trainable": true, "dilation_rate": [1, 1], "activation": "linear", "activity_regularizer": null, "bias_regularizer": null, "kernel_regularizer": null, "kernel_size": [3, 3], "bias_constraint": null}, "name": "conv2d_1"}, {"inbound_nodes": [[["conv2d_1", 0, 0, {}]]], "class_name": "BatchNormalization", "config": {"moving_variance_initializer": {"class_name": "Ones", "config": {}}, "moving_mean_initializer": {"class_name": "Zeros", "config": {}}, "beta_regularizer": null, "gamma_initializer": {"class_name": "Ones", "config": {}}, "beta_initializer": {"class_name": "Zeros", "config": {}}, "center": true, "scale": false, "epsilon": 0.001, "beta_constraint": null, "trainable": true, "axis": 3, "name": "batch_normalization_1", "gamma_regularizer": null, "momentum": 0.99, "gamma_constraint": null}, "name": "batch_normalization_1"}, {"inbound_nodes": [[["batch_normalization_1", 0, 0, {}]]], "class_name": "Activation", "config": {"name": "activation_1", "trainable": true, "activation": "relu"}, "name": "activation_1"}, {"inbound_nodes": [[["activation_1", 0, 0, {}]]], "class_name": "Conv2D", "config": {"use_bias": false, "padding": "valid", "kernel_constraint": null, "strides": [1, 1], "kernel_initializer": {"class_name": "VarianceScaling", "config": {"mode": "fan_avg", "seed": null, "distribution": "uniform", "scale": 1.0}}, "data_format": "channels_last", "name": "conv2d_2", "bias_initializer": {"class_name": "Zeros", "config": {}}, "filters": 32, "trainable": true, "dilation_rate": [1, 1], "activation": "linear", "activity_regularizer": null, "bias_regularizer": null, "kernel_regularizer": null, "kernel_size": [3, 3], "bias_constraint": null}, "name": "conv2d_2"}, {"inbound_nodes": [[["conv2d_2", 0, 0, {}]]], "class_name": "BatchNormalization", "config": {"moving_variance_initializer": {"class_name": "Ones", "config": {}}, "moving_mean_initializer": {"class_name": "Zeros", "config": {}}, "beta_regularizer": null, "gamma_initializer": {"class_name": "Ones", "config": {}}, "beta_initializer": {"class_name": "Zeros", "config": {}}, "center": true, "scale": false, "epsilon": 0.001, "beta_constraint": null, "trainable": true, "axis": 3, "name": "batch_normalization_2", "gamma_regularizer": null, "momentum": 0.99, "gamma_constraint": null}, "name": "batch_normalization_2"}, {"inbound_nodes": [[["batch_normalization_2", 0, 0, {}]]], "class_name": "Activation", "config": {"name": "activation_2", "trainable": true, "activation": "relu"}, "name": "activation_2"}, {"inbound_nodes": [[["activation_2", 0, 0, {}]]], "class_name": "Conv2D", "config": {"use_bias": false, "padding": "same", "kernel_constraint": null, "strides": [1, 1], "kernel_initializer": {"class_name": "VarianceScaling", "config": {"mode": "fan_avg", "seed": null, "distribution": "uniform", "scale": 1.0}}, "data_format": "channels_last", "name": "conv2d_3", "bias_initializer": {"class_name": "Zeros", "config": {}}, "filters": 64, "trainable": true, "dilation_rate": [1, 1], "activation": "linear", "activity_regularizer": null, "bias_regularizer": null, "kernel_regularizer": null, "kernel_size": [3, 3], "bias_constraint": null}, "name": "conv2d_3"}, {"inbound_nodes": [[["conv2d_3", 0, 0, {}]]], "class_name": "BatchNormalization", "config": {"moving_variance_initializer": {"class_name": "Ones", "config": {}}, "moving_mean_initializer": {"class_name": "Zeros", "config": {}}, "beta_regularizer": null, "gamma_initializer": {"class_name": "Ones", "config": {}}, "beta_initializer": {"class_name": "Zeros", "config": {}}, "center": true, "scale": false, "epsilon": 0.001, "beta_constraint": null, "trainable": true, "axis": 3, "name": "batch_normalization_3", "gamma_regularizer": null, "momentum": 0.99, "gamma_constraint": null}, "name": "batch_normalization_3"}, {"inbound_nodes": [[["batch_normalization_3", 0, 0, {}]]], "class_name": "Activation", "config": {"name": "activation_3", "trainable": true, "activation": "relu"}, "name": "activation_3"}, {"inbound_nodes": [[["activation_3", 0, 0, {}]]], "class_name": "MaxPooling2D", "config": {"padding": "valid", "trainable": true, "pool_size": [3, 3], "name": "max_pooling2d_1", "strides": [2, 2], "data_format": "channels_last"}, "name": "max_pooling2d_1"}, {"inbound_nodes": [[["max_pooling2d_1", 0, 0, {}]]], "class_name": "Conv2D", "config": {"use_bias": false, "padding": "valid", "kernel_constraint": null, "strides": [1, 1], "kernel_initializer": {"class_name": "VarianceScaling", "config": {"mode": "fan_avg", "seed": null, "distribution": "uniform", "scale": 1.0}}, "data_format": "channels_last", "name": "conv2d_4", "bias_initializer": {"class_name": "Zeros", "config": {}}, "filters": 80, "trainable": true, "dilation_rate": [1, 1], "activation": "linear", "activity_regularizer": null, "bias_regularizer": null, "kernel_regularizer": null, "kernel_size": [1, 1], "bias_constraint": null}, "name": "conv2d_4"}, {"inbound_nodes": [[["conv2d_4", 0, 0, {}]]], "class_name": "BatchNormalization", "config": {"moving_variance_initializer": {"class_name": "Ones", "config": {}}, "moving_mean_initializer": {"class_name": "Zeros", "config": {}}, "beta_regularizer": null, "gamma_initializer": {"class_name": "Ones", "config": {}}, "beta_initializer": {"class_name": "Zeros", "config": {}}, "center": true, "scale": false, "epsilon": 0.001, "beta_constraint": null, "trainable": true, "axis": 3, "name": "batch_normalization_4", "gamma_regularizer": null, "momentum": 0.99, "gamma_constraint": null}, "name": "batch_normalization_4"}, {"inbound_nodes": [[["batch_normalization_4", 0, 0, {}]]], "class_name": "Activation", "config": {"name": "activation_4", "trainable": true, "activation": "relu"}, "name": "activation_4"}, {"inbound_nodes": [[["activation_4", 0, 0, {}]]], "class_name": "Conv2D", "config": {"use_bias": false, "padding": "valid", "kernel_constraint": null, "strides": [1, 1], "kernel_initializer": {"class_name": "VarianceScaling", "config": {"mode": "fan_avg", "seed": null, "distribution": "uniform", "scale": 1.0}}, "data_format": "channels_last", "name": "conv2d_5", "bias_initializer": {"class_name": "Zeros", "config": {}}, "filters": 192, "trainable": true, "dilation_rate": [1, 1], "activation": "linear", "activity_regularizer": null, "bias_regularizer": null, "kernel_regularizer": null, "kernel_size": [3, 3], "bias_constraint": null}, "name": "conv2d_5"}, {"inbound_nodes": [[["conv2d_5", 0, 0, {}]]], "class_name": "BatchNormalization", "config": {"moving_variance_initializer": {"class_name": "Ones", "config": {}}, "moving_mean_initializer": {"class_name": "Zeros", "config": {}}, "beta_regularizer": null, "gamma_initializer": {"class_name": "Ones", "config": {}}, "beta_initializer": {"class_name": "Zeros", "config": {}}, "center": true, "scale": false, "epsilon": 0.001, "beta_constraint": null, "trainable": true, "axis": 3, "name": "batch_normalization_5", "gamma_regularizer": null, "momentum": 0.99, "gamma_constraint": null}, "name": "batch_normalization_5"}, {"inbound_nodes": [[["batch_normalization_5", 0, 0, {}]]], "class_name": "Activation", "config": {"name": "activation_5", "trainable": true, "activation": "relu"}, "name": "activation_5"}, {"inbound_nodes": [[["activation_5", 0, 0, {}]]], "class_name": "MaxPooling2D", "config": {"padding": "valid", "trainable": true, "pool_size": [3, 3], "name": "max_pooling2d_2", "strides": [2, 2], "data_format": "channels_last"}, "name": "max_pooling2d_2"}, {"inbound_nodes": [[["max_pooling2d_2", 0, 0, {}]]], "class_name": "Conv2D", "config": {"use_bias": false, "padding": "same", "kernel_constraint": null, "strides": [1, 1], "kernel_initializer": {"class_name": "VarianceScaling", "config": {"mode": "fan_avg", "seed": null, "distribution": "uniform", "scale": 1.0}}, "data_format": "channels_last", "name": "conv2d_9", "bias_initializer": {"class_name": "Zeros", "config": {}}, "filters": 64, "trainable": true, "dilation_rate": [1, 1], "activation": "linear", "activity_regularizer": null, "bias_regularizer": null, "kernel_regularizer": null, "kernel_size": [1, 1], "bias_constraint": null}, "name": "conv2d_9"}, {"inbound_nodes": [[["conv2d_9", 0, 0, {}]]], "class_name": "BatchNormalization", "config": {"moving_variance_initializer": {"class_name": "Ones", "config": {}}, "moving_mean_initializer": {"class_name": "Zeros", "config": {}}, "beta_regularizer": null, "gamma_initializer": {"class_name": "Ones", "config": {}}, "beta_initializer": {"class_name": "Zeros", "config": {}}, "center": true, "scale": false, "epsilon": 0.001, "beta_constraint": null, "trainable": true, "axis": 3, "name": "batch_normalization_9", "gamma_regularizer": null, "momentum": 0.99, "gamma_constraint": null}, "name": "batch_normalization_9"}, {"inbound_nodes": [[["batch_normalization_9", 0, 0, {}]]], "class_name": "Activation", "config": {"name": "activation_9", "trainable": true, "activation": "relu"}, "name": "activation_9"}, {"inbound_nodes": [[["max_pooling2d_2", 0, 0, {}]]], "class_name": "Conv2D", "config": {"use_bias": false, "padding": "same", "kernel_constraint": null, "strides": [1, 1], "kernel_initializer": {"class_name": "VarianceScaling", "config": {"mode": "fan_avg", "seed": null, "distribution": "uniform", "scale": 1.0}}, "data_format": "channels_last", "name": "conv2d_7", "bias_initializer": {"class_name": "Zeros", "config": {}}, "filters": 48, "trainable": true, "dilation_rate": [1, 1], "activation": "linear", "activity_regularizer": null, "bias_regularizer": null, "kernel_regularizer": null, "kernel_size": [1, 1], "bias_constraint": null}, "name": "conv2d_7"}, {"inbound_nodes": [[["activation_9", 0, 0, {}]]], "class_name": "Conv2D", "config": {"use_bias": false, "padding": "same", "kernel_constraint": null, "strides": [1, 1], "kernel_initializer": {"class_name": "VarianceScaling", "config": {"mode": "fan_avg", "seed": null, "distribution": "uniform", "scale": 1.0}}, "data_format": "channels_last", "name": "conv2d_10", "bias_initializer": {"class_name": "Zeros", "config": {}}, "filters": 96, "trainable": true, "dilation_rate": [1, 1], "activation": "linear", "activity_regularizer": null, "bias_regularizer": null, "kernel_regularizer": null, "kernel_size": [3, 3], "bias_constraint": null}, "name": "conv2d_10"}, {"inbound_nodes": [[["conv2d_7", 0, 0, {}]]], "class_name": "BatchNormalization", "config": {"moving_variance_initializer": {"class_name": "Ones", "config": {}}, "moving_mean_initializer": {"class_name": "Zeros", "config": {}}, "beta_regularizer": null, "gamma_initializer": {"class_name": "Ones", "config": {}}, "beta_initializer": {"class_name": "Zeros", "config": {}}, "center": true, "scale": false, "epsilon": 0.001, "beta_constraint": null, "trainable": true, "axis": 3, "name": "batch_normalization_7", "gamma_regularizer": null, "momentum": 0.99, "gamma_constraint": null}, "name": "batch_normalization_7"}, {"inbound_nodes": [[["conv2d_10", 0, 0, {}]]], "class_name": "BatchNormalization", "config": {"moving_variance_initializer": {"class_name": "Ones", "config": {}}, "moving_mean_initializer": {"class_name": "Zeros", "config": {}}, "beta_regularizer": null, "gamma_initializer": {"class_name": "Ones", "config": {}}, "beta_initializer": {"class_name": "Zeros", "config": {}}, "center": true, "scale": false, "epsilon": 0.001, "beta_constraint": null, "trainable": true, "axis": 3, "name": "batch_normalization_10", "gamma_regularizer": null, "momentum": 0.99, "gamma_constraint": null}, "name": "batch_normalization_10"}, {"inbound_nodes": [[["batch_normalization_7", 0, 0, {}]]], "class_name": "Activation", "config": {"name": "activation_7", "trainable": true, "activation": "relu"}, "name": "activation_7"}, {"inbound_nodes": [[["batch_normalization_10", 0, 0, {}]]], "class_name": "Activation", "config": {"name": "activation_10", "trainable": true, "activation": "relu"}, "name": "activation_10"}, {"inbound_nodes": [[["max_pooling2d_2", 0, 0, {}]]], "class_name": "AveragePooling2D", "config": {"padding": "same", "trainable": true, "pool_size": [3, 3], "name": "average_pooling2d_1", "strides": [1, 1], "data_format": "channels_last"}, "name": "average_pooling2d_1"}, {"inbound_nodes": [[["max_pooling2d_2", 0, 0, {}]]], "class_name": "Conv2D", "config": {"use_bias": false, "padding": "same", "kernel_constraint": null, "strides": [1, 1], "kernel_initializer": {"class_name": "VarianceScaling", "config": {"mode": "fan_avg", "seed": null, "distribution": "uniform", "scale": 1.0}}, "data_format": "channels_last", "name": "conv2d_6", "bias_initializer": {"class_name": "Zeros", "config": {}}, "filters": 64, "trainable": true, "dilation_rate": [1, 1], "activation": "linear", "activity_regularizer": null, "bias_regularizer": null, "kernel_regularizer": null, "kernel_size": [1, 1], "bias_constraint": null}, "name": "conv2d_6"}, {"inbound_nodes": [[["activation_7", 0, 0, {}]]], "class_name": "Conv2D", "config": {"use_bias": false, "padding": "same", "kernel_constraint": null, "strides": [1, 1], "kernel_initializer": {"class_name": "VarianceScaling", "config": {"mode": "fan_avg", "seed": null, "distribution": "uniform", "scale": 1.0}}, "data_format": "channels_last", "name": "conv2d_8", "bias_initializer": {"class_name": "Zeros", "config": {}}, "filters": 64, "trainable": true, "dilation_rate": [1, 1], "activation": "linear", "activity_regularizer": null, "bias_regularizer": null, "kernel_regularizer": null, "kernel_size": [5, 5], "bias_constraint": null}, "name": "conv2d_8"}, {"inbound_nodes": [[["activation_10", 0, 0, {}]]], "class_name": "Conv2D", "config": {"use_bias": false, "padding": "same", "kernel_constraint": null, "strides": [1, 1], "kernel_initializer": {"class_name": "VarianceScaling", "config": {"mode": "fan_avg", "seed": null, "distribution": "uniform", "scale": 1.0}}, "data_format": "channels_last", "name": "conv2d_11", "bias_initializer": {"class_name": "Zeros", "config": {}}, "filters": 96, "trainable": true, "dilation_rate": [1, 1], "activation": "linear", "activity_regularizer": null, "bias_regularizer": null, "kernel_regularizer": null, "kernel_size": [3, 3], "bias_constraint": null}, "name": "conv2d_11"}, {"inbound_nodes": [[["average_pooling2d_1", 0, 0, {}]]], "class_name": "Conv2D", "config": {"use_bias": false, "padding": "same", "kernel_constraint": null, "strides": [1, 1], "kernel_initializer": {"class_name": "VarianceScaling", "config": {"mode": "fan_avg", "seed": null, "distribution": "uniform", "scale": 1.0}}, "data_format": "channels_last", "name": "conv2d_12", "bias_initializer": {"class_name": "Zeros", "config": {}}, "filters": 32, "trainable": true, "dilation_rate": [1, 1], "activation": "linear", "activity_regularizer": null, "bias_regularizer": null, "kernel_regularizer": null, "kernel_size": [1, 1], "bias_constraint": null}, "name": "conv2d_12"}, {"inbound_nodes": [[["conv2d_6", 0, 0, {}]]], "class_name": "BatchNormalization", "config": {"moving_variance_initializer": {"class_name": "Ones", "config": {}}, "moving_mean_initializer": {"class_name": "Zeros", "config": {}}, "beta_regularizer": null, "gamma_initializer": {"class_name": "Ones", "config": {}}, "beta_initializer": {"class_name": "Zeros", "config": {}}, "center": true, "scale": false, "epsilon": 0.001, "beta_constraint": null, "trainable": true, "axis": 3, "name": "batch_normalization_6", "gamma_regularizer": null, "momentum": 0.99, "gamma_constraint": null}, "name": "batch_normalization_6"}, {"inbound_nodes": [[["conv2d_8", 0, 0, {}]]], "class_name": "BatchNormalization", "config": {"moving_variance_initializer": {"class_name": "Ones", "config": {}}, "moving_mean_initializer": {"class_name": "Zeros", "config": {}}, "beta_regularizer": null, "gamma_initializer": {"class_name": "Ones", "config": {}}, "beta_initializer": {"class_name": "Zeros", "config": {}}, "center": true, "scale": false, "epsilon": 0.001, "beta_constraint": null, "trainable": true, "axis": 3, "name": "batch_normalization_8", "gamma_regularizer": null, "momentum": 0.99, "gamma_constraint": null}, "name": "batch_normalization_8"}, {"inbound_nodes": [[["conv2d_11", 0, 0, {}]]], "class_name": "BatchNormalization", "config": {"moving_variance_initializer": {"class_name": "Ones", "config": {}}, "moving_mean_initializer": {"class_name": "Zeros", "config": {}}, "beta_regularizer": null, "gamma_initializer": {"class_name": "Ones", "config": {}}, "beta_initializer": {"class_name": "Zeros", "config": {}}, "center": true, "scale": false, "epsilon": 0.001, "beta_constraint": null, "trainable": true, "axis": 3, "name": "batch_normalization_11", "gamma_regularizer": null, "momentum": 0.99, "gamma_constraint": null}, "name": "batch_normalization_11"}, {"inbound_nodes": [[["conv2d_12", 0, 0, {}]]], "class_name": "BatchNormalization", "config": {"moving_variance_initializer": {"class_name": "Ones", "config": {}}, "moving_mean_initializer": {"class_name": "Zeros", "config": {}}, "beta_regularizer": null, "gamma_initializer": {"class_name": "Ones", "config": {}}, "beta_initializer": {"class_name": "Zeros", "config": {}}, "center": true, "scale": false, "epsilon": 0.001, "beta_constraint": null, "trainable": true, "axis": 3, "name": "batch_normalization_12", "gamma_regularizer": null, "momentum": 0.99, "gamma_constraint": null}, "name": "batch_normalization_12"}, {"inbound_nodes": [[["batch_normalization_6", 0, 0, {}]]], "class_name": "Activation", "config": {"name": "activation_6", "trainable": true, "activation": "relu"}, "name": "activation_6"}, {"inbound_nodes": [[["batch_normalization_8", 0, 0, {}]]], "class_name": "Activation", "config": {"name": "activation_8", "trainable": true, "activation": "relu"}, "name": "activation_8"}, {"inbound_nodes": [[["batch_normalization_11", 0, 0, {}]]], "class_name": "Activation", "config": {"name": "activation_11", "trainable": true, "activation": "relu"}, "name": "activation_11"}, {"inbound_nodes": [[["batch_normalization_12", 0, 0, {}]]], "class_name": "Activation", "config": {"name": "activation_12", "trainable": true, "activation": "relu"}, "name": "activation_12"}, {"inbound_nodes": [[["activation_6", 0, 0, {}], ["activation_8", 0, 0, {}], ["activation_11", 0, 0, {}], ["activation_12", 0, 0, {}]]], "class_name": "Concatenate", "config": {"trainable": true, "axis": 3, "name": "mixed0"}, "name": "mixed0"}, {"inbound_nodes": [[["mixed0", 0, 0, {}]]], "class_name": "Conv2D", "config": {"use_bias": false, "padding": "same", "kernel_constraint": null, "strides": [1, 1], "kernel_initializer": {"class_name": "VarianceScaling", "config": {"mode": "fan_avg", "seed": null, "distribution": "uniform", "scale": 1.0}}, "data_format": "channels_last", "name": "conv2d_16", "bias_initializer": {"class_name": "Zeros", "config": {}}, "filters": 64, "trainable": true, "dilation_rate": [1, 1], "activation": "linear", "activity_regularizer": null, "bias_regularizer": null, "kernel_regularizer": null, "kernel_size": [1, 1], "bias_constraint": null}, "name": "conv2d_16"}, {"inbound_nodes": [[["conv2d_16", 0, 0, {}]]], "class_name": "BatchNormalization", "config": {"moving_variance_initializer": {"class_name": "Ones", "config": {}}, "moving_mean_initializer": {"class_name": "Zeros", "config": {}}, "beta_regularizer": null, "gamma_initializer": {"class_name": "Ones", "config": {}}, "beta_initializer": {"class_name": "Zeros", "config": {}}, "center": true, "scale": false, "epsilon": 0.001, "beta_constraint": null, "trainable": true, "axis": 3, "name": "batch_normalization_16", "gamma_regularizer": null, "momentum": 0.99, "gamma_constraint": null}, "name": "batch_normalization_16"}, {"inbound_nodes": [[["batch_normalization_16", 0, 0, {}]]], "class_name": "Activation", "config": {"name": "activation_16", "trainable": true, "activation": "relu"}, "name": "activation_16"}, {"inbound_nodes": [[["mixed0", 0, 0, {}]]], "class_name": "Conv2D", "config": {"use_bias": false, "padding": "same", "kernel_constraint": null, "strides": [1, 1], "kernel_initializer": {"class_name": "VarianceScaling", "config": {"mode": "fan_avg", "seed": null, "distribution": "uniform", "scale": 1.0}}, "data_format": "channels_last", "name": "conv2d_14", "bias_initializer": {"class_name": "Zeros", "config": {}}, "filters": 48, "trainable": true, "dilation_rate": [1, 1], "activation": "linear", "activity_regularizer": null, "bias_regularizer": null, "kernel_regularizer": null, "kernel_size": [1, 1], "bias_constraint": null}, "name": "conv2d_14"}, {"inbound_nodes": [[["activation_16", 0, 0, {}]]], "class_name": "Conv2D", "config": {"use_bias": false, "padding": "same", "kernel_constraint": null, "strides": [1, 1], "kernel_initializer": {"class_name": "VarianceScaling", "config": {"mode": "fan_avg", "seed": null, "distribution": "uniform", "scale": 1.0}}, "data_format": "channels_last", "name": "conv2d_17", "bias_initializer": {"class_name": "Zeros", "config": {}}, "filters": 96, "trainable": true, "dilation_rate": [1, 1], "activation": "linear", "activity_regularizer": null, "bias_regularizer": null, "kernel_regularizer": null, "kernel_size": [3, 3], "bias_constraint": null}, "name": "conv2d_17"}, {"inbound_nodes": [[["conv2d_14", 0, 0, {}]]], "class_name": "BatchNormalization", "config": {"moving_variance_initializer": {"class_name": "Ones", "config": {}}, "moving_mean_initializer": {"class_name": "Zeros", "config": {}}, "beta_regularizer": null, "gamma_initializer": {"class_name": "Ones", "config": {}}, "beta_initializer": {"class_name": "Zeros", "config": {}}, "center": true, "scale": false, "epsilon": 0.001, "beta_constraint": null, "trainable": true, "axis": 3, "name": "batch_normalization_14", "gamma_regularizer": null, "momentum": 0.99, "gamma_constraint": null}, "name": "batch_normalization_14"}, {"inbound_nodes": [[["conv2d_17", 0, 0, {}]]], "class_name": "BatchNormalization", "config": {"moving_variance_initializer": {"class_name": "Ones", "config": {}}, "moving_mean_initializer": {"class_name": "Zeros", "config": {}}, "beta_regularizer": null, "gamma_initializer": {"class_name": "Ones", "config": {}}, "beta_initializer": {"class_name": "Zeros", "config": {}}, "center": true, "scale": false, "epsilon": 0.001, "beta_constraint": null, "trainable": true, "axis": 3, "name": "batch_normalization_17", "gamma_regularizer": null, "momentum": 0.99, "gamma_constraint": null}, "name": "batch_normalization_17"}, {"inbound_nodes": [[["batch_normalization_14", 0, 0, {}]]], "class_name": "Activation", "config": {"name": "activation_14", "trainable": true, "activation": "relu"}, "name": "activation_14"}, {"inbound_nodes": [[["batch_normalization_17", 0, 0, {}]]], "class_name": "Activation", "config": {"name": "activation_17", "trainable": true, "activation": "relu"}, "name": "activation_17"}, {"inbound_nodes": [[["mixed0", 0, 0, {}]]], "class_name": "AveragePooling2D", "config": {"padding": "same", "trainable": true, "pool_size": [3, 3], "name": "average_pooling2d_2", "strides": [1, 1], "data_format": "channels_last"}, "name": "average_pooling2d_2"}, {"inbound_nodes": [[["mixed0", 0, 0, {}]]], "class_name": "Conv2D", "config": {"use_bias": false, "padding": "same", "kernel_constraint": null, "strides": [1, 1], "kernel_initializer": {"class_name": "VarianceScaling", "config": {"mode": "fan_avg", "seed": null, "distribution": "uniform", "scale": 1.0}}, "data_format": "channels_last", "name": "conv2d_13", "bias_initializer": {"class_name": "Zeros", "config": {}}, "filters": 64, "trainable": true, "dilation_rate": [1, 1], "activation": "linear", "activity_regularizer": null, "bias_regularizer": null, "kernel_regularizer": null, "kernel_size": [1, 1], "bias_constraint": null}, "name": "conv2d_13"}, {"inbound_nodes": [[["activation_14", 0, 0, {}]]], "class_name": "Conv2D", "config": {"use_bias": false, "padding": "same", "kernel_constraint": null, "strides": [1, 1], "kernel_initializer": {"class_name": "VarianceScaling", "config": {"mode": "fan_avg", "seed": null, "distribution": "uniform", "scale": 1.0}}, "data_format": "channels_last", "name": "conv2d_15", "bias_initializer": {"class_name": "Zeros", "config": {}}, "filters": 64, "trainable": true, "dilation_rate": [1, 1], "activation": "linear", "activity_regularizer": null, "bias_regularizer": null, "kernel_regularizer": null, "kernel_size": [5, 5], "bias_constraint": null}, "name": "conv2d_15"}, {"inbound_nodes": [[["activation_17", 0, 0, {}]]], "class_name": "Conv2D", "config": {"use_bias": false, "padding": "same", "kernel_constraint": null, "strides": [1, 1], "kernel_initializer": {"class_name": "VarianceScaling", "config": {"mode": "fan_avg", "seed": null, "distribution": "uniform", "scale": 1.0}}, "data_format": "channels_last", "name": "conv2d_18", "bias_initializer": {"class_name": "Zeros", "config": {}}, "filters": 96, "trainable": true, "dilation_rate": [1, 1], "activation": "linear", "activity_regularizer": null, "bias_regularizer": null, "kernel_regularizer": null, "kernel_size": [3, 3], "bias_constraint": null}, "name": "conv2d_18"}, {"inbound_nodes": [[["average_pooling2d_2", 0, 0, {}]]], "class_name": "Conv2D", "config": {"use_bias": false, "padding": "same", "kernel_constraint": null, "strides": [1, 1], "kernel_initializer": {"class_name": "VarianceScaling", "config": {"mode": "fan_avg", "seed": null, "distribution": "uniform", "scale": 1.0}}, "data_format": "channels_last", "name": "conv2d_19", "bias_initializer": {"class_name": "Zeros", "config": {}}, "filters": 64, "trainable": true, "dilation_rate": [1, 1], "activation": "linear", "activity_regularizer": null, "bias_regularizer": null, "kernel_regularizer": null, "kernel_size": [1, 1], "bias_constraint": null}, "name": "conv2d_19"}, {"inbound_nodes": [[["conv2d_13", 0, 0, {}]]], "class_name": "BatchNormalization", "config": {"moving_variance_initializer": {"class_name": "Ones", "config": {}}, "moving_mean_initializer": {"class_name": "Zeros", "config": {}}, "beta_regularizer": null, "gamma_initializer": {"class_name": "Ones", "config": {}}, "beta_initializer": {"class_name": "Zeros", "config": {}}, "center": true, "scale": false, "epsilon": 0.001, "beta_constraint": null, "trainable": true, "axis": 3, "name": "batch_normalization_13", "gamma_regularizer": null, "momentum": 0.99, "gamma_constraint": null}, "name": "batch_normalization_13"}, {"inbound_nodes": [[["conv2d_15", 0, 0, {}]]], "class_name": "BatchNormalization", "config": {"moving_variance_initializer": {"class_name": "Ones", "config": {}}, "moving_mean_initializer": {"class_name": "Zeros", "config": {}}, "beta_regularizer": null, "gamma_initializer": {"class_name": "Ones", "config": {}}, "beta_initializer": {"class_name": "Zeros", "config": {}}, "center": true, "scale": false, "epsilon": 0.001, "beta_constraint": null, "trainable": true, "axis": 3, "name": "batch_normalization_15", "gamma_regularizer": null, "momentum": 0.99, "gamma_constraint": null}, "name": "batch_normalization_15"}, {"inbound_nodes": [[["conv2d_18", 0, 0, {}]]], "class_name": "BatchNormalization", "config": {"moving_variance_initializer": {"class_name": "Ones", "config": {}}, "moving_mean_initializer": {"class_name": "Zeros", "config": {}}, "beta_regularizer": null, "gamma_initializer": {"class_name": "Ones", "config": {}}, "beta_initializer": {"class_name": "Zeros", "config": {}}, "center": true, "scale": false, "epsilon": 0.001, "beta_constraint": null, "trainable": true, "axis": 3, "name": "batch_normalization_18", "gamma_regularizer": null, "momentum": 0.99, "gamma_constraint": null}, "name": "batch_normalization_18"}, {"inbound_nodes": [[["conv2d_19", 0, 0, {}]]], "class_name": "BatchNormalization", "config": {"moving_variance_initializer": {"class_name": "Ones", "config": {}}, "moving_mean_initializer": {"class_name": "Zeros", "config": {}}, "beta_regularizer": null, "gamma_initializer": {"class_name": "Ones", "config": {}}, "beta_initializer": {"class_name": "Zeros", "config": {}}, "center": true, "scale": false, "epsilon": 0.001, "beta_constraint": null, "trainable": true, "axis": 3, "name": "batch_normalization_19", "gamma_regularizer": null, "momentum": 0.99, "gamma_constraint": null}, "name": "batch_normalization_19"}, {"inbound_nodes": [[["batch_normalization_13", 0, 0, {}]]], "class_name": "Activation", "config": {"name": "activation_13", "trainable": true, "activation": "relu"}, "name": "activation_13"}, {"inbound_nodes": [[["batch_normalization_15", 0, 0, {}]]], "class_name": "Activation", "config": {"name": "activation_15", "trainable": true, "activation": "relu"}, "name": "activation_15"}, {"inbound_nodes": [[["batch_normalization_18", 0, 0, {}]]], "class_name": "Activation", "config": {"name": "activation_18", "trainable": true, "activation": "relu"}, "name": "activation_18"}, {"inbound_nodes": [[["batch_normalization_19", 0, 0, {}]]], "class_name": "Activation", "config": {"name": "activation_19", "trainable": true, "activation": "relu"}, "name": "activation_19"}, {"inbound_nodes": [[["activation_13", 0, 0, {}], ["activation_15", 0, 0, {}], ["activation_18", 0, 0, {}], ["activation_19", 0, 0, {}]]], "class_name": "Concatenate", "config": {"trainable": true, "axis": 3, "name": "mixed1"}, "name": "mixed1"}, {"inbound_nodes": [[["mixed1", 0, 0, {}]]], "class_name": "Conv2D", "config": {"use_bias": false, "padding": "same", "kernel_constraint": null, "strides": [1, 1], "kernel_initializer": {"class_name": "VarianceScaling", "config": {"mode": "fan_avg", "seed": null, "distribution": "uniform", "scale": 1.0}}, "data_format": "channels_last", "name": "conv2d_23", "bias_initializer": {"class_name": "Zeros", "config": {}}, "filters": 64, "trainable": true, "dilation_rate": [1, 1], "activation": "linear", "activity_regularizer": null, "bias_regularizer": null, "kernel_regularizer": null, "kernel_size": [1, 1], "bias_constraint": null}, "name": "conv2d_23"}, {"inbound_nodes": [[["conv2d_23", 0, 0, {}]]], "class_name": "BatchNormalization", "config": {"moving_variance_initializer": {"class_name": "Ones", "config": {}}, "moving_mean_initializer": {"class_name": "Zeros", "config": {}}, "beta_regularizer": null, "gamma_initializer": {"class_name": "Ones", "config": {}}, "beta_initializer": {"class_name": "Zeros", "config": {}}, "center": true, "scale": false, "epsilon": 0.001, "beta_constraint": null, "trainable": true, "axis": 3, "name": "batch_normalization_23", "gamma_regularizer": null, "momentum": 0.99, "gamma_constraint": null}, "name": "batch_normalization_23"}, {"inbound_nodes": [[["batch_normalization_23", 0, 0, {}]]], "class_name": "Activation", "config": {"name": "activation_23", "trainable": true, "activation": "relu"}, "name": "activation_23"}, {"inbound_nodes": [[["mixed1", 0, 0, {}]]], "class_name": "Conv2D", "config": {"use_bias": false, "padding": "same", "kernel_constraint": null, "strides": [1, 1], "kernel_initializer": {"class_name": "VarianceScaling", "config": {"mode": "fan_avg", "seed": null, "distribution": "uniform", "scale": 1.0}}, "data_format": "channels_last", "name": "conv2d_21", "bias_initializer": {"class_name": "Zeros", "config": {}}, "filters": 48, "trainable": true, "dilation_rate": [1, 1], "activation": "linear", "activity_regularizer": null, "bias_regularizer": null, "kernel_regularizer": null, "kernel_size": [1, 1], "bias_constraint": null}, "name": "conv2d_21"}, {"inbound_nodes": [[["activation_23", 0, 0, {}]]], "class_name": "Conv2D", "config": {"use_bias": false, "padding": "same", "kernel_constraint": null, "strides": [1, 1], "kernel_initializer": {"class_name": "VarianceScaling", "config": {"mode": "fan_avg", "seed": null, "distribution": "uniform", "scale": 1.0}}, "data_format": "channels_last", "name": "conv2d_24", "bias_initializer": {"class_name": "Zeros", "config": {}}, "filters": 96, "trainable": true, "dilation_rate": [1, 1], "activation": "linear", "activity_regularizer": null, "bias_regularizer": null, "kernel_regularizer": null, "kernel_size": [3, 3], "bias_constraint": null}, "name": "conv2d_24"}, {"inbound_nodes": [[["conv2d_21", 0, 0, {}]]], "class_name": "BatchNormalization", "config": {"moving_variance_initializer": {"class_name": "Ones", "config": {}}, "moving_mean_initializer": {"class_name": "Zeros", "config": {}}, "beta_regularizer": null, "gamma_initializer": {"class_name": "Ones", "config": {}}, "beta_initializer": {"class_name": "Zeros", "config": {}}, "center": true, "scale": false, "epsilon": 0.001, "beta_constraint": null, "trainable": true, "axis": 3, "name": "batch_normalization_21", "gamma_regularizer": null, "momentum": 0.99, "gamma_constraint": null}, "name": "batch_normalization_21"}, {"inbound_nodes": [[["conv2d_24", 0, 0, {}]]], "class_name": "BatchNormalization", "config": {"moving_variance_initializer": {"class_name": "Ones", "config": {}}, "moving_mean_initializer": {"class_name": "Zeros", "config": {}}, "beta_regularizer": null, "gamma_initializer": {"class_name": "Ones", "config": {}}, "beta_initializer": {"class_name": "Zeros", "config": {}}, "center": true, "scale": false, "epsilon": 0.001, "beta_constraint": null, "trainable": true, "axis": 3, "name": "batch_normalization_24", "gamma_regularizer": null, "momentum": 0.99, "gamma_constraint": null}, "name": "batch_normalization_24"}, {"inbound_nodes": [[["batch_normalization_21", 0, 0, {}]]], "class_name": "Activation", "config": {"name": "activation_21", "trainable": true, "activation": "relu"}, "name": "activation_21"}, {"inbound_nodes": [[["batch_normalization_24", 0, 0, {}]]], "class_name": "Activation", "config": {"name": "activation_24", "trainable": true, "activation": "relu"}, "name": "activation_24"}, {"inbound_nodes": [[["mixed1", 0, 0, {}]]], "class_name": "AveragePooling2D", "config": {"padding": "same", "trainable": true, "pool_size": [3, 3], "name": "average_pooling2d_3", "strides": [1, 1], "data_format": "channels_last"}, "name": "average_pooling2d_3"}, {"inbound_nodes": [[["mixed1", 0, 0, {}]]], "class_name": "Conv2D", "config": {"use_bias": false, "padding": "same", "kernel_constraint": null, "strides": [1, 1], "kernel_initializer": {"class_name": "VarianceScaling", "config": {"mode": "fan_avg", "seed": null, "distribution": "uniform", "scale": 1.0}}, "data_format": "channels_last", "name": "conv2d_20", "bias_initializer": {"class_name": "Zeros", "config": {}}, "filters": 64, "trainable": true, "dilation_rate": [1, 1], "activation": "linear", "activity_regularizer": null, "bias_regularizer": null, "kernel_regularizer": null, "kernel_size": [1, 1], "bias_constraint": null}, "name": "conv2d_20"}, {"inbound_nodes": [[["activation_21", 0, 0, {}]]], "class_name": "Conv2D", "config": {"use_bias": false, "padding": "same", "kernel_constraint": null, "strides": [1, 1], "kernel_initializer": {"class_name": "VarianceScaling", "config": {"mode": "fan_avg", "seed": null, "distribution": "uniform", "scale": 1.0}}, "data_format": "channels_last", "name": "conv2d_22", "bias_initializer": {"class_name": "Zeros", "config": {}}, "filters": 64, "trainable": true, "dilation_rate": [1, 1], "activation": "linear", "activity_regularizer": null, "bias_regularizer": null, "kernel_regularizer": null, "kernel_size": [5, 5], "bias_constraint": null}, "name": "conv2d_22"}, {"inbound_nodes": [[["activation_24", 0, 0, {}]]], "class_name": "Conv2D", "config": {"use_bias": false, "padding": "same", "kernel_constraint": null, "strides": [1, 1], "kernel_initializer": {"class_name": "VarianceScaling", "config": {"mode": "fan_avg", "seed": null, "distribution": "uniform", "scale": 1.0}}, "data_format": "channels_last", "name": "conv2d_25", "bias_initializer": {"class_name": "Zeros", "config": {}}, "filters": 96, "trainable": true, "dilation_rate": [1, 1], "activation": "linear", "activity_regularizer": null, "bias_regularizer": null, "kernel_regularizer": null, "kernel_size": [3, 3], "bias_constraint": null}, "name": "conv2d_25"}, {"inbound_nodes": [[["average_pooling2d_3", 0, 0, {}]]], "class_name": "Conv2D", "config": {"use_bias": false, "padding": "same", "kernel_constraint": null, "strides": [1, 1], "kernel_initializer": {"class_name": "VarianceScaling", "config": {"mode": "fan_avg", "seed": null, "distribution": "uniform", "scale": 1.0}}, "data_format": "channels_last", "name": "conv2d_26", "bias_initializer": {"class_name": "Zeros", "config": {}}, "filters": 64, "trainable": true, "dilation_rate": [1, 1], "activation": "linear", "activity_regularizer": null, "bias_regularizer": null, "kernel_regularizer": null, "kernel_size": [1, 1], "bias_constraint": null}, "name": "conv2d_26"}, {"inbound_nodes": [[["conv2d_20", 0, 0, {}]]], "class_name": "BatchNormalization", "config": {"moving_variance_initializer": {"class_name": "Ones", "config": {}}, "moving_mean_initializer": {"class_name": "Zeros", "config": {}}, "beta_regularizer": null, "gamma_initializer": {"class_name": "Ones", "config": {}}, "beta_initializer": {"class_name": "Zeros", "config": {}}, "center": true, "scale": false, "epsilon": 0.001, "beta_constraint": null, "trainable": true, "axis": 3, "name": "batch_normalization_20", "gamma_regularizer": null, "momentum": 0.99, "gamma_constraint": null}, "name": "batch_normalization_20"}, {"inbound_nodes": [[["conv2d_22", 0, 0, {}]]], "class_name": "BatchNormalization", "config": {"moving_variance_initializer": {"class_name": "Ones", "config": {}}, "moving_mean_initializer": {"class_name": "Zeros", "config": {}}, "beta_regularizer": null, "gamma_initializer": {"class_name": "Ones", "config": {}}, "beta_initializer": {"class_name": "Zeros", "config": {}}, "center": true, "scale": false, "epsilon": 0.001, "beta_constraint": null, "trainable": true, "axis": 3, "name": "batch_normalization_22", "gamma_regularizer": null, "momentum": 0.99, "gamma_constraint": null}, "name": "batch_normalization_22"}, {"inbound_nodes": [[["conv2d_25", 0, 0, {}]]], "class_name": "BatchNormalization", "config": {"moving_variance_initializer": {"class_name": "Ones", "config": {}}, "moving_mean_initializer": {"class_name": "Zeros", "config": {}}, "beta_regularizer": null, "gamma_initializer": {"class_name": "Ones", "config": {}}, "beta_initializer": {"class_name": "Zeros", "config": {}}, "center": true, "scale": false, "epsilon": 0.001, "beta_constraint": null, "trainable": true, "axis": 3, "name": "batch_normalization_25", "gamma_regularizer": null, "momentum": 0.99, "gamma_constraint": null}, "name": "batch_normalization_25"}, {"inbound_nodes": [[["conv2d_26", 0, 0, {}]]], "class_name": "BatchNormalization", "config": {"moving_variance_initializer": {"class_name": "Ones", "config": {}}, "moving_mean_initializer": {"class_name": "Zeros", "config": {}}, "beta_regularizer": null, "gamma_initializer": {"class_name": "Ones", "config": {}}, "beta_initializer": {"class_name": "Zeros", "config": {}}, "center": true, "scale": false, "epsilon": 0.001, "beta_constraint": null, "trainable": true, "axis": 3, "name": "batch_normalization_26", "gamma_regularizer": null, "momentum": 0.99, "gamma_constraint": null}, "name": "batch_normalization_26"}, {"inbound_nodes": [[["batch_normalization_20", 0, 0, {}]]], "class_name": "Activation", "config": {"name": "activation_20", "trainable": true, "activation": "relu"}, "name": "activation_20"}, {"inbound_nodes": [[["batch_normalization_22", 0, 0, {}]]], "class_name": "Activation", "config": {"name": "activation_22", "trainable": true, "activation": "relu"}, "name": "activation_22"}, {"inbound_nodes": [[["batch_normalization_25", 0, 0, {}]]], "class_name": "Activation", "config": {"name": "activation_25", "trainable": true, "activation": "relu"}, "name": "activation_25"}, {"inbound_nodes": [[["batch_normalization_26", 0, 0, {}]]], "class_name": "Activation", "config": {"name": "activation_26", "trainable": true, "activation": "relu"}, "name": "activation_26"}, {"inbound_nodes": [[["activation_20", 0, 0, {}], ["activation_22", 0, 0, {}], ["activation_25", 0, 0, {}], ["activation_26", 0, 0, {}]]], "class_name": "Concatenate", "config": {"trainable": true, "axis": 3, "name": "mixed2"}, "name": "mixed2"}, {"inbound_nodes": [[["mixed2", 0, 0, {}]]], "class_name": "Conv2D", "config": {"use_bias": false, "padding": "same", "kernel_constraint": null, "strides": [1, 1], "kernel_initializer": {"class_name": "VarianceScaling", "config": {"mode": "fan_avg", "seed": null, "distribution": "uniform", "scale": 1.0}}, "data_format": "channels_last", "name": "conv2d_28", "bias_initializer": {"class_name": "Zeros", "config": {}}, "filters": 64, "trainable": true, "dilation_rate": [1, 1], "activation": "linear", "activity_regularizer": null, "bias_regularizer": null, "kernel_regularizer": null, "kernel_size": [1, 1], "bias_constraint": null}, "name": "conv2d_28"}, {"inbound_nodes": [[["conv2d_28", 0, 0, {}]]], "class_name": "BatchNormalization", "config": {"moving_variance_initializer": {"class_name": "Ones", "config": {}}, "moving_mean_initializer": {"class_name": "Zeros", "config": {}}, "beta_regularizer": null, "gamma_initializer": {"class_name": "Ones", "config": {}}, "beta_initializer": {"class_name": "Zeros", "config": {}}, "center": true, "scale": false, "epsilon": 0.001, "beta_constraint": null, "trainable": true, "axis": 3, "name": "batch_normalization_28", "gamma_regularizer": null, "momentum": 0.99, "gamma_constraint": null}, "name": "batch_normalization_28"}, {"inbound_nodes": [[["batch_normalization_28", 0, 0, {}]]], "class_name": "Activation", "config": {"name": "activation_28", "trainable": true, "activation": "relu"}, "name": "activation_28"}, {"inbound_nodes": [[["activation_28", 0, 0, {}]]], "class_name": "Conv2D", "config": {"use_bias": false, "padding": "same", "kernel_constraint": null, "strides": [1, 1], "kernel_initializer": {"class_name": "VarianceScaling", "config": {"mode": "fan_avg", "seed": null, "distribution": "uniform", "scale": 1.0}}, "data_format": "channels_last", "name": "conv2d_29", "bias_initializer": {"class_name": "Zeros", "config": {}}, "filters": 96, "trainable": true, "dilation_rate": [1, 1], "activation": "linear", "activity_regularizer": null, "bias_regularizer": null, "kernel_regularizer": null, "kernel_size": [3, 3], "bias_constraint": null}, "name": "conv2d_29"}, {"inbound_nodes": [[["conv2d_29", 0, 0, {}]]], "class_name": "BatchNormalization", "config": {"moving_variance_initializer": {"class_name": "Ones", "config": {}}, "moving_mean_initializer": {"class_name": "Zeros", "config": {}}, "beta_regularizer": null, "gamma_initializer": {"class_name": "Ones", "config": {}}, "beta_initializer": {"class_name": "Zeros", "config": {}}, "center": true, "scale": false, "epsilon": 0.001, "beta_constraint": null, "trainable": true, "axis": 3, "name": "batch_normalization_29", "gamma_regularizer": null, "momentum": 0.99, "gamma_constraint": null}, "name": "batch_normalization_29"}, {"inbound_nodes": [[["batch_normalization_29", 0, 0, {}]]], "class_name": "Activation", "config": {"name": "activation_29", "trainable": true, "activation": "relu"}, "name": "activation_29"}, {"inbound_nodes": [[["mixed2", 0, 0, {}]]], "class_name": "Conv2D", "config": {"use_bias": false, "padding": "valid", "kernel_constraint": null, "strides": [2, 2], "kernel_initializer": {"class_name": "VarianceScaling", "config": {"mode": "fan_avg", "seed": null, "distribution": "uniform", "scale": 1.0}}, "data_format": "channels_last", "name": "conv2d_27", "bias_initializer": {"class_name": "Zeros", "config": {}}, "filters": 384, "trainable": true, "dilation_rate": [1, 1], "activation": "linear", "activity_regularizer": null, "bias_regularizer": null, "kernel_regularizer": null, "kernel_size": [3, 3], "bias_constraint": null}, "name": "conv2d_27"}, {"inbound_nodes": [[["activation_29", 0, 0, {}]]], "class_name": "Conv2D", "config": {"use_bias": false, "padding": "valid", "kernel_constraint": null, "strides": [2, 2], "kernel_initializer": {"class_name": "VarianceScaling", "config": {"mode": "fan_avg", "seed": null, "distribution": "uniform", "scale": 1.0}}, "data_format": "channels_last", "name": "conv2d_30", "bias_initializer": {"class_name": "Zeros", "config": {}}, "filters": 96, "trainable": true, "dilation_rate": [1, 1], "activation": "linear", "activity_regularizer": null, "bias_regularizer": null, "kernel_regularizer": null, "kernel_size": [3, 3], "bias_constraint": null}, "name": "conv2d_30"}, {"inbound_nodes": [[["conv2d_27", 0, 0, {}]]], "class_name": "BatchNormalization", "config": {"moving_variance_initializer": {"class_name": "Ones", "config": {}}, "moving_mean_initializer": {"class_name": "Zeros", "config": {}}, "beta_regularizer": null, "gamma_initializer": {"class_name": "Ones", "config": {}}, "beta_initializer": {"class_name": "Zeros", "config": {}}, "center": true, "scale": false, "epsilon": 0.001, "beta_constraint": null, "trainable": true, "axis": 3, "name": "batch_normalization_27", "gamma_regularizer": null, "momentum": 0.99, "gamma_constraint": null}, "name": "batch_normalization_27"}, {"inbound_nodes": [[["conv2d_30", 0, 0, {}]]], "class_name": "BatchNormalization", "config": {"moving_variance_initializer": {"class_name": "Ones", "config": {}}, "moving_mean_initializer": {"class_name": "Zeros", "config": {}}, "beta_regularizer": null, "gamma_initializer": {"class_name": "Ones", "config": {}}, "beta_initializer": {"class_name": "Zeros", "config": {}}, "center": true, "scale": false, "epsilon": 0.001, "beta_constraint": null, "trainable": true, "axis": 3, "name": "batch_normalization_30", "gamma_regularizer": null, "momentum": 0.99, "gamma_constraint": null}, "name": "batch_normalization_30"}, {"inbound_nodes": [[["batch_normalization_27", 0, 0, {}]]], "class_name": "Activation", "config": {"name": "activation_27", "trainable": true, "activation": "relu"}, "name": "activation_27"}, {"inbound_nodes": [[["batch_normalization_30", 0, 0, {}]]], "class_name": "Activation", "config": {"name": "activation_30", "trainable": true, "activation": "relu"}, "name": "activation_30"}, {"inbound_nodes": [[["mixed2", 0, 0, {}]]], "class_name": "MaxPooling2D", "config": {"padding": "valid", "trainable": true, "pool_size": [3, 3], "name": "max_pooling2d_3", "strides": [2, 2], "data_format": "channels_last"}, "name": "max_pooling2d_3"}, {"inbound_nodes": [[["activation_27", 0, 0, {}], ["activation_30", 0, 0, {}], ["max_pooling2d_3", 0, 0, {}]]], "class_name": "Concatenate", "config": {"trainable": true, "axis": 3, "name": "mixed3"}, "name": "mixed3"}, {"inbound_nodes": [[["mixed3", 0, 0, {}]]], "class_name": "Conv2D", "config": {"use_bias": false, "padding": "same", "kernel_constraint": null, "strides": [1, 1], "kernel_initializer": {"class_name": "VarianceScaling", "config": {"mode": "fan_avg", "seed": null, "distribution": "uniform", "scale": 1.0}}, "data_format": "channels_last", "name": "conv2d_35", "bias_initializer": {"class_name": "Zeros", "config": {}}, "filters": 128, "trainable": true, "dilation_rate": [1, 1], "activation": "linear", "activity_regularizer": null, "bias_regularizer": null, "kernel_regularizer": null, "kernel_size": [1, 1], "bias_constraint": null}, "name": "conv2d_35"}, {"inbound_nodes": [[["conv2d_35", 0, 0, {}]]], "class_name": "BatchNormalization", "config": {"moving_variance_initializer": {"class_name": "Ones", "config": {}}, "moving_mean_initializer": {"class_name": "Zeros", "config": {}}, "beta_regularizer": null, "gamma_initializer": {"class_name": "Ones", "config": {}}, "beta_initializer": {"class_name": "Zeros", "config": {}}, "center": true, "scale": false, "epsilon": 0.001, "beta_constraint": null, "trainable": true, "axis": 3, "name": "batch_normalization_35", "gamma_regularizer": null, "momentum": 0.99, "gamma_constraint": null}, "name": "batch_normalization_35"}, {"inbound_nodes": [[["batch_normalization_35", 0, 0, {}]]], "class_name": "Activation", "config": {"name": "activation_35", "trainable": true, "activation": "relu"}, "name": "activation_35"}, {"inbound_nodes": [[["activation_35", 0, 0, {}]]], "class_name": "Conv2D", "config": {"use_bias": false, "padding": "same", "kernel_constraint": null, "strides": [1, 1], "kernel_initializer": {"class_name": "VarianceScaling", "config": {"mode": "fan_avg", "seed": null, "distribution": "uniform", "scale": 1.0}}, "data_format": "channels_last", "name": "conv2d_36", "bias_initializer": {"class_name": "Zeros", "config": {}}, "filters": 128, "trainable": true, "dilation_rate": [1, 1], "activation": "linear", "activity_regularizer": null, "bias_regularizer": null, "kernel_regularizer": null, "kernel_size": [7, 1], "bias_constraint": null}, "name": "conv2d_36"}, {"inbound_nodes": [[["conv2d_36", 0, 0, {}]]], "class_name": "BatchNormalization", "config": {"moving_variance_initializer": {"class_name": "Ones", "config": {}}, "moving_mean_initializer": {"class_name": "Zeros", "config": {}}, "beta_regularizer": null, "gamma_initializer": {"class_name": "Ones", "config": {}}, "beta_initializer": {"class_name": "Zeros", "config": {}}, "center": true, "scale": false, "epsilon": 0.001, "beta_constraint": null, "trainable": true, "axis": 3, "name": "batch_normalization_36", "gamma_regularizer": null, "momentum": 0.99, "gamma_constraint": null}, "name": "batch_normalization_36"}, {"inbound_nodes": [[["batch_normalization_36", 0, 0, {}]]], "class_name": "Activation", "config": {"name": "activation_36", "trainable": true, "activation": "relu"}, "name": "activation_36"}, {"inbound_nodes": [[["mixed3", 0, 0, {}]]], "class_name": "Conv2D", "config": {"use_bias": false, "padding": "same", "kernel_constraint": null, "strides": [1, 1], "kernel_initializer": {"class_name": "VarianceScaling", "config": {"mode": "fan_avg", "seed": null, "distribution": "uniform", "scale": 1.0}}, "data_format": "channels_last", "name": "conv2d_32", "bias_initializer": {"class_name": "Zeros", "config": {}}, "filters": 128, "trainable": true, "dilation_rate": [1, 1], "activation": "linear", "activity_regularizer": null, "bias_regularizer": null, "kernel_regularizer": null, "kernel_size": [1, 1], "bias_constraint": null}, "name": "conv2d_32"}, {"inbound_nodes": [[["activation_36", 0, 0, {}]]], "class_name": "Conv2D", "config": {"use_bias": false, "padding": "same", "kernel_constraint": null, "strides": [1, 1], "kernel_initializer": {"class_name": "VarianceScaling", "config": {"mode": "fan_avg", "seed": null, "distribution": "uniform", "scale": 1.0}}, "data_format": "channels_last", "name": "conv2d_37", "bias_initializer": {"class_name": "Zeros", "config": {}}, "filters": 128, "trainable": true, "dilation_rate": [1, 1], "activation": "linear", "activity_regularizer": null, "bias_regularizer": null, "kernel_regularizer": null, "kernel_size": [1, 7], "bias_constraint": null}, "name": "conv2d_37"}, {"inbound_nodes": [[["conv2d_32", 0, 0, {}]]], "class_name": "BatchNormalization", "config": {"moving_variance_initializer": {"class_name": "Ones", "config": {}}, "moving_mean_initializer": {"class_name": "Zeros", "config": {}}, "beta_regularizer": null, "gamma_initializer": {"class_name": "Ones", "config": {}}, "beta_initializer": {"class_name": "Zeros", "config": {}}, "center": true, "scale": false, "epsilon": 0.001, "beta_constraint": null, "trainable": true, "axis": 3, "name": "batch_normalization_32", "gamma_regularizer": null, "momentum": 0.99, "gamma_constraint": null}, "name": "batch_normalization_32"}, {"inbound_nodes": [[["conv2d_37", 0, 0, {}]]], "class_name": "BatchNormalization", "config": {"moving_variance_initializer": {"class_name": "Ones", "config": {}}, "moving_mean_initializer": {"class_name": "Zeros", "config": {}}, "beta_regularizer": null, "gamma_initializer": {"class_name": "Ones", "config": {}}, "beta_initializer": {"class_name": "Zeros", "config": {}}, "center": true, "scale": false, "epsilon": 0.001, "beta_constraint": null, "trainable": true, "axis": 3, "name": "batch_normalization_37", "gamma_regularizer": null, "momentum": 0.99, "gamma_constraint": null}, "name": "batch_normalization_37"}, {"inbound_nodes": [[["batch_normalization_32", 0, 0, {}]]], "class_name": "Activation", "config": {"name": "activation_32", "trainable": true, "activation": "relu"}, "name": "activation_32"}, {"inbound_nodes": [[["batch_normalization_37", 0, 0, {}]]], "class_name": "Activation", "config": {"name": "activation_37", "trainable": true, "activation": "relu"}, "name": "activation_37"}, {"inbound_nodes": [[["activation_32", 0, 0, {}]]], "class_name": "Conv2D", "config": {"use_bias": false, "padding": "same", "kernel_constraint": null, "strides": [1, 1], "kernel_initializer": {"class_name": "VarianceScaling", "config": {"mode": "fan_avg", "seed": null, "distribution": "uniform", "scale": 1.0}}, "data_format": "channels_last", "name": "conv2d_33", "bias_initializer": {"class_name": "Zeros", "config": {}}, "filters": 128, "trainable": true, "dilation_rate": [1, 1], "activation": "linear", "activity_regularizer": null, "bias_regularizer": null, "kernel_regularizer": null, "kernel_size": [1, 7], "bias_constraint": null}, "name": "conv2d_33"}, {"inbound_nodes": [[["activation_37", 0, 0, {}]]], "class_name": "Conv2D", "config": {"use_bias": false, "padding": "same", "kernel_constraint": null, "strides": [1, 1], "kernel_initializer": {"class_name": "VarianceScaling", "config": {"mode": "fan_avg", "seed": null, "distribution": "uniform", "scale": 1.0}}, "data_format": "channels_last", "name": "conv2d_38", "bias_initializer": {"class_name": "Zeros", "config": {}}, "filters": 128, "trainable": true, "dilation_rate": [1, 1], "activation": "linear", "activity_regularizer": null, "bias_regularizer": null, "kernel_regularizer": null, "kernel_size": [7, 1], "bias_constraint": null}, "name": "conv2d_38"}, {"inbound_nodes": [[["conv2d_33", 0, 0, {}]]], "class_name": "BatchNormalization", "config": {"moving_variance_initializer": {"class_name": "Ones", "config": {}}, "moving_mean_initializer": {"class_name": "Zeros", "config": {}}, "beta_regularizer": null, "gamma_initializer": {"class_name": "Ones", "config": {}}, "beta_initializer": {"class_name": "Zeros", "config": {}}, "center": true, "scale": false, "epsilon": 0.001, "beta_constraint": null, "trainable": true, "axis": 3, "name": "batch_normalization_33", "gamma_regularizer": null, "momentum": 0.99, "gamma_constraint": null}, "name": "batch_normalization_33"}, {"inbound_nodes": [[["conv2d_38", 0, 0, {}]]], "class_name": "BatchNormalization", "config": {"moving_variance_initializer": {"class_name": "Ones", "config": {}}, "moving_mean_initializer": {"class_name": "Zeros", "config": {}}, "beta_regularizer": null, "gamma_initializer": {"class_name": "Ones", "config": {}}, "beta_initializer": {"class_name": "Zeros", "config": {}}, "center": true, "scale": false, "epsilon": 0.001, "beta_constraint": null, "trainable": true, "axis": 3, "name": "batch_normalization_38", "gamma_regularizer": null, "momentum": 0.99, "gamma_constraint": null}, "name": "batch_normalization_38"}, {"inbound_nodes": [[["batch_normalization_33", 0, 0, {}]]], "class_name": "Activation", "config": {"name": "activation_33", "trainable": true, "activation": "relu"}, "name": "activation_33"}, {"inbound_nodes": [[["batch_normalization_38", 0, 0, {}]]], "class_name": "Activation", "config": {"name": "activation_38", "trainable": true, "activation": "relu"}, "name": "activation_38"}, {"inbound_nodes": [[["mixed3", 0, 0, {}]]], "class_name": "AveragePooling2D", "config": {"padding": "same", "trainable": true, "pool_size": [3, 3], "name": "average_pooling2d_4", "strides": [1, 1], "data_format": "channels_last"}, "name": "average_pooling2d_4"}, {"inbound_nodes": [[["mixed3", 0, 0, {}]]], "class_name": "Conv2D", "config": {"use_bias": false, "padding": "same", "kernel_constraint": null, "strides": [1, 1], "kernel_initializer": {"class_name": "VarianceScaling", "config": {"mode": "fan_avg", "seed": null, "distribution": "uniform", "scale": 1.0}}, "data_format": "channels_last", "name": "conv2d_31", "bias_initializer": {"class_name": "Zeros", "config": {}}, "filters": 192, "trainable": true, "dilation_rate": [1, 1], "activation": "linear", "activity_regularizer": null, "bias_regularizer": null, "kernel_regularizer": null, "kernel_size": [1, 1], "bias_constraint": null}, "name": "conv2d_31"}, {"inbound_nodes": [[["activation_33", 0, 0, {}]]], "class_name": "Conv2D", "config": {"use_bias": false, "padding": "same", "kernel_constraint": null, "strides": [1, 1], "kernel_initializer": {"class_name": "VarianceScaling", "config": {"mode": "fan_avg", "seed": null, "distribution": "uniform", "scale": 1.0}}, "data_format": "channels_last", "name": "conv2d_34", "bias_initializer": {"class_name": "Zeros", "config": {}}, "filters": 192, "trainable": true, "dilation_rate": [1, 1], "activation": "linear", "activity_regularizer": null, "bias_regularizer": null, "kernel_regularizer": null, "kernel_size": [7, 1], "bias_constraint": null}, "name": "conv2d_34"}, {"inbound_nodes": [[["activation_38", 0, 0, {}]]], "class_name": "Conv2D", "config": {"use_bias": false, "padding": "same", "kernel_constraint": null, "strides": [1, 1], "kernel_initializer": {"class_name": "VarianceScaling", "config": {"mode": "fan_avg", "seed": null, "distribution": "uniform", "scale": 1.0}}, "data_format": "channels_last", "name": "conv2d_39", "bias_initializer": {"class_name": "Zeros", "config": {}}, "filters": 192, "trainable": true, "dilation_rate": [1, 1], "activation": "linear", "activity_regularizer": null, "bias_regularizer": null, "kernel_regularizer": null, "kernel_size": [1, 7], "bias_constraint": null}, "name": "conv2d_39"}, {"inbound_nodes": [[["average_pooling2d_4", 0, 0, {}]]], "class_name": "Conv2D", "config": {"use_bias": false, "padding": "same", "kernel_constraint": null, "strides": [1, 1], "kernel_initializer": {"class_name": "VarianceScaling", "config": {"mode": "fan_avg", "seed": null, "distribution": "uniform", "scale": 1.0}}, "data_format": "channels_last", "name": "conv2d_40", "bias_initializer": {"class_name": "Zeros", "config": {}}, "filters": 192, "trainable": true, "dilation_rate": [1, 1], "activation": "linear", "activity_regularizer": null, "bias_regularizer": null, "kernel_regularizer": null, "kernel_size": [1, 1], "bias_constraint": null}, "name": "conv2d_40"}, {"inbound_nodes": [[["conv2d_31", 0, 0, {}]]], "class_name": "BatchNormalization", "config": {"moving_variance_initializer": {"class_name": "Ones", "config": {}}, "moving_mean_initializer": {"class_name": "Zeros", "config": {}}, "beta_regularizer": null, "gamma_initializer": {"class_name": "Ones", "config": {}}, "beta_initializer": {"class_name": "Zeros", "config": {}}, "center": true, "scale": false, "epsilon": 0.001, "beta_constraint": null, "trainable": true, "axis": 3, "name": "batch_normalization_31", "gamma_regularizer": null, "momentum": 0.99, "gamma_constraint": null}, "name": "batch_normalization_31"}, {"inbound_nodes": [[["conv2d_34", 0, 0, {}]]], "class_name": "BatchNormalization", "config": {"moving_variance_initializer": {"class_name": "Ones", "config": {}}, "moving_mean_initializer": {"class_name": "Zeros", "config": {}}, "beta_regularizer": null, "gamma_initializer": {"class_name": "Ones", "config": {}}, "beta_initializer": {"class_name": "Zeros", "config": {}}, "center": true, "scale": false, "epsilon": 0.001, "beta_constraint": null, "trainable": true, "axis": 3, "name": "batch_normalization_34", "gamma_regularizer": null, "momentum": 0.99, "gamma_constraint": null}, "name": "batch_normalization_34"}, {"inbound_nodes": [[["conv2d_39", 0, 0, {}]]], "class_name": "BatchNormalization", "config": {"moving_variance_initializer": {"class_name": "Ones", "config": {}}, "moving_mean_initializer": {"class_name": "Zeros", "config": {}}, "beta_regularizer": null, "gamma_initializer": {"class_name": "Ones", "config": {}}, "beta_initializer": {"class_name": "Zeros", "config": {}}, "center": true, "scale": false, "epsilon": 0.001, "beta_constraint": null, "trainable": true, "axis": 3, "name": "batch_normalization_39", "gamma_regularizer": null, "momentum": 0.99, "gamma_constraint": null}, "name": "batch_normalization_39"}, {"inbound_nodes": [[["conv2d_40", 0, 0, {}]]], "class_name": "BatchNormalization", "config": {"moving_variance_initializer": {"class_name": "Ones", "config": {}}, "moving_mean_initializer": {"class_name": "Zeros", "config": {}}, "beta_regularizer": null, "gamma_initializer": {"class_name": "Ones", "config": {}}, "beta_initializer": {"class_name": "Zeros", "config": {}}, "center": true, "scale": false, "epsilon": 0.001, "beta_constraint": null, "trainable": true, "axis": 3, "name": "batch_normalization_40", "gamma_regularizer": null, "momentum": 0.99, "gamma_constraint": null}, "name": "batch_normalization_40"}, {"inbound_nodes": [[["batch_normalization_31", 0, 0, {}]]], "class_name": "Activation", "config": {"name": "activation_31", "trainable": true, "activation": "relu"}, "name": "activation_31"}, {"inbound_nodes": [[["batch_normalization_34", 0, 0, {}]]], "class_name": "Activation", "config": {"name": "activation_34", "trainable": true, "activation": "relu"}, "name": "activation_34"}, {"inbound_nodes": [[["batch_normalization_39", 0, 0, {}]]], "class_name": "Activation", "config": {"name": "activation_39", "trainable": true, "activation": "relu"}, "name": "activation_39"}, {"inbound_nodes": [[["batch_normalization_40", 0, 0, {}]]], "class_name": "Activation", "config": {"name": "activation_40", "trainable": true, "activation": "relu"}, "name": "activation_40"}, {"inbound_nodes": [[["activation_31", 0, 0, {}], ["activation_34", 0, 0, {}], ["activation_39", 0, 0, {}], ["activation_40", 0, 0, {}]]], "class_name": "Concatenate", "config": {"trainable": true, "axis": 3, "name": "mixed4"}, "name": "mixed4"}, {"inbound_nodes": [[["mixed4", 0, 0, {}]]], "class_name": "Conv2D", "config": {"use_bias": false, "padding": "same", "kernel_constraint": null, "strides": [1, 1], "kernel_initializer": {"class_name": "VarianceScaling", "config": {"mode": "fan_avg", "seed": null, "distribution": "uniform", "scale": 1.0}}, "data_format": "channels_last", "name": "conv2d_45", "bias_initializer": {"class_name": "Zeros", "config": {}}, "filters": 160, "trainable": true, "dilation_rate": [1, 1], "activation": "linear", "activity_regularizer": null, "bias_regularizer": null, "kernel_regularizer": null, "kernel_size": [1, 1], "bias_constraint": null}, "name": "conv2d_45"}, {"inbound_nodes": [[["conv2d_45", 0, 0, {}]]], "class_name": "BatchNormalization", "config": {"moving_variance_initializer": {"class_name": "Ones", "config": {}}, "moving_mean_initializer": {"class_name": "Zeros", "config": {}}, "beta_regularizer": null, "gamma_initializer": {"class_name": "Ones", "config": {}}, "beta_initializer": {"class_name": "Zeros", "config": {}}, "center": true, "scale": false, "epsilon": 0.001, "beta_constraint": null, "trainable": true, "axis": 3, "name": "batch_normalization_45", "gamma_regularizer": null, "momentum": 0.99, "gamma_constraint": null}, "name": "batch_normalization_45"}, {"inbound_nodes": [[["batch_normalization_45", 0, 0, {}]]], "class_name": "Activation", "config": {"name": "activation_45", "trainable": true, "activation": "relu"}, "name": "activation_45"}, {"inbound_nodes": [[["activation_45", 0, 0, {}]]], "class_name": "Conv2D", "config": {"use_bias": false, "padding": "same", "kernel_constraint": null, "strides": [1, 1], "kernel_initializer": {"class_name": "VarianceScaling", "config": {"mode": "fan_avg", "seed": null, "distribution": "uniform", "scale": 1.0}}, "data_format": "channels_last", "name": "conv2d_46", "bias_initializer": {"class_name": "Zeros", "config": {}}, "filters": 160, "trainable": true, "dilation_rate": [1, 1], "activation": "linear", "activity_regularizer": null, "bias_regularizer": null, "kernel_regularizer": null, "kernel_size": [7, 1], "bias_constraint": null}, "name": "conv2d_46"}, {"inbound_nodes": [[["conv2d_46", 0, 0, {}]]], "class_name": "BatchNormalization", "config": {"moving_variance_initializer": {"class_name": "Ones", "config": {}}, "moving_mean_initializer": {"class_name": "Zeros", "config": {}}, "beta_regularizer": null, "gamma_initializer": {"class_name": "Ones", "config": {}}, "beta_initializer": {"class_name": "Zeros", "config": {}}, "center": true, "scale": false, "epsilon": 0.001, "beta_constraint": null, "trainable": true, "axis": 3, "name": "batch_normalization_46", "gamma_regularizer": null, "momentum": 0.99, "gamma_constraint": null}, "name": "batch_normalization_46"}, {"inbound_nodes": [[["batch_normalization_46", 0, 0, {}]]], "class_name": "Activation", "config": {"name": "activation_46", "trainable": true, "activation": "relu"}, "name": "activation_46"}, {"inbound_nodes": [[["mixed4", 0, 0, {}]]], "class_name": "Conv2D", "config": {"use_bias": false, "padding": "same", "kernel_constraint": null, "strides": [1, 1], "kernel_initializer": {"class_name": "VarianceScaling", "config": {"mode": "fan_avg", "seed": null, "distribution": "uniform", "scale": 1.0}}, "data_format": "channels_last", "name": "conv2d_42", "bias_initializer": {"class_name": "Zeros", "config": {}}, "filters": 160, "trainable": true, "dilation_rate": [1, 1], "activation": "linear", "activity_regularizer": null, "bias_regularizer": null, "kernel_regularizer": null, "kernel_size": [1, 1], "bias_constraint": null}, "name": "conv2d_42"}, {"inbound_nodes": [[["activation_46", 0, 0, {}]]], "class_name": "Conv2D", "config": {"use_bias": false, "padding": "same", "kernel_constraint": null, "strides": [1, 1], "kernel_initializer": {"class_name": "VarianceScaling", "config": {"mode": "fan_avg", "seed": null, "distribution": "uniform", "scale": 1.0}}, "data_format": "channels_last", "name": "conv2d_47", "bias_initializer": {"class_name": "Zeros", "config": {}}, "filters": 160, "trainable": true, "dilation_rate": [1, 1], "activation": "linear", "activity_regularizer": null, "bias_regularizer": null, "kernel_regularizer": null, "kernel_size": [1, 7], "bias_constraint": null}, "name": "conv2d_47"}, {"inbound_nodes": [[["conv2d_42", 0, 0, {}]]], "class_name": "BatchNormalization", "config": {"moving_variance_initializer": {"class_name": "Ones", "config": {}}, "moving_mean_initializer": {"class_name": "Zeros", "config": {}}, "beta_regularizer": null, "gamma_initializer": {"class_name": "Ones", "config": {}}, "beta_initializer": {"class_name": "Zeros", "config": {}}, "center": true, "scale": false, "epsilon": 0.001, "beta_constraint": null, "trainable": true, "axis": 3, "name": "batch_normalization_42", "gamma_regularizer": null, "momentum": 0.99, "gamma_constraint": null}, "name": "batch_normalization_42"}, {"inbound_nodes": [[["conv2d_47", 0, 0, {}]]], "class_name": "BatchNormalization", "config": {"moving_variance_initializer": {"class_name": "Ones", "config": {}}, "moving_mean_initializer": {"class_name": "Zeros", "config": {}}, "beta_regularizer": null, "gamma_initializer": {"class_name": "Ones", "config": {}}, "beta_initializer": {"class_name": "Zeros", "config": {}}, "center": true, "scale": false, "epsilon": 0.001, "beta_constraint": null, "trainable": true, "axis": 3, "name": "batch_normalization_47", "gamma_regularizer": null, "momentum": 0.99, "gamma_constraint": null}, "name": "batch_normalization_47"}, {"inbound_nodes": [[["batch_normalization_42", 0, 0, {}]]], "class_name": "Activation", "config": {"name": "activation_42", "trainable": true, "activation": "relu"}, "name": "activation_42"}, {"inbound_nodes": [[["batch_normalization_47", 0, 0, {}]]], "class_name": "Activation", "config": {"name": "activation_47", "trainable": true, "activation": "relu"}, "name": "activation_47"}, {"inbound_nodes": [[["activation_42", 0, 0, {}]]], "class_name": "Conv2D", "config": {"use_bias": false, "padding": "same", "kernel_constraint": null, "strides": [1, 1], "kernel_initializer": {"class_name": "VarianceScaling", "config": {"mode": "fan_avg", "seed": null, "distribution": "uniform", "scale": 1.0}}, "data_format": "channels_last", "name": "conv2d_43", "bias_initializer": {"class_name": "Zeros", "config": {}}, "filters": 160, "trainable": true, "dilation_rate": [1, 1], "activation": "linear", "activity_regularizer": null, "bias_regularizer": null, "kernel_regularizer": null, "kernel_size": [1, 7], "bias_constraint": null}, "name": "conv2d_43"}, {"inbound_nodes": [[["activation_47", 0, 0, {}]]], "class_name": "Conv2D", "config": {"use_bias": false, "padding": "same", "kernel_constraint": null, "strides": [1, 1], "kernel_initializer": {"class_name": "VarianceScaling", "config": {"mode": "fan_avg", "seed": null, "distribution": "uniform", "scale": 1.0}}, "data_format": "channels_last", "name": "conv2d_48", "bias_initializer": {"class_name": "Zeros", "config": {}}, "filters": 160, "trainable": true, "dilation_rate": [1, 1], "activation": "linear", "activity_regularizer": null, "bias_regularizer": null, "kernel_regularizer": null, "kernel_size": [7, 1], "bias_constraint": null}, "name": "conv2d_48"}, {"inbound_nodes": [[["conv2d_43", 0, 0, {}]]], "class_name": "BatchNormalization", "config": {"moving_variance_initializer": {"class_name": "Ones", "config": {}}, "moving_mean_initializer": {"class_name": "Zeros", "config": {}}, "beta_regularizer": null, "gamma_initializer": {"class_name": "Ones", "config": {}}, "beta_initializer": {"class_name": "Zeros", "config": {}}, "center": true, "scale": false, "epsilon": 0.001, "beta_constraint": null, "trainable": true, "axis": 3, "name": "batch_normalization_43", "gamma_regularizer": null, "momentum": 0.99, "gamma_constraint": null}, "name": "batch_normalization_43"}, {"inbound_nodes": [[["conv2d_48", 0, 0, {}]]], "class_name": "BatchNormalization", "config": {"moving_variance_initializer": {"class_name": "Ones", "config": {}}, "moving_mean_initializer": {"class_name": "Zeros", "config": {}}, "beta_regularizer": null, "gamma_initializer": {"class_name": "Ones", "config": {}}, "beta_initializer": {"class_name": "Zeros", "config": {}}, "center": true, "scale": false, "epsilon": 0.001, "beta_constraint": null, "trainable": true, "axis": 3, "name": "batch_normalization_48", "gamma_regularizer": null, "momentum": 0.99, "gamma_constraint": null}, "name": "batch_normalization_48"}, {"inbound_nodes": [[["batch_normalization_43", 0, 0, {}]]], "class_name": "Activation", "config": {"name": "activation_43", "trainable": true, "activation": "relu"}, "name": "activation_43"}, {"inbound_nodes": [[["batch_normalization_48", 0, 0, {}]]], "class_name": "Activation", "config": {"name": "activation_48", "trainable": true, "activation": "relu"}, "name": "activation_48"}, {"inbound_nodes": [[["mixed4", 0, 0, {}]]], "class_name": "AveragePooling2D", "config": {"padding": "same", "trainable": true, "pool_size": [3, 3], "name": "average_pooling2d_5", "strides": [1, 1], "data_format": "channels_last"}, "name": "average_pooling2d_5"}, {"inbound_nodes": [[["mixed4", 0, 0, {}]]], "class_name": "Conv2D", "config": {"use_bias": false, "padding": "same", "kernel_constraint": null, "strides": [1, 1], "kernel_initializer": {"class_name": "VarianceScaling", "config": {"mode": "fan_avg", "seed": null, "distribution": "uniform", "scale": 1.0}}, "data_format": "channels_last", "name": "conv2d_41", "bias_initializer": {"class_name": "Zeros", "config": {}}, "filters": 192, "trainable": true, "dilation_rate": [1, 1], "activation": "linear", "activity_regularizer": null, "bias_regularizer": null, "kernel_regularizer": null, "kernel_size": [1, 1], "bias_constraint": null}, "name": "conv2d_41"}, {"inbound_nodes": [[["activation_43", 0, 0, {}]]], "class_name": "Conv2D", "config": {"use_bias": false, "padding": "same", "kernel_constraint": null, "strides": [1, 1], "kernel_initializer": {"class_name": "VarianceScaling", "config": {"mode": "fan_avg", "seed": null, "distribution": "uniform", "scale": 1.0}}, "data_format": "channels_last", "name": "conv2d_44", "bias_initializer": {"class_name": "Zeros", "config": {}}, "filters": 192, "trainable": true, "dilation_rate": [1, 1], "activation": "linear", "activity_regularizer": null, "bias_regularizer": null, "kernel_regularizer": null, "kernel_size": [7, 1], "bias_constraint": null}, "name": "conv2d_44"}, {"inbound_nodes": [[["activation_48", 0, 0, {}]]], "class_name": "Conv2D", "config": {"use_bias": false, "padding": "same", "kernel_constraint": null, "strides": [1, 1], "kernel_initializer": {"class_name": "VarianceScaling", "config": {"mode": "fan_avg", "seed": null, "distribution": "uniform", "scale": 1.0}}, "data_format": "channels_last", "name": "conv2d_49", "bias_initializer": {"class_name": "Zeros", "config": {}}, "filters": 192, "trainable": true, "dilation_rate": [1, 1], "activation": "linear", "activity_regularizer": null, "bias_regularizer": null, "kernel_regularizer": null, "kernel_size": [1, 7], "bias_constraint": null}, "name": "conv2d_49"}, {"inbound_nodes": [[["average_pooling2d_5", 0, 0, {}]]], "class_name": "Conv2D", "config": {"use_bias": false, "padding": "same", "kernel_constraint": null, "strides": [1, 1], "kernel_initializer": {"class_name": "VarianceScaling", "config": {"mode": "fan_avg", "seed": null, "distribution": "uniform", "scale": 1.0}}, "data_format": "channels_last", "name": "conv2d_50", "bias_initializer": {"class_name": "Zeros", "config": {}}, "filters": 192, "trainable": true, "dilation_rate": [1, 1], "activation": "linear", "activity_regularizer": null, "bias_regularizer": null, "kernel_regularizer": null, "kernel_size": [1, 1], "bias_constraint": null}, "name": "conv2d_50"}, {"inbound_nodes": [[["conv2d_41", 0, 0, {}]]], "class_name": "BatchNormalization", "config": {"moving_variance_initializer": {"class_name": "Ones", "config": {}}, "moving_mean_initializer": {"class_name": "Zeros", "config": {}}, "beta_regularizer": null, "gamma_initializer": {"class_name": "Ones", "config": {}}, "beta_initializer": {"class_name": "Zeros", "config": {}}, "center": true, "scale": false, "epsilon": 0.001, "beta_constraint": null, "trainable": true, "axis": 3, "name": "batch_normalization_41", "gamma_regularizer": null, "momentum": 0.99, "gamma_constraint": null}, "name": "batch_normalization_41"}, {"inbound_nodes": [[["conv2d_44", 0, 0, {}]]], "class_name": "BatchNormalization", "config": {"moving_variance_initializer": {"class_name": "Ones", "config": {}}, "moving_mean_initializer": {"class_name": "Zeros", "config": {}}, "beta_regularizer": null, "gamma_initializer": {"class_name": "Ones", "config": {}}, "beta_initializer": {"class_name": "Zeros", "config": {}}, "center": true, "scale": false, "epsilon": 0.001, "beta_constraint": null, "trainable": true, "axis": 3, "name": "batch_normalization_44", "gamma_regularizer": null, "momentum": 0.99, "gamma_constraint": null}, "name": "batch_normalization_44"}, {"inbound_nodes": [[["conv2d_49", 0, 0, {}]]], "class_name": "BatchNormalization", "config": {"moving_variance_initializer": {"class_name": "Ones", "config": {}}, "moving_mean_initializer": {"class_name": "Zeros", "config": {}}, "beta_regularizer": null, "gamma_initializer": {"class_name": "Ones", "config": {}}, "beta_initializer": {"class_name": "Zeros", "config": {}}, "center": true, "scale": false, "epsilon": 0.001, "beta_constraint": null, "trainable": true, "axis": 3, "name": "batch_normalization_49", "gamma_regularizer": null, "momentum": 0.99, "gamma_constraint": null}, "name": "batch_normalization_49"}, {"inbound_nodes": [[["conv2d_50", 0, 0, {}]]], "class_name": "BatchNormalization", "config": {"moving_variance_initializer": {"class_name": "Ones", "config": {}}, "moving_mean_initializer": {"class_name": "Zeros", "config": {}}, "beta_regularizer": null, "gamma_initializer": {"class_name": "Ones", "config": {}}, "beta_initializer": {"class_name": "Zeros", "config": {}}, "center": true, "scale": false, "epsilon": 0.001, "beta_constraint": null, "trainable": true, "axis": 3, "name": "batch_normalization_50", "gamma_regularizer": null, "momentum": 0.99, "gamma_constraint": null}, "name": "batch_normalization_50"}, {"inbound_nodes": [[["batch_normalization_41", 0, 0, {}]]], "class_name": "Activation", "config": {"name": "activation_41", "trainable": true, "activation": "relu"}, "name": "activation_41"}, {"inbound_nodes": [[["batch_normalization_44", 0, 0, {}]]], "class_name": "Activation", "config": {"name": "activation_44", "trainable": true, "activation": "relu"}, "name": "activation_44"}, {"inbound_nodes": [[["batch_normalization_49", 0, 0, {}]]], "class_name": "Activation", "config": {"name": "activation_49", "trainable": true, "activation": "relu"}, "name": "activation_49"}, {"inbound_nodes": [[["batch_normalization_50", 0, 0, {}]]], "class_name": "Activation", "config": {"name": "activation_50", "trainable": true, "activation": "relu"}, "name": "activation_50"}, {"inbound_nodes": [[["activation_41", 0, 0, {}], ["activation_44", 0, 0, {}], ["activation_49", 0, 0, {}], ["activation_50", 0, 0, {}]]], "class_name": "Concatenate", "config": {"trainable": true, "axis": 3, "name": "mixed5"}, "name": "mixed5"}, {"inbound_nodes": [[["mixed5", 0, 0, {}]]], "class_name": "GlobalAveragePooling2D", "config": {"trainable": true, "data_format": "channels_last", "name": "global_average_pooling2d_1"}, "name": "global_average_pooling2d_1"}, {"inbound_nodes": [[["global_average_pooling2d_1", 0, 0, {}]]], "class_name": "Dense", "config": {"use_bias": true, "kernel_constraint": null, "bias_initializer": {"class_name": "Zeros", "config": {}}, "bias_regularizer": null, "kernel_initializer": {"class_name": "VarianceScaling", "config": {"mode": "fan_avg", "seed": null, "distribution": "uniform", "scale": 1.0}}, "trainable": true, "name": "dense_1", "activity_regularizer": null, "activation": "relu", "kernel_regularizer": null, "units": 1024, "bias_constraint": null}, "name": "dense_1"}, {"inbound_nodes": [[["dense_1", 0, 0, {}]]], "class_name": "Dense", "config": {"use_bias": true, "kernel_constraint": null, "bias_initializer": {"class_name": "Zeros", "config": {}}, "bias_regularizer": null, "kernel_initializer": {"class_name": "VarianceScaling", "config": {"mode": "fan_avg", "seed": null, "distribution": "uniform", "scale": 1.0}}, "trainable": true, "name": "dense_2", "activity_regularizer": null, "activation": "linear", "kernel_regularizer": null, "units": 128, "bias_constraint": null}, "name": "dense_2"}], "output_layers": [["dense_2", 0, 0]], "input_layers": [["input_1", 0, 0]], "name": "model_1"}, "keras_version": "2.1.2"}