{"keras_version": "2.1.2", "config": {"input_layers": [["input_anchor", 0, 0], ["input_positive", 0, 0], ["input_negative", 0, 0]], "layers": [{"config": {"batch_input_shape": [null, 224, 224, 3], "sparse": false, "name": "input_anchor", "dtype": "float32"}, "inbound_nodes": [], "name": "input_anchor", "class_name": "InputLayer"}, {"config": {"batch_input_shape": [null, 224, 224, 3], "sparse": false, "name": "input_positive", "dtype": "float32"}, "inbound_nodes": [], "name": "input_positive", "class_name": "InputLayer"}, {"config": {"batch_input_shape": [null, 224, 224, 3], "sparse": false, "name": "input_negative", "dtype": "float32"}, "inbound_nodes": [], "name": "input_negative", "class_name": "InputLayer"}, {"config": {"layers": [{"inbound_nodes": [], "config": {"batch_input_shape": [null, null, null, 3], "sparse": false, "name": "input_1", "dtype": "float32"}, "name": "input_1", "class_name": "InputLayer"}, {"inbound_nodes": [[["input_1", 0, 0, {}]]], "config": {"padding": "valid", "kernel_size": [3, 3], "use_bias": false, "kernel_initializer": {"config": {"seed": null, "distribution": "uniform", "mode": "fan_avg", "scale": 1.0}, "class_name": "VarianceScaling"}, "data_format": "channels_last", "filters": 32, "bias_regularizer": null, "activity_regularizer": null, "dilation_rate": [1, 1], "bias_constraint": null, "name": "conv2d_1", "kernel_constraint": null, "activation": "linear", "trainable": true, "kernel_regularizer": null, "bias_initializer": {"config": {}, "class_name": "Zeros"}, "strides": [2, 2]}, "name": "conv2d_1", "class_name": "Conv2D"}, {"inbound_nodes": [[["conv2d_1", 0, 0, {}]]], "config": {"center": true, "gamma_initializer": {"config": {}, "class_name": "Ones"}, "momentum": 0.99, "beta_regularizer": null, "axis": 3, "scale": false, "moving_variance_initializer": {"config": {}, "class_name": "Ones"}, "gamma_regularizer": null, "name": "batch_normalization_1", "beta_initializer": {"config": {}, "class_name": "Zeros"}, "beta_constraint": null, "trainable": true, "moving_mean_initializer": {"config": {}, "class_name": "Zeros"}, "gamma_constraint": null, "epsilon": 0.001}, "name": "batch_normalization_1", "class_name": "BatchNormalization"}, {"inbound_nodes": [[["batch_normalization_1", 0, 0, {}]]], "config": {"activation": "relu", "trainable": true, "name": "activation_1"}, "name": "activation_1", "class_name": "Activation"}, {"inbound_nodes": [[["activation_1", 0, 0, {}]]], "config": {"padding": "valid", "kernel_size": [3, 3], "use_bias": false, "kernel_initializer": {"config": {"seed": null, "distribution": "uniform", "mode": "fan_avg", "scale": 1.0}, "class_name": "VarianceScaling"}, "data_format": "channels_last", "filters": 32, "bias_regularizer": null, "activity_regularizer": null, "dilation_rate": [1, 1], "bias_constraint": null, "name": "conv2d_2", "kernel_constraint": null, "activation": "linear", "trainable": true, "kernel_regularizer": null, "bias_initializer": {"config": {}, "class_name": "Zeros"}, "strides": [1, 1]}, "name": "conv2d_2", "class_name": "Conv2D"}, {"inbound_nodes": [[["conv2d_2", 0, 0, {}]]], "config": {"center": true, "gamma_initializer": {"config": {}, "class_name": "Ones"}, "momentum": 0.99, "beta_regularizer": null, "axis": 3, "scale": false, "moving_variance_initializer": {"config": {}, "class_name": "Ones"}, "gamma_regularizer": null, "name": "batch_normalization_2", "beta_initializer": {"config": {}, "class_name": "Zeros"}, "beta_constraint": null, "trainable": true, "moving_mean_initializer": {"config": {}, "class_name": "Zeros"}, "gamma_constraint": null, "epsilon": 0.001}, "name": "batch_normalization_2", "class_name": "BatchNormalization"}, {"inbound_nodes": [[["batch_normalization_2", 0, 0, {}]]], "config": {"activation": "relu", "trainable": true, "name": "activation_2"}, "name": "activation_2", "class_name": "Activation"}, {"inbound_nodes": [[["activation_2", 0, 0, {}]]], "config": {"padding": "same", "kernel_size": [3, 3], "use_bias": false, "kernel_initializer": {"config": {"seed": null, "distribution": "uniform", "mode": "fan_avg", "scale": 1.0}, "class_name": "VarianceScaling"}, "data_format": "channels_last", "filters": 64, "bias_regularizer": null, "activity_regularizer": null, "dilation_rate": [1, 1], "bias_constraint": null, "name": "conv2d_3", "kernel_constraint": null, "activation": "linear", "trainable": true, "kernel_regularizer": null, "bias_initializer": {"config": {}, "class_name": "Zeros"}, "strides": [1, 1]}, "name": "conv2d_3", "class_name": "Conv2D"}, {"inbound_nodes": [[["conv2d_3", 0, 0, {}]]], "config": {"center": true, "gamma_initializer": {"config": {}, "class_name": "Ones"}, "momentum": 0.99, "beta_regularizer": null, "axis": 3, "scale": false, "moving_variance_initializer": {"config": {}, "class_name": "Ones"}, "gamma_regularizer": null, "name": "batch_normalization_3", "beta_initializer": {"config": {}, "class_name": "Zeros"}, "beta_constraint": null, "trainable": true, "moving_mean_initializer": {"config": {}, "class_name": "Zeros"}, "gamma_constraint": null, "epsilon": 0.001}, "name": "batch_normalization_3", "class_name": "BatchNormalization"}, {"inbound_nodes": [[["batch_normalization_3", 0, 0, {}]]], "config": {"activation": "relu", "trainable": true, "name": "activation_3"}, "name": "activation_3", "class_name": "Activation"}, {"inbound_nodes": [[["activation_3", 0, 0, {}]]], "config": {"padding": "valid", "data_format": "channels_last", "name": "max_pooling2d_1", "pool_size": [3, 3], "trainable": true, "strides": [2, 2]}, "name": "max_pooling2d_1", "class_name": "MaxPooling2D"}, {"inbound_nodes": [[["max_pooling2d_1", 0, 0, {}]]], "config": {"padding": "valid", "kernel_size": [1, 1], "use_bias": false, "kernel_initializer": {"config": {"seed": null, "distribution": "uniform", "mode": "fan_avg", "scale": 1.0}, "class_name": "VarianceScaling"}, "data_format": "channels_last", "filters": 80, "bias_regularizer": null, "activity_regularizer": null, "dilation_rate": [1, 1], "bias_constraint": null, "name": "conv2d_4", "kernel_constraint": null, "activation": "linear", "trainable": true, "kernel_regularizer": null, "bias_initializer": {"config": {}, "class_name": "Zeros"}, "strides": [1, 1]}, "name": "conv2d_4", "class_name": "Conv2D"}, {"inbound_nodes": [[["conv2d_4", 0, 0, {}]]], "config": {"center": true, "gamma_initializer": {"config": {}, "class_name": "Ones"}, "momentum": 0.99, "beta_regularizer": null, "axis": 3, "scale": false, "moving_variance_initializer": {"config": {}, "class_name": "Ones"}, "gamma_regularizer": null, "name": "batch_normalization_4", "beta_initializer": {"config": {}, "class_name": "Zeros"}, "beta_constraint": null, "trainable": true, "moving_mean_initializer": {"config": {}, "class_name": "Zeros"}, "gamma_constraint": null, "epsilon": 0.001}, "name": "batch_normalization_4", "class_name": "BatchNormalization"}, {"inbound_nodes": [[["batch_normalization_4", 0, 0, {}]]], "config": {"activation": "relu", "trainable": true, "name": "activation_4"}, "name": "activation_4", "class_name": "Activation"}, {"inbound_nodes": [[["activation_4", 0, 0, {}]]], "config": {"padding": "valid", "kernel_size": [3, 3], "use_bias": false, "kernel_initializer": {"config": {"seed": null, "distribution": "uniform", "mode": "fan_avg", "scale": 1.0}, "class_name": "VarianceScaling"}, "data_format": "channels_last", "filters": 192, "bias_regularizer": null, "activity_regularizer": null, "dilation_rate": [1, 1], "bias_constraint": null, "name": "conv2d_5", "kernel_constraint": null, "activation": "linear", "trainable": true, "kernel_regularizer": null, "bias_initializer": {"config": {}, "class_name": "Zeros"}, "strides": [1, 1]}, "name": "conv2d_5", "class_name": "Conv2D"}, {"inbound_nodes": [[["conv2d_5", 0, 0, {}]]], "config": {"center": true, "gamma_initializer": {"config": {}, "class_name": "Ones"}, "momentum": 0.99, "beta_regularizer": null, "axis": 3, "scale": false, "moving_variance_initializer": {"config": {}, "class_name": "Ones"}, "gamma_regularizer": null, "name": "batch_normalization_5", "beta_initializer": {"config": {}, "class_name": "Zeros"}, "beta_constraint": null, "trainable": true, "moving_mean_initializer": {"config": {}, "class_name": "Zeros"}, "gamma_constraint": null, "epsilon": 0.001}, "name": "batch_normalization_5", "class_name": "BatchNormalization"}, {"inbound_nodes": [[["batch_normalization_5", 0, 0, {}]]], "config": {"activation": "relu", "trainable": true, "name": "activation_5"}, "name": "activation_5", "class_name": "Activation"}, {"inbound_nodes": [[["activation_5", 0, 0, {}]]], "config": {"padding": "valid", "data_format": "channels_last", "name": "max_pooling2d_2", "pool_size": [3, 3], "trainable": true, "strides": [2, 2]}, "name": "max_pooling2d_2", "class_name": "MaxPooling2D"}, {"inbound_nodes": [[["max_pooling2d_2", 0, 0, {}]]], "config": {"padding": "same", "kernel_size": [1, 1], "use_bias": false, "kernel_initializer": {"config": {"seed": null, "distribution": "uniform", "mode": "fan_avg", "scale": 1.0}, "class_name": "VarianceScaling"}, "data_format": "channels_last", "filters": 64, "bias_regularizer": null, "activity_regularizer": null, "dilation_rate": [1, 1], "bias_constraint": null, "name": "conv2d_9", "kernel_constraint": null, "activation": "linear", "trainable": true, "kernel_regularizer": null, "bias_initializer": {"config": {}, "class_name": "Zeros"}, "strides": [1, 1]}, "name": "conv2d_9", "class_name": "Conv2D"}, {"inbound_nodes": [[["conv2d_9", 0, 0, {}]]], "config": {"center": true, "gamma_initializer": {"config": {}, "class_name": "Ones"}, "momentum": 0.99, "beta_regularizer": null, "axis": 3, "scale": false, "moving_variance_initializer": {"config": {}, "class_name": "Ones"}, "gamma_regularizer": null, "name": "batch_normalization_9", "beta_initializer": {"config": {}, "class_name": "Zeros"}, "beta_constraint": null, "trainable": true, "moving_mean_initializer": {"config": {}, "class_name": "Zeros"}, "gamma_constraint": null, "epsilon": 0.001}, "name": "batch_normalization_9", "class_name": "BatchNormalization"}, {"inbound_nodes": [[["batch_normalization_9", 0, 0, {}]]], "config": {"activation": "relu", "trainable": true, "name": "activation_9"}, "name": "activation_9", "class_name": "Activation"}, {"inbound_nodes": [[["max_pooling2d_2", 0, 0, {}]]], "config": {"padding": "same", "kernel_size": [1, 1], "use_bias": false, "kernel_initializer": {"config": {"seed": null, "distribution": "uniform", "mode": "fan_avg", "scale": 1.0}, "class_name": "VarianceScaling"}, "data_format": "channels_last", "filters": 48, "bias_regularizer": null, "activity_regularizer": null, "dilation_rate": [1, 1], "bias_constraint": null, "name": "conv2d_7", "kernel_constraint": null, "activation": "linear", "trainable": true, "kernel_regularizer": null, "bias_initializer": {"config": {}, "class_name": "Zeros"}, "strides": [1, 1]}, "name": "conv2d_7", "class_name": "Conv2D"}, {"inbound_nodes": [[["activation_9", 0, 0, {}]]], "config": {"padding": "same", "kernel_size": [3, 3], "use_bias": false, "kernel_initializer": {"config": {"seed": null, "distribution": "uniform", "mode": "fan_avg", "scale": 1.0}, "class_name": "VarianceScaling"}, "data_format": "channels_last", "filters": 96, "bias_regularizer": null, "activity_regularizer": null, "dilation_rate": [1, 1], "bias_constraint": null, "name": "conv2d_10", "kernel_constraint": null, "activation": "linear", "trainable": true, "kernel_regularizer": null, "bias_initializer": {"config": {}, "class_name": "Zeros"}, "strides": [1, 1]}, "name": "conv2d_10", "class_name": "Conv2D"}, {"inbound_nodes": [[["conv2d_7", 0, 0, {}]]], "config": {"center": true, "gamma_initializer": {"config": {}, "class_name": "Ones"}, "momentum": 0.99, "beta_regularizer": null, "axis": 3, "scale": false, "moving_variance_initializer": {"config": {}, "class_name": "Ones"}, "gamma_regularizer": null, "name": "batch_normalization_7", "beta_initializer": {"config": {}, "class_name": "Zeros"}, "beta_constraint": null, "trainable": true, "moving_mean_initializer": {"config": {}, "class_name": "Zeros"}, "gamma_constraint": null, "epsilon": 0.001}, "name": "batch_normalization_7", "class_name": "BatchNormalization"}, {"inbound_nodes": [[["conv2d_10", 0, 0, {}]]], "config": {"center": true, "gamma_initializer": {"config": {}, "class_name": "Ones"}, "momentum": 0.99, "beta_regularizer": null, "axis": 3, "scale": false, "moving_variance_initializer": {"config": {}, "class_name": "Ones"}, "gamma_regularizer": null, "name": "batch_normalization_10", "beta_initializer": {"config": {}, "class_name": "Zeros"}, "beta_constraint": null, "trainable": true, "moving_mean_initializer": {"config": {}, "class_name": "Zeros"}, "gamma_constraint": null, "epsilon": 0.001}, "name": "batch_normalization_10", "class_name": "BatchNormalization"}, {"inbound_nodes": [[["batch_normalization_7", 0, 0, {}]]], "config": {"activation": "relu", "trainable": true, "name": "activation_7"}, "name": "activation_7", "class_name": "Activation"}, {"inbound_nodes": [[["batch_normalization_10", 0, 0, {}]]], "config": {"activation": "relu", "trainable": true, "name": "activation_10"}, "name": "activation_10", "class_name": "Activation"}, {"inbound_nodes": [[["max_pooling2d_2", 0, 0, {}]]], "config": {"padding": "same", "data_format": "channels_last", "name": "average_pooling2d_1", "pool_size": [3, 3], "trainable": true, "strides": [1, 1]}, "name": "average_pooling2d_1", "class_name": "AveragePooling2D"}, {"inbound_nodes": [[["max_pooling2d_2", 0, 0, {}]]], "config": {"padding": "same", "kernel_size": [1, 1], "use_bias": false, "kernel_initializer": {"config": {"seed": null, "distribution": "uniform", "mode": "fan_avg", "scale": 1.0}, "class_name": "VarianceScaling"}, "data_format": "channels_last", "filters": 64, "bias_regularizer": null, "activity_regularizer": null, "dilation_rate": [1, 1], "bias_constraint": null, "name": "conv2d_6", "kernel_constraint": null, "activation": "linear", "trainable": true, "kernel_regularizer": null, "bias_initializer": {"config": {}, "class_name": "Zeros"}, "strides": [1, 1]}, "name": "conv2d_6", "class_name": "Conv2D"}, {"inbound_nodes": [[["activation_7", 0, 0, {}]]], "config": {"padding": "same", "kernel_size": [5, 5], "use_bias": false, "kernel_initializer": {"config": {"seed": null, "distribution": "uniform", "mode": "fan_avg", "scale": 1.0}, "class_name": "VarianceScaling"}, "data_format": "channels_last", "filters": 64, "bias_regularizer": null, "activity_regularizer": null, "dilation_rate": [1, 1], "bias_constraint": null, "name": "conv2d_8", "kernel_constraint": null, "activation": "linear", "trainable": true, "kernel_regularizer": null, "bias_initializer": {"config": {}, "class_name": "Zeros"}, "strides": [1, 1]}, "name": "conv2d_8", "class_name": "Conv2D"}, {"inbound_nodes": [[["activation_10", 0, 0, {}]]], "config": {"padding": "same", "kernel_size": [3, 3], "use_bias": false, "kernel_initializer": {"config": {"seed": null, "distribution": "uniform", "mode": "fan_avg", "scale": 1.0}, "class_name": "VarianceScaling"}, "data_format": "channels_last", "filters": 96, "bias_regularizer": null, "activity_regularizer": null, "dilation_rate": [1, 1], "bias_constraint": null, "name": "conv2d_11", "kernel_constraint": null, "activation": "linear", "trainable": true, "kernel_regularizer": null, "bias_initializer": {"config": {}, "class_name": "Zeros"}, "strides": [1, 1]}, "name": "conv2d_11", "class_name": "Conv2D"}, {"inbound_nodes": [[["average_pooling2d_1", 0, 0, {}]]], "config": {"padding": "same", "kernel_size": [1, 1], "use_bias": false, "kernel_initializer": {"config": {"seed": null, "distribution": "uniform", "mode": "fan_avg", "scale": 1.0}, "class_name": "VarianceScaling"}, "data_format": "channels_last", "filters": 32, "bias_regularizer": null, "activity_regularizer": null, "dilation_rate": [1, 1], "bias_constraint": null, "name": "conv2d_12", "kernel_constraint": null, "activation": "linear", "trainable": true, "kernel_regularizer": null, "bias_initializer": {"config": {}, "class_name": "Zeros"}, "strides": [1, 1]}, "name": "conv2d_12", "class_name": "Conv2D"}, {"inbound_nodes": [[["conv2d_6", 0, 0, {}]]], "config": {"center": true, "gamma_initializer": {"config": {}, "class_name": "Ones"}, "momentum": 0.99, "beta_regularizer": null, "axis": 3, "scale": false, "moving_variance_initializer": {"config": {}, "class_name": "Ones"}, "gamma_regularizer": null, "name": "batch_normalization_6", "beta_initializer": {"config": {}, "class_name": "Zeros"}, "beta_constraint": null, "trainable": true, "moving_mean_initializer": {"config": {}, "class_name": "Zeros"}, "gamma_constraint": null, "epsilon": 0.001}, "name": "batch_normalization_6", "class_name": "BatchNormalization"}, {"inbound_nodes": [[["conv2d_8", 0, 0, {}]]], "config": {"center": true, "gamma_initializer": {"config": {}, "class_name": "Ones"}, "momentum": 0.99, "beta_regularizer": null, "axis": 3, "scale": false, "moving_variance_initializer": {"config": {}, "class_name": "Ones"}, "gamma_regularizer": null, "name": "batch_normalization_8", "beta_initializer": {"config": {}, "class_name": "Zeros"}, "beta_constraint": null, "trainable": true, "moving_mean_initializer": {"config": {}, "class_name": "Zeros"}, "gamma_constraint": null, "epsilon": 0.001}, "name": "batch_normalization_8", "class_name": "BatchNormalization"}, {"inbound_nodes": [[["conv2d_11", 0, 0, {}]]], "config": {"center": true, "gamma_initializer": {"config": {}, "class_name": "Ones"}, "momentum": 0.99, "beta_regularizer": null, "axis": 3, "scale": false, "moving_variance_initializer": {"config": {}, "class_name": "Ones"}, "gamma_regularizer": null, "name": "batch_normalization_11", "beta_initializer": {"config": {}, "class_name": "Zeros"}, "beta_constraint": null, "trainable": true, "moving_mean_initializer": {"config": {}, "class_name": "Zeros"}, "gamma_constraint": null, "epsilon": 0.001}, "name": "batch_normalization_11", "class_name": "BatchNormalization"}, {"inbound_nodes": [[["conv2d_12", 0, 0, {}]]], "config": {"center": true, "gamma_initializer": {"config": {}, "class_name": "Ones"}, "momentum": 0.99, "beta_regularizer": null, "axis": 3, "scale": false, "moving_variance_initializer": {"config": {}, "class_name": "Ones"}, "gamma_regularizer": null, "name": "batch_normalization_12", "beta_initializer": {"config": {}, "class_name": "Zeros"}, "beta_constraint": null, "trainable": true, "moving_mean_initializer": {"config": {}, "class_name": "Zeros"}, "gamma_constraint": null, "epsilon": 0.001}, "name": "batch_normalization_12", "class_name": "BatchNormalization"}, {"inbound_nodes": [[["batch_normalization_6", 0, 0, {}]]], "config": {"activation": "relu", "trainable": true, "name": "activation_6"}, "name": "activation_6", "class_name": "Activation"}, {"inbound_nodes": [[["batch_normalization_8", 0, 0, {}]]], "config": {"activation": "relu", "trainable": true, "name": "activation_8"}, "name": "activation_8", "class_name": "Activation"}, {"inbound_nodes": [[["batch_normalization_11", 0, 0, {}]]], "config": {"activation": "relu", "trainable": true, "name": "activation_11"}, "name": "activation_11", "class_name": "Activation"}, {"inbound_nodes": [[["batch_normalization_12", 0, 0, {}]]], "config": {"activation": "relu", "trainable": true, "name": "activation_12"}, "name": "activation_12", "class_name": "Activation"}, {"inbound_nodes": [[["activation_6", 0, 0, {}], ["activation_8", 0, 0, {}], ["activation_11", 0, 0, {}], ["activation_12", 0, 0, {}]]], "config": {"axis": 3, "trainable": true, "name": "mixed0"}, "name": "mixed0", "class_name": "Concatenate"}, {"inbound_nodes": [[["mixed0", 0, 0, {}]]], "config": {"padding": "same", "kernel_size": [1, 1], "use_bias": false, "kernel_initializer": {"config": {"seed": null, "distribution": "uniform", "mode": "fan_avg", "scale": 1.0}, "class_name": "VarianceScaling"}, "data_format": "channels_last", "filters": 64, "bias_regularizer": null, "activity_regularizer": null, "dilation_rate": [1, 1], "bias_constraint": null, "name": "conv2d_16", "kernel_constraint": null, "activation": "linear", "trainable": true, "kernel_regularizer": null, "bias_initializer": {"config": {}, "class_name": "Zeros"}, "strides": [1, 1]}, "name": "conv2d_16", "class_name": "Conv2D"}, {"inbound_nodes": [[["conv2d_16", 0, 0, {}]]], "config": {"center": true, "gamma_initializer": {"config": {}, "class_name": "Ones"}, "momentum": 0.99, "beta_regularizer": null, "axis": 3, "scale": false, "moving_variance_initializer": {"config": {}, "class_name": "Ones"}, "gamma_regularizer": null, "name": "batch_normalization_16", "beta_initializer": {"config": {}, "class_name": "Zeros"}, "beta_constraint": null, "trainable": true, "moving_mean_initializer": {"config": {}, "class_name": "Zeros"}, "gamma_constraint": null, "epsilon": 0.001}, "name": "batch_normalization_16", "class_name": "BatchNormalization"}, {"inbound_nodes": [[["batch_normalization_16", 0, 0, {}]]], "config": {"activation": "relu", "trainable": true, "name": "activation_16"}, "name": "activation_16", "class_name": "Activation"}, {"inbound_nodes": [[["mixed0", 0, 0, {}]]], "config": {"padding": "same", "kernel_size": [1, 1], "use_bias": false, "kernel_initializer": {"config": {"seed": null, "distribution": "uniform", "mode": "fan_avg", "scale": 1.0}, "class_name": "VarianceScaling"}, "data_format": "channels_last", "filters": 48, "bias_regularizer": null, "activity_regularizer": null, "dilation_rate": [1, 1], "bias_constraint": null, "name": "conv2d_14", "kernel_constraint": null, "activation": "linear", "trainable": true, "kernel_regularizer": null, "bias_initializer": {"config": {}, "class_name": "Zeros"}, "strides": [1, 1]}, "name": "conv2d_14", "class_name": "Conv2D"}, {"inbound_nodes": [[["activation_16", 0, 0, {}]]], "config": {"padding": "same", "kernel_size": [3, 3], "use_bias": false, "kernel_initializer": {"config": {"seed": null, "distribution": "uniform", "mode": "fan_avg", "scale": 1.0}, "class_name": "VarianceScaling"}, "data_format": "channels_last", "filters": 96, "bias_regularizer": null, "activity_regularizer": null, "dilation_rate": [1, 1], "bias_constraint": null, "name": "conv2d_17", "kernel_constraint": null, "activation": "linear", "trainable": true, "kernel_regularizer": null, "bias_initializer": {"config": {}, "class_name": "Zeros"}, "strides": [1, 1]}, "name": "conv2d_17", "class_name": "Conv2D"}, {"inbound_nodes": [[["conv2d_14", 0, 0, {}]]], "config": {"center": true, "gamma_initializer": {"config": {}, "class_name": "Ones"}, "momentum": 0.99, "beta_regularizer": null, "axis": 3, "scale": false, "moving_variance_initializer": {"config": {}, "class_name": "Ones"}, "gamma_regularizer": null, "name": "batch_normalization_14", "beta_initializer": {"config": {}, "class_name": "Zeros"}, "beta_constraint": null, "trainable": true, "moving_mean_initializer": {"config": {}, "class_name": "Zeros"}, "gamma_constraint": null, "epsilon": 0.001}, "name": "batch_normalization_14", "class_name": "BatchNormalization"}, {"inbound_nodes": [[["conv2d_17", 0, 0, {}]]], "config": {"center": true, "gamma_initializer": {"config": {}, "class_name": "Ones"}, "momentum": 0.99, "beta_regularizer": null, "axis": 3, "scale": false, "moving_variance_initializer": {"config": {}, "class_name": "Ones"}, "gamma_regularizer": null, "name": "batch_normalization_17", "beta_initializer": {"config": {}, "class_name": "Zeros"}, "beta_constraint": null, "trainable": true, "moving_mean_initializer": {"config": {}, "class_name": "Zeros"}, "gamma_constraint": null, "epsilon": 0.001}, "name": "batch_normalization_17", "class_name": "BatchNormalization"}, {"inbound_nodes": [[["batch_normalization_14", 0, 0, {}]]], "config": {"activation": "relu", "trainable": true, "name": "activation_14"}, "name": "activation_14", "class_name": "Activation"}, {"inbound_nodes": [[["batch_normalization_17", 0, 0, {}]]], "config": {"activation": "relu", "trainable": true, "name": "activation_17"}, "name": "activation_17", "class_name": "Activation"}, {"inbound_nodes": [[["mixed0", 0, 0, {}]]], "config": {"padding": "same", "data_format": "channels_last", "name": "average_pooling2d_2", "pool_size": [3, 3], "trainable": true, "strides": [1, 1]}, "name": "average_pooling2d_2", "class_name": "AveragePooling2D"}, {"inbound_nodes": [[["mixed0", 0, 0, {}]]], "config": {"padding": "same", "kernel_size": [1, 1], "use_bias": false, "kernel_initializer": {"config": {"seed": null, "distribution": "uniform", "mode": "fan_avg", "scale": 1.0}, "class_name": "VarianceScaling"}, "data_format": "channels_last", "filters": 64, "bias_regularizer": null, "activity_regularizer": null, "dilation_rate": [1, 1], "bias_constraint": null, "name": "conv2d_13", "kernel_constraint": null, "activation": "linear", "trainable": true, "kernel_regularizer": null, "bias_initializer": {"config": {}, "class_name": "Zeros"}, "strides": [1, 1]}, "name": "conv2d_13", "class_name": "Conv2D"}, {"inbound_nodes": [[["activation_14", 0, 0, {}]]], "config": {"padding": "same", "kernel_size": [5, 5], "use_bias": false, "kernel_initializer": {"config": {"seed": null, "distribution": "uniform", "mode": "fan_avg", "scale": 1.0}, "class_name": "VarianceScaling"}, "data_format": "channels_last", "filters": 64, "bias_regularizer": null, "activity_regularizer": null, "dilation_rate": [1, 1], "bias_constraint": null, "name": "conv2d_15", "kernel_constraint": null, "activation": "linear", "trainable": true, "kernel_regularizer": null, "bias_initializer": {"config": {}, "class_name": "Zeros"}, "strides": [1, 1]}, "name": "conv2d_15", "class_name": "Conv2D"}, {"inbound_nodes": [[["activation_17", 0, 0, {}]]], "config": {"padding": "same", "kernel_size": [3, 3], "use_bias": false, "kernel_initializer": {"config": {"seed": null, "distribution": "uniform", "mode": "fan_avg", "scale": 1.0}, "class_name": "VarianceScaling"}, "data_format": "channels_last", "filters": 96, "bias_regularizer": null, "activity_regularizer": null, "dilation_rate": [1, 1], "bias_constraint": null, "name": "conv2d_18", "kernel_constraint": null, "activation": "linear", "trainable": true, "kernel_regularizer": null, "bias_initializer": {"config": {}, "class_name": "Zeros"}, "strides": [1, 1]}, "name": "conv2d_18", "class_name": "Conv2D"}, {"inbound_nodes": [[["average_pooling2d_2", 0, 0, {}]]], "config": {"padding": "same", "kernel_size": [1, 1], "use_bias": false, "kernel_initializer": {"config": {"seed": null, "distribution": "uniform", "mode": "fan_avg", "scale": 1.0}, "class_name": "VarianceScaling"}, "data_format": "channels_last", "filters": 64, "bias_regularizer": null, "activity_regularizer": null, "dilation_rate": [1, 1], "bias_constraint": null, "name": "conv2d_19", "kernel_constraint": null, "activation": "linear", "trainable": true, "kernel_regularizer": null, "bias_initializer": {"config": {}, "class_name": "Zeros"}, "strides": [1, 1]}, "name": "conv2d_19", "class_name": "Conv2D"}, {"inbound_nodes": [[["conv2d_13", 0, 0, {}]]], "config": {"center": true, "gamma_initializer": {"config": {}, "class_name": "Ones"}, "momentum": 0.99, "beta_regularizer": null, "axis": 3, "scale": false, "moving_variance_initializer": {"config": {}, "class_name": "Ones"}, "gamma_regularizer": null, "name": "batch_normalization_13", "beta_initializer": {"config": {}, "class_name": "Zeros"}, "beta_constraint": null, "trainable": true, "moving_mean_initializer": {"config": {}, "class_name": "Zeros"}, "gamma_constraint": null, "epsilon": 0.001}, "name": "batch_normalization_13", "class_name": "BatchNormalization"}, {"inbound_nodes": [[["conv2d_15", 0, 0, {}]]], "config": {"center": true, "gamma_initializer": {"config": {}, "class_name": "Ones"}, "momentum": 0.99, "beta_regularizer": null, "axis": 3, "scale": false, "moving_variance_initializer": {"config": {}, "class_name": "Ones"}, "gamma_regularizer": null, "name": "batch_normalization_15", "beta_initializer": {"config": {}, "class_name": "Zeros"}, "beta_constraint": null, "trainable": true, "moving_mean_initializer": {"config": {}, "class_name": "Zeros"}, "gamma_constraint": null, "epsilon": 0.001}, "name": "batch_normalization_15", "class_name": "BatchNormalization"}, {"inbound_nodes": [[["conv2d_18", 0, 0, {}]]], "config": {"center": true, "gamma_initializer": {"config": {}, "class_name": "Ones"}, "momentum": 0.99, "beta_regularizer": null, "axis": 3, "scale": false, "moving_variance_initializer": {"config": {}, "class_name": "Ones"}, "gamma_regularizer": null, "name": "batch_normalization_18", "beta_initializer": {"config": {}, "class_name": "Zeros"}, "beta_constraint": null, "trainable": true, "moving_mean_initializer": {"config": {}, "class_name": "Zeros"}, "gamma_constraint": null, "epsilon": 0.001}, "name": "batch_normalization_18", "class_name": "BatchNormalization"}, {"inbound_nodes": [[["conv2d_19", 0, 0, {}]]], "config": {"center": true, "gamma_initializer": {"config": {}, "class_name": "Ones"}, "momentum": 0.99, "beta_regularizer": null, "axis": 3, "scale": false, "moving_variance_initializer": {"config": {}, "class_name": "Ones"}, "gamma_regularizer": null, "name": "batch_normalization_19", "beta_initializer": {"config": {}, "class_name": "Zeros"}, "beta_constraint": null, "trainable": true, "moving_mean_initializer": {"config": {}, "class_name": "Zeros"}, "gamma_constraint": null, "epsilon": 0.001}, "name": "batch_normalization_19", "class_name": "BatchNormalization"}, {"inbound_nodes": [[["batch_normalization_13", 0, 0, {}]]], "config": {"activation": "relu", "trainable": true, "name": "activation_13"}, "name": "activation_13", "class_name": "Activation"}, {"inbound_nodes": [[["batch_normalization_15", 0, 0, {}]]], "config": {"activation": "relu", "trainable": true, "name": "activation_15"}, "name": "activation_15", "class_name": "Activation"}, {"inbound_nodes": [[["batch_normalization_18", 0, 0, {}]]], "config": {"activation": "relu", "trainable": true, "name": "activation_18"}, "name": "activation_18", "class_name": "Activation"}, {"inbound_nodes": [[["batch_normalization_19", 0, 0, {}]]], "config": {"activation": "relu", "trainable": true, "name": "activation_19"}, "name": "activation_19", "class_name": "Activation"}, {"inbound_nodes": [[["activation_13", 0, 0, {}], ["activation_15", 0, 0, {}], ["activation_18", 0, 0, {}], ["activation_19", 0, 0, {}]]], "config": {"axis": 3, "trainable": true, "name": "mixed1"}, "name": "mixed1", "class_name": "Concatenate"}, {"inbound_nodes": [[["mixed1", 0, 0, {}]]], "config": {"padding": "same", "kernel_size": [1, 1], "use_bias": false, "kernel_initializer": {"config": {"seed": null, "distribution": "uniform", "mode": "fan_avg", "scale": 1.0}, "class_name": "VarianceScaling"}, "data_format": "channels_last", "filters": 64, "bias_regularizer": null, "activity_regularizer": null, "dilation_rate": [1, 1], "bias_constraint": null, "name": "conv2d_23", "kernel_constraint": null, "activation": "linear", "trainable": true, "kernel_regularizer": null, "bias_initializer": {"config": {}, "class_name": "Zeros"}, "strides": [1, 1]}, "name": "conv2d_23", "class_name": "Conv2D"}, {"inbound_nodes": [[["conv2d_23", 0, 0, {}]]], "config": {"center": true, "gamma_initializer": {"config": {}, "class_name": "Ones"}, "momentum": 0.99, "beta_regularizer": null, "axis": 3, "scale": false, "moving_variance_initializer": {"config": {}, "class_name": "Ones"}, "gamma_regularizer": null, "name": "batch_normalization_23", "beta_initializer": {"config": {}, "class_name": "Zeros"}, "beta_constraint": null, "trainable": true, "moving_mean_initializer": {"config": {}, "class_name": "Zeros"}, "gamma_constraint": null, "epsilon": 0.001}, "name": "batch_normalization_23", "class_name": "BatchNormalization"}, {"inbound_nodes": [[["batch_normalization_23", 0, 0, {}]]], "config": {"activation": "relu", "trainable": true, "name": "activation_23"}, "name": "activation_23", "class_name": "Activation"}, {"inbound_nodes": [[["mixed1", 0, 0, {}]]], "config": {"padding": "same", "kernel_size": [1, 1], "use_bias": false, "kernel_initializer": {"config": {"seed": null, "distribution": "uniform", "mode": "fan_avg", "scale": 1.0}, "class_name": "VarianceScaling"}, "data_format": "channels_last", "filters": 48, "bias_regularizer": null, "activity_regularizer": null, "dilation_rate": [1, 1], "bias_constraint": null, "name": "conv2d_21", "kernel_constraint": null, "activation": "linear", "trainable": true, "kernel_regularizer": null, "bias_initializer": {"config": {}, "class_name": "Zeros"}, "strides": [1, 1]}, "name": "conv2d_21", "class_name": "Conv2D"}, {"inbound_nodes": [[["activation_23", 0, 0, {}]]], "config": {"padding": "same", "kernel_size": [3, 3], "use_bias": false, "kernel_initializer": {"config": {"seed": null, "distribution": "uniform", "mode": "fan_avg", "scale": 1.0}, "class_name": "VarianceScaling"}, "data_format": "channels_last", "filters": 96, "bias_regularizer": null, "activity_regularizer": null, "dilation_rate": [1, 1], "bias_constraint": null, "name": "conv2d_24", "kernel_constraint": null, "activation": "linear", "trainable": true, "kernel_regularizer": null, "bias_initializer": {"config": {}, "class_name": "Zeros"}, "strides": [1, 1]}, "name": "conv2d_24", "class_name": "Conv2D"}, {"inbound_nodes": [[["conv2d_21", 0, 0, {}]]], "config": {"center": true, "gamma_initializer": {"config": {}, "class_name": "Ones"}, "momentum": 0.99, "beta_regularizer": null, "axis": 3, "scale": false, "moving_variance_initializer": {"config": {}, "class_name": "Ones"}, "gamma_regularizer": null, "name": "batch_normalization_21", "beta_initializer": {"config": {}, "class_name": "Zeros"}, "beta_constraint": null, "trainable": true, "moving_mean_initializer": {"config": {}, "class_name": "Zeros"}, "gamma_constraint": null, "epsilon": 0.001}, "name": "batch_normalization_21", "class_name": "BatchNormalization"}, {"inbound_nodes": [[["conv2d_24", 0, 0, {}]]], "config": {"center": true, "gamma_initializer": {"config": {}, "class_name": "Ones"}, "momentum": 0.99, "beta_regularizer": null, "axis": 3, "scale": false, "moving_variance_initializer": {"config": {}, "class_name": "Ones"}, "gamma_regularizer": null, "name": "batch_normalization_24", "beta_initializer": {"config": {}, "class_name": "Zeros"}, "beta_constraint": null, "trainable": true, "moving_mean_initializer": {"config": {}, "class_name": "Zeros"}, "gamma_constraint": null, "epsilon": 0.001}, "name": "batch_normalization_24", "class_name": "BatchNormalization"}, {"inbound_nodes": [[["batch_normalization_21", 0, 0, {}]]], "config": {"activation": "relu", "trainable": true, "name": "activation_21"}, "name": "activation_21", "class_name": "Activation"}, {"inbound_nodes": [[["batch_normalization_24", 0, 0, {}]]], "config": {"activation": "relu", "trainable": true, "name": "activation_24"}, "name": "activation_24", "class_name": "Activation"}, {"inbound_nodes": [[["mixed1", 0, 0, {}]]], "config": {"padding": "same", "data_format": "channels_last", "name": "average_pooling2d_3", "pool_size": [3, 3], "trainable": true, "strides": [1, 1]}, "name": "average_pooling2d_3", "class_name": "AveragePooling2D"}, {"inbound_nodes": [[["mixed1", 0, 0, {}]]], "config": {"padding": "same", "kernel_size": [1, 1], "use_bias": false, "kernel_initializer": {"config": {"seed": null, "distribution": "uniform", "mode": "fan_avg", "scale": 1.0}, "class_name": "VarianceScaling"}, "data_format": "channels_last", "filters": 64, "bias_regularizer": null, "activity_regularizer": null, "dilation_rate": [1, 1], "bias_constraint": null, "name": "conv2d_20", "kernel_constraint": null, "activation": "linear", "trainable": true, "kernel_regularizer": null, "bias_initializer": {"config": {}, "class_name": "Zeros"}, "strides": [1, 1]}, "name": "conv2d_20", "class_name": "Conv2D"}, {"inbound_nodes": [[["activation_21", 0, 0, {}]]], "config": {"padding": "same", "kernel_size": [5, 5], "use_bias": false, "kernel_initializer": {"config": {"seed": null, "distribution": "uniform", "mode": "fan_avg", "scale": 1.0}, "class_name": "VarianceScaling"}, "data_format": "channels_last", "filters": 64, "bias_regularizer": null, "activity_regularizer": null, "dilation_rate": [1, 1], "bias_constraint": null, "name": "conv2d_22", "kernel_constraint": null, "activation": "linear", "trainable": true, "kernel_regularizer": null, "bias_initializer": {"config": {}, "class_name": "Zeros"}, "strides": [1, 1]}, "name": "conv2d_22", "class_name": "Conv2D"}, {"inbound_nodes": [[["activation_24", 0, 0, {}]]], "config": {"padding": "same", "kernel_size": [3, 3], "use_bias": false, "kernel_initializer": {"config": {"seed": null, "distribution": "uniform", "mode": "fan_avg", "scale": 1.0}, "class_name": "VarianceScaling"}, "data_format": "channels_last", "filters": 96, "bias_regularizer": null, "activity_regularizer": null, "dilation_rate": [1, 1], "bias_constraint": null, "name": "conv2d_25", "kernel_constraint": null, "activation": "linear", "trainable": true, "kernel_regularizer": null, "bias_initializer": {"config": {}, "class_name": "Zeros"}, "strides": [1, 1]}, "name": "conv2d_25", "class_name": "Conv2D"}, {"inbound_nodes": [[["average_pooling2d_3", 0, 0, {}]]], "config": {"padding": "same", "kernel_size": [1, 1], "use_bias": false, "kernel_initializer": {"config": {"seed": null, "distribution": "uniform", "mode": "fan_avg", "scale": 1.0}, "class_name": "VarianceScaling"}, "data_format": "channels_last", "filters": 64, "bias_regularizer": null, "activity_regularizer": null, "dilation_rate": [1, 1], "bias_constraint": null, "name": "conv2d_26", "kernel_constraint": null, "activation": "linear", "trainable": true, "kernel_regularizer": null, "bias_initializer": {"config": {}, "class_name": "Zeros"}, "strides": [1, 1]}, "name": "conv2d_26", "class_name": "Conv2D"}, {"inbound_nodes": [[["conv2d_20", 0, 0, {}]]], "config": {"center": true, "gamma_initializer": {"config": {}, "class_name": "Ones"}, "momentum": 0.99, "beta_regularizer": null, "axis": 3, "scale": false, "moving_variance_initializer": {"config": {}, "class_name": "Ones"}, "gamma_regularizer": null, "name": "batch_normalization_20", "beta_initializer": {"config": {}, "class_name": "Zeros"}, "beta_constraint": null, "trainable": true, "moving_mean_initializer": {"config": {}, "class_name": "Zeros"}, "gamma_constraint": null, "epsilon": 0.001}, "name": "batch_normalization_20", "class_name": "BatchNormalization"}, {"inbound_nodes": [[["conv2d_22", 0, 0, {}]]], "config": {"center": true, "gamma_initializer": {"config": {}, "class_name": "Ones"}, "momentum": 0.99, "beta_regularizer": null, "axis": 3, "scale": false, "moving_variance_initializer": {"config": {}, "class_name": "Ones"}, "gamma_regularizer": null, "name": "batch_normalization_22", "beta_initializer": {"config": {}, "class_name": "Zeros"}, "beta_constraint": null, "trainable": true, "moving_mean_initializer": {"config": {}, "class_name": "Zeros"}, "gamma_constraint": null, "epsilon": 0.001}, "name": "batch_normalization_22", "class_name": "BatchNormalization"}, {"inbound_nodes": [[["conv2d_25", 0, 0, {}]]], "config": {"center": true, "gamma_initializer": {"config": {}, "class_name": "Ones"}, "momentum": 0.99, "beta_regularizer": null, "axis": 3, "scale": false, "moving_variance_initializer": {"config": {}, "class_name": "Ones"}, "gamma_regularizer": null, "name": "batch_normalization_25", "beta_initializer": {"config": {}, "class_name": "Zeros"}, "beta_constraint": null, "trainable": true, "moving_mean_initializer": {"config": {}, "class_name": "Zeros"}, "gamma_constraint": null, "epsilon": 0.001}, "name": "batch_normalization_25", "class_name": "BatchNormalization"}, {"inbound_nodes": [[["conv2d_26", 0, 0, {}]]], "config": {"center": true, "gamma_initializer": {"config": {}, "class_name": "Ones"}, "momentum": 0.99, "beta_regularizer": null, "axis": 3, "scale": false, "moving_variance_initializer": {"config": {}, "class_name": "Ones"}, "gamma_regularizer": null, "name": "batch_normalization_26", "beta_initializer": {"config": {}, "class_name": "Zeros"}, "beta_constraint": null, "trainable": true, "moving_mean_initializer": {"config": {}, "class_name": "Zeros"}, "gamma_constraint": null, "epsilon": 0.001}, "name": "batch_normalization_26", "class_name": "BatchNormalization"}, {"inbound_nodes": [[["batch_normalization_20", 0, 0, {}]]], "config": {"activation": "relu", "trainable": true, "name": "activation_20"}, "name": "activation_20", "class_name": "Activation"}, {"inbound_nodes": [[["batch_normalization_22", 0, 0, {}]]], "config": {"activation": "relu", "trainable": true, "name": "activation_22"}, "name": "activation_22", "class_name": "Activation"}, {"inbound_nodes": [[["batch_normalization_25", 0, 0, {}]]], "config": {"activation": "relu", "trainable": true, "name": "activation_25"}, "name": "activation_25", "class_name": "Activation"}, {"inbound_nodes": [[["batch_normalization_26", 0, 0, {}]]], "config": {"activation": "relu", "trainable": true, "name": "activation_26"}, "name": "activation_26", "class_name": "Activation"}, {"inbound_nodes": [[["activation_20", 0, 0, {}], ["activation_22", 0, 0, {}], ["activation_25", 0, 0, {}], ["activation_26", 0, 0, {}]]], "config": {"axis": 3, "trainable": true, "name": "mixed2"}, "name": "mixed2", "class_name": "Concatenate"}, {"inbound_nodes": [[["mixed2", 0, 0, {}]]], "config": {"padding": "same", "kernel_size": [1, 1], "use_bias": false, "kernel_initializer": {"config": {"seed": null, "distribution": "uniform", "mode": "fan_avg", "scale": 1.0}, "class_name": "VarianceScaling"}, "data_format": "channels_last", "filters": 64, "bias_regularizer": null, "activity_regularizer": null, "dilation_rate": [1, 1], "bias_constraint": null, "name": "conv2d_28", "kernel_constraint": null, "activation": "linear", "trainable": true, "kernel_regularizer": null, "bias_initializer": {"config": {}, "class_name": "Zeros"}, "strides": [1, 1]}, "name": "conv2d_28", "class_name": "Conv2D"}, {"inbound_nodes": [[["conv2d_28", 0, 0, {}]]], "config": {"center": true, "gamma_initializer": {"config": {}, "class_name": "Ones"}, "momentum": 0.99, "beta_regularizer": null, "axis": 3, "scale": false, "moving_variance_initializer": {"config": {}, "class_name": "Ones"}, "gamma_regularizer": null, "name": "batch_normalization_28", "beta_initializer": {"config": {}, "class_name": "Zeros"}, "beta_constraint": null, "trainable": true, "moving_mean_initializer": {"config": {}, "class_name": "Zeros"}, "gamma_constraint": null, "epsilon": 0.001}, "name": "batch_normalization_28", "class_name": "BatchNormalization"}, {"inbound_nodes": [[["batch_normalization_28", 0, 0, {}]]], "config": {"activation": "relu", "trainable": true, "name": "activation_28"}, "name": "activation_28", "class_name": "Activation"}, {"inbound_nodes": [[["activation_28", 0, 0, {}]]], "config": {"padding": "same", "kernel_size": [3, 3], "use_bias": false, "kernel_initializer": {"config": {"seed": null, "distribution": "uniform", "mode": "fan_avg", "scale": 1.0}, "class_name": "VarianceScaling"}, "data_format": "channels_last", "filters": 96, "bias_regularizer": null, "activity_regularizer": null, "dilation_rate": [1, 1], "bias_constraint": null, "name": "conv2d_29", "kernel_constraint": null, "activation": "linear", "trainable": true, "kernel_regularizer": null, "bias_initializer": {"config": {}, "class_name": "Zeros"}, "strides": [1, 1]}, "name": "conv2d_29", "class_name": "Conv2D"}, {"inbound_nodes": [[["conv2d_29", 0, 0, {}]]], "config": {"center": true, "gamma_initializer": {"config": {}, "class_name": "Ones"}, "momentum": 0.99, "beta_regularizer": null, "axis": 3, "scale": false, "moving_variance_initializer": {"config": {}, "class_name": "Ones"}, "gamma_regularizer": null, "name": "batch_normalization_29", "beta_initializer": {"config": {}, "class_name": "Zeros"}, "beta_constraint": null, "trainable": true, "moving_mean_initializer": {"config": {}, "class_name": "Zeros"}, "gamma_constraint": null, "epsilon": 0.001}, "name": "batch_normalization_29", "class_name": "BatchNormalization"}, {"inbound_nodes": [[["batch_normalization_29", 0, 0, {}]]], "config": {"activation": "relu", "trainable": true, "name": "activation_29"}, "name": "activation_29", "class_name": "Activation"}, {"inbound_nodes": [[["mixed2", 0, 0, {}]]], "config": {"padding": "valid", "kernel_size": [3, 3], "use_bias": false, "kernel_initializer": {"config": {"seed": null, "distribution": "uniform", "mode": "fan_avg", "scale": 1.0}, "class_name": "VarianceScaling"}, "data_format": "channels_last", "filters": 384, "bias_regularizer": null, "activity_regularizer": null, "dilation_rate": [1, 1], "bias_constraint": null, "name": "conv2d_27", "kernel_constraint": null, "activation": "linear", "trainable": true, "kernel_regularizer": null, "bias_initializer": {"config": {}, "class_name": "Zeros"}, "strides": [2, 2]}, "name": "conv2d_27", "class_name": "Conv2D"}, {"inbound_nodes": [[["activation_29", 0, 0, {}]]], "config": {"padding": "valid", "kernel_size": [3, 3], "use_bias": false, "kernel_initializer": {"config": {"seed": null, "distribution": "uniform", "mode": "fan_avg", "scale": 1.0}, "class_name": "VarianceScaling"}, "data_format": "channels_last", "filters": 96, "bias_regularizer": null, "activity_regularizer": null, "dilation_rate": [1, 1], "bias_constraint": null, "name": "conv2d_30", "kernel_constraint": null, "activation": "linear", "trainable": true, "kernel_regularizer": null, "bias_initializer": {"config": {}, "class_name": "Zeros"}, "strides": [2, 2]}, "name": "conv2d_30", "class_name": "Conv2D"}, {"inbound_nodes": [[["conv2d_27", 0, 0, {}]]], "config": {"center": true, "gamma_initializer": {"config": {}, "class_name": "Ones"}, "momentum": 0.99, "beta_regularizer": null, "axis": 3, "scale": false, "moving_variance_initializer": {"config": {}, "class_name": "Ones"}, "gamma_regularizer": null, "name": "batch_normalization_27", "beta_initializer": {"config": {}, "class_name": "Zeros"}, "beta_constraint": null, "trainable": true, "moving_mean_initializer": {"config": {}, "class_name": "Zeros"}, "gamma_constraint": null, "epsilon": 0.001}, "name": "batch_normalization_27", "class_name": "BatchNormalization"}, {"inbound_nodes": [[["conv2d_30", 0, 0, {}]]], "config": {"center": true, "gamma_initializer": {"config": {}, "class_name": "Ones"}, "momentum": 0.99, "beta_regularizer": null, "axis": 3, "scale": false, "moving_variance_initializer": {"config": {}, "class_name": "Ones"}, "gamma_regularizer": null, "name": "batch_normalization_30", "beta_initializer": {"config": {}, "class_name": "Zeros"}, "beta_constraint": null, "trainable": true, "moving_mean_initializer": {"config": {}, "class_name": "Zeros"}, "gamma_constraint": null, "epsilon": 0.001}, "name": "batch_normalization_30", "class_name": "BatchNormalization"}, {"inbound_nodes": [[["batch_normalization_27", 0, 0, {}]]], "config": {"activation": "relu", "trainable": true, "name": "activation_27"}, "name": "activation_27", "class_name": "Activation"}, {"inbound_nodes": [[["batch_normalization_30", 0, 0, {}]]], "config": {"activation": "relu", "trainable": true, "name": "activation_30"}, "name": "activation_30", "class_name": "Activation"}, {"inbound_nodes": [[["mixed2", 0, 0, {}]]], "config": {"padding": "valid", "data_format": "channels_last", "name": "max_pooling2d_3", "pool_size": [3, 3], "trainable": true, "strides": [2, 2]}, "name": "max_pooling2d_3", "class_name": "MaxPooling2D"}, {"inbound_nodes": [[["activation_27", 0, 0, {}], ["activation_30", 0, 0, {}], ["max_pooling2d_3", 0, 0, {}]]], "config": {"axis": 3, "trainable": true, "name": "mixed3"}, "name": "mixed3", "class_name": "Concatenate"}, {"inbound_nodes": [[["mixed3", 0, 0, {}]]], "config": {"padding": "same", "kernel_size": [1, 1], "use_bias": false, "kernel_initializer": {"config": {"seed": null, "distribution": "uniform", "mode": "fan_avg", "scale": 1.0}, "class_name": "VarianceScaling"}, "data_format": "channels_last", "filters": 128, "bias_regularizer": null, "activity_regularizer": null, "dilation_rate": [1, 1], "bias_constraint": null, "name": "conv2d_35", "kernel_constraint": null, "activation": "linear", "trainable": true, "kernel_regularizer": null, "bias_initializer": {"config": {}, "class_name": "Zeros"}, "strides": [1, 1]}, "name": "conv2d_35", "class_name": "Conv2D"}, {"inbound_nodes": [[["conv2d_35", 0, 0, {}]]], "config": {"center": true, "gamma_initializer": {"config": {}, "class_name": "Ones"}, "momentum": 0.99, "beta_regularizer": null, "axis": 3, "scale": false, "moving_variance_initializer": {"config": {}, "class_name": "Ones"}, "gamma_regularizer": null, "name": "batch_normalization_35", "beta_initializer": {"config": {}, "class_name": "Zeros"}, "beta_constraint": null, "trainable": true, "moving_mean_initializer": {"config": {}, "class_name": "Zeros"}, "gamma_constraint": null, "epsilon": 0.001}, "name": "batch_normalization_35", "class_name": "BatchNormalization"}, {"inbound_nodes": [[["batch_normalization_35", 0, 0, {}]]], "config": {"activation": "relu", "trainable": true, "name": "activation_35"}, "name": "activation_35", "class_name": "Activation"}, {"inbound_nodes": [[["activation_35", 0, 0, {}]]], "config": {"padding": "same", "kernel_size": [7, 1], "use_bias": false, "kernel_initializer": {"config": {"seed": null, "distribution": "uniform", "mode": "fan_avg", "scale": 1.0}, "class_name": "VarianceScaling"}, "data_format": "channels_last", "filters": 128, "bias_regularizer": null, "activity_regularizer": null, "dilation_rate": [1, 1], "bias_constraint": null, "name": "conv2d_36", "kernel_constraint": null, "activation": "linear", "trainable": true, "kernel_regularizer": null, "bias_initializer": {"config": {}, "class_name": "Zeros"}, "strides": [1, 1]}, "name": "conv2d_36", "class_name": "Conv2D"}, {"inbound_nodes": [[["conv2d_36", 0, 0, {}]]], "config": {"center": true, "gamma_initializer": {"config": {}, "class_name": "Ones"}, "momentum": 0.99, "beta_regularizer": null, "axis": 3, "scale": false, "moving_variance_initializer": {"config": {}, "class_name": "Ones"}, "gamma_regularizer": null, "name": "batch_normalization_36", "beta_initializer": {"config": {}, "class_name": "Zeros"}, "beta_constraint": null, "trainable": true, "moving_mean_initializer": {"config": {}, "class_name": "Zeros"}, "gamma_constraint": null, "epsilon": 0.001}, "name": "batch_normalization_36", "class_name": "BatchNormalization"}, {"inbound_nodes": [[["batch_normalization_36", 0, 0, {}]]], "config": {"activation": "relu", "trainable": true, "name": "activation_36"}, "name": "activation_36", "class_name": "Activation"}, {"inbound_nodes": [[["mixed3", 0, 0, {}]]], "config": {"padding": "same", "kernel_size": [1, 1], "use_bias": false, "kernel_initializer": {"config": {"seed": null, "distribution": "uniform", "mode": "fan_avg", "scale": 1.0}, "class_name": "VarianceScaling"}, "data_format": "channels_last", "filters": 128, "bias_regularizer": null, "activity_regularizer": null, "dilation_rate": [1, 1], "bias_constraint": null, "name": "conv2d_32", "kernel_constraint": null, "activation": "linear", "trainable": true, "kernel_regularizer": null, "bias_initializer": {"config": {}, "class_name": "Zeros"}, "strides": [1, 1]}, "name": "conv2d_32", "class_name": "Conv2D"}, {"inbound_nodes": [[["activation_36", 0, 0, {}]]], "config": {"padding": "same", "kernel_size": [1, 7], "use_bias": false, "kernel_initializer": {"config": {"seed": null, "distribution": "uniform", "mode": "fan_avg", "scale": 1.0}, "class_name": "VarianceScaling"}, "data_format": "channels_last", "filters": 128, "bias_regularizer": null, "activity_regularizer": null, "dilation_rate": [1, 1], "bias_constraint": null, "name": "conv2d_37", "kernel_constraint": null, "activation": "linear", "trainable": true, "kernel_regularizer": null, "bias_initializer": {"config": {}, "class_name": "Zeros"}, "strides": [1, 1]}, "name": "conv2d_37", "class_name": "Conv2D"}, {"inbound_nodes": [[["conv2d_32", 0, 0, {}]]], "config": {"center": true, "gamma_initializer": {"config": {}, "class_name": "Ones"}, "momentum": 0.99, "beta_regularizer": null, "axis": 3, "scale": false, "moving_variance_initializer": {"config": {}, "class_name": "Ones"}, "gamma_regularizer": null, "name": "batch_normalization_32", "beta_initializer": {"config": {}, "class_name": "Zeros"}, "beta_constraint": null, "trainable": true, "moving_mean_initializer": {"config": {}, "class_name": "Zeros"}, "gamma_constraint": null, "epsilon": 0.001}, "name": "batch_normalization_32", "class_name": "BatchNormalization"}, {"inbound_nodes": [[["conv2d_37", 0, 0, {}]]], "config": {"center": true, "gamma_initializer": {"config": {}, "class_name": "Ones"}, "momentum": 0.99, "beta_regularizer": null, "axis": 3, "scale": false, "moving_variance_initializer": {"config": {}, "class_name": "Ones"}, "gamma_regularizer": null, "name": "batch_normalization_37", "beta_initializer": {"config": {}, "class_name": "Zeros"}, "beta_constraint": null, "trainable": true, "moving_mean_initializer": {"config": {}, "class_name": "Zeros"}, "gamma_constraint": null, "epsilon": 0.001}, "name": "batch_normalization_37", "class_name": "BatchNormalization"}, {"inbound_nodes": [[["batch_normalization_32", 0, 0, {}]]], "config": {"activation": "relu", "trainable": true, "name": "activation_32"}, "name": "activation_32", "class_name": "Activation"}, {"inbound_nodes": [[["batch_normalization_37", 0, 0, {}]]], "config": {"activation": "relu", "trainable": true, "name": "activation_37"}, "name": "activation_37", "class_name": "Activation"}, {"inbound_nodes": [[["activation_32", 0, 0, {}]]], "config": {"padding": "same", "kernel_size": [1, 7], "use_bias": false, "kernel_initializer": {"config": {"seed": null, "distribution": "uniform", "mode": "fan_avg", "scale": 1.0}, "class_name": "VarianceScaling"}, "data_format": "channels_last", "filters": 128, "bias_regularizer": null, "activity_regularizer": null, "dilation_rate": [1, 1], "bias_constraint": null, "name": "conv2d_33", "kernel_constraint": null, "activation": "linear", "trainable": true, "kernel_regularizer": null, "bias_initializer": {"config": {}, "class_name": "Zeros"}, "strides": [1, 1]}, "name": "conv2d_33", "class_name": "Conv2D"}, {"inbound_nodes": [[["activation_37", 0, 0, {}]]], "config": {"padding": "same", "kernel_size": [7, 1], "use_bias": false, "kernel_initializer": {"config": {"seed": null, "distribution": "uniform", "mode": "fan_avg", "scale": 1.0}, "class_name": "VarianceScaling"}, "data_format": "channels_last", "filters": 128, "bias_regularizer": null, "activity_regularizer": null, "dilation_rate": [1, 1], "bias_constraint": null, "name": "conv2d_38", "kernel_constraint": null, "activation": "linear", "trainable": true, "kernel_regularizer": null, "bias_initializer": {"config": {}, "class_name": "Zeros"}, "strides": [1, 1]}, "name": "conv2d_38", "class_name": "Conv2D"}, {"inbound_nodes": [[["conv2d_33", 0, 0, {}]]], "config": {"center": true, "gamma_initializer": {"config": {}, "class_name": "Ones"}, "momentum": 0.99, "beta_regularizer": null, "axis": 3, "scale": false, "moving_variance_initializer": {"config": {}, "class_name": "Ones"}, "gamma_regularizer": null, "name": "batch_normalization_33", "beta_initializer": {"config": {}, "class_name": "Zeros"}, "beta_constraint": null, "trainable": true, "moving_mean_initializer": {"config": {}, "class_name": "Zeros"}, "gamma_constraint": null, "epsilon": 0.001}, "name": "batch_normalization_33", "class_name": "BatchNormalization"}, {"inbound_nodes": [[["conv2d_38", 0, 0, {}]]], "config": {"center": true, "gamma_initializer": {"config": {}, "class_name": "Ones"}, "momentum": 0.99, "beta_regularizer": null, "axis": 3, "scale": false, "moving_variance_initializer": {"config": {}, "class_name": "Ones"}, "gamma_regularizer": null, "name": "batch_normalization_38", "beta_initializer": {"config": {}, "class_name": "Zeros"}, "beta_constraint": null, "trainable": true, "moving_mean_initializer": {"config": {}, "class_name": "Zeros"}, "gamma_constraint": null, "epsilon": 0.001}, "name": "batch_normalization_38", "class_name": "BatchNormalization"}, {"inbound_nodes": [[["batch_normalization_33", 0, 0, {}]]], "config": {"activation": "relu", "trainable": true, "name": "activation_33"}, "name": "activation_33", "class_name": "Activation"}, {"inbound_nodes": [[["batch_normalization_38", 0, 0, {}]]], "config": {"activation": "relu", "trainable": true, "name": "activation_38"}, "name": "activation_38", "class_name": "Activation"}, {"inbound_nodes": [[["mixed3", 0, 0, {}]]], "config": {"padding": "same", "data_format": "channels_last", "name": "average_pooling2d_4", "pool_size": [3, 3], "trainable": true, "strides": [1, 1]}, "name": "average_pooling2d_4", "class_name": "AveragePooling2D"}, {"inbound_nodes": [[["mixed3", 0, 0, {}]]], "config": {"padding": "same", "kernel_size": [1, 1], "use_bias": false, "kernel_initializer": {"config": {"seed": null, "distribution": "uniform", "mode": "fan_avg", "scale": 1.0}, "class_name": "VarianceScaling"}, "data_format": "channels_last", "filters": 192, "bias_regularizer": null, "activity_regularizer": null, "dilation_rate": [1, 1], "bias_constraint": null, "name": "conv2d_31", "kernel_constraint": null, "activation": "linear", "trainable": true, "kernel_regularizer": null, "bias_initializer": {"config": {}, "class_name": "Zeros"}, "strides": [1, 1]}, "name": "conv2d_31", "class_name": "Conv2D"}, {"inbound_nodes": [[["activation_33", 0, 0, {}]]], "config": {"padding": "same", "kernel_size": [7, 1], "use_bias": false, "kernel_initializer": {"config": {"seed": null, "distribution": "uniform", "mode": "fan_avg", "scale": 1.0}, "class_name": "VarianceScaling"}, "data_format": "channels_last", "filters": 192, "bias_regularizer": null, "activity_regularizer": null, "dilation_rate": [1, 1], "bias_constraint": null, "name": "conv2d_34", "kernel_constraint": null, "activation": "linear", "trainable": true, "kernel_regularizer": null, "bias_initializer": {"config": {}, "class_name": "Zeros"}, "strides": [1, 1]}, "name": "conv2d_34", "class_name": "Conv2D"}, {"inbound_nodes": [[["activation_38", 0, 0, {}]]], "config": {"padding": "same", "kernel_size": [1, 7], "use_bias": false, "kernel_initializer": {"config": {"seed": null, "distribution": "uniform", "mode": "fan_avg", "scale": 1.0}, "class_name": "VarianceScaling"}, "data_format": "channels_last", "filters": 192, "bias_regularizer": null, "activity_regularizer": null, "dilation_rate": [1, 1], "bias_constraint": null, "name": "conv2d_39", "kernel_constraint": null, "activation": "linear", "trainable": true, "kernel_regularizer": null, "bias_initializer": {"config": {}, "class_name": "Zeros"}, "strides": [1, 1]}, "name": "conv2d_39", "class_name": "Conv2D"}, {"inbound_nodes": [[["average_pooling2d_4", 0, 0, {}]]], "config": {"padding": "same", "kernel_size": [1, 1], "use_bias": false, "kernel_initializer": {"config": {"seed": null, "distribution": "uniform", "mode": "fan_avg", "scale": 1.0}, "class_name": "VarianceScaling"}, "data_format": "channels_last", "filters": 192, "bias_regularizer": null, "activity_regularizer": null, "dilation_rate": [1, 1], "bias_constraint": null, "name": "conv2d_40", "kernel_constraint": null, "activation": "linear", "trainable": true, "kernel_regularizer": null, "bias_initializer": {"config": {}, "class_name": "Zeros"}, "strides": [1, 1]}, "name": "conv2d_40", "class_name": "Conv2D"}, {"inbound_nodes": [[["conv2d_31", 0, 0, {}]]], "config": {"center": true, "gamma_initializer": {"config": {}, "class_name": "Ones"}, "momentum": 0.99, "beta_regularizer": null, "axis": 3, "scale": false, "moving_variance_initializer": {"config": {}, "class_name": "Ones"}, "gamma_regularizer": null, "name": "batch_normalization_31", "beta_initializer": {"config": {}, "class_name": "Zeros"}, "beta_constraint": null, "trainable": true, "moving_mean_initializer": {"config": {}, "class_name": "Zeros"}, "gamma_constraint": null, "epsilon": 0.001}, "name": "batch_normalization_31", "class_name": "BatchNormalization"}, {"inbound_nodes": [[["conv2d_34", 0, 0, {}]]], "config": {"center": true, "gamma_initializer": {"config": {}, "class_name": "Ones"}, "momentum": 0.99, "beta_regularizer": null, "axis": 3, "scale": false, "moving_variance_initializer": {"config": {}, "class_name": "Ones"}, "gamma_regularizer": null, "name": "batch_normalization_34", "beta_initializer": {"config": {}, "class_name": "Zeros"}, "beta_constraint": null, "trainable": true, "moving_mean_initializer": {"config": {}, "class_name": "Zeros"}, "gamma_constraint": null, "epsilon": 0.001}, "name": "batch_normalization_34", "class_name": "BatchNormalization"}, {"inbound_nodes": [[["conv2d_39", 0, 0, {}]]], "config": {"center": true, "gamma_initializer": {"config": {}, "class_name": "Ones"}, "momentum": 0.99, "beta_regularizer": null, "axis": 3, "scale": false, "moving_variance_initializer": {"config": {}, "class_name": "Ones"}, "gamma_regularizer": null, "name": "batch_normalization_39", "beta_initializer": {"config": {}, "class_name": "Zeros"}, "beta_constraint": null, "trainable": true, "moving_mean_initializer": {"config": {}, "class_name": "Zeros"}, "gamma_constraint": null, "epsilon": 0.001}, "name": "batch_normalization_39", "class_name": "BatchNormalization"}, {"inbound_nodes": [[["conv2d_40", 0, 0, {}]]], "config": {"center": true, "gamma_initializer": {"config": {}, "class_name": "Ones"}, "momentum": 0.99, "beta_regularizer": null, "axis": 3, "scale": false, "moving_variance_initializer": {"config": {}, "class_name": "Ones"}, "gamma_regularizer": null, "name": "batch_normalization_40", "beta_initializer": {"config": {}, "class_name": "Zeros"}, "beta_constraint": null, "trainable": true, "moving_mean_initializer": {"config": {}, "class_name": "Zeros"}, "gamma_constraint": null, "epsilon": 0.001}, "name": "batch_normalization_40", "class_name": "BatchNormalization"}, {"inbound_nodes": [[["batch_normalization_31", 0, 0, {}]]], "config": {"activation": "relu", "trainable": true, "name": "activation_31"}, "name": "activation_31", "class_name": "Activation"}, {"inbound_nodes": [[["batch_normalization_34", 0, 0, {}]]], "config": {"activation": "relu", "trainable": true, "name": "activation_34"}, "name": "activation_34", "class_name": "Activation"}, {"inbound_nodes": [[["batch_normalization_39", 0, 0, {}]]], "config": {"activation": "relu", "trainable": true, "name": "activation_39"}, "name": "activation_39", "class_name": "Activation"}, {"inbound_nodes": [[["batch_normalization_40", 0, 0, {}]]], "config": {"activation": "relu", "trainable": true, "name": "activation_40"}, "name": "activation_40", "class_name": "Activation"}, {"inbound_nodes": [[["activation_31", 0, 0, {}], ["activation_34", 0, 0, {}], ["activation_39", 0, 0, {}], ["activation_40", 0, 0, {}]]], "config": {"axis": 3, "trainable": true, "name": "mixed4"}, "name": "mixed4", "class_name": "Concatenate"}, {"inbound_nodes": [[["mixed4", 0, 0, {}]]], "config": {"padding": "same", "kernel_size": [1, 1], "use_bias": false, "kernel_initializer": {"config": {"seed": null, "distribution": "uniform", "mode": "fan_avg", "scale": 1.0}, "class_name": "VarianceScaling"}, "data_format": "channels_last", "filters": 160, "bias_regularizer": null, "activity_regularizer": null, "dilation_rate": [1, 1], "bias_constraint": null, "name": "conv2d_45", "kernel_constraint": null, "activation": "linear", "trainable": true, "kernel_regularizer": null, "bias_initializer": {"config": {}, "class_name": "Zeros"}, "strides": [1, 1]}, "name": "conv2d_45", "class_name": "Conv2D"}, {"inbound_nodes": [[["conv2d_45", 0, 0, {}]]], "config": {"center": true, "gamma_initializer": {"config": {}, "class_name": "Ones"}, "momentum": 0.99, "beta_regularizer": null, "axis": 3, "scale": false, "moving_variance_initializer": {"config": {}, "class_name": "Ones"}, "gamma_regularizer": null, "name": "batch_normalization_45", "beta_initializer": {"config": {}, "class_name": "Zeros"}, "beta_constraint": null, "trainable": true, "moving_mean_initializer": {"config": {}, "class_name": "Zeros"}, "gamma_constraint": null, "epsilon": 0.001}, "name": "batch_normalization_45", "class_name": "BatchNormalization"}, {"inbound_nodes": [[["batch_normalization_45", 0, 0, {}]]], "config": {"activation": "relu", "trainable": true, "name": "activation_45"}, "name": "activation_45", "class_name": "Activation"}, {"inbound_nodes": [[["activation_45", 0, 0, {}]]], "config": {"padding": "same", "kernel_size": [7, 1], "use_bias": false, "kernel_initializer": {"config": {"seed": null, "distribution": "uniform", "mode": "fan_avg", "scale": 1.0}, "class_name": "VarianceScaling"}, "data_format": "channels_last", "filters": 160, "bias_regularizer": null, "activity_regularizer": null, "dilation_rate": [1, 1], "bias_constraint": null, "name": "conv2d_46", "kernel_constraint": null, "activation": "linear", "trainable": true, "kernel_regularizer": null, "bias_initializer": {"config": {}, "class_name": "Zeros"}, "strides": [1, 1]}, "name": "conv2d_46", "class_name": "Conv2D"}, {"inbound_nodes": [[["conv2d_46", 0, 0, {}]]], "config": {"center": true, "gamma_initializer": {"config": {}, "class_name": "Ones"}, "momentum": 0.99, "beta_regularizer": null, "axis": 3, "scale": false, "moving_variance_initializer": {"config": {}, "class_name": "Ones"}, "gamma_regularizer": null, "name": "batch_normalization_46", "beta_initializer": {"config": {}, "class_name": "Zeros"}, "beta_constraint": null, "trainable": true, "moving_mean_initializer": {"config": {}, "class_name": "Zeros"}, "gamma_constraint": null, "epsilon": 0.001}, "name": "batch_normalization_46", "class_name": "BatchNormalization"}, {"inbound_nodes": [[["batch_normalization_46", 0, 0, {}]]], "config": {"activation": "relu", "trainable": true, "name": "activation_46"}, "name": "activation_46", "class_name": "Activation"}, {"inbound_nodes": [[["mixed4", 0, 0, {}]]], "config": {"padding": "same", "kernel_size": [1, 1], "use_bias": false, "kernel_initializer": {"config": {"seed": null, "distribution": "uniform", "mode": "fan_avg", "scale": 1.0}, "class_name": "VarianceScaling"}, "data_format": "channels_last", "filters": 160, "bias_regularizer": null, "activity_regularizer": null, "dilation_rate": [1, 1], "bias_constraint": null, "name": "conv2d_42", "kernel_constraint": null, "activation": "linear", "trainable": true, "kernel_regularizer": null, "bias_initializer": {"config": {}, "class_name": "Zeros"}, "strides": [1, 1]}, "name": "conv2d_42", "class_name": "Conv2D"}, {"inbound_nodes": [[["activation_46", 0, 0, {}]]], "config": {"padding": "same", "kernel_size": [1, 7], "use_bias": false, "kernel_initializer": {"config": {"seed": null, "distribution": "uniform", "mode": "fan_avg", "scale": 1.0}, "class_name": "VarianceScaling"}, "data_format": "channels_last", "filters": 160, "bias_regularizer": null, "activity_regularizer": null, "dilation_rate": [1, 1], "bias_constraint": null, "name": "conv2d_47", "kernel_constraint": null, "activation": "linear", "trainable": true, "kernel_regularizer": null, "bias_initializer": {"config": {}, "class_name": "Zeros"}, "strides": [1, 1]}, "name": "conv2d_47", "class_name": "Conv2D"}, {"inbound_nodes": [[["conv2d_42", 0, 0, {}]]], "config": {"center": true, "gamma_initializer": {"config": {}, "class_name": "Ones"}, "momentum": 0.99, "beta_regularizer": null, "axis": 3, "scale": false, "moving_variance_initializer": {"config": {}, "class_name": "Ones"}, "gamma_regularizer": null, "name": "batch_normalization_42", "beta_initializer": {"config": {}, "class_name": "Zeros"}, "beta_constraint": null, "trainable": true, "moving_mean_initializer": {"config": {}, "class_name": "Zeros"}, "gamma_constraint": null, "epsilon": 0.001}, "name": "batch_normalization_42", "class_name": "BatchNormalization"}, {"inbound_nodes": [[["conv2d_47", 0, 0, {}]]], "config": {"center": true, "gamma_initializer": {"config": {}, "class_name": "Ones"}, "momentum": 0.99, "beta_regularizer": null, "axis": 3, "scale": false, "moving_variance_initializer": {"config": {}, "class_name": "Ones"}, "gamma_regularizer": null, "name": "batch_normalization_47", "beta_initializer": {"config": {}, "class_name": "Zeros"}, "beta_constraint": null, "trainable": true, "moving_mean_initializer": {"config": {}, "class_name": "Zeros"}, "gamma_constraint": null, "epsilon": 0.001}, "name": "batch_normalization_47", "class_name": "BatchNormalization"}, {"inbound_nodes": [[["batch_normalization_42", 0, 0, {}]]], "config": {"activation": "relu", "trainable": true, "name": "activation_42"}, "name": "activation_42", "class_name": "Activation"}, {"inbound_nodes": [[["batch_normalization_47", 0, 0, {}]]], "config": {"activation": "relu", "trainable": true, "name": "activation_47"}, "name": "activation_47", "class_name": "Activation"}, {"inbound_nodes": [[["activation_42", 0, 0, {}]]], "config": {"padding": "same", "kernel_size": [1, 7], "use_bias": false, "kernel_initializer": {"config": {"seed": null, "distribution": "uniform", "mode": "fan_avg", "scale": 1.0}, "class_name": "VarianceScaling"}, "data_format": "channels_last", "filters": 160, "bias_regularizer": null, "activity_regularizer": null, "dilation_rate": [1, 1], "bias_constraint": null, "name": "conv2d_43", "kernel_constraint": null, "activation": "linear", "trainable": true, "kernel_regularizer": null, "bias_initializer": {"config": {}, "class_name": "Zeros"}, "strides": [1, 1]}, "name": "conv2d_43", "class_name": "Conv2D"}, {"inbound_nodes": [[["activation_47", 0, 0, {}]]], "config": {"padding": "same", "kernel_size": [7, 1], "use_bias": false, "kernel_initializer": {"config": {"seed": null, "distribution": "uniform", "mode": "fan_avg", "scale": 1.0}, "class_name": "VarianceScaling"}, "data_format": "channels_last", "filters": 160, "bias_regularizer": null, "activity_regularizer": null, "dilation_rate": [1, 1], "bias_constraint": null, "name": "conv2d_48", "kernel_constraint": null, "activation": "linear", "trainable": true, "kernel_regularizer": null, "bias_initializer": {"config": {}, "class_name": "Zeros"}, "strides": [1, 1]}, "name": "conv2d_48", "class_name": "Conv2D"}, {"inbound_nodes": [[["conv2d_43", 0, 0, {}]]], "config": {"center": true, "gamma_initializer": {"config": {}, "class_name": "Ones"}, "momentum": 0.99, "beta_regularizer": null, "axis": 3, "scale": false, "moving_variance_initializer": {"config": {}, "class_name": "Ones"}, "gamma_regularizer": null, "name": "batch_normalization_43", "beta_initializer": {"config": {}, "class_name": "Zeros"}, "beta_constraint": null, "trainable": true, "moving_mean_initializer": {"config": {}, "class_name": "Zeros"}, "gamma_constraint": null, "epsilon": 0.001}, "name": "batch_normalization_43", "class_name": "BatchNormalization"}, {"inbound_nodes": [[["conv2d_48", 0, 0, {}]]], "config": {"center": true, "gamma_initializer": {"config": {}, "class_name": "Ones"}, "momentum": 0.99, "beta_regularizer": null, "axis": 3, "scale": false, "moving_variance_initializer": {"config": {}, "class_name": "Ones"}, "gamma_regularizer": null, "name": "batch_normalization_48", "beta_initializer": {"config": {}, "class_name": "Zeros"}, "beta_constraint": null, "trainable": true, "moving_mean_initializer": {"config": {}, "class_name": "Zeros"}, "gamma_constraint": null, "epsilon": 0.001}, "name": "batch_normalization_48", "class_name": "BatchNormalization"}, {"inbound_nodes": [[["batch_normalization_43", 0, 0, {}]]], "config": {"activation": "relu", "trainable": true, "name": "activation_43"}, "name": "activation_43", "class_name": "Activation"}, {"inbound_nodes": [[["batch_normalization_48", 0, 0, {}]]], "config": {"activation": "relu", "trainable": true, "name": "activation_48"}, "name": "activation_48", "class_name": "Activation"}, {"inbound_nodes": [[["mixed4", 0, 0, {}]]], "config": {"padding": "same", "data_format": "channels_last", "name": "average_pooling2d_5", "pool_size": [3, 3], "trainable": true, "strides": [1, 1]}, "name": "average_pooling2d_5", "class_name": "AveragePooling2D"}, {"inbound_nodes": [[["mixed4", 0, 0, {}]]], "config": {"padding": "same", "kernel_size": [1, 1], "use_bias": false, "kernel_initializer": {"config": {"seed": null, "distribution": "uniform", "mode": "fan_avg", "scale": 1.0}, "class_name": "VarianceScaling"}, "data_format": "channels_last", "filters": 192, "bias_regularizer": null, "activity_regularizer": null, "dilation_rate": [1, 1], "bias_constraint": null, "name": "conv2d_41", "kernel_constraint": null, "activation": "linear", "trainable": true, "kernel_regularizer": null, "bias_initializer": {"config": {}, "class_name": "Zeros"}, "strides": [1, 1]}, "name": "conv2d_41", "class_name": "Conv2D"}, {"inbound_nodes": [[["activation_43", 0, 0, {}]]], "config": {"padding": "same", "kernel_size": [7, 1], "use_bias": false, "kernel_initializer": {"config": {"seed": null, "distribution": "uniform", "mode": "fan_avg", "scale": 1.0}, "class_name": "VarianceScaling"}, "data_format": "channels_last", "filters": 192, "bias_regularizer": null, "activity_regularizer": null, "dilation_rate": [1, 1], "bias_constraint": null, "name": "conv2d_44", "kernel_constraint": null, "activation": "linear", "trainable": true, "kernel_regularizer": null, "bias_initializer": {"config": {}, "class_name": "Zeros"}, "strides": [1, 1]}, "name": "conv2d_44", "class_name": "Conv2D"}, {"inbound_nodes": [[["activation_48", 0, 0, {}]]], "config": {"padding": "same", "kernel_size": [1, 7], "use_bias": false, "kernel_initializer": {"config": {"seed": null, "distribution": "uniform", "mode": "fan_avg", "scale": 1.0}, "class_name": "VarianceScaling"}, "data_format": "channels_last", "filters": 192, "bias_regularizer": null, "activity_regularizer": null, "dilation_rate": [1, 1], "bias_constraint": null, "name": "conv2d_49", "kernel_constraint": null, "activation": "linear", "trainable": true, "kernel_regularizer": null, "bias_initializer": {"config": {}, "class_name": "Zeros"}, "strides": [1, 1]}, "name": "conv2d_49", "class_name": "Conv2D"}, {"inbound_nodes": [[["average_pooling2d_5", 0, 0, {}]]], "config": {"padding": "same", "kernel_size": [1, 1], "use_bias": false, "kernel_initializer": {"config": {"seed": null, "distribution": "uniform", "mode": "fan_avg", "scale": 1.0}, "class_name": "VarianceScaling"}, "data_format": "channels_last", "filters": 192, "bias_regularizer": null, "activity_regularizer": null, "dilation_rate": [1, 1], "bias_constraint": null, "name": "conv2d_50", "kernel_constraint": null, "activation": "linear", "trainable": true, "kernel_regularizer": null, "bias_initializer": {"config": {}, "class_name": "Zeros"}, "strides": [1, 1]}, "name": "conv2d_50", "class_name": "Conv2D"}, {"inbound_nodes": [[["conv2d_41", 0, 0, {}]]], "config": {"center": true, "gamma_initializer": {"config": {}, "class_name": "Ones"}, "momentum": 0.99, "beta_regularizer": null, "axis": 3, "scale": false, "moving_variance_initializer": {"config": {}, "class_name": "Ones"}, "gamma_regularizer": null, "name": "batch_normalization_41", "beta_initializer": {"config": {}, "class_name": "Zeros"}, "beta_constraint": null, "trainable": true, "moving_mean_initializer": {"config": {}, "class_name": "Zeros"}, "gamma_constraint": null, "epsilon": 0.001}, "name": "batch_normalization_41", "class_name": "BatchNormalization"}, {"inbound_nodes": [[["conv2d_44", 0, 0, {}]]], "config": {"center": true, "gamma_initializer": {"config": {}, "class_name": "Ones"}, "momentum": 0.99, "beta_regularizer": null, "axis": 3, "scale": false, "moving_variance_initializer": {"config": {}, "class_name": "Ones"}, "gamma_regularizer": null, "name": "batch_normalization_44", "beta_initializer": {"config": {}, "class_name": "Zeros"}, "beta_constraint": null, "trainable": true, "moving_mean_initializer": {"config": {}, "class_name": "Zeros"}, "gamma_constraint": null, "epsilon": 0.001}, "name": "batch_normalization_44", "class_name": "BatchNormalization"}, {"inbound_nodes": [[["conv2d_49", 0, 0, {}]]], "config": {"center": true, "gamma_initializer": {"config": {}, "class_name": "Ones"}, "momentum": 0.99, "beta_regularizer": null, "axis": 3, "scale": false, "moving_variance_initializer": {"config": {}, "class_name": "Ones"}, "gamma_regularizer": null, "name": "batch_normalization_49", "beta_initializer": {"config": {}, "class_name": "Zeros"}, "beta_constraint": null, "trainable": true, "moving_mean_initializer": {"config": {}, "class_name": "Zeros"}, "gamma_constraint": null, "epsilon": 0.001}, "name": "batch_normalization_49", "class_name": "BatchNormalization"}, {"inbound_nodes": [[["conv2d_50", 0, 0, {}]]], "config": {"center": true, "gamma_initializer": {"config": {}, "class_name": "Ones"}, "momentum": 0.99, "beta_regularizer": null, "axis": 3, "scale": false, "moving_variance_initializer": {"config": {}, "class_name": "Ones"}, "gamma_regularizer": null, "name": "batch_normalization_50", "beta_initializer": {"config": {}, "class_name": "Zeros"}, "beta_constraint": null, "trainable": true, "moving_mean_initializer": {"config": {}, "class_name": "Zeros"}, "gamma_constraint": null, "epsilon": 0.001}, "name": "batch_normalization_50", "class_name": "BatchNormalization"}, {"inbound_nodes": [[["batch_normalization_41", 0, 0, {}]]], "config": {"activation": "relu", "trainable": true, "name": "activation_41"}, "name": "activation_41", "class_name": "Activation"}, {"inbound_nodes": [[["batch_normalization_44", 0, 0, {}]]], "config": {"activation": "relu", "trainable": true, "name": "activation_44"}, "name": "activation_44", "class_name": "Activation"}, {"inbound_nodes": [[["batch_normalization_49", 0, 0, {}]]], "config": {"activation": "relu", "trainable": true, "name": "activation_49"}, "name": "activation_49", "class_name": "Activation"}, {"inbound_nodes": [[["batch_normalization_50", 0, 0, {}]]], "config": {"activation": "relu", "trainable": true, "name": "activation_50"}, "name": "activation_50", "class_name": "Activation"}, {"inbound_nodes": [[["activation_41", 0, 0, {}], ["activation_44", 0, 0, {}], ["activation_49", 0, 0, {}], ["activation_50", 0, 0, {}]]], "config": {"axis": 3, "trainable": true, "name": "mixed5"}, "name": "mixed5", "class_name": "Concatenate"}, {"inbound_nodes": [[["mixed5", 0, 0, {}]]], "config": {"trainable": true, "data_format": "channels_last", "name": "global_average_pooling2d_1"}, "name": "global_average_pooling2d_1", "class_name": "GlobalAveragePooling2D"}, {"inbound_nodes": [[["global_average_pooling2d_1", 0, 0, {}]]], "config": {"units": 1024, "use_bias": true, "kernel_initializer": {"config": {"seed": null, "distribution": "uniform", "mode": "fan_avg", "scale": 1.0}, "class_name": "VarianceScaling"}, "bias_constraint": null, "bias_regularizer": null, "activity_regularizer": null, "kernel_constraint": null, "name": "dense_1", "activation": "relu", "trainable": true, "kernel_regularizer": null, "bias_initializer": {"config": {}, "class_name": "Zeros"}}, "name": "dense_1", "class_name": "Dense"}, {"inbound_nodes": [[["dense_1", 0, 0, {}]]], "config": {"units": 128, "use_bias": true, "kernel_initializer": {"config": {"seed": null, "distribution": "uniform", "mode": "fan_avg", "scale": 1.0}, "class_name": "VarianceScaling"}, "bias_constraint": null, "bias_regularizer": null, "activity_regularizer": null, "kernel_constraint": null, "name": "dense_2", "activation": "linear", "trainable": true, "kernel_regularizer": null, "bias_initializer": {"config": {}, "class_name": "Zeros"}}, "name": "dense_2", "class_name": "Dense"}], "output_layers": [["dense_2", 0, 0]], "input_layers": [["input_1", 0, 0]], "name": "model_1"}, "inbound_nodes": [[["input_anchor", 0, 0, {}]], [["input_positive", 0, 0, {}]], [["input_negative", 0, 0, {}]]], "name": "model_1", "class_name": "Model"}, {"config": {"output_shape_type": "lambda", "name": "triplet_loss", "function_type": "lambda", "arguments": {}, "trainable": true, "function": ["4wIAAAAAAAAACAAAAAUAAABDAAAAc3oAAAB8AABcAwB9AgB9AwB9BAB0AABqAQB0AABqAgB8AgB8\nAwAYgwEAZAEAZAQAgwEBfQUAdAAAagEAdAAAagIAfAIAfAQAGIMBAGQBAGQFAIMBAX0GAHQAAGoD\nAHQAAGoEAGQDAHwFAHwGABh8AQAXgwIAgwEAfQcAfAcAUykGTtoEYXhpc+kBAAAA5wAAAAAAAAAA\n6f////9yBAAAACkF2gFL2gNzdW3aBnNxdWFyZdoEbWVhbtoHbWF4aW11bSkI2gN2ZWPaBWFscGhh\n2gZhbmNob3LaCHBvc2l0aXZl2ghuZWdhdGl2ZdoDZF9w2gNkX27aBGxvc3OpAHISAAAA+hx0Y25f\ndHJpcGxldGxvc3NfZ2VuZXJhdG9yLnB52gx0cmlwbGV0X2xvc3MVAAAAcwoAAAAAAQ8BIgEiASMB\n", [0.2], null], "output_shape": ["4wEAAAAAAAAABAAAAAMAAABDAAAAcx0AAAB8AABcAwB9AQB9AgB9AwB8AQBkAQAZZAIAZgIAUykD\nTukAAAAA6QEAAACpACkE2gZzaGFwZXPaBnNoYXBlMdoGc2hhcGUy2gZzaGFwZTNyAwAAAHIDAAAA\n+hx0Y25fdHJpcGxldGxvc3NfZ2VuZXJhdG9yLnB52hR0cmlwbGV0X291dHB1dF9zaGFwZSoAAABz\nBAAAAAABDwE=\n", null, null]}, "inbound_nodes": [[["model_1", 1, 0, {}], ["model_1", 2, 0, {}], ["model_1", 3, 0, {}]]], "name": "triplet_loss", "class_name": "Lambda"}], "name": "model_2", "output_layers": [["triplet_loss", 0, 0]]}, "class_name": "Model", "backend": "tensorflow"}