{"backend": "tensorflow", "class_name": "Model", "config": {"layers": [{"inbound_nodes": [], "class_name": "InputLayer", "config": {"sparse": false, "dtype": "float32", "batch_input_shape": [null, 224, 224, 3], "name": "input_anchor"}, "name": "input_anchor"}, {"inbound_nodes": [], "class_name": "InputLayer", "config": {"sparse": false, "dtype": "float32", "batch_input_shape": [null, 224, 224, 3], "name": "input_positive"}, "name": "input_positive"}, {"inbound_nodes": [], "class_name": "InputLayer", "config": {"sparse": false, "dtype": "float32", "batch_input_shape": [null, 224, 224, 3], "name": "input_negative"}, "name": "input_negative"}, {"inbound_nodes": [[["input_anchor", 0, 0, {}]], [["input_positive", 0, 0, {}]], [["input_negative", 0, 0, {}]]], "class_name": "Model", "config": {"layers": [{"inbound_nodes": [], "class_name": "InputLayer", "config": {"sparse": false, "dtype": "float32", "batch_input_shape": [null, null, null, 3], "name": "input_1"}, "name": "input_1"}, {"inbound_nodes": [[["input_1", 0, 0, {}]]], "class_name": "Conv2D", "config": {"use_bias": false, "padding": "valid", "bias_initializer": {"class_name": "Zeros", "config": {}}, "kernel_constraint": null, "strides": [2, 2], "kernel_initializer": {"class_name": "VarianceScaling", "config": {"mode": "fan_avg", "seed": null, "distribution": "uniform", "scale": 1.0}}, "data_format": "channels_last", "filters": 32, "kernel_size": [3, 3], "activation": "linear", "trainable": true, "dilation_rate": [1, 1], "name": "conv2d_1", "activity_regularizer": null, "kernel_regularizer": null, "bias_regularizer": null, "bias_constraint": null}, "name": "conv2d_1"}, {"inbound_nodes": [[["conv2d_1", 0, 0, {}]]], "class_name": "BatchNormalization", "config": {"moving_variance_initializer": {"class_name": "Ones", "config": {}}, "moving_mean_initializer": {"class_name": "Zeros", "config": {}}, "beta_regularizer": null, "epsilon": 0.001, "beta_initializer": {"class_name": "Zeros", "config": {}}, "center": true, "scale": false, "gamma_initializer": {"class_name": "Ones", "config": {}}, "beta_constraint": null, "trainable": true, "axis": 3, "name": "batch_normalization_1", "gamma_regularizer": null, "momentum": 0.99, "gamma_constraint": null}, "name": "batch_normalization_1"}, {"inbound_nodes": [[["batch_normalization_1", 0, 0, {}]]], "class_name": "Activation", "config": {"activation": "relu", "trainable": true, "name": "activation_1"}, "name": "activation_1"}, {"inbound_nodes": [[["activation_1", 0, 0, {}]]], "class_name": "Conv2D", "config": {"use_bias": false, "padding": "valid", "bias_initializer": {"class_name": "Zeros", "config": {}}, "kernel_constraint": null, "strides": [1, 1], "kernel_initializer": {"class_name": "VarianceScaling", "config": {"mode": "fan_avg", "seed": null, "distribution": "uniform", "scale": 1.0}}, "data_format": "channels_last", "filters": 32, "kernel_size": [3, 3], "activation": "linear", "trainable": true, "dilation_rate": [1, 1], "name": "conv2d_2", "activity_regularizer": null, "kernel_regularizer": null, "bias_regularizer": null, "bias_constraint": null}, "name": "conv2d_2"}, {"inbound_nodes": [[["conv2d_2", 0, 0, {}]]], "class_name": "BatchNormalization", "config": {"moving_variance_initializer": {"class_name": "Ones", "config": {}}, "moving_mean_initializer": {"class_name": "Zeros", "config": {}}, "beta_regularizer": null, "epsilon": 0.001, "beta_initializer": {"class_name": "Zeros", "config": {}}, "center": true, "scale": false, "gamma_initializer": {"class_name": "Ones", "config": {}}, "beta_constraint": null, "trainable": true, "axis": 3, "name": "batch_normalization_2", "gamma_regularizer": null, "momentum": 0.99, "gamma_constraint": null}, "name": "batch_normalization_2"}, {"inbound_nodes": [[["batch_normalization_2", 0, 0, {}]]], "class_name": "Activation", "config": {"activation": "relu", "trainable": true, "name": "activation_2"}, "name": "activation_2"}, {"inbound_nodes": [[["activation_2", 0, 0, {}]]], "class_name": "Conv2D", "config": {"use_bias": false, "padding": "same", "bias_initializer": {"class_name": "Zeros", "config": {}}, "kernel_constraint": null, "strides": [1, 1], "kernel_initializer": {"class_name": "VarianceScaling", "config": {"mode": "fan_avg", "seed": null, "distribution": "uniform", "scale": 1.0}}, "data_format": "channels_last", "filters": 64, "kernel_size": [3, 3], "activation": "linear", "trainable": true, "dilation_rate": [1, 1], "name": "conv2d_3", "activity_regularizer": null, "kernel_regularizer": null, "bias_regularizer": null, "bias_constraint": null}, "name": "conv2d_3"}, {"inbound_nodes": [[["conv2d_3", 0, 0, {}]]], "class_name": "BatchNormalization", "config": {"moving_variance_initializer": {"class_name": "Ones", "config": {}}, "moving_mean_initializer": {"class_name": "Zeros", "config": {}}, "beta_regularizer": null, "epsilon": 0.001, "beta_initializer": {"class_name": "Zeros", "config": {}}, "center": true, "scale": false, "gamma_initializer": {"class_name": "Ones", "config": {}}, "beta_constraint": null, "trainable": true, "axis": 3, "name": "batch_normalization_3", "gamma_regularizer": null, "momentum": 0.99, "gamma_constraint": null}, "name": "batch_normalization_3"}, {"inbound_nodes": [[["batch_normalization_3", 0, 0, {}]]], "class_name": "Activation", "config": {"activation": "relu", "trainable": true, "name": "activation_3"}, "name": "activation_3"}, {"inbound_nodes": [[["activation_3", 0, 0, {}]]], "class_name": "MaxPooling2D", "config": {"padding": "valid", "trainable": true, "pool_size": [3, 3], "name": "max_pooling2d_1", "strides": [2, 2], "data_format": "channels_last"}, "name": "max_pooling2d_1"}, {"inbound_nodes": [[["max_pooling2d_1", 0, 0, {}]]], "class_name": "Conv2D", "config": {"use_bias": false, "padding": "valid", "bias_initializer": {"class_name": "Zeros", "config": {}}, "kernel_constraint": null, "strides": [1, 1], "kernel_initializer": {"class_name": "VarianceScaling", "config": {"mode": "fan_avg", "seed": null, "distribution": "uniform", "scale": 1.0}}, "data_format": "channels_last", "filters": 80, "kernel_size": [1, 1], "activation": "linear", "trainable": true, "dilation_rate": [1, 1], "name": "conv2d_4", "activity_regularizer": null, "kernel_regularizer": null, "bias_regularizer": null, "bias_constraint": null}, "name": "conv2d_4"}, {"inbound_nodes": [[["conv2d_4", 0, 0, {}]]], "class_name": "BatchNormalization", "config": {"moving_variance_initializer": {"class_name": "Ones", "config": {}}, "moving_mean_initializer": {"class_name": "Zeros", "config": {}}, "beta_regularizer": null, "epsilon": 0.001, "beta_initializer": {"class_name": "Zeros", "config": {}}, "center": true, "scale": false, "gamma_initializer": {"class_name": "Ones", "config": {}}, "beta_constraint": null, "trainable": true, "axis": 3, "name": "batch_normalization_4", "gamma_regularizer": null, "momentum": 0.99, "gamma_constraint": null}, "name": "batch_normalization_4"}, {"inbound_nodes": [[["batch_normalization_4", 0, 0, {}]]], "class_name": "Activation", "config": {"activation": "relu", "trainable": true, "name": "activation_4"}, "name": "activation_4"}, {"inbound_nodes": [[["activation_4", 0, 0, {}]]], "class_name": "Conv2D", "config": {"use_bias": false, "padding": "valid", "bias_initializer": {"class_name": "Zeros", "config": {}}, "kernel_constraint": null, "strides": [1, 1], "kernel_initializer": {"class_name": "VarianceScaling", "config": {"mode": "fan_avg", "seed": null, "distribution": "uniform", "scale": 1.0}}, "data_format": "channels_last", "filters": 192, "kernel_size": [3, 3], "activation": "linear", "trainable": true, "dilation_rate": [1, 1], "name": "conv2d_5", "activity_regularizer": null, "kernel_regularizer": null, "bias_regularizer": null, "bias_constraint": null}, "name": "conv2d_5"}, {"inbound_nodes": [[["conv2d_5", 0, 0, {}]]], "class_name": "BatchNormalization", "config": {"moving_variance_initializer": {"class_name": "Ones", "config": {}}, "moving_mean_initializer": {"class_name": "Zeros", "config": {}}, "beta_regularizer": null, "epsilon": 0.001, "beta_initializer": {"class_name": "Zeros", "config": {}}, "center": true, "scale": false, "gamma_initializer": {"class_name": "Ones", "config": {}}, "beta_constraint": null, "trainable": true, "axis": 3, "name": "batch_normalization_5", "gamma_regularizer": null, "momentum": 0.99, "gamma_constraint": null}, "name": "batch_normalization_5"}, {"inbound_nodes": [[["batch_normalization_5", 0, 0, {}]]], "class_name": "Activation", "config": {"activation": "relu", "trainable": true, "name": "activation_5"}, "name": "activation_5"}, {"inbound_nodes": [[["activation_5", 0, 0, {}]]], "class_name": "MaxPooling2D", "config": {"padding": "valid", "trainable": true, "pool_size": [3, 3], "name": "max_pooling2d_2", "strides": [2, 2], "data_format": "channels_last"}, "name": "max_pooling2d_2"}, {"inbound_nodes": [[["max_pooling2d_2", 0, 0, {}]]], "class_name": "Conv2D", "config": {"use_bias": false, "padding": "same", "bias_initializer": {"class_name": "Zeros", "config": {}}, "kernel_constraint": null, "strides": [1, 1], "kernel_initializer": {"class_name": "VarianceScaling", "config": {"mode": "fan_avg", "seed": null, "distribution": "uniform", "scale": 1.0}}, "data_format": "channels_last", "filters": 64, "kernel_size": [1, 1], "activation": "linear", "trainable": true, "dilation_rate": [1, 1], "name": "conv2d_9", "activity_regularizer": null, "kernel_regularizer": null, "bias_regularizer": null, "bias_constraint": null}, "name": "conv2d_9"}, {"inbound_nodes": [[["conv2d_9", 0, 0, {}]]], "class_name": "BatchNormalization", "config": {"moving_variance_initializer": {"class_name": "Ones", "config": {}}, "moving_mean_initializer": {"class_name": "Zeros", "config": {}}, "beta_regularizer": null, "epsilon": 0.001, "beta_initializer": {"class_name": "Zeros", "config": {}}, "center": true, "scale": false, "gamma_initializer": {"class_name": "Ones", "config": {}}, "beta_constraint": null, "trainable": true, "axis": 3, "name": "batch_normalization_9", "gamma_regularizer": null, "momentum": 0.99, "gamma_constraint": null}, "name": "batch_normalization_9"}, {"inbound_nodes": [[["batch_normalization_9", 0, 0, {}]]], "class_name": "Activation", "config": {"activation": "relu", "trainable": true, "name": "activation_9"}, "name": "activation_9"}, {"inbound_nodes": [[["max_pooling2d_2", 0, 0, {}]]], "class_name": "Conv2D", "config": {"use_bias": false, "padding": "same", "bias_initializer": {"class_name": "Zeros", "config": {}}, "kernel_constraint": null, "strides": [1, 1], "kernel_initializer": {"class_name": "VarianceScaling", "config": {"mode": "fan_avg", "seed": null, "distribution": "uniform", "scale": 1.0}}, "data_format": "channels_last", "filters": 48, "kernel_size": [1, 1], "activation": "linear", "trainable": true, "dilation_rate": [1, 1], "name": "conv2d_7", "activity_regularizer": null, "kernel_regularizer": null, "bias_regularizer": null, "bias_constraint": null}, "name": "conv2d_7"}, {"inbound_nodes": [[["activation_9", 0, 0, {}]]], "class_name": "Conv2D", "config": {"use_bias": false, "padding": "same", "bias_initializer": {"class_name": "Zeros", "config": {}}, "kernel_constraint": null, "strides": [1, 1], "kernel_initializer": {"class_name": "VarianceScaling", "config": {"mode": "fan_avg", "seed": null, "distribution": "uniform", "scale": 1.0}}, "data_format": "channels_last", "filters": 96, "kernel_size": [3, 3], "activation": "linear", "trainable": true, "dilation_rate": [1, 1], "name": "conv2d_10", "activity_regularizer": null, "kernel_regularizer": null, "bias_regularizer": null, "bias_constraint": null}, "name": "conv2d_10"}, {"inbound_nodes": [[["conv2d_7", 0, 0, {}]]], "class_name": "BatchNormalization", "config": {"moving_variance_initializer": {"class_name": "Ones", "config": {}}, "moving_mean_initializer": {"class_name": "Zeros", "config": {}}, "beta_regularizer": null, "epsilon": 0.001, "beta_initializer": {"class_name": "Zeros", "config": {}}, "center": true, "scale": false, "gamma_initializer": {"class_name": "Ones", "config": {}}, "beta_constraint": null, "trainable": true, "axis": 3, "name": "batch_normalization_7", "gamma_regularizer": null, "momentum": 0.99, "gamma_constraint": null}, "name": "batch_normalization_7"}, {"inbound_nodes": [[["conv2d_10", 0, 0, {}]]], "class_name": "BatchNormalization", "config": {"moving_variance_initializer": {"class_name": "Ones", "config": {}}, "moving_mean_initializer": {"class_name": "Zeros", "config": {}}, "beta_regularizer": null, "epsilon": 0.001, "beta_initializer": {"class_name": "Zeros", "config": {}}, "center": true, "scale": false, "gamma_initializer": {"class_name": "Ones", "config": {}}, "beta_constraint": null, "trainable": true, "axis": 3, "name": "batch_normalization_10", "gamma_regularizer": null, "momentum": 0.99, "gamma_constraint": null}, "name": "batch_normalization_10"}, {"inbound_nodes": [[["batch_normalization_7", 0, 0, {}]]], "class_name": "Activation", "config": {"activation": "relu", "trainable": true, "name": "activation_7"}, "name": "activation_7"}, {"inbound_nodes": [[["batch_normalization_10", 0, 0, {}]]], "class_name": "Activation", "config": {"activation": "relu", "trainable": true, "name": "activation_10"}, "name": "activation_10"}, {"inbound_nodes": [[["max_pooling2d_2", 0, 0, {}]]], "class_name": "AveragePooling2D", "config": {"padding": "same", "trainable": true, "pool_size": [3, 3], "name": "average_pooling2d_1", "strides": [1, 1], "data_format": "channels_last"}, "name": "average_pooling2d_1"}, {"inbound_nodes": [[["max_pooling2d_2", 0, 0, {}]]], "class_name": "Conv2D", "config": {"use_bias": false, "padding": "same", "bias_initializer": {"class_name": "Zeros", "config": {}}, "kernel_constraint": null, "strides": [1, 1], "kernel_initializer": {"class_name": "VarianceScaling", "config": {"mode": "fan_avg", "seed": null, "distribution": "uniform", "scale": 1.0}}, "data_format": "channels_last", "filters": 64, "kernel_size": [1, 1], "activation": "linear", "trainable": true, "dilation_rate": [1, 1], "name": "conv2d_6", "activity_regularizer": null, "kernel_regularizer": null, "bias_regularizer": null, "bias_constraint": null}, "name": "conv2d_6"}, {"inbound_nodes": [[["activation_7", 0, 0, {}]]], "class_name": "Conv2D", "config": {"use_bias": false, "padding": "same", "bias_initializer": {"class_name": "Zeros", "config": {}}, "kernel_constraint": null, "strides": [1, 1], "kernel_initializer": {"class_name": "VarianceScaling", "config": {"mode": "fan_avg", "seed": null, "distribution": "uniform", "scale": 1.0}}, "data_format": "channels_last", "filters": 64, "kernel_size": [5, 5], "activation": "linear", "trainable": true, "dilation_rate": [1, 1], "name": "conv2d_8", "activity_regularizer": null, "kernel_regularizer": null, "bias_regularizer": null, "bias_constraint": null}, "name": "conv2d_8"}, {"inbound_nodes": [[["activation_10", 0, 0, {}]]], "class_name": "Conv2D", "config": {"use_bias": false, "padding": "same", "bias_initializer": {"class_name": "Zeros", "config": {}}, "kernel_constraint": null, "strides": [1, 1], "kernel_initializer": {"class_name": "VarianceScaling", "config": {"mode": "fan_avg", "seed": null, "distribution": "uniform", "scale": 1.0}}, "data_format": "channels_last", "filters": 96, "kernel_size": [3, 3], "activation": "linear", "trainable": true, "dilation_rate": [1, 1], "name": "conv2d_11", "activity_regularizer": null, "kernel_regularizer": null, "bias_regularizer": null, "bias_constraint": null}, "name": "conv2d_11"}, {"inbound_nodes": [[["average_pooling2d_1", 0, 0, {}]]], "class_name": "Conv2D", "config": {"use_bias": false, "padding": "same", "bias_initializer": {"class_name": "Zeros", "config": {}}, "kernel_constraint": null, "strides": [1, 1], "kernel_initializer": {"class_name": "VarianceScaling", "config": {"mode": "fan_avg", "seed": null, "distribution": "uniform", "scale": 1.0}}, "data_format": "channels_last", "filters": 32, "kernel_size": [1, 1], "activation": "linear", "trainable": true, "dilation_rate": [1, 1], "name": "conv2d_12", "activity_regularizer": null, "kernel_regularizer": null, "bias_regularizer": null, "bias_constraint": null}, "name": "conv2d_12"}, {"inbound_nodes": [[["conv2d_6", 0, 0, {}]]], "class_name": "BatchNormalization", "config": {"moving_variance_initializer": {"class_name": "Ones", "config": {}}, "moving_mean_initializer": {"class_name": "Zeros", "config": {}}, "beta_regularizer": null, "epsilon": 0.001, "beta_initializer": {"class_name": "Zeros", "config": {}}, "center": true, "scale": false, "gamma_initializer": {"class_name": "Ones", "config": {}}, "beta_constraint": null, "trainable": true, "axis": 3, "name": "batch_normalization_6", "gamma_regularizer": null, "momentum": 0.99, "gamma_constraint": null}, "name": "batch_normalization_6"}, {"inbound_nodes": [[["conv2d_8", 0, 0, {}]]], "class_name": "BatchNormalization", "config": {"moving_variance_initializer": {"class_name": "Ones", "config": {}}, "moving_mean_initializer": {"class_name": "Zeros", "config": {}}, "beta_regularizer": null, "epsilon": 0.001, "beta_initializer": {"class_name": "Zeros", "config": {}}, "center": true, "scale": false, "gamma_initializer": {"class_name": "Ones", "config": {}}, "beta_constraint": null, "trainable": true, "axis": 3, "name": "batch_normalization_8", "gamma_regularizer": null, "momentum": 0.99, "gamma_constraint": null}, "name": "batch_normalization_8"}, {"inbound_nodes": [[["conv2d_11", 0, 0, {}]]], "class_name": "BatchNormalization", "config": {"moving_variance_initializer": {"class_name": "Ones", "config": {}}, "moving_mean_initializer": {"class_name": "Zeros", "config": {}}, "beta_regularizer": null, "epsilon": 0.001, "beta_initializer": {"class_name": "Zeros", "config": {}}, "center": true, "scale": false, "gamma_initializer": {"class_name": "Ones", "config": {}}, "beta_constraint": null, "trainable": true, "axis": 3, "name": "batch_normalization_11", "gamma_regularizer": null, "momentum": 0.99, "gamma_constraint": null}, "name": "batch_normalization_11"}, {"inbound_nodes": [[["conv2d_12", 0, 0, {}]]], "class_name": "BatchNormalization", "config": {"moving_variance_initializer": {"class_name": "Ones", "config": {}}, "moving_mean_initializer": {"class_name": "Zeros", "config": {}}, "beta_regularizer": null, "epsilon": 0.001, "beta_initializer": {"class_name": "Zeros", "config": {}}, "center": true, "scale": false, "gamma_initializer": {"class_name": "Ones", "config": {}}, "beta_constraint": null, "trainable": true, "axis": 3, "name": "batch_normalization_12", "gamma_regularizer": null, "momentum": 0.99, "gamma_constraint": null}, "name": "batch_normalization_12"}, {"inbound_nodes": [[["batch_normalization_6", 0, 0, {}]]], "class_name": "Activation", "config": {"activation": "relu", "trainable": true, "name": "activation_6"}, "name": "activation_6"}, {"inbound_nodes": [[["batch_normalization_8", 0, 0, {}]]], "class_name": "Activation", "config": {"activation": "relu", "trainable": true, "name": "activation_8"}, "name": "activation_8"}, {"inbound_nodes": [[["batch_normalization_11", 0, 0, {}]]], "class_name": "Activation", "config": {"activation": "relu", "trainable": true, "name": "activation_11"}, "name": "activation_11"}, {"inbound_nodes": [[["batch_normalization_12", 0, 0, {}]]], "class_name": "Activation", "config": {"activation": "relu", "trainable": true, "name": "activation_12"}, "name": "activation_12"}, {"inbound_nodes": [[["activation_6", 0, 0, {}], ["activation_8", 0, 0, {}], ["activation_11", 0, 0, {}], ["activation_12", 0, 0, {}]]], "class_name": "Concatenate", "config": {"trainable": true, "axis": 3, "name": "mixed0"}, "name": "mixed0"}, {"inbound_nodes": [[["mixed0", 0, 0, {}]]], "class_name": "Conv2D", "config": {"use_bias": false, "padding": "same", "bias_initializer": {"class_name": "Zeros", "config": {}}, "kernel_constraint": null, "strides": [1, 1], "kernel_initializer": {"class_name": "VarianceScaling", "config": {"mode": "fan_avg", "seed": null, "distribution": "uniform", "scale": 1.0}}, "data_format": "channels_last", "filters": 64, "kernel_size": [1, 1], "activation": "linear", "trainable": true, "dilation_rate": [1, 1], "name": "conv2d_16", "activity_regularizer": null, "kernel_regularizer": null, "bias_regularizer": null, "bias_constraint": null}, "name": "conv2d_16"}, {"inbound_nodes": [[["conv2d_16", 0, 0, {}]]], "class_name": "BatchNormalization", "config": {"moving_variance_initializer": {"class_name": "Ones", "config": {}}, "moving_mean_initializer": {"class_name": "Zeros", "config": {}}, "beta_regularizer": null, "epsilon": 0.001, "beta_initializer": {"class_name": "Zeros", "config": {}}, "center": true, "scale": false, "gamma_initializer": {"class_name": "Ones", "config": {}}, "beta_constraint": null, "trainable": true, "axis": 3, "name": "batch_normalization_16", "gamma_regularizer": null, "momentum": 0.99, "gamma_constraint": null}, "name": "batch_normalization_16"}, {"inbound_nodes": [[["batch_normalization_16", 0, 0, {}]]], "class_name": "Activation", "config": {"activation": "relu", "trainable": true, "name": "activation_16"}, "name": "activation_16"}, {"inbound_nodes": [[["mixed0", 0, 0, {}]]], "class_name": "Conv2D", "config": {"use_bias": false, "padding": "same", "bias_initializer": {"class_name": "Zeros", "config": {}}, "kernel_constraint": null, "strides": [1, 1], "kernel_initializer": {"class_name": "VarianceScaling", "config": {"mode": "fan_avg", "seed": null, "distribution": "uniform", "scale": 1.0}}, "data_format": "channels_last", "filters": 48, "kernel_size": [1, 1], "activation": "linear", "trainable": true, "dilation_rate": [1, 1], "name": "conv2d_14", "activity_regularizer": null, "kernel_regularizer": null, "bias_regularizer": null, "bias_constraint": null}, "name": "conv2d_14"}, {"inbound_nodes": [[["activation_16", 0, 0, {}]]], "class_name": "Conv2D", "config": {"use_bias": false, "padding": "same", "bias_initializer": {"class_name": "Zeros", "config": {}}, "kernel_constraint": null, "strides": [1, 1], "kernel_initializer": {"class_name": "VarianceScaling", "config": {"mode": "fan_avg", "seed": null, "distribution": "uniform", "scale": 1.0}}, "data_format": "channels_last", "filters": 96, "kernel_size": [3, 3], "activation": "linear", "trainable": true, "dilation_rate": [1, 1], "name": "conv2d_17", "activity_regularizer": null, "kernel_regularizer": null, "bias_regularizer": null, "bias_constraint": null}, "name": "conv2d_17"}, {"inbound_nodes": [[["conv2d_14", 0, 0, {}]]], "class_name": "BatchNormalization", "config": {"moving_variance_initializer": {"class_name": "Ones", "config": {}}, "moving_mean_initializer": {"class_name": "Zeros", "config": {}}, "beta_regularizer": null, "epsilon": 0.001, "beta_initializer": {"class_name": "Zeros", "config": {}}, "center": true, "scale": false, "gamma_initializer": {"class_name": "Ones", "config": {}}, "beta_constraint": null, "trainable": true, "axis": 3, "name": "batch_normalization_14", "gamma_regularizer": null, "momentum": 0.99, "gamma_constraint": null}, "name": "batch_normalization_14"}, {"inbound_nodes": [[["conv2d_17", 0, 0, {}]]], "class_name": "BatchNormalization", "config": {"moving_variance_initializer": {"class_name": "Ones", "config": {}}, "moving_mean_initializer": {"class_name": "Zeros", "config": {}}, "beta_regularizer": null, "epsilon": 0.001, "beta_initializer": {"class_name": "Zeros", "config": {}}, "center": true, "scale": false, "gamma_initializer": {"class_name": "Ones", "config": {}}, "beta_constraint": null, "trainable": true, "axis": 3, "name": "batch_normalization_17", "gamma_regularizer": null, "momentum": 0.99, "gamma_constraint": null}, "name": "batch_normalization_17"}, {"inbound_nodes": [[["batch_normalization_14", 0, 0, {}]]], "class_name": "Activation", "config": {"activation": "relu", "trainable": true, "name": "activation_14"}, "name": "activation_14"}, {"inbound_nodes": [[["batch_normalization_17", 0, 0, {}]]], "class_name": "Activation", "config": {"activation": "relu", "trainable": true, "name": "activation_17"}, "name": "activation_17"}, {"inbound_nodes": [[["mixed0", 0, 0, {}]]], "class_name": "AveragePooling2D", "config": {"padding": "same", "trainable": true, "pool_size": [3, 3], "name": "average_pooling2d_2", "strides": [1, 1], "data_format": "channels_last"}, "name": "average_pooling2d_2"}, {"inbound_nodes": [[["mixed0", 0, 0, {}]]], "class_name": "Conv2D", "config": {"use_bias": false, "padding": "same", "bias_initializer": {"class_name": "Zeros", "config": {}}, "kernel_constraint": null, "strides": [1, 1], "kernel_initializer": {"class_name": "VarianceScaling", "config": {"mode": "fan_avg", "seed": null, "distribution": "uniform", "scale": 1.0}}, "data_format": "channels_last", "filters": 64, "kernel_size": [1, 1], "activation": "linear", "trainable": true, "dilation_rate": [1, 1], "name": "conv2d_13", "activity_regularizer": null, "kernel_regularizer": null, "bias_regularizer": null, "bias_constraint": null}, "name": "conv2d_13"}, {"inbound_nodes": [[["activation_14", 0, 0, {}]]], "class_name": "Conv2D", "config": {"use_bias": false, "padding": "same", "bias_initializer": {"class_name": "Zeros", "config": {}}, "kernel_constraint": null, "strides": [1, 1], "kernel_initializer": {"class_name": "VarianceScaling", "config": {"mode": "fan_avg", "seed": null, "distribution": "uniform", "scale": 1.0}}, "data_format": "channels_last", "filters": 64, "kernel_size": [5, 5], "activation": "linear", "trainable": true, "dilation_rate": [1, 1], "name": "conv2d_15", "activity_regularizer": null, "kernel_regularizer": null, "bias_regularizer": null, "bias_constraint": null}, "name": "conv2d_15"}, {"inbound_nodes": [[["activation_17", 0, 0, {}]]], "class_name": "Conv2D", "config": {"use_bias": false, "padding": "same", "bias_initializer": {"class_name": "Zeros", "config": {}}, "kernel_constraint": null, "strides": [1, 1], "kernel_initializer": {"class_name": "VarianceScaling", "config": {"mode": "fan_avg", "seed": null, "distribution": "uniform", "scale": 1.0}}, "data_format": "channels_last", "filters": 96, "kernel_size": [3, 3], "activation": "linear", "trainable": true, "dilation_rate": [1, 1], "name": "conv2d_18", "activity_regularizer": null, "kernel_regularizer": null, "bias_regularizer": null, "bias_constraint": null}, "name": "conv2d_18"}, {"inbound_nodes": [[["average_pooling2d_2", 0, 0, {}]]], "class_name": "Conv2D", "config": {"use_bias": false, "padding": "same", "bias_initializer": {"class_name": "Zeros", "config": {}}, "kernel_constraint": null, "strides": [1, 1], "kernel_initializer": {"class_name": "VarianceScaling", "config": {"mode": "fan_avg", "seed": null, "distribution": "uniform", "scale": 1.0}}, "data_format": "channels_last", "filters": 64, "kernel_size": [1, 1], "activation": "linear", "trainable": true, "dilation_rate": [1, 1], "name": "conv2d_19", "activity_regularizer": null, "kernel_regularizer": null, "bias_regularizer": null, "bias_constraint": null}, "name": "conv2d_19"}, {"inbound_nodes": [[["conv2d_13", 0, 0, {}]]], "class_name": "BatchNormalization", "config": {"moving_variance_initializer": {"class_name": "Ones", "config": {}}, "moving_mean_initializer": {"class_name": "Zeros", "config": {}}, "beta_regularizer": null, "epsilon": 0.001, "beta_initializer": {"class_name": "Zeros", "config": {}}, "center": true, "scale": false, "gamma_initializer": {"class_name": "Ones", "config": {}}, "beta_constraint": null, "trainable": true, "axis": 3, "name": "batch_normalization_13", "gamma_regularizer": null, "momentum": 0.99, "gamma_constraint": null}, "name": "batch_normalization_13"}, {"inbound_nodes": [[["conv2d_15", 0, 0, {}]]], "class_name": "BatchNormalization", "config": {"moving_variance_initializer": {"class_name": "Ones", "config": {}}, "moving_mean_initializer": {"class_name": "Zeros", "config": {}}, "beta_regularizer": null, "epsilon": 0.001, "beta_initializer": {"class_name": "Zeros", "config": {}}, "center": true, "scale": false, "gamma_initializer": {"class_name": "Ones", "config": {}}, "beta_constraint": null, "trainable": true, "axis": 3, "name": "batch_normalization_15", "gamma_regularizer": null, "momentum": 0.99, "gamma_constraint": null}, "name": "batch_normalization_15"}, {"inbound_nodes": [[["conv2d_18", 0, 0, {}]]], "class_name": "BatchNormalization", "config": {"moving_variance_initializer": {"class_name": "Ones", "config": {}}, "moving_mean_initializer": {"class_name": "Zeros", "config": {}}, "beta_regularizer": null, "epsilon": 0.001, "beta_initializer": {"class_name": "Zeros", "config": {}}, "center": true, "scale": false, "gamma_initializer": {"class_name": "Ones", "config": {}}, "beta_constraint": null, "trainable": true, "axis": 3, "name": "batch_normalization_18", "gamma_regularizer": null, "momentum": 0.99, "gamma_constraint": null}, "name": "batch_normalization_18"}, {"inbound_nodes": [[["conv2d_19", 0, 0, {}]]], "class_name": "BatchNormalization", "config": {"moving_variance_initializer": {"class_name": "Ones", "config": {}}, "moving_mean_initializer": {"class_name": "Zeros", "config": {}}, "beta_regularizer": null, "epsilon": 0.001, "beta_initializer": {"class_name": "Zeros", "config": {}}, "center": true, "scale": false, "gamma_initializer": {"class_name": "Ones", "config": {}}, "beta_constraint": null, "trainable": true, "axis": 3, "name": "batch_normalization_19", "gamma_regularizer": null, "momentum": 0.99, "gamma_constraint": null}, "name": "batch_normalization_19"}, {"inbound_nodes": [[["batch_normalization_13", 0, 0, {}]]], "class_name": "Activation", "config": {"activation": "relu", "trainable": true, "name": "activation_13"}, "name": "activation_13"}, {"inbound_nodes": [[["batch_normalization_15", 0, 0, {}]]], "class_name": "Activation", "config": {"activation": "relu", "trainable": true, "name": "activation_15"}, "name": "activation_15"}, {"inbound_nodes": [[["batch_normalization_18", 0, 0, {}]]], "class_name": "Activation", "config": {"activation": "relu", "trainable": true, "name": "activation_18"}, "name": "activation_18"}, {"inbound_nodes": [[["batch_normalization_19", 0, 0, {}]]], "class_name": "Activation", "config": {"activation": "relu", "trainable": true, "name": "activation_19"}, "name": "activation_19"}, {"inbound_nodes": [[["activation_13", 0, 0, {}], ["activation_15", 0, 0, {}], ["activation_18", 0, 0, {}], ["activation_19", 0, 0, {}]]], "class_name": "Concatenate", "config": {"trainable": true, "axis": 3, "name": "mixed1"}, "name": "mixed1"}, {"inbound_nodes": [[["mixed1", 0, 0, {}]]], "class_name": "Conv2D", "config": {"use_bias": false, "padding": "same", "bias_initializer": {"class_name": "Zeros", "config": {}}, "kernel_constraint": null, "strides": [1, 1], "kernel_initializer": {"class_name": "VarianceScaling", "config": {"mode": "fan_avg", "seed": null, "distribution": "uniform", "scale": 1.0}}, "data_format": "channels_last", "filters": 64, "kernel_size": [1, 1], "activation": "linear", "trainable": true, "dilation_rate": [1, 1], "name": "conv2d_23", "activity_regularizer": null, "kernel_regularizer": null, "bias_regularizer": null, "bias_constraint": null}, "name": "conv2d_23"}, {"inbound_nodes": [[["conv2d_23", 0, 0, {}]]], "class_name": "BatchNormalization", "config": {"moving_variance_initializer": {"class_name": "Ones", "config": {}}, "moving_mean_initializer": {"class_name": "Zeros", "config": {}}, "beta_regularizer": null, "epsilon": 0.001, "beta_initializer": {"class_name": "Zeros", "config": {}}, "center": true, "scale": false, "gamma_initializer": {"class_name": "Ones", "config": {}}, "beta_constraint": null, "trainable": true, "axis": 3, "name": "batch_normalization_23", "gamma_regularizer": null, "momentum": 0.99, "gamma_constraint": null}, "name": "batch_normalization_23"}, {"inbound_nodes": [[["batch_normalization_23", 0, 0, {}]]], "class_name": "Activation", "config": {"activation": "relu", "trainable": true, "name": "activation_23"}, "name": "activation_23"}, {"inbound_nodes": [[["mixed1", 0, 0, {}]]], "class_name": "Conv2D", "config": {"use_bias": false, "padding": "same", "bias_initializer": {"class_name": "Zeros", "config": {}}, "kernel_constraint": null, "strides": [1, 1], "kernel_initializer": {"class_name": "VarianceScaling", "config": {"mode": "fan_avg", "seed": null, "distribution": "uniform", "scale": 1.0}}, "data_format": "channels_last", "filters": 48, "kernel_size": [1, 1], "activation": "linear", "trainable": true, "dilation_rate": [1, 1], "name": "conv2d_21", "activity_regularizer": null, "kernel_regularizer": null, "bias_regularizer": null, "bias_constraint": null}, "name": "conv2d_21"}, {"inbound_nodes": [[["activation_23", 0, 0, {}]]], "class_name": "Conv2D", "config": {"use_bias": false, "padding": "same", "bias_initializer": {"class_name": "Zeros", "config": {}}, "kernel_constraint": null, "strides": [1, 1], "kernel_initializer": {"class_name": "VarianceScaling", "config": {"mode": "fan_avg", "seed": null, "distribution": "uniform", "scale": 1.0}}, "data_format": "channels_last", "filters": 96, "kernel_size": [3, 3], "activation": "linear", "trainable": true, "dilation_rate": [1, 1], "name": "conv2d_24", "activity_regularizer": null, "kernel_regularizer": null, "bias_regularizer": null, "bias_constraint": null}, "name": "conv2d_24"}, {"inbound_nodes": [[["conv2d_21", 0, 0, {}]]], "class_name": "BatchNormalization", "config": {"moving_variance_initializer": {"class_name": "Ones", "config": {}}, "moving_mean_initializer": {"class_name": "Zeros", "config": {}}, "beta_regularizer": null, "epsilon": 0.001, "beta_initializer": {"class_name": "Zeros", "config": {}}, "center": true, "scale": false, "gamma_initializer": {"class_name": "Ones", "config": {}}, "beta_constraint": null, "trainable": true, "axis": 3, "name": "batch_normalization_21", "gamma_regularizer": null, "momentum": 0.99, "gamma_constraint": null}, "name": "batch_normalization_21"}, {"inbound_nodes": [[["conv2d_24", 0, 0, {}]]], "class_name": "BatchNormalization", "config": {"moving_variance_initializer": {"class_name": "Ones", "config": {}}, "moving_mean_initializer": {"class_name": "Zeros", "config": {}}, "beta_regularizer": null, "epsilon": 0.001, "beta_initializer": {"class_name": "Zeros", "config": {}}, "center": true, "scale": false, "gamma_initializer": {"class_name": "Ones", "config": {}}, "beta_constraint": null, "trainable": true, "axis": 3, "name": "batch_normalization_24", "gamma_regularizer": null, "momentum": 0.99, "gamma_constraint": null}, "name": "batch_normalization_24"}, {"inbound_nodes": [[["batch_normalization_21", 0, 0, {}]]], "class_name": "Activation", "config": {"activation": "relu", "trainable": true, "name": "activation_21"}, "name": "activation_21"}, {"inbound_nodes": [[["batch_normalization_24", 0, 0, {}]]], "class_name": "Activation", "config": {"activation": "relu", "trainable": true, "name": "activation_24"}, "name": "activation_24"}, {"inbound_nodes": [[["mixed1", 0, 0, {}]]], "class_name": "AveragePooling2D", "config": {"padding": "same", "trainable": true, "pool_size": [3, 3], "name": "average_pooling2d_3", "strides": [1, 1], "data_format": "channels_last"}, "name": "average_pooling2d_3"}, {"inbound_nodes": [[["mixed1", 0, 0, {}]]], "class_name": "Conv2D", "config": {"use_bias": false, "padding": "same", "bias_initializer": {"class_name": "Zeros", "config": {}}, "kernel_constraint": null, "strides": [1, 1], "kernel_initializer": {"class_name": "VarianceScaling", "config": {"mode": "fan_avg", "seed": null, "distribution": "uniform", "scale": 1.0}}, "data_format": "channels_last", "filters": 64, "kernel_size": [1, 1], "activation": "linear", "trainable": true, "dilation_rate": [1, 1], "name": "conv2d_20", "activity_regularizer": null, "kernel_regularizer": null, "bias_regularizer": null, "bias_constraint": null}, "name": "conv2d_20"}, {"inbound_nodes": [[["activation_21", 0, 0, {}]]], "class_name": "Conv2D", "config": {"use_bias": false, "padding": "same", "bias_initializer": {"class_name": "Zeros", "config": {}}, "kernel_constraint": null, "strides": [1, 1], "kernel_initializer": {"class_name": "VarianceScaling", "config": {"mode": "fan_avg", "seed": null, "distribution": "uniform", "scale": 1.0}}, "data_format": "channels_last", "filters": 64, "kernel_size": [5, 5], "activation": "linear", "trainable": true, "dilation_rate": [1, 1], "name": "conv2d_22", "activity_regularizer": null, "kernel_regularizer": null, "bias_regularizer": null, "bias_constraint": null}, "name": "conv2d_22"}, {"inbound_nodes": [[["activation_24", 0, 0, {}]]], "class_name": "Conv2D", "config": {"use_bias": false, "padding": "same", "bias_initializer": {"class_name": "Zeros", "config": {}}, "kernel_constraint": null, "strides": [1, 1], "kernel_initializer": {"class_name": "VarianceScaling", "config": {"mode": "fan_avg", "seed": null, "distribution": "uniform", "scale": 1.0}}, "data_format": "channels_last", "filters": 96, "kernel_size": [3, 3], "activation": "linear", "trainable": true, "dilation_rate": [1, 1], "name": "conv2d_25", "activity_regularizer": null, "kernel_regularizer": null, "bias_regularizer": null, "bias_constraint": null}, "name": "conv2d_25"}, {"inbound_nodes": [[["average_pooling2d_3", 0, 0, {}]]], "class_name": "Conv2D", "config": {"use_bias": false, "padding": "same", "bias_initializer": {"class_name": "Zeros", "config": {}}, "kernel_constraint": null, "strides": [1, 1], "kernel_initializer": {"class_name": "VarianceScaling", "config": {"mode": "fan_avg", "seed": null, "distribution": "uniform", "scale": 1.0}}, "data_format": "channels_last", "filters": 64, "kernel_size": [1, 1], "activation": "linear", "trainable": true, "dilation_rate": [1, 1], "name": "conv2d_26", "activity_regularizer": null, "kernel_regularizer": null, "bias_regularizer": null, "bias_constraint": null}, "name": "conv2d_26"}, {"inbound_nodes": [[["conv2d_20", 0, 0, {}]]], "class_name": "BatchNormalization", "config": {"moving_variance_initializer": {"class_name": "Ones", "config": {}}, "moving_mean_initializer": {"class_name": "Zeros", "config": {}}, "beta_regularizer": null, "epsilon": 0.001, "beta_initializer": {"class_name": "Zeros", "config": {}}, "center": true, "scale": false, "gamma_initializer": {"class_name": "Ones", "config": {}}, "beta_constraint": null, "trainable": true, "axis": 3, "name": "batch_normalization_20", "gamma_regularizer": null, "momentum": 0.99, "gamma_constraint": null}, "name": "batch_normalization_20"}, {"inbound_nodes": [[["conv2d_22", 0, 0, {}]]], "class_name": "BatchNormalization", "config": {"moving_variance_initializer": {"class_name": "Ones", "config": {}}, "moving_mean_initializer": {"class_name": "Zeros", "config": {}}, "beta_regularizer": null, "epsilon": 0.001, "beta_initializer": {"class_name": "Zeros", "config": {}}, "center": true, "scale": false, "gamma_initializer": {"class_name": "Ones", "config": {}}, "beta_constraint": null, "trainable": true, "axis": 3, "name": "batch_normalization_22", "gamma_regularizer": null, "momentum": 0.99, "gamma_constraint": null}, "name": "batch_normalization_22"}, {"inbound_nodes": [[["conv2d_25", 0, 0, {}]]], "class_name": "BatchNormalization", "config": {"moving_variance_initializer": {"class_name": "Ones", "config": {}}, "moving_mean_initializer": {"class_name": "Zeros", "config": {}}, "beta_regularizer": null, "epsilon": 0.001, "beta_initializer": {"class_name": "Zeros", "config": {}}, "center": true, "scale": false, "gamma_initializer": {"class_name": "Ones", "config": {}}, "beta_constraint": null, "trainable": true, "axis": 3, "name": "batch_normalization_25", "gamma_regularizer": null, "momentum": 0.99, "gamma_constraint": null}, "name": "batch_normalization_25"}, {"inbound_nodes": [[["conv2d_26", 0, 0, {}]]], "class_name": "BatchNormalization", "config": {"moving_variance_initializer": {"class_name": "Ones", "config": {}}, "moving_mean_initializer": {"class_name": "Zeros", "config": {}}, "beta_regularizer": null, "epsilon": 0.001, "beta_initializer": {"class_name": "Zeros", "config": {}}, "center": true, "scale": false, "gamma_initializer": {"class_name": "Ones", "config": {}}, "beta_constraint": null, "trainable": true, "axis": 3, "name": "batch_normalization_26", "gamma_regularizer": null, "momentum": 0.99, "gamma_constraint": null}, "name": "batch_normalization_26"}, {"inbound_nodes": [[["batch_normalization_20", 0, 0, {}]]], "class_name": "Activation", "config": {"activation": "relu", "trainable": true, "name": "activation_20"}, "name": "activation_20"}, {"inbound_nodes": [[["batch_normalization_22", 0, 0, {}]]], "class_name": "Activation", "config": {"activation": "relu", "trainable": true, "name": "activation_22"}, "name": "activation_22"}, {"inbound_nodes": [[["batch_normalization_25", 0, 0, {}]]], "class_name": "Activation", "config": {"activation": "relu", "trainable": true, "name": "activation_25"}, "name": "activation_25"}, {"inbound_nodes": [[["batch_normalization_26", 0, 0, {}]]], "class_name": "Activation", "config": {"activation": "relu", "trainable": true, "name": "activation_26"}, "name": "activation_26"}, {"inbound_nodes": [[["activation_20", 0, 0, {}], ["activation_22", 0, 0, {}], ["activation_25", 0, 0, {}], ["activation_26", 0, 0, {}]]], "class_name": "Concatenate", "config": {"trainable": true, "axis": 3, "name": "mixed2"}, "name": "mixed2"}, {"inbound_nodes": [[["mixed2", 0, 0, {}]]], "class_name": "Conv2D", "config": {"use_bias": false, "padding": "same", "bias_initializer": {"class_name": "Zeros", "config": {}}, "kernel_constraint": null, "strides": [1, 1], "kernel_initializer": {"class_name": "VarianceScaling", "config": {"mode": "fan_avg", "seed": null, "distribution": "uniform", "scale": 1.0}}, "data_format": "channels_last", "filters": 64, "kernel_size": [1, 1], "activation": "linear", "trainable": true, "dilation_rate": [1, 1], "name": "conv2d_28", "activity_regularizer": null, "kernel_regularizer": null, "bias_regularizer": null, "bias_constraint": null}, "name": "conv2d_28"}, {"inbound_nodes": [[["conv2d_28", 0, 0, {}]]], "class_name": "BatchNormalization", "config": {"moving_variance_initializer": {"class_name": "Ones", "config": {}}, "moving_mean_initializer": {"class_name": "Zeros", "config": {}}, "beta_regularizer": null, "epsilon": 0.001, "beta_initializer": {"class_name": "Zeros", "config": {}}, "center": true, "scale": false, "gamma_initializer": {"class_name": "Ones", "config": {}}, "beta_constraint": null, "trainable": true, "axis": 3, "name": "batch_normalization_28", "gamma_regularizer": null, "momentum": 0.99, "gamma_constraint": null}, "name": "batch_normalization_28"}, {"inbound_nodes": [[["batch_normalization_28", 0, 0, {}]]], "class_name": "Activation", "config": {"activation": "relu", "trainable": true, "name": "activation_28"}, "name": "activation_28"}, {"inbound_nodes": [[["activation_28", 0, 0, {}]]], "class_name": "Conv2D", "config": {"use_bias": false, "padding": "same", "bias_initializer": {"class_name": "Zeros", "config": {}}, "kernel_constraint": null, "strides": [1, 1], "kernel_initializer": {"class_name": "VarianceScaling", "config": {"mode": "fan_avg", "seed": null, "distribution": "uniform", "scale": 1.0}}, "data_format": "channels_last", "filters": 96, "kernel_size": [3, 3], "activation": "linear", "trainable": true, "dilation_rate": [1, 1], "name": "conv2d_29", "activity_regularizer": null, "kernel_regularizer": null, "bias_regularizer": null, "bias_constraint": null}, "name": "conv2d_29"}, {"inbound_nodes": [[["conv2d_29", 0, 0, {}]]], "class_name": "BatchNormalization", "config": {"moving_variance_initializer": {"class_name": "Ones", "config": {}}, "moving_mean_initializer": {"class_name": "Zeros", "config": {}}, "beta_regularizer": null, "epsilon": 0.001, "beta_initializer": {"class_name": "Zeros", "config": {}}, "center": true, "scale": false, "gamma_initializer": {"class_name": "Ones", "config": {}}, "beta_constraint": null, "trainable": true, "axis": 3, "name": "batch_normalization_29", "gamma_regularizer": null, "momentum": 0.99, "gamma_constraint": null}, "name": "batch_normalization_29"}, {"inbound_nodes": [[["batch_normalization_29", 0, 0, {}]]], "class_name": "Activation", "config": {"activation": "relu", "trainable": true, "name": "activation_29"}, "name": "activation_29"}, {"inbound_nodes": [[["mixed2", 0, 0, {}]]], "class_name": "Conv2D", "config": {"use_bias": false, "padding": "valid", "bias_initializer": {"class_name": "Zeros", "config": {}}, "kernel_constraint": null, "strides": [2, 2], "kernel_initializer": {"class_name": "VarianceScaling", "config": {"mode": "fan_avg", "seed": null, "distribution": "uniform", "scale": 1.0}}, "data_format": "channels_last", "filters": 384, "kernel_size": [3, 3], "activation": "linear", "trainable": true, "dilation_rate": [1, 1], "name": "conv2d_27", "activity_regularizer": null, "kernel_regularizer": null, "bias_regularizer": null, "bias_constraint": null}, "name": "conv2d_27"}, {"inbound_nodes": [[["activation_29", 0, 0, {}]]], "class_name": "Conv2D", "config": {"use_bias": false, "padding": "valid", "bias_initializer": {"class_name": "Zeros", "config": {}}, "kernel_constraint": null, "strides": [2, 2], "kernel_initializer": {"class_name": "VarianceScaling", "config": {"mode": "fan_avg", "seed": null, "distribution": "uniform", "scale": 1.0}}, "data_format": "channels_last", "filters": 96, "kernel_size": [3, 3], "activation": "linear", "trainable": true, "dilation_rate": [1, 1], "name": "conv2d_30", "activity_regularizer": null, "kernel_regularizer": null, "bias_regularizer": null, "bias_constraint": null}, "name": "conv2d_30"}, {"inbound_nodes": [[["conv2d_27", 0, 0, {}]]], "class_name": "BatchNormalization", "config": {"moving_variance_initializer": {"class_name": "Ones", "config": {}}, "moving_mean_initializer": {"class_name": "Zeros", "config": {}}, "beta_regularizer": null, "epsilon": 0.001, "beta_initializer": {"class_name": "Zeros", "config": {}}, "center": true, "scale": false, "gamma_initializer": {"class_name": "Ones", "config": {}}, "beta_constraint": null, "trainable": true, "axis": 3, "name": "batch_normalization_27", "gamma_regularizer": null, "momentum": 0.99, "gamma_constraint": null}, "name": "batch_normalization_27"}, {"inbound_nodes": [[["conv2d_30", 0, 0, {}]]], "class_name": "BatchNormalization", "config": {"moving_variance_initializer": {"class_name": "Ones", "config": {}}, "moving_mean_initializer": {"class_name": "Zeros", "config": {}}, "beta_regularizer": null, "epsilon": 0.001, "beta_initializer": {"class_name": "Zeros", "config": {}}, "center": true, "scale": false, "gamma_initializer": {"class_name": "Ones", "config": {}}, "beta_constraint": null, "trainable": true, "axis": 3, "name": "batch_normalization_30", "gamma_regularizer": null, "momentum": 0.99, "gamma_constraint": null}, "name": "batch_normalization_30"}, {"inbound_nodes": [[["batch_normalization_27", 0, 0, {}]]], "class_name": "Activation", "config": {"activation": "relu", "trainable": true, "name": "activation_27"}, "name": "activation_27"}, {"inbound_nodes": [[["batch_normalization_30", 0, 0, {}]]], "class_name": "Activation", "config": {"activation": "relu", "trainable": true, "name": "activation_30"}, "name": "activation_30"}, {"inbound_nodes": [[["mixed2", 0, 0, {}]]], "class_name": "MaxPooling2D", "config": {"padding": "valid", "trainable": true, "pool_size": [3, 3], "name": "max_pooling2d_3", "strides": [2, 2], "data_format": "channels_last"}, "name": "max_pooling2d_3"}, {"inbound_nodes": [[["activation_27", 0, 0, {}], ["activation_30", 0, 0, {}], ["max_pooling2d_3", 0, 0, {}]]], "class_name": "Concatenate", "config": {"trainable": true, "axis": 3, "name": "mixed3"}, "name": "mixed3"}, {"inbound_nodes": [[["mixed3", 0, 0, {}]]], "class_name": "Conv2D", "config": {"use_bias": false, "padding": "same", "bias_initializer": {"class_name": "Zeros", "config": {}}, "kernel_constraint": null, "strides": [1, 1], "kernel_initializer": {"class_name": "VarianceScaling", "config": {"mode": "fan_avg", "seed": null, "distribution": "uniform", "scale": 1.0}}, "data_format": "channels_last", "filters": 128, "kernel_size": [1, 1], "activation": "linear", "trainable": true, "dilation_rate": [1, 1], "name": "conv2d_35", "activity_regularizer": null, "kernel_regularizer": null, "bias_regularizer": null, "bias_constraint": null}, "name": "conv2d_35"}, {"inbound_nodes": [[["conv2d_35", 0, 0, {}]]], "class_name": "BatchNormalization", "config": {"moving_variance_initializer": {"class_name": "Ones", "config": {}}, "moving_mean_initializer": {"class_name": "Zeros", "config": {}}, "beta_regularizer": null, "epsilon": 0.001, "beta_initializer": {"class_name": "Zeros", "config": {}}, "center": true, "scale": false, "gamma_initializer": {"class_name": "Ones", "config": {}}, "beta_constraint": null, "trainable": true, "axis": 3, "name": "batch_normalization_35", "gamma_regularizer": null, "momentum": 0.99, "gamma_constraint": null}, "name": "batch_normalization_35"}, {"inbound_nodes": [[["batch_normalization_35", 0, 0, {}]]], "class_name": "Activation", "config": {"activation": "relu", "trainable": true, "name": "activation_35"}, "name": "activation_35"}, {"inbound_nodes": [[["activation_35", 0, 0, {}]]], "class_name": "Conv2D", "config": {"use_bias": false, "padding": "same", "bias_initializer": {"class_name": "Zeros", "config": {}}, "kernel_constraint": null, "strides": [1, 1], "kernel_initializer": {"class_name": "VarianceScaling", "config": {"mode": "fan_avg", "seed": null, "distribution": "uniform", "scale": 1.0}}, "data_format": "channels_last", "filters": 128, "kernel_size": [7, 1], "activation": "linear", "trainable": true, "dilation_rate": [1, 1], "name": "conv2d_36", "activity_regularizer": null, "kernel_regularizer": null, "bias_regularizer": null, "bias_constraint": null}, "name": "conv2d_36"}, {"inbound_nodes": [[["conv2d_36", 0, 0, {}]]], "class_name": "BatchNormalization", "config": {"moving_variance_initializer": {"class_name": "Ones", "config": {}}, "moving_mean_initializer": {"class_name": "Zeros", "config": {}}, "beta_regularizer": null, "epsilon": 0.001, "beta_initializer": {"class_name": "Zeros", "config": {}}, "center": true, "scale": false, "gamma_initializer": {"class_name": "Ones", "config": {}}, "beta_constraint": null, "trainable": true, "axis": 3, "name": "batch_normalization_36", "gamma_regularizer": null, "momentum": 0.99, "gamma_constraint": null}, "name": "batch_normalization_36"}, {"inbound_nodes": [[["batch_normalization_36", 0, 0, {}]]], "class_name": "Activation", "config": {"activation": "relu", "trainable": true, "name": "activation_36"}, "name": "activation_36"}, {"inbound_nodes": [[["mixed3", 0, 0, {}]]], "class_name": "Conv2D", "config": {"use_bias": false, "padding": "same", "bias_initializer": {"class_name": "Zeros", "config": {}}, "kernel_constraint": null, "strides": [1, 1], "kernel_initializer": {"class_name": "VarianceScaling", "config": {"mode": "fan_avg", "seed": null, "distribution": "uniform", "scale": 1.0}}, "data_format": "channels_last", "filters": 128, "kernel_size": [1, 1], "activation": "linear", "trainable": true, "dilation_rate": [1, 1], "name": "conv2d_32", "activity_regularizer": null, "kernel_regularizer": null, "bias_regularizer": null, "bias_constraint": null}, "name": "conv2d_32"}, {"inbound_nodes": [[["activation_36", 0, 0, {}]]], "class_name": "Conv2D", "config": {"use_bias": false, "padding": "same", "bias_initializer": {"class_name": "Zeros", "config": {}}, "kernel_constraint": null, "strides": [1, 1], "kernel_initializer": {"class_name": "VarianceScaling", "config": {"mode": "fan_avg", "seed": null, "distribution": "uniform", "scale": 1.0}}, "data_format": "channels_last", "filters": 128, "kernel_size": [1, 7], "activation": "linear", "trainable": true, "dilation_rate": [1, 1], "name": "conv2d_37", "activity_regularizer": null, "kernel_regularizer": null, "bias_regularizer": null, "bias_constraint": null}, "name": "conv2d_37"}, {"inbound_nodes": [[["conv2d_32", 0, 0, {}]]], "class_name": "BatchNormalization", "config": {"moving_variance_initializer": {"class_name": "Ones", "config": {}}, "moving_mean_initializer": {"class_name": "Zeros", "config": {}}, "beta_regularizer": null, "epsilon": 0.001, "beta_initializer": {"class_name": "Zeros", "config": {}}, "center": true, "scale": false, "gamma_initializer": {"class_name": "Ones", "config": {}}, "beta_constraint": null, "trainable": true, "axis": 3, "name": "batch_normalization_32", "gamma_regularizer": null, "momentum": 0.99, "gamma_constraint": null}, "name": "batch_normalization_32"}, {"inbound_nodes": [[["conv2d_37", 0, 0, {}]]], "class_name": "BatchNormalization", "config": {"moving_variance_initializer": {"class_name": "Ones", "config": {}}, "moving_mean_initializer": {"class_name": "Zeros", "config": {}}, "beta_regularizer": null, "epsilon": 0.001, "beta_initializer": {"class_name": "Zeros", "config": {}}, "center": true, "scale": false, "gamma_initializer": {"class_name": "Ones", "config": {}}, "beta_constraint": null, "trainable": true, "axis": 3, "name": "batch_normalization_37", "gamma_regularizer": null, "momentum": 0.99, "gamma_constraint": null}, "name": "batch_normalization_37"}, {"inbound_nodes": [[["batch_normalization_32", 0, 0, {}]]], "class_name": "Activation", "config": {"activation": "relu", "trainable": true, "name": "activation_32"}, "name": "activation_32"}, {"inbound_nodes": [[["batch_normalization_37", 0, 0, {}]]], "class_name": "Activation", "config": {"activation": "relu", "trainable": true, "name": "activation_37"}, "name": "activation_37"}, {"inbound_nodes": [[["activation_32", 0, 0, {}]]], "class_name": "Conv2D", "config": {"use_bias": false, "padding": "same", "bias_initializer": {"class_name": "Zeros", "config": {}}, "kernel_constraint": null, "strides": [1, 1], "kernel_initializer": {"class_name": "VarianceScaling", "config": {"mode": "fan_avg", "seed": null, "distribution": "uniform", "scale": 1.0}}, "data_format": "channels_last", "filters": 128, "kernel_size": [1, 7], "activation": "linear", "trainable": true, "dilation_rate": [1, 1], "name": "conv2d_33", "activity_regularizer": null, "kernel_regularizer": null, "bias_regularizer": null, "bias_constraint": null}, "name": "conv2d_33"}, {"inbound_nodes": [[["activation_37", 0, 0, {}]]], "class_name": "Conv2D", "config": {"use_bias": false, "padding": "same", "bias_initializer": {"class_name": "Zeros", "config": {}}, "kernel_constraint": null, "strides": [1, 1], "kernel_initializer": {"class_name": "VarianceScaling", "config": {"mode": "fan_avg", "seed": null, "distribution": "uniform", "scale": 1.0}}, "data_format": "channels_last", "filters": 128, "kernel_size": [7, 1], "activation": "linear", "trainable": true, "dilation_rate": [1, 1], "name": "conv2d_38", "activity_regularizer": null, "kernel_regularizer": null, "bias_regularizer": null, "bias_constraint": null}, "name": "conv2d_38"}, {"inbound_nodes": [[["conv2d_33", 0, 0, {}]]], "class_name": "BatchNormalization", "config": {"moving_variance_initializer": {"class_name": "Ones", "config": {}}, "moving_mean_initializer": {"class_name": "Zeros", "config": {}}, "beta_regularizer": null, "epsilon": 0.001, "beta_initializer": {"class_name": "Zeros", "config": {}}, "center": true, "scale": false, "gamma_initializer": {"class_name": "Ones", "config": {}}, "beta_constraint": null, "trainable": true, "axis": 3, "name": "batch_normalization_33", "gamma_regularizer": null, "momentum": 0.99, "gamma_constraint": null}, "name": "batch_normalization_33"}, {"inbound_nodes": [[["conv2d_38", 0, 0, {}]]], "class_name": "BatchNormalization", "config": {"moving_variance_initializer": {"class_name": "Ones", "config": {}}, "moving_mean_initializer": {"class_name": "Zeros", "config": {}}, "beta_regularizer": null, "epsilon": 0.001, "beta_initializer": {"class_name": "Zeros", "config": {}}, "center": true, "scale": false, "gamma_initializer": {"class_name": "Ones", "config": {}}, "beta_constraint": null, "trainable": true, "axis": 3, "name": "batch_normalization_38", "gamma_regularizer": null, "momentum": 0.99, "gamma_constraint": null}, "name": "batch_normalization_38"}, {"inbound_nodes": [[["batch_normalization_33", 0, 0, {}]]], "class_name": "Activation", "config": {"activation": "relu", "trainable": true, "name": "activation_33"}, "name": "activation_33"}, {"inbound_nodes": [[["batch_normalization_38", 0, 0, {}]]], "class_name": "Activation", "config": {"activation": "relu", "trainable": true, "name": "activation_38"}, "name": "activation_38"}, {"inbound_nodes": [[["mixed3", 0, 0, {}]]], "class_name": "AveragePooling2D", "config": {"padding": "same", "trainable": true, "pool_size": [3, 3], "name": "average_pooling2d_4", "strides": [1, 1], "data_format": "channels_last"}, "name": "average_pooling2d_4"}, {"inbound_nodes": [[["mixed3", 0, 0, {}]]], "class_name": "Conv2D", "config": {"use_bias": false, "padding": "same", "bias_initializer": {"class_name": "Zeros", "config": {}}, "kernel_constraint": null, "strides": [1, 1], "kernel_initializer": {"class_name": "VarianceScaling", "config": {"mode": "fan_avg", "seed": null, "distribution": "uniform", "scale": 1.0}}, "data_format": "channels_last", "filters": 192, "kernel_size": [1, 1], "activation": "linear", "trainable": true, "dilation_rate": [1, 1], "name": "conv2d_31", "activity_regularizer": null, "kernel_regularizer": null, "bias_regularizer": null, "bias_constraint": null}, "name": "conv2d_31"}, {"inbound_nodes": [[["activation_33", 0, 0, {}]]], "class_name": "Conv2D", "config": {"use_bias": false, "padding": "same", "bias_initializer": {"class_name": "Zeros", "config": {}}, "kernel_constraint": null, "strides": [1, 1], "kernel_initializer": {"class_name": "VarianceScaling", "config": {"mode": "fan_avg", "seed": null, "distribution": "uniform", "scale": 1.0}}, "data_format": "channels_last", "filters": 192, "kernel_size": [7, 1], "activation": "linear", "trainable": true, "dilation_rate": [1, 1], "name": "conv2d_34", "activity_regularizer": null, "kernel_regularizer": null, "bias_regularizer": null, "bias_constraint": null}, "name": "conv2d_34"}, {"inbound_nodes": [[["activation_38", 0, 0, {}]]], "class_name": "Conv2D", "config": {"use_bias": false, "padding": "same", "bias_initializer": {"class_name": "Zeros", "config": {}}, "kernel_constraint": null, "strides": [1, 1], "kernel_initializer": {"class_name": "VarianceScaling", "config": {"mode": "fan_avg", "seed": null, "distribution": "uniform", "scale": 1.0}}, "data_format": "channels_last", "filters": 192, "kernel_size": [1, 7], "activation": "linear", "trainable": true, "dilation_rate": [1, 1], "name": "conv2d_39", "activity_regularizer": null, "kernel_regularizer": null, "bias_regularizer": null, "bias_constraint": null}, "name": "conv2d_39"}, {"inbound_nodes": [[["average_pooling2d_4", 0, 0, {}]]], "class_name": "Conv2D", "config": {"use_bias": false, "padding": "same", "bias_initializer": {"class_name": "Zeros", "config": {}}, "kernel_constraint": null, "strides": [1, 1], "kernel_initializer": {"class_name": "VarianceScaling", "config": {"mode": "fan_avg", "seed": null, "distribution": "uniform", "scale": 1.0}}, "data_format": "channels_last", "filters": 192, "kernel_size": [1, 1], "activation": "linear", "trainable": true, "dilation_rate": [1, 1], "name": "conv2d_40", "activity_regularizer": null, "kernel_regularizer": null, "bias_regularizer": null, "bias_constraint": null}, "name": "conv2d_40"}, {"inbound_nodes": [[["conv2d_31", 0, 0, {}]]], "class_name": "BatchNormalization", "config": {"moving_variance_initializer": {"class_name": "Ones", "config": {}}, "moving_mean_initializer": {"class_name": "Zeros", "config": {}}, "beta_regularizer": null, "epsilon": 0.001, "beta_initializer": {"class_name": "Zeros", "config": {}}, "center": true, "scale": false, "gamma_initializer": {"class_name": "Ones", "config": {}}, "beta_constraint": null, "trainable": true, "axis": 3, "name": "batch_normalization_31", "gamma_regularizer": null, "momentum": 0.99, "gamma_constraint": null}, "name": "batch_normalization_31"}, {"inbound_nodes": [[["conv2d_34", 0, 0, {}]]], "class_name": "BatchNormalization", "config": {"moving_variance_initializer": {"class_name": "Ones", "config": {}}, "moving_mean_initializer": {"class_name": "Zeros", "config": {}}, "beta_regularizer": null, "epsilon": 0.001, "beta_initializer": {"class_name": "Zeros", "config": {}}, "center": true, "scale": false, "gamma_initializer": {"class_name": "Ones", "config": {}}, "beta_constraint": null, "trainable": true, "axis": 3, "name": "batch_normalization_34", "gamma_regularizer": null, "momentum": 0.99, "gamma_constraint": null}, "name": "batch_normalization_34"}, {"inbound_nodes": [[["conv2d_39", 0, 0, {}]]], "class_name": "BatchNormalization", "config": {"moving_variance_initializer": {"class_name": "Ones", "config": {}}, "moving_mean_initializer": {"class_name": "Zeros", "config": {}}, "beta_regularizer": null, "epsilon": 0.001, "beta_initializer": {"class_name": "Zeros", "config": {}}, "center": true, "scale": false, "gamma_initializer": {"class_name": "Ones", "config": {}}, "beta_constraint": null, "trainable": true, "axis": 3, "name": "batch_normalization_39", "gamma_regularizer": null, "momentum": 0.99, "gamma_constraint": null}, "name": "batch_normalization_39"}, {"inbound_nodes": [[["conv2d_40", 0, 0, {}]]], "class_name": "BatchNormalization", "config": {"moving_variance_initializer": {"class_name": "Ones", "config": {}}, "moving_mean_initializer": {"class_name": "Zeros", "config": {}}, "beta_regularizer": null, "epsilon": 0.001, "beta_initializer": {"class_name": "Zeros", "config": {}}, "center": true, "scale": false, "gamma_initializer": {"class_name": "Ones", "config": {}}, "beta_constraint": null, "trainable": true, "axis": 3, "name": "batch_normalization_40", "gamma_regularizer": null, "momentum": 0.99, "gamma_constraint": null}, "name": "batch_normalization_40"}, {"inbound_nodes": [[["batch_normalization_31", 0, 0, {}]]], "class_name": "Activation", "config": {"activation": "relu", "trainable": true, "name": "activation_31"}, "name": "activation_31"}, {"inbound_nodes": [[["batch_normalization_34", 0, 0, {}]]], "class_name": "Activation", "config": {"activation": "relu", "trainable": true, "name": "activation_34"}, "name": "activation_34"}, {"inbound_nodes": [[["batch_normalization_39", 0, 0, {}]]], "class_name": "Activation", "config": {"activation": "relu", "trainable": true, "name": "activation_39"}, "name": "activation_39"}, {"inbound_nodes": [[["batch_normalization_40", 0, 0, {}]]], "class_name": "Activation", "config": {"activation": "relu", "trainable": true, "name": "activation_40"}, "name": "activation_40"}, {"inbound_nodes": [[["activation_31", 0, 0, {}], ["activation_34", 0, 0, {}], ["activation_39", 0, 0, {}], ["activation_40", 0, 0, {}]]], "class_name": "Concatenate", "config": {"trainable": true, "axis": 3, "name": "mixed4"}, "name": "mixed4"}, {"inbound_nodes": [[["mixed4", 0, 0, {}]]], "class_name": "Conv2D", "config": {"use_bias": false, "padding": "same", "bias_initializer": {"class_name": "Zeros", "config": {}}, "kernel_constraint": null, "strides": [1, 1], "kernel_initializer": {"class_name": "VarianceScaling", "config": {"mode": "fan_avg", "seed": null, "distribution": "uniform", "scale": 1.0}}, "data_format": "channels_last", "filters": 160, "kernel_size": [1, 1], "activation": "linear", "trainable": true, "dilation_rate": [1, 1], "name": "conv2d_45", "activity_regularizer": null, "kernel_regularizer": null, "bias_regularizer": null, "bias_constraint": null}, "name": "conv2d_45"}, {"inbound_nodes": [[["conv2d_45", 0, 0, {}]]], "class_name": "BatchNormalization", "config": {"moving_variance_initializer": {"class_name": "Ones", "config": {}}, "moving_mean_initializer": {"class_name": "Zeros", "config": {}}, "beta_regularizer": null, "epsilon": 0.001, "beta_initializer": {"class_name": "Zeros", "config": {}}, "center": true, "scale": false, "gamma_initializer": {"class_name": "Ones", "config": {}}, "beta_constraint": null, "trainable": true, "axis": 3, "name": "batch_normalization_45", "gamma_regularizer": null, "momentum": 0.99, "gamma_constraint": null}, "name": "batch_normalization_45"}, {"inbound_nodes": [[["batch_normalization_45", 0, 0, {}]]], "class_name": "Activation", "config": {"activation": "relu", "trainable": true, "name": "activation_45"}, "name": "activation_45"}, {"inbound_nodes": [[["activation_45", 0, 0, {}]]], "class_name": "Conv2D", "config": {"use_bias": false, "padding": "same", "bias_initializer": {"class_name": "Zeros", "config": {}}, "kernel_constraint": null, "strides": [1, 1], "kernel_initializer": {"class_name": "VarianceScaling", "config": {"mode": "fan_avg", "seed": null, "distribution": "uniform", "scale": 1.0}}, "data_format": "channels_last", "filters": 160, "kernel_size": [7, 1], "activation": "linear", "trainable": true, "dilation_rate": [1, 1], "name": "conv2d_46", "activity_regularizer": null, "kernel_regularizer": null, "bias_regularizer": null, "bias_constraint": null}, "name": "conv2d_46"}, {"inbound_nodes": [[["conv2d_46", 0, 0, {}]]], "class_name": "BatchNormalization", "config": {"moving_variance_initializer": {"class_name": "Ones", "config": {}}, "moving_mean_initializer": {"class_name": "Zeros", "config": {}}, "beta_regularizer": null, "epsilon": 0.001, "beta_initializer": {"class_name": "Zeros", "config": {}}, "center": true, "scale": false, "gamma_initializer": {"class_name": "Ones", "config": {}}, "beta_constraint": null, "trainable": true, "axis": 3, "name": "batch_normalization_46", "gamma_regularizer": null, "momentum": 0.99, "gamma_constraint": null}, "name": "batch_normalization_46"}, {"inbound_nodes": [[["batch_normalization_46", 0, 0, {}]]], "class_name": "Activation", "config": {"activation": "relu", "trainable": true, "name": "activation_46"}, "name": "activation_46"}, {"inbound_nodes": [[["mixed4", 0, 0, {}]]], "class_name": "Conv2D", "config": {"use_bias": false, "padding": "same", "bias_initializer": {"class_name": "Zeros", "config": {}}, "kernel_constraint": null, "strides": [1, 1], "kernel_initializer": {"class_name": "VarianceScaling", "config": {"mode": "fan_avg", "seed": null, "distribution": "uniform", "scale": 1.0}}, "data_format": "channels_last", "filters": 160, "kernel_size": [1, 1], "activation": "linear", "trainable": true, "dilation_rate": [1, 1], "name": "conv2d_42", "activity_regularizer": null, "kernel_regularizer": null, "bias_regularizer": null, "bias_constraint": null}, "name": "conv2d_42"}, {"inbound_nodes": [[["activation_46", 0, 0, {}]]], "class_name": "Conv2D", "config": {"use_bias": false, "padding": "same", "bias_initializer": {"class_name": "Zeros", "config": {}}, "kernel_constraint": null, "strides": [1, 1], "kernel_initializer": {"class_name": "VarianceScaling", "config": {"mode": "fan_avg", "seed": null, "distribution": "uniform", "scale": 1.0}}, "data_format": "channels_last", "filters": 160, "kernel_size": [1, 7], "activation": "linear", "trainable": true, "dilation_rate": [1, 1], "name": "conv2d_47", "activity_regularizer": null, "kernel_regularizer": null, "bias_regularizer": null, "bias_constraint": null}, "name": "conv2d_47"}, {"inbound_nodes": [[["conv2d_42", 0, 0, {}]]], "class_name": "BatchNormalization", "config": {"moving_variance_initializer": {"class_name": "Ones", "config": {}}, "moving_mean_initializer": {"class_name": "Zeros", "config": {}}, "beta_regularizer": null, "epsilon": 0.001, "beta_initializer": {"class_name": "Zeros", "config": {}}, "center": true, "scale": false, "gamma_initializer": {"class_name": "Ones", "config": {}}, "beta_constraint": null, "trainable": true, "axis": 3, "name": "batch_normalization_42", "gamma_regularizer": null, "momentum": 0.99, "gamma_constraint": null}, "name": "batch_normalization_42"}, {"inbound_nodes": [[["conv2d_47", 0, 0, {}]]], "class_name": "BatchNormalization", "config": {"moving_variance_initializer": {"class_name": "Ones", "config": {}}, "moving_mean_initializer": {"class_name": "Zeros", "config": {}}, "beta_regularizer": null, "epsilon": 0.001, "beta_initializer": {"class_name": "Zeros", "config": {}}, "center": true, "scale": false, "gamma_initializer": {"class_name": "Ones", "config": {}}, "beta_constraint": null, "trainable": true, "axis": 3, "name": "batch_normalization_47", "gamma_regularizer": null, "momentum": 0.99, "gamma_constraint": null}, "name": "batch_normalization_47"}, {"inbound_nodes": [[["batch_normalization_42", 0, 0, {}]]], "class_name": "Activation", "config": {"activation": "relu", "trainable": true, "name": "activation_42"}, "name": "activation_42"}, {"inbound_nodes": [[["batch_normalization_47", 0, 0, {}]]], "class_name": "Activation", "config": {"activation": "relu", "trainable": true, "name": "activation_47"}, "name": "activation_47"}, {"inbound_nodes": [[["activation_42", 0, 0, {}]]], "class_name": "Conv2D", "config": {"use_bias": false, "padding": "same", "bias_initializer": {"class_name": "Zeros", "config": {}}, "kernel_constraint": null, "strides": [1, 1], "kernel_initializer": {"class_name": "VarianceScaling", "config": {"mode": "fan_avg", "seed": null, "distribution": "uniform", "scale": 1.0}}, "data_format": "channels_last", "filters": 160, "kernel_size": [1, 7], "activation": "linear", "trainable": true, "dilation_rate": [1, 1], "name": "conv2d_43", "activity_regularizer": null, "kernel_regularizer": null, "bias_regularizer": null, "bias_constraint": null}, "name": "conv2d_43"}, {"inbound_nodes": [[["activation_47", 0, 0, {}]]], "class_name": "Conv2D", "config": {"use_bias": false, "padding": "same", "bias_initializer": {"class_name": "Zeros", "config": {}}, "kernel_constraint": null, "strides": [1, 1], "kernel_initializer": {"class_name": "VarianceScaling", "config": {"mode": "fan_avg", "seed": null, "distribution": "uniform", "scale": 1.0}}, "data_format": "channels_last", "filters": 160, "kernel_size": [7, 1], "activation": "linear", "trainable": true, "dilation_rate": [1, 1], "name": "conv2d_48", "activity_regularizer": null, "kernel_regularizer": null, "bias_regularizer": null, "bias_constraint": null}, "name": "conv2d_48"}, {"inbound_nodes": [[["conv2d_43", 0, 0, {}]]], "class_name": "BatchNormalization", "config": {"moving_variance_initializer": {"class_name": "Ones", "config": {}}, "moving_mean_initializer": {"class_name": "Zeros", "config": {}}, "beta_regularizer": null, "epsilon": 0.001, "beta_initializer": {"class_name": "Zeros", "config": {}}, "center": true, "scale": false, "gamma_initializer": {"class_name": "Ones", "config": {}}, "beta_constraint": null, "trainable": true, "axis": 3, "name": "batch_normalization_43", "gamma_regularizer": null, "momentum": 0.99, "gamma_constraint": null}, "name": "batch_normalization_43"}, {"inbound_nodes": [[["conv2d_48", 0, 0, {}]]], "class_name": "BatchNormalization", "config": {"moving_variance_initializer": {"class_name": "Ones", "config": {}}, "moving_mean_initializer": {"class_name": "Zeros", "config": {}}, "beta_regularizer": null, "epsilon": 0.001, "beta_initializer": {"class_name": "Zeros", "config": {}}, "center": true, "scale": false, "gamma_initializer": {"class_name": "Ones", "config": {}}, "beta_constraint": null, "trainable": true, "axis": 3, "name": "batch_normalization_48", "gamma_regularizer": null, "momentum": 0.99, "gamma_constraint": null}, "name": "batch_normalization_48"}, {"inbound_nodes": [[["batch_normalization_43", 0, 0, {}]]], "class_name": "Activation", "config": {"activation": "relu", "trainable": true, "name": "activation_43"}, "name": "activation_43"}, {"inbound_nodes": [[["batch_normalization_48", 0, 0, {}]]], "class_name": "Activation", "config": {"activation": "relu", "trainable": true, "name": "activation_48"}, "name": "activation_48"}, {"inbound_nodes": [[["mixed4", 0, 0, {}]]], "class_name": "AveragePooling2D", "config": {"padding": "same", "trainable": true, "pool_size": [3, 3], "name": "average_pooling2d_5", "strides": [1, 1], "data_format": "channels_last"}, "name": "average_pooling2d_5"}, {"inbound_nodes": [[["mixed4", 0, 0, {}]]], "class_name": "Conv2D", "config": {"use_bias": false, "padding": "same", "bias_initializer": {"class_name": "Zeros", "config": {}}, "kernel_constraint": null, "strides": [1, 1], "kernel_initializer": {"class_name": "VarianceScaling", "config": {"mode": "fan_avg", "seed": null, "distribution": "uniform", "scale": 1.0}}, "data_format": "channels_last", "filters": 192, "kernel_size": [1, 1], "activation": "linear", "trainable": true, "dilation_rate": [1, 1], "name": "conv2d_41", "activity_regularizer": null, "kernel_regularizer": null, "bias_regularizer": null, "bias_constraint": null}, "name": "conv2d_41"}, {"inbound_nodes": [[["activation_43", 0, 0, {}]]], "class_name": "Conv2D", "config": {"use_bias": false, "padding": "same", "bias_initializer": {"class_name": "Zeros", "config": {}}, "kernel_constraint": null, "strides": [1, 1], "kernel_initializer": {"class_name": "VarianceScaling", "config": {"mode": "fan_avg", "seed": null, "distribution": "uniform", "scale": 1.0}}, "data_format": "channels_last", "filters": 192, "kernel_size": [7, 1], "activation": "linear", "trainable": true, "dilation_rate": [1, 1], "name": "conv2d_44", "activity_regularizer": null, "kernel_regularizer": null, "bias_regularizer": null, "bias_constraint": null}, "name": "conv2d_44"}, {"inbound_nodes": [[["activation_48", 0, 0, {}]]], "class_name": "Conv2D", "config": {"use_bias": false, "padding": "same", "bias_initializer": {"class_name": "Zeros", "config": {}}, "kernel_constraint": null, "strides": [1, 1], "kernel_initializer": {"class_name": "VarianceScaling", "config": {"mode": "fan_avg", "seed": null, "distribution": "uniform", "scale": 1.0}}, "data_format": "channels_last", "filters": 192, "kernel_size": [1, 7], "activation": "linear", "trainable": true, "dilation_rate": [1, 1], "name": "conv2d_49", "activity_regularizer": null, "kernel_regularizer": null, "bias_regularizer": null, "bias_constraint": null}, "name": "conv2d_49"}, {"inbound_nodes": [[["average_pooling2d_5", 0, 0, {}]]], "class_name": "Conv2D", "config": {"use_bias": false, "padding": "same", "bias_initializer": {"class_name": "Zeros", "config": {}}, "kernel_constraint": null, "strides": [1, 1], "kernel_initializer": {"class_name": "VarianceScaling", "config": {"mode": "fan_avg", "seed": null, "distribution": "uniform", "scale": 1.0}}, "data_format": "channels_last", "filters": 192, "kernel_size": [1, 1], "activation": "linear", "trainable": true, "dilation_rate": [1, 1], "name": "conv2d_50", "activity_regularizer": null, "kernel_regularizer": null, "bias_regularizer": null, "bias_constraint": null}, "name": "conv2d_50"}, {"inbound_nodes": [[["conv2d_41", 0, 0, {}]]], "class_name": "BatchNormalization", "config": {"moving_variance_initializer": {"class_name": "Ones", "config": {}}, "moving_mean_initializer": {"class_name": "Zeros", "config": {}}, "beta_regularizer": null, "epsilon": 0.001, "beta_initializer": {"class_name": "Zeros", "config": {}}, "center": true, "scale": false, "gamma_initializer": {"class_name": "Ones", "config": {}}, "beta_constraint": null, "trainable": true, "axis": 3, "name": "batch_normalization_41", "gamma_regularizer": null, "momentum": 0.99, "gamma_constraint": null}, "name": "batch_normalization_41"}, {"inbound_nodes": [[["conv2d_44", 0, 0, {}]]], "class_name": "BatchNormalization", "config": {"moving_variance_initializer": {"class_name": "Ones", "config": {}}, "moving_mean_initializer": {"class_name": "Zeros", "config": {}}, "beta_regularizer": null, "epsilon": 0.001, "beta_initializer": {"class_name": "Zeros", "config": {}}, "center": true, "scale": false, "gamma_initializer": {"class_name": "Ones", "config": {}}, "beta_constraint": null, "trainable": true, "axis": 3, "name": "batch_normalization_44", "gamma_regularizer": null, "momentum": 0.99, "gamma_constraint": null}, "name": "batch_normalization_44"}, {"inbound_nodes": [[["conv2d_49", 0, 0, {}]]], "class_name": "BatchNormalization", "config": {"moving_variance_initializer": {"class_name": "Ones", "config": {}}, "moving_mean_initializer": {"class_name": "Zeros", "config": {}}, "beta_regularizer": null, "epsilon": 0.001, "beta_initializer": {"class_name": "Zeros", "config": {}}, "center": true, "scale": false, "gamma_initializer": {"class_name": "Ones", "config": {}}, "beta_constraint": null, "trainable": true, "axis": 3, "name": "batch_normalization_49", "gamma_regularizer": null, "momentum": 0.99, "gamma_constraint": null}, "name": "batch_normalization_49"}, {"inbound_nodes": [[["conv2d_50", 0, 0, {}]]], "class_name": "BatchNormalization", "config": {"moving_variance_initializer": {"class_name": "Ones", "config": {}}, "moving_mean_initializer": {"class_name": "Zeros", "config": {}}, "beta_regularizer": null, "epsilon": 0.001, "beta_initializer": {"class_name": "Zeros", "config": {}}, "center": true, "scale": false, "gamma_initializer": {"class_name": "Ones", "config": {}}, "beta_constraint": null, "trainable": true, "axis": 3, "name": "batch_normalization_50", "gamma_regularizer": null, "momentum": 0.99, "gamma_constraint": null}, "name": "batch_normalization_50"}, {"inbound_nodes": [[["batch_normalization_41", 0, 0, {}]]], "class_name": "Activation", "config": {"activation": "relu", "trainable": true, "name": "activation_41"}, "name": "activation_41"}, {"inbound_nodes": [[["batch_normalization_44", 0, 0, {}]]], "class_name": "Activation", "config": {"activation": "relu", "trainable": true, "name": "activation_44"}, "name": "activation_44"}, {"inbound_nodes": [[["batch_normalization_49", 0, 0, {}]]], "class_name": "Activation", "config": {"activation": "relu", "trainable": true, "name": "activation_49"}, "name": "activation_49"}, {"inbound_nodes": [[["batch_normalization_50", 0, 0, {}]]], "class_name": "Activation", "config": {"activation": "relu", "trainable": true, "name": "activation_50"}, "name": "activation_50"}, {"inbound_nodes": [[["activation_41", 0, 0, {}], ["activation_44", 0, 0, {}], ["activation_49", 0, 0, {}], ["activation_50", 0, 0, {}]]], "class_name": "Concatenate", "config": {"trainable": true, "axis": 3, "name": "mixed5"}, "name": "mixed5"}, {"inbound_nodes": [[["mixed5", 0, 0, {}]]], "class_name": "GlobalAveragePooling2D", "config": {"trainable": true, "data_format": "channels_last", "name": "global_average_pooling2d_1"}, "name": "global_average_pooling2d_1"}, {"inbound_nodes": [[["global_average_pooling2d_1", 0, 0, {}]]], "class_name": "Dense", "config": {"use_bias": true, "kernel_constraint": null, "bias_initializer": {"class_name": "Zeros", "config": {}}, "activity_regularizer": null, "bias_regularizer": null, "kernel_initializer": {"class_name": "VarianceScaling", "config": {"mode": "fan_avg", "seed": null, "distribution": "uniform", "scale": 1.0}}, "name": "dense_1", "trainable": true, "activation": "relu", "kernel_regularizer": null, "units": 1024, "bias_constraint": null}, "name": "dense_1"}, {"inbound_nodes": [[["dense_1", 0, 0, {}]]], "class_name": "Dense", "config": {"use_bias": true, "kernel_constraint": null, "bias_initializer": {"class_name": "Zeros", "config": {}}, "activity_regularizer": null, "bias_regularizer": null, "kernel_initializer": {"class_name": "VarianceScaling", "config": {"mode": "fan_avg", "seed": null, "distribution": "uniform", "scale": 1.0}}, "name": "dense_2", "trainable": true, "activation": "linear", "kernel_regularizer": null, "units": 128, "bias_constraint": null}, "name": "dense_2"}], "output_layers": [["dense_2", 0, 0]], "input_layers": [["input_1", 0, 0]], "name": "model_1"}, "name": "model_1"}, {"inbound_nodes": [[["model_1", 1, 0, {}], ["model_1", 2, 0, {}], ["model_1", 3, 0, {}]]], "class_name": "Lambda", "config": {"trainable": true, "name": "triplet_loss", "function": ["4wIAAAAAAAAACAAAAAUAAABDAAAAc3oAAAB8AABcAwB9AgB9AwB9BAB0AABqAQB0AABqAgB8AgB8\nAwAYgwEAZAEAZAQAgwEBfQUAdAAAagEAdAAAagIAfAIAfAQAGIMBAGQBAGQFAIMBAX0GAHQAAGoD\nAHQAAGoEAGQDAHwFAHwGABh8AQAXgwIAgwEAfQcAfAcAUykGTtoEYXhpc+kBAAAA5wAAAAAAAAAA\n6f////9yBAAAACkF2gFL2gNzdW3aBnNxdWFyZdoEbWVhbtoHbWF4aW11bSkI2gN2ZWPaBWFscGhh\n2gZhbmNob3LaCHBvc2l0aXZl2ghuZWdhdGl2ZdoDZF9w2gNkX27aBGxvc3OpAHISAAAA+hx0Y25f\ndHJpcGxldGxvc3NfZ2VuZXJhdG9yLnB52gx0cmlwbGV0X2xvc3MWAAAAcwoAAAAAAQ8BIgEiASMB\n", [0.2], null], "function_type": "lambda", "arguments": {}, "output_shape": ["4wEAAAAAAAAABAAAAAMAAABDAAAAcx0AAAB8AABcAwB9AQB9AgB9AwB8AQBkAQAZZAIAZgIAUykD\nTukAAAAA6QEAAACpACkE2gZzaGFwZXPaBnNoYXBlMdoGc2hhcGUy2gZzaGFwZTNyAwAAAHIDAAAA\n+hx0Y25fdHJpcGxldGxvc3NfZ2VuZXJhdG9yLnB52hR0cmlwbGV0X291dHB1dF9zaGFwZSsAAABz\nBAAAAAABDwE=\n", null, null], "output_shape_type": "lambda"}, "name": "triplet_loss"}], "output_layers": [["triplet_loss", 0, 0]], "input_layers": [["input_anchor", 0, 0], ["input_positive", 0, 0], ["input_negative", 0, 0]], "name": "model_2"}, "keras_version": "2.1.2"}