{"class_name": "Model", "backend": "tensorflow", "config": {"layers": [{"class_name": "InputLayer", "name": "input_1", "inbound_nodes": [], "config": {"name": "input_1", "dtype": "float32", "batch_input_shape": [null, null, null, 3], "sparse": false}}, {"class_name": "Conv2D", "name": "conv2d_1", "inbound_nodes": [[["input_1", 0, 0, {}]]], "config": {"activity_regularizer": null, "bias_constraint": null, "kernel_constraint": null, "bias_initializer": {"class_name": "Zeros", "config": {}}, "name": "conv2d_1", "padding": "valid", "strides": [2, 2], "dilation_rate": [1, 1], "kernel_size": [3, 3], "kernel_regularizer": null, "activation": "linear", "trainable": true, "use_bias": false, "data_format": "channels_last", "bias_regularizer": null, "filters": 32, "kernel_initializer": {"class_name": "VarianceScaling", "config": {"scale": 1.0, "mode": "fan_avg", "seed": null, "distribution": "uniform"}}}}, {"class_name": "BatchNormalization", "name": "batch_normalization_1", "inbound_nodes": [[["conv2d_1", 0, 0, {}]]], "config": {"gamma_regularizer": null, "epsilon": 0.001, "moving_variance_initializer": {"class_name": "Ones", "config": {}}, "gamma_initializer": {"class_name": "Ones", "config": {}}, "name": "batch_normalization_1", "axis": 3, "gamma_constraint": null, "beta_regularizer": null, "scale": false, "trainable": true, "beta_constraint": null, "beta_initializer": {"class_name": "Zeros", "config": {}}, "momentum": 0.99, "center": true, "moving_mean_initializer": {"class_name": "Zeros", "config": {}}}}, {"class_name": "Activation", "name": "activation_1", "inbound_nodes": [[["batch_normalization_1", 0, 0, {}]]], "config": {"name": "activation_1", "activation": "relu", "trainable": true}}, {"class_name": "Conv2D", "name": "conv2d_2", "inbound_nodes": [[["activation_1", 0, 0, {}]]], "config": {"activity_regularizer": null, "bias_constraint": null, "kernel_constraint": null, "bias_initializer": {"class_name": "Zeros", "config": {}}, "name": "conv2d_2", "padding": "valid", "strides": [1, 1], "dilation_rate": [1, 1], "kernel_size": [3, 3], "kernel_regularizer": null, "activation": "linear", "trainable": true, "use_bias": false, "data_format": "channels_last", "bias_regularizer": null, "filters": 32, "kernel_initializer": {"class_name": "VarianceScaling", "config": {"scale": 1.0, "mode": "fan_avg", "seed": null, "distribution": "uniform"}}}}, {"class_name": "BatchNormalization", "name": "batch_normalization_2", "inbound_nodes": [[["conv2d_2", 0, 0, {}]]], "config": {"gamma_regularizer": null, "epsilon": 0.001, "moving_variance_initializer": {"class_name": "Ones", "config": {}}, "gamma_initializer": {"class_name": "Ones", "config": {}}, "name": "batch_normalization_2", "axis": 3, "gamma_constraint": null, "beta_regularizer": null, "scale": false, "trainable": true, "beta_constraint": null, "beta_initializer": {"class_name": "Zeros", "config": {}}, "momentum": 0.99, "center": true, "moving_mean_initializer": {"class_name": "Zeros", "config": {}}}}, {"class_name": "Activation", "name": "activation_2", "inbound_nodes": [[["batch_normalization_2", 0, 0, {}]]], "config": {"name": "activation_2", "activation": "relu", "trainable": true}}, {"class_name": "Conv2D", "name": "conv2d_3", "inbound_nodes": [[["activation_2", 0, 0, {}]]], "config": {"activity_regularizer": null, "bias_constraint": null, "kernel_constraint": null, "bias_initializer": {"class_name": "Zeros", "config": {}}, "name": "conv2d_3", "padding": "same", "strides": [1, 1], "dilation_rate": [1, 1], "kernel_size": [3, 3], "kernel_regularizer": null, "activation": "linear", "trainable": true, "use_bias": false, "data_format": "channels_last", "bias_regularizer": null, "filters": 64, "kernel_initializer": {"class_name": "VarianceScaling", "config": {"scale": 1.0, "mode": "fan_avg", "seed": null, "distribution": "uniform"}}}}, {"class_name": "BatchNormalization", "name": "batch_normalization_3", "inbound_nodes": [[["conv2d_3", 0, 0, {}]]], "config": {"gamma_regularizer": null, "epsilon": 0.001, "moving_variance_initializer": {"class_name": "Ones", "config": {}}, "gamma_initializer": {"class_name": "Ones", "config": {}}, "name": "batch_normalization_3", "axis": 3, "gamma_constraint": null, "beta_regularizer": null, "scale": false, "trainable": true, "beta_constraint": null, "beta_initializer": {"class_name": "Zeros", "config": {}}, "momentum": 0.99, "center": true, "moving_mean_initializer": {"class_name": "Zeros", "config": {}}}}, {"class_name": "Activation", "name": "activation_3", "inbound_nodes": [[["batch_normalization_3", 0, 0, {}]]], "config": {"name": "activation_3", "activation": "relu", "trainable": true}}, {"class_name": "MaxPooling2D", "name": "max_pooling2d_1", "inbound_nodes": [[["activation_3", 0, 0, {}]]], "config": {"trainable": true, "pool_size": [3, 3], "data_format": "channels_last", "name": "max_pooling2d_1", "strides": [2, 2], "padding": "valid"}}, {"class_name": "Conv2D", "name": "conv2d_4", "inbound_nodes": [[["max_pooling2d_1", 0, 0, {}]]], "config": {"activity_regularizer": null, "bias_constraint": null, "kernel_constraint": null, "bias_initializer": {"class_name": "Zeros", "config": {}}, "name": "conv2d_4", "padding": "valid", "strides": [1, 1], "dilation_rate": [1, 1], "kernel_size": [1, 1], "kernel_regularizer": null, "activation": "linear", "trainable": true, "use_bias": false, "data_format": "channels_last", "bias_regularizer": null, "filters": 80, "kernel_initializer": {"class_name": "VarianceScaling", "config": {"scale": 1.0, "mode": "fan_avg", "seed": null, "distribution": "uniform"}}}}, {"class_name": "BatchNormalization", "name": "batch_normalization_4", "inbound_nodes": [[["conv2d_4", 0, 0, {}]]], "config": {"gamma_regularizer": null, "epsilon": 0.001, "moving_variance_initializer": {"class_name": "Ones", "config": {}}, "gamma_initializer": {"class_name": "Ones", "config": {}}, "name": "batch_normalization_4", "axis": 3, "gamma_constraint": null, "beta_regularizer": null, "scale": false, "trainable": true, "beta_constraint": null, "beta_initializer": {"class_name": "Zeros", "config": {}}, "momentum": 0.99, "center": true, "moving_mean_initializer": {"class_name": "Zeros", "config": {}}}}, {"class_name": "Activation", "name": "activation_4", "inbound_nodes": [[["batch_normalization_4", 0, 0, {}]]], "config": {"name": "activation_4", "activation": "relu", "trainable": true}}, {"class_name": "Conv2D", "name": "conv2d_5", "inbound_nodes": [[["activation_4", 0, 0, {}]]], "config": {"activity_regularizer": null, "bias_constraint": null, "kernel_constraint": null, "bias_initializer": {"class_name": "Zeros", "config": {}}, "name": "conv2d_5", "padding": "valid", "strides": [1, 1], "dilation_rate": [1, 1], "kernel_size": [3, 3], "kernel_regularizer": null, "activation": "linear", "trainable": true, "use_bias": false, "data_format": "channels_last", "bias_regularizer": null, "filters": 192, "kernel_initializer": {"class_name": "VarianceScaling", "config": {"scale": 1.0, "mode": "fan_avg", "seed": null, "distribution": "uniform"}}}}, {"class_name": "BatchNormalization", "name": "batch_normalization_5", "inbound_nodes": [[["conv2d_5", 0, 0, {}]]], "config": {"gamma_regularizer": null, "epsilon": 0.001, "moving_variance_initializer": {"class_name": "Ones", "config": {}}, "gamma_initializer": {"class_name": "Ones", "config": {}}, "name": "batch_normalization_5", "axis": 3, "gamma_constraint": null, "beta_regularizer": null, "scale": false, "trainable": true, "beta_constraint": null, "beta_initializer": {"class_name": "Zeros", "config": {}}, "momentum": 0.99, "center": true, "moving_mean_initializer": {"class_name": "Zeros", "config": {}}}}, {"class_name": "Activation", "name": "activation_5", "inbound_nodes": [[["batch_normalization_5", 0, 0, {}]]], "config": {"name": "activation_5", "activation": "relu", "trainable": true}}, {"class_name": "MaxPooling2D", "name": "max_pooling2d_2", "inbound_nodes": [[["activation_5", 0, 0, {}]]], "config": {"trainable": true, "pool_size": [3, 3], "data_format": "channels_last", "name": "max_pooling2d_2", "strides": [2, 2], "padding": "valid"}}, {"class_name": "Conv2D", "name": "conv2d_9", "inbound_nodes": [[["max_pooling2d_2", 0, 0, {}]]], "config": {"activity_regularizer": null, "bias_constraint": null, "kernel_constraint": null, "bias_initializer": {"class_name": "Zeros", "config": {}}, "name": "conv2d_9", "padding": "same", "strides": [1, 1], "dilation_rate": [1, 1], "kernel_size": [1, 1], "kernel_regularizer": null, "activation": "linear", "trainable": true, "use_bias": false, "data_format": "channels_last", "bias_regularizer": null, "filters": 64, "kernel_initializer": {"class_name": "VarianceScaling", "config": {"scale": 1.0, "mode": "fan_avg", "seed": null, "distribution": "uniform"}}}}, {"class_name": "BatchNormalization", "name": "batch_normalization_9", "inbound_nodes": [[["conv2d_9", 0, 0, {}]]], "config": {"gamma_regularizer": null, "epsilon": 0.001, "moving_variance_initializer": {"class_name": "Ones", "config": {}}, "gamma_initializer": {"class_name": "Ones", "config": {}}, "name": "batch_normalization_9", "axis": 3, "gamma_constraint": null, "beta_regularizer": null, "scale": false, "trainable": true, "beta_constraint": null, "beta_initializer": {"class_name": "Zeros", "config": {}}, "momentum": 0.99, "center": true, "moving_mean_initializer": {"class_name": "Zeros", "config": {}}}}, {"class_name": "Activation", "name": "activation_9", "inbound_nodes": [[["batch_normalization_9", 0, 0, {}]]], "config": {"name": "activation_9", "activation": "relu", "trainable": true}}, {"class_name": "Conv2D", "name": "conv2d_7", "inbound_nodes": [[["max_pooling2d_2", 0, 0, {}]]], "config": {"activity_regularizer": null, "bias_constraint": null, "kernel_constraint": null, "bias_initializer": {"class_name": "Zeros", "config": {}}, "name": "conv2d_7", "padding": "same", "strides": [1, 1], "dilation_rate": [1, 1], "kernel_size": [1, 1], "kernel_regularizer": null, "activation": "linear", "trainable": true, "use_bias": false, "data_format": "channels_last", "bias_regularizer": null, "filters": 48, "kernel_initializer": {"class_name": "VarianceScaling", "config": {"scale": 1.0, "mode": "fan_avg", "seed": null, "distribution": "uniform"}}}}, {"class_name": "Conv2D", "name": "conv2d_10", "inbound_nodes": [[["activation_9", 0, 0, {}]]], "config": {"activity_regularizer": null, "bias_constraint": null, "kernel_constraint": null, "bias_initializer": {"class_name": "Zeros", "config": {}}, "name": "conv2d_10", "padding": "same", "strides": [1, 1], "dilation_rate": [1, 1], "kernel_size": [3, 3], "kernel_regularizer": null, "activation": "linear", "trainable": true, "use_bias": false, "data_format": "channels_last", "bias_regularizer": null, "filters": 96, "kernel_initializer": {"class_name": "VarianceScaling", "config": {"scale": 1.0, "mode": "fan_avg", "seed": null, "distribution": "uniform"}}}}, {"class_name": "BatchNormalization", "name": "batch_normalization_7", "inbound_nodes": [[["conv2d_7", 0, 0, {}]]], "config": {"gamma_regularizer": null, "epsilon": 0.001, "moving_variance_initializer": {"class_name": "Ones", "config": {}}, "gamma_initializer": {"class_name": "Ones", "config": {}}, "name": "batch_normalization_7", "axis": 3, "gamma_constraint": null, "beta_regularizer": null, "scale": false, "trainable": true, "beta_constraint": null, "beta_initializer": {"class_name": "Zeros", "config": {}}, "momentum": 0.99, "center": true, "moving_mean_initializer": {"class_name": "Zeros", "config": {}}}}, {"class_name": "BatchNormalization", "name": "batch_normalization_10", "inbound_nodes": [[["conv2d_10", 0, 0, {}]]], "config": {"gamma_regularizer": null, "epsilon": 0.001, "moving_variance_initializer": {"class_name": "Ones", "config": {}}, "gamma_initializer": {"class_name": "Ones", "config": {}}, "name": "batch_normalization_10", "axis": 3, "gamma_constraint": null, "beta_regularizer": null, "scale": false, "trainable": true, "beta_constraint": null, "beta_initializer": {"class_name": "Zeros", "config": {}}, "momentum": 0.99, "center": true, "moving_mean_initializer": {"class_name": "Zeros", "config": {}}}}, {"class_name": "Activation", "name": "activation_7", "inbound_nodes": [[["batch_normalization_7", 0, 0, {}]]], "config": {"name": "activation_7", "activation": "relu", "trainable": true}}, {"class_name": "Activation", "name": "activation_10", "inbound_nodes": [[["batch_normalization_10", 0, 0, {}]]], "config": {"name": "activation_10", "activation": "relu", "trainable": true}}, {"class_name": "AveragePooling2D", "name": "average_pooling2d_1", "inbound_nodes": [[["max_pooling2d_2", 0, 0, {}]]], "config": {"trainable": true, "pool_size": [3, 3], "data_format": "channels_last", "name": "average_pooling2d_1", "strides": [1, 1], "padding": "same"}}, {"class_name": "Conv2D", "name": "conv2d_6", "inbound_nodes": [[["max_pooling2d_2", 0, 0, {}]]], "config": {"activity_regularizer": null, "bias_constraint": null, "kernel_constraint": null, "bias_initializer": {"class_name": "Zeros", "config": {}}, "name": "conv2d_6", "padding": "same", "strides": [1, 1], "dilation_rate": [1, 1], "kernel_size": [1, 1], "kernel_regularizer": null, "activation": "linear", "trainable": true, "use_bias": false, "data_format": "channels_last", "bias_regularizer": null, "filters": 64, "kernel_initializer": {"class_name": "VarianceScaling", "config": {"scale": 1.0, "mode": "fan_avg", "seed": null, "distribution": "uniform"}}}}, {"class_name": "Conv2D", "name": "conv2d_8", "inbound_nodes": [[["activation_7", 0, 0, {}]]], "config": {"activity_regularizer": null, "bias_constraint": null, "kernel_constraint": null, "bias_initializer": {"class_name": "Zeros", "config": {}}, "name": "conv2d_8", "padding": "same", "strides": [1, 1], "dilation_rate": [1, 1], "kernel_size": [5, 5], "kernel_regularizer": null, "activation": "linear", "trainable": true, "use_bias": false, "data_format": "channels_last", "bias_regularizer": null, "filters": 64, "kernel_initializer": {"class_name": "VarianceScaling", "config": {"scale": 1.0, "mode": "fan_avg", "seed": null, "distribution": "uniform"}}}}, {"class_name": "Conv2D", "name": "conv2d_11", "inbound_nodes": [[["activation_10", 0, 0, {}]]], "config": {"activity_regularizer": null, "bias_constraint": null, "kernel_constraint": null, "bias_initializer": {"class_name": "Zeros", "config": {}}, "name": "conv2d_11", "padding": "same", "strides": [1, 1], "dilation_rate": [1, 1], "kernel_size": [3, 3], "kernel_regularizer": null, "activation": "linear", "trainable": true, "use_bias": false, "data_format": "channels_last", "bias_regularizer": null, "filters": 96, "kernel_initializer": {"class_name": "VarianceScaling", "config": {"scale": 1.0, "mode": "fan_avg", "seed": null, "distribution": "uniform"}}}}, {"class_name": "Conv2D", "name": "conv2d_12", "inbound_nodes": [[["average_pooling2d_1", 0, 0, {}]]], "config": {"activity_regularizer": null, "bias_constraint": null, "kernel_constraint": null, "bias_initializer": {"class_name": "Zeros", "config": {}}, "name": "conv2d_12", "padding": "same", "strides": [1, 1], "dilation_rate": [1, 1], "kernel_size": [1, 1], "kernel_regularizer": null, "activation": "linear", "trainable": true, "use_bias": false, "data_format": "channels_last", "bias_regularizer": null, "filters": 32, "kernel_initializer": {"class_name": "VarianceScaling", "config": {"scale": 1.0, "mode": "fan_avg", "seed": null, "distribution": "uniform"}}}}, {"class_name": "BatchNormalization", "name": "batch_normalization_6", "inbound_nodes": [[["conv2d_6", 0, 0, {}]]], "config": {"gamma_regularizer": null, "epsilon": 0.001, "moving_variance_initializer": {"class_name": "Ones", "config": {}}, "gamma_initializer": {"class_name": "Ones", "config": {}}, "name": "batch_normalization_6", "axis": 3, "gamma_constraint": null, "beta_regularizer": null, "scale": false, "trainable": true, "beta_constraint": null, "beta_initializer": {"class_name": "Zeros", "config": {}}, "momentum": 0.99, "center": true, "moving_mean_initializer": {"class_name": "Zeros", "config": {}}}}, {"class_name": "BatchNormalization", "name": "batch_normalization_8", "inbound_nodes": [[["conv2d_8", 0, 0, {}]]], "config": {"gamma_regularizer": null, "epsilon": 0.001, "moving_variance_initializer": {"class_name": "Ones", "config": {}}, "gamma_initializer": {"class_name": "Ones", "config": {}}, "name": "batch_normalization_8", "axis": 3, "gamma_constraint": null, "beta_regularizer": null, "scale": false, "trainable": true, "beta_constraint": null, "beta_initializer": {"class_name": "Zeros", "config": {}}, "momentum": 0.99, "center": true, "moving_mean_initializer": {"class_name": "Zeros", "config": {}}}}, {"class_name": "BatchNormalization", "name": "batch_normalization_11", "inbound_nodes": [[["conv2d_11", 0, 0, {}]]], "config": {"gamma_regularizer": null, "epsilon": 0.001, "moving_variance_initializer": {"class_name": "Ones", "config": {}}, "gamma_initializer": {"class_name": "Ones", "config": {}}, "name": "batch_normalization_11", "axis": 3, "gamma_constraint": null, "beta_regularizer": null, "scale": false, "trainable": true, "beta_constraint": null, "beta_initializer": {"class_name": "Zeros", "config": {}}, "momentum": 0.99, "center": true, "moving_mean_initializer": {"class_name": "Zeros", "config": {}}}}, {"class_name": "BatchNormalization", "name": "batch_normalization_12", "inbound_nodes": [[["conv2d_12", 0, 0, {}]]], "config": {"gamma_regularizer": null, "epsilon": 0.001, "moving_variance_initializer": {"class_name": "Ones", "config": {}}, "gamma_initializer": {"class_name": "Ones", "config": {}}, "name": "batch_normalization_12", "axis": 3, "gamma_constraint": null, "beta_regularizer": null, "scale": false, "trainable": true, "beta_constraint": null, "beta_initializer": {"class_name": "Zeros", "config": {}}, "momentum": 0.99, "center": true, "moving_mean_initializer": {"class_name": "Zeros", "config": {}}}}, {"class_name": "Activation", "name": "activation_6", "inbound_nodes": [[["batch_normalization_6", 0, 0, {}]]], "config": {"name": "activation_6", "activation": "relu", "trainable": true}}, {"class_name": "Activation", "name": "activation_8", "inbound_nodes": [[["batch_normalization_8", 0, 0, {}]]], "config": {"name": "activation_8", "activation": "relu", "trainable": true}}, {"class_name": "Activation", "name": "activation_11", "inbound_nodes": [[["batch_normalization_11", 0, 0, {}]]], "config": {"name": "activation_11", "activation": "relu", "trainable": true}}, {"class_name": "Activation", "name": "activation_12", "inbound_nodes": [[["batch_normalization_12", 0, 0, {}]]], "config": {"name": "activation_12", "activation": "relu", "trainable": true}}, {"class_name": "Concatenate", "name": "mixed0", "inbound_nodes": [[["activation_6", 0, 0, {}], ["activation_8", 0, 0, {}], ["activation_11", 0, 0, {}], ["activation_12", 0, 0, {}]]], "config": {"name": "mixed0", "trainable": true, "axis": 3}}, {"class_name": "Conv2D", "name": "conv2d_16", "inbound_nodes": [[["mixed0", 0, 0, {}]]], "config": {"activity_regularizer": null, "bias_constraint": null, "kernel_constraint": null, "bias_initializer": {"class_name": "Zeros", "config": {}}, "name": "conv2d_16", "padding": "same", "strides": [1, 1], "dilation_rate": [1, 1], "kernel_size": [1, 1], "kernel_regularizer": null, "activation": "linear", "trainable": true, "use_bias": false, "data_format": "channels_last", "bias_regularizer": null, "filters": 64, "kernel_initializer": {"class_name": "VarianceScaling", "config": {"scale": 1.0, "mode": "fan_avg", "seed": null, "distribution": "uniform"}}}}, {"class_name": "BatchNormalization", "name": "batch_normalization_16", "inbound_nodes": [[["conv2d_16", 0, 0, {}]]], "config": {"gamma_regularizer": null, "epsilon": 0.001, "moving_variance_initializer": {"class_name": "Ones", "config": {}}, "gamma_initializer": {"class_name": "Ones", "config": {}}, "name": "batch_normalization_16", "axis": 3, "gamma_constraint": null, "beta_regularizer": null, "scale": false, "trainable": true, "beta_constraint": null, "beta_initializer": {"class_name": "Zeros", "config": {}}, "momentum": 0.99, "center": true, "moving_mean_initializer": {"class_name": "Zeros", "config": {}}}}, {"class_name": "Activation", "name": "activation_16", "inbound_nodes": [[["batch_normalization_16", 0, 0, {}]]], "config": {"name": "activation_16", "activation": "relu", "trainable": true}}, {"class_name": "Conv2D", "name": "conv2d_14", "inbound_nodes": [[["mixed0", 0, 0, {}]]], "config": {"activity_regularizer": null, "bias_constraint": null, "kernel_constraint": null, "bias_initializer": {"class_name": "Zeros", "config": {}}, "name": "conv2d_14", "padding": "same", "strides": [1, 1], "dilation_rate": [1, 1], "kernel_size": [1, 1], "kernel_regularizer": null, "activation": "linear", "trainable": true, "use_bias": false, "data_format": "channels_last", "bias_regularizer": null, "filters": 48, "kernel_initializer": {"class_name": "VarianceScaling", "config": {"scale": 1.0, "mode": "fan_avg", "seed": null, "distribution": "uniform"}}}}, {"class_name": "Conv2D", "name": "conv2d_17", "inbound_nodes": [[["activation_16", 0, 0, {}]]], "config": {"activity_regularizer": null, "bias_constraint": null, "kernel_constraint": null, "bias_initializer": {"class_name": "Zeros", "config": {}}, "name": "conv2d_17", "padding": "same", "strides": [1, 1], "dilation_rate": [1, 1], "kernel_size": [3, 3], "kernel_regularizer": null, "activation": "linear", "trainable": true, "use_bias": false, "data_format": "channels_last", "bias_regularizer": null, "filters": 96, "kernel_initializer": {"class_name": "VarianceScaling", "config": {"scale": 1.0, "mode": "fan_avg", "seed": null, "distribution": "uniform"}}}}, {"class_name": "BatchNormalization", "name": "batch_normalization_14", "inbound_nodes": [[["conv2d_14", 0, 0, {}]]], "config": {"gamma_regularizer": null, "epsilon": 0.001, "moving_variance_initializer": {"class_name": "Ones", "config": {}}, "gamma_initializer": {"class_name": "Ones", "config": {}}, "name": "batch_normalization_14", "axis": 3, "gamma_constraint": null, "beta_regularizer": null, "scale": false, "trainable": true, "beta_constraint": null, "beta_initializer": {"class_name": "Zeros", "config": {}}, "momentum": 0.99, "center": true, "moving_mean_initializer": {"class_name": "Zeros", "config": {}}}}, {"class_name": "BatchNormalization", "name": "batch_normalization_17", "inbound_nodes": [[["conv2d_17", 0, 0, {}]]], "config": {"gamma_regularizer": null, "epsilon": 0.001, "moving_variance_initializer": {"class_name": "Ones", "config": {}}, "gamma_initializer": {"class_name": "Ones", "config": {}}, "name": "batch_normalization_17", "axis": 3, "gamma_constraint": null, "beta_regularizer": null, "scale": false, "trainable": true, "beta_constraint": null, "beta_initializer": {"class_name": "Zeros", "config": {}}, "momentum": 0.99, "center": true, "moving_mean_initializer": {"class_name": "Zeros", "config": {}}}}, {"class_name": "Activation", "name": "activation_14", "inbound_nodes": [[["batch_normalization_14", 0, 0, {}]]], "config": {"name": "activation_14", "activation": "relu", "trainable": true}}, {"class_name": "Activation", "name": "activation_17", "inbound_nodes": [[["batch_normalization_17", 0, 0, {}]]], "config": {"name": "activation_17", "activation": "relu", "trainable": true}}, {"class_name": "AveragePooling2D", "name": "average_pooling2d_2", "inbound_nodes": [[["mixed0", 0, 0, {}]]], "config": {"trainable": true, "pool_size": [3, 3], "data_format": "channels_last", "name": "average_pooling2d_2", "strides": [1, 1], "padding": "same"}}, {"class_name": "Conv2D", "name": "conv2d_13", "inbound_nodes": [[["mixed0", 0, 0, {}]]], "config": {"activity_regularizer": null, "bias_constraint": null, "kernel_constraint": null, "bias_initializer": {"class_name": "Zeros", "config": {}}, "name": "conv2d_13", "padding": "same", "strides": [1, 1], "dilation_rate": [1, 1], "kernel_size": [1, 1], "kernel_regularizer": null, "activation": "linear", "trainable": true, "use_bias": false, "data_format": "channels_last", "bias_regularizer": null, "filters": 64, "kernel_initializer": {"class_name": "VarianceScaling", "config": {"scale": 1.0, "mode": "fan_avg", "seed": null, "distribution": "uniform"}}}}, {"class_name": "Conv2D", "name": "conv2d_15", "inbound_nodes": [[["activation_14", 0, 0, {}]]], "config": {"activity_regularizer": null, "bias_constraint": null, "kernel_constraint": null, "bias_initializer": {"class_name": "Zeros", "config": {}}, "name": "conv2d_15", "padding": "same", "strides": [1, 1], "dilation_rate": [1, 1], "kernel_size": [5, 5], "kernel_regularizer": null, "activation": "linear", "trainable": true, "use_bias": false, "data_format": "channels_last", "bias_regularizer": null, "filters": 64, "kernel_initializer": {"class_name": "VarianceScaling", "config": {"scale": 1.0, "mode": "fan_avg", "seed": null, "distribution": "uniform"}}}}, {"class_name": "Conv2D", "name": "conv2d_18", "inbound_nodes": [[["activation_17", 0, 0, {}]]], "config": {"activity_regularizer": null, "bias_constraint": null, "kernel_constraint": null, "bias_initializer": {"class_name": "Zeros", "config": {}}, "name": "conv2d_18", "padding": "same", "strides": [1, 1], "dilation_rate": [1, 1], "kernel_size": [3, 3], "kernel_regularizer": null, "activation": "linear", "trainable": true, "use_bias": false, "data_format": "channels_last", "bias_regularizer": null, "filters": 96, "kernel_initializer": {"class_name": "VarianceScaling", "config": {"scale": 1.0, "mode": "fan_avg", "seed": null, "distribution": "uniform"}}}}, {"class_name": "Conv2D", "name": "conv2d_19", "inbound_nodes": [[["average_pooling2d_2", 0, 0, {}]]], "config": {"activity_regularizer": null, "bias_constraint": null, "kernel_constraint": null, "bias_initializer": {"class_name": "Zeros", "config": {}}, "name": "conv2d_19", "padding": "same", "strides": [1, 1], "dilation_rate": [1, 1], "kernel_size": [1, 1], "kernel_regularizer": null, "activation": "linear", "trainable": true, "use_bias": false, "data_format": "channels_last", "bias_regularizer": null, "filters": 64, "kernel_initializer": {"class_name": "VarianceScaling", "config": {"scale": 1.0, "mode": "fan_avg", "seed": null, "distribution": "uniform"}}}}, {"class_name": "BatchNormalization", "name": "batch_normalization_13", "inbound_nodes": [[["conv2d_13", 0, 0, {}]]], "config": {"gamma_regularizer": null, "epsilon": 0.001, "moving_variance_initializer": {"class_name": "Ones", "config": {}}, "gamma_initializer": {"class_name": "Ones", "config": {}}, "name": "batch_normalization_13", "axis": 3, "gamma_constraint": null, "beta_regularizer": null, "scale": false, "trainable": true, "beta_constraint": null, "beta_initializer": {"class_name": "Zeros", "config": {}}, "momentum": 0.99, "center": true, "moving_mean_initializer": {"class_name": "Zeros", "config": {}}}}, {"class_name": "BatchNormalization", "name": "batch_normalization_15", "inbound_nodes": [[["conv2d_15", 0, 0, {}]]], "config": {"gamma_regularizer": null, "epsilon": 0.001, "moving_variance_initializer": {"class_name": "Ones", "config": {}}, "gamma_initializer": {"class_name": "Ones", "config": {}}, "name": "batch_normalization_15", "axis": 3, "gamma_constraint": null, "beta_regularizer": null, "scale": false, "trainable": true, "beta_constraint": null, "beta_initializer": {"class_name": "Zeros", "config": {}}, "momentum": 0.99, "center": true, "moving_mean_initializer": {"class_name": "Zeros", "config": {}}}}, {"class_name": "BatchNormalization", "name": "batch_normalization_18", "inbound_nodes": [[["conv2d_18", 0, 0, {}]]], "config": {"gamma_regularizer": null, "epsilon": 0.001, "moving_variance_initializer": {"class_name": "Ones", "config": {}}, "gamma_initializer": {"class_name": "Ones", "config": {}}, "name": "batch_normalization_18", "axis": 3, "gamma_constraint": null, "beta_regularizer": null, "scale": false, "trainable": true, "beta_constraint": null, "beta_initializer": {"class_name": "Zeros", "config": {}}, "momentum": 0.99, "center": true, "moving_mean_initializer": {"class_name": "Zeros", "config": {}}}}, {"class_name": "BatchNormalization", "name": "batch_normalization_19", "inbound_nodes": [[["conv2d_19", 0, 0, {}]]], "config": {"gamma_regularizer": null, "epsilon": 0.001, "moving_variance_initializer": {"class_name": "Ones", "config": {}}, "gamma_initializer": {"class_name": "Ones", "config": {}}, "name": "batch_normalization_19", "axis": 3, "gamma_constraint": null, "beta_regularizer": null, "scale": false, "trainable": true, "beta_constraint": null, "beta_initializer": {"class_name": "Zeros", "config": {}}, "momentum": 0.99, "center": true, "moving_mean_initializer": {"class_name": "Zeros", "config": {}}}}, {"class_name": "Activation", "name": "activation_13", "inbound_nodes": [[["batch_normalization_13", 0, 0, {}]]], "config": {"name": "activation_13", "activation": "relu", "trainable": true}}, {"class_name": "Activation", "name": "activation_15", "inbound_nodes": [[["batch_normalization_15", 0, 0, {}]]], "config": {"name": "activation_15", "activation": "relu", "trainable": true}}, {"class_name": "Activation", "name": "activation_18", "inbound_nodes": [[["batch_normalization_18", 0, 0, {}]]], "config": {"name": "activation_18", "activation": "relu", "trainable": true}}, {"class_name": "Activation", "name": "activation_19", "inbound_nodes": [[["batch_normalization_19", 0, 0, {}]]], "config": {"name": "activation_19", "activation": "relu", "trainable": true}}, {"class_name": "Concatenate", "name": "mixed1", "inbound_nodes": [[["activation_13", 0, 0, {}], ["activation_15", 0, 0, {}], ["activation_18", 0, 0, {}], ["activation_19", 0, 0, {}]]], "config": {"name": "mixed1", "trainable": true, "axis": 3}}, {"class_name": "Conv2D", "name": "conv2d_23", "inbound_nodes": [[["mixed1", 0, 0, {}]]], "config": {"activity_regularizer": null, "bias_constraint": null, "kernel_constraint": null, "bias_initializer": {"class_name": "Zeros", "config": {}}, "name": "conv2d_23", "padding": "same", "strides": [1, 1], "dilation_rate": [1, 1], "kernel_size": [1, 1], "kernel_regularizer": null, "activation": "linear", "trainable": true, "use_bias": false, "data_format": "channels_last", "bias_regularizer": null, "filters": 64, "kernel_initializer": {"class_name": "VarianceScaling", "config": {"scale": 1.0, "mode": "fan_avg", "seed": null, "distribution": "uniform"}}}}, {"class_name": "BatchNormalization", "name": "batch_normalization_23", "inbound_nodes": [[["conv2d_23", 0, 0, {}]]], "config": {"gamma_regularizer": null, "epsilon": 0.001, "moving_variance_initializer": {"class_name": "Ones", "config": {}}, "gamma_initializer": {"class_name": "Ones", "config": {}}, "name": "batch_normalization_23", "axis": 3, "gamma_constraint": null, "beta_regularizer": null, "scale": false, "trainable": true, "beta_constraint": null, "beta_initializer": {"class_name": "Zeros", "config": {}}, "momentum": 0.99, "center": true, "moving_mean_initializer": {"class_name": "Zeros", "config": {}}}}, {"class_name": "Activation", "name": "activation_23", "inbound_nodes": [[["batch_normalization_23", 0, 0, {}]]], "config": {"name": "activation_23", "activation": "relu", "trainable": true}}, {"class_name": "Conv2D", "name": "conv2d_21", "inbound_nodes": [[["mixed1", 0, 0, {}]]], "config": {"activity_regularizer": null, "bias_constraint": null, "kernel_constraint": null, "bias_initializer": {"class_name": "Zeros", "config": {}}, "name": "conv2d_21", "padding": "same", "strides": [1, 1], "dilation_rate": [1, 1], "kernel_size": [1, 1], "kernel_regularizer": null, "activation": "linear", "trainable": true, "use_bias": false, "data_format": "channels_last", "bias_regularizer": null, "filters": 48, "kernel_initializer": {"class_name": "VarianceScaling", "config": {"scale": 1.0, "mode": "fan_avg", "seed": null, "distribution": "uniform"}}}}, {"class_name": "Conv2D", "name": "conv2d_24", "inbound_nodes": [[["activation_23", 0, 0, {}]]], "config": {"activity_regularizer": null, "bias_constraint": null, "kernel_constraint": null, "bias_initializer": {"class_name": "Zeros", "config": {}}, "name": "conv2d_24", "padding": "same", "strides": [1, 1], "dilation_rate": [1, 1], "kernel_size": [3, 3], "kernel_regularizer": null, "activation": "linear", "trainable": true, "use_bias": false, "data_format": "channels_last", "bias_regularizer": null, "filters": 96, "kernel_initializer": {"class_name": "VarianceScaling", "config": {"scale": 1.0, "mode": "fan_avg", "seed": null, "distribution": "uniform"}}}}, {"class_name": "BatchNormalization", "name": "batch_normalization_21", "inbound_nodes": [[["conv2d_21", 0, 0, {}]]], "config": {"gamma_regularizer": null, "epsilon": 0.001, "moving_variance_initializer": {"class_name": "Ones", "config": {}}, "gamma_initializer": {"class_name": "Ones", "config": {}}, "name": "batch_normalization_21", "axis": 3, "gamma_constraint": null, "beta_regularizer": null, "scale": false, "trainable": true, "beta_constraint": null, "beta_initializer": {"class_name": "Zeros", "config": {}}, "momentum": 0.99, "center": true, "moving_mean_initializer": {"class_name": "Zeros", "config": {}}}}, {"class_name": "BatchNormalization", "name": "batch_normalization_24", "inbound_nodes": [[["conv2d_24", 0, 0, {}]]], "config": {"gamma_regularizer": null, "epsilon": 0.001, "moving_variance_initializer": {"class_name": "Ones", "config": {}}, "gamma_initializer": {"class_name": "Ones", "config": {}}, "name": "batch_normalization_24", "axis": 3, "gamma_constraint": null, "beta_regularizer": null, "scale": false, "trainable": true, "beta_constraint": null, "beta_initializer": {"class_name": "Zeros", "config": {}}, "momentum": 0.99, "center": true, "moving_mean_initializer": {"class_name": "Zeros", "config": {}}}}, {"class_name": "Activation", "name": "activation_21", "inbound_nodes": [[["batch_normalization_21", 0, 0, {}]]], "config": {"name": "activation_21", "activation": "relu", "trainable": true}}, {"class_name": "Activation", "name": "activation_24", "inbound_nodes": [[["batch_normalization_24", 0, 0, {}]]], "config": {"name": "activation_24", "activation": "relu", "trainable": true}}, {"class_name": "AveragePooling2D", "name": "average_pooling2d_3", "inbound_nodes": [[["mixed1", 0, 0, {}]]], "config": {"trainable": true, "pool_size": [3, 3], "data_format": "channels_last", "name": "average_pooling2d_3", "strides": [1, 1], "padding": "same"}}, {"class_name": "Conv2D", "name": "conv2d_20", "inbound_nodes": [[["mixed1", 0, 0, {}]]], "config": {"activity_regularizer": null, "bias_constraint": null, "kernel_constraint": null, "bias_initializer": {"class_name": "Zeros", "config": {}}, "name": "conv2d_20", "padding": "same", "strides": [1, 1], "dilation_rate": [1, 1], "kernel_size": [1, 1], "kernel_regularizer": null, "activation": "linear", "trainable": true, "use_bias": false, "data_format": "channels_last", "bias_regularizer": null, "filters": 64, "kernel_initializer": {"class_name": "VarianceScaling", "config": {"scale": 1.0, "mode": "fan_avg", "seed": null, "distribution": "uniform"}}}}, {"class_name": "Conv2D", "name": "conv2d_22", "inbound_nodes": [[["activation_21", 0, 0, {}]]], "config": {"activity_regularizer": null, "bias_constraint": null, "kernel_constraint": null, "bias_initializer": {"class_name": "Zeros", "config": {}}, "name": "conv2d_22", "padding": "same", "strides": [1, 1], "dilation_rate": [1, 1], "kernel_size": [5, 5], "kernel_regularizer": null, "activation": "linear", "trainable": true, "use_bias": false, "data_format": "channels_last", "bias_regularizer": null, "filters": 64, "kernel_initializer": {"class_name": "VarianceScaling", "config": {"scale": 1.0, "mode": "fan_avg", "seed": null, "distribution": "uniform"}}}}, {"class_name": "Conv2D", "name": "conv2d_25", "inbound_nodes": [[["activation_24", 0, 0, {}]]], "config": {"activity_regularizer": null, "bias_constraint": null, "kernel_constraint": null, "bias_initializer": {"class_name": "Zeros", "config": {}}, "name": "conv2d_25", "padding": "same", "strides": [1, 1], "dilation_rate": [1, 1], "kernel_size": [3, 3], "kernel_regularizer": null, "activation": "linear", "trainable": true, "use_bias": false, "data_format": "channels_last", "bias_regularizer": null, "filters": 96, "kernel_initializer": {"class_name": "VarianceScaling", "config": {"scale": 1.0, "mode": "fan_avg", "seed": null, "distribution": "uniform"}}}}, {"class_name": "Conv2D", "name": "conv2d_26", "inbound_nodes": [[["average_pooling2d_3", 0, 0, {}]]], "config": {"activity_regularizer": null, "bias_constraint": null, "kernel_constraint": null, "bias_initializer": {"class_name": "Zeros", "config": {}}, "name": "conv2d_26", "padding": "same", "strides": [1, 1], "dilation_rate": [1, 1], "kernel_size": [1, 1], "kernel_regularizer": null, "activation": "linear", "trainable": true, "use_bias": false, "data_format": "channels_last", "bias_regularizer": null, "filters": 64, "kernel_initializer": {"class_name": "VarianceScaling", "config": {"scale": 1.0, "mode": "fan_avg", "seed": null, "distribution": "uniform"}}}}, {"class_name": "BatchNormalization", "name": "batch_normalization_20", "inbound_nodes": [[["conv2d_20", 0, 0, {}]]], "config": {"gamma_regularizer": null, "epsilon": 0.001, "moving_variance_initializer": {"class_name": "Ones", "config": {}}, "gamma_initializer": {"class_name": "Ones", "config": {}}, "name": "batch_normalization_20", "axis": 3, "gamma_constraint": null, "beta_regularizer": null, "scale": false, "trainable": true, "beta_constraint": null, "beta_initializer": {"class_name": "Zeros", "config": {}}, "momentum": 0.99, "center": true, "moving_mean_initializer": {"class_name": "Zeros", "config": {}}}}, {"class_name": "BatchNormalization", "name": "batch_normalization_22", "inbound_nodes": [[["conv2d_22", 0, 0, {}]]], "config": {"gamma_regularizer": null, "epsilon": 0.001, "moving_variance_initializer": {"class_name": "Ones", "config": {}}, "gamma_initializer": {"class_name": "Ones", "config": {}}, "name": "batch_normalization_22", "axis": 3, "gamma_constraint": null, "beta_regularizer": null, "scale": false, "trainable": true, "beta_constraint": null, "beta_initializer": {"class_name": "Zeros", "config": {}}, "momentum": 0.99, "center": true, "moving_mean_initializer": {"class_name": "Zeros", "config": {}}}}, {"class_name": "BatchNormalization", "name": "batch_normalization_25", "inbound_nodes": [[["conv2d_25", 0, 0, {}]]], "config": {"gamma_regularizer": null, "epsilon": 0.001, "moving_variance_initializer": {"class_name": "Ones", "config": {}}, "gamma_initializer": {"class_name": "Ones", "config": {}}, "name": "batch_normalization_25", "axis": 3, "gamma_constraint": null, "beta_regularizer": null, "scale": false, "trainable": true, "beta_constraint": null, "beta_initializer": {"class_name": "Zeros", "config": {}}, "momentum": 0.99, "center": true, "moving_mean_initializer": {"class_name": "Zeros", "config": {}}}}, {"class_name": "BatchNormalization", "name": "batch_normalization_26", "inbound_nodes": [[["conv2d_26", 0, 0, {}]]], "config": {"gamma_regularizer": null, "epsilon": 0.001, "moving_variance_initializer": {"class_name": "Ones", "config": {}}, "gamma_initializer": {"class_name": "Ones", "config": {}}, "name": "batch_normalization_26", "axis": 3, "gamma_constraint": null, "beta_regularizer": null, "scale": false, "trainable": true, "beta_constraint": null, "beta_initializer": {"class_name": "Zeros", "config": {}}, "momentum": 0.99, "center": true, "moving_mean_initializer": {"class_name": "Zeros", "config": {}}}}, {"class_name": "Activation", "name": "activation_20", "inbound_nodes": [[["batch_normalization_20", 0, 0, {}]]], "config": {"name": "activation_20", "activation": "relu", "trainable": true}}, {"class_name": "Activation", "name": "activation_22", "inbound_nodes": [[["batch_normalization_22", 0, 0, {}]]], "config": {"name": "activation_22", "activation": "relu", "trainable": true}}, {"class_name": "Activation", "name": "activation_25", "inbound_nodes": [[["batch_normalization_25", 0, 0, {}]]], "config": {"name": "activation_25", "activation": "relu", "trainable": true}}, {"class_name": "Activation", "name": "activation_26", "inbound_nodes": [[["batch_normalization_26", 0, 0, {}]]], "config": {"name": "activation_26", "activation": "relu", "trainable": true}}, {"class_name": "Concatenate", "name": "mixed2", "inbound_nodes": [[["activation_20", 0, 0, {}], ["activation_22", 0, 0, {}], ["activation_25", 0, 0, {}], ["activation_26", 0, 0, {}]]], "config": {"name": "mixed2", "trainable": true, "axis": 3}}, {"class_name": "Conv2D", "name": "conv2d_28", "inbound_nodes": [[["mixed2", 0, 0, {}]]], "config": {"activity_regularizer": null, "bias_constraint": null, "kernel_constraint": null, "bias_initializer": {"class_name": "Zeros", "config": {}}, "name": "conv2d_28", "padding": "same", "strides": [1, 1], "dilation_rate": [1, 1], "kernel_size": [1, 1], "kernel_regularizer": null, "activation": "linear", "trainable": true, "use_bias": false, "data_format": "channels_last", "bias_regularizer": null, "filters": 64, "kernel_initializer": {"class_name": "VarianceScaling", "config": {"scale": 1.0, "mode": "fan_avg", "seed": null, "distribution": "uniform"}}}}, {"class_name": "BatchNormalization", "name": "batch_normalization_28", "inbound_nodes": [[["conv2d_28", 0, 0, {}]]], "config": {"gamma_regularizer": null, "epsilon": 0.001, "moving_variance_initializer": {"class_name": "Ones", "config": {}}, "gamma_initializer": {"class_name": "Ones", "config": {}}, "name": "batch_normalization_28", "axis": 3, "gamma_constraint": null, "beta_regularizer": null, "scale": false, "trainable": true, "beta_constraint": null, "beta_initializer": {"class_name": "Zeros", "config": {}}, "momentum": 0.99, "center": true, "moving_mean_initializer": {"class_name": "Zeros", "config": {}}}}, {"class_name": "Activation", "name": "activation_28", "inbound_nodes": [[["batch_normalization_28", 0, 0, {}]]], "config": {"name": "activation_28", "activation": "relu", "trainable": true}}, {"class_name": "Conv2D", "name": "conv2d_29", "inbound_nodes": [[["activation_28", 0, 0, {}]]], "config": {"activity_regularizer": null, "bias_constraint": null, "kernel_constraint": null, "bias_initializer": {"class_name": "Zeros", "config": {}}, "name": "conv2d_29", "padding": "same", "strides": [1, 1], "dilation_rate": [1, 1], "kernel_size": [3, 3], "kernel_regularizer": null, "activation": "linear", "trainable": true, "use_bias": false, "data_format": "channels_last", "bias_regularizer": null, "filters": 96, "kernel_initializer": {"class_name": "VarianceScaling", "config": {"scale": 1.0, "mode": "fan_avg", "seed": null, "distribution": "uniform"}}}}, {"class_name": "BatchNormalization", "name": "batch_normalization_29", "inbound_nodes": [[["conv2d_29", 0, 0, {}]]], "config": {"gamma_regularizer": null, "epsilon": 0.001, "moving_variance_initializer": {"class_name": "Ones", "config": {}}, "gamma_initializer": {"class_name": "Ones", "config": {}}, "name": "batch_normalization_29", "axis": 3, "gamma_constraint": null, "beta_regularizer": null, "scale": false, "trainable": true, "beta_constraint": null, "beta_initializer": {"class_name": "Zeros", "config": {}}, "momentum": 0.99, "center": true, "moving_mean_initializer": {"class_name": "Zeros", "config": {}}}}, {"class_name": "Activation", "name": "activation_29", "inbound_nodes": [[["batch_normalization_29", 0, 0, {}]]], "config": {"name": "activation_29", "activation": "relu", "trainable": true}}, {"class_name": "Conv2D", "name": "conv2d_27", "inbound_nodes": [[["mixed2", 0, 0, {}]]], "config": {"activity_regularizer": null, "bias_constraint": null, "kernel_constraint": null, "bias_initializer": {"class_name": "Zeros", "config": {}}, "name": "conv2d_27", "padding": "valid", "strides": [2, 2], "dilation_rate": [1, 1], "kernel_size": [3, 3], "kernel_regularizer": null, "activation": "linear", "trainable": true, "use_bias": false, "data_format": "channels_last", "bias_regularizer": null, "filters": 384, "kernel_initializer": {"class_name": "VarianceScaling", "config": {"scale": 1.0, "mode": "fan_avg", "seed": null, "distribution": "uniform"}}}}, {"class_name": "Conv2D", "name": "conv2d_30", "inbound_nodes": [[["activation_29", 0, 0, {}]]], "config": {"activity_regularizer": null, "bias_constraint": null, "kernel_constraint": null, "bias_initializer": {"class_name": "Zeros", "config": {}}, "name": "conv2d_30", "padding": "valid", "strides": [2, 2], "dilation_rate": [1, 1], "kernel_size": [3, 3], "kernel_regularizer": null, "activation": "linear", "trainable": true, "use_bias": false, "data_format": "channels_last", "bias_regularizer": null, "filters": 96, "kernel_initializer": {"class_name": "VarianceScaling", "config": {"scale": 1.0, "mode": "fan_avg", "seed": null, "distribution": "uniform"}}}}, {"class_name": "BatchNormalization", "name": "batch_normalization_27", "inbound_nodes": [[["conv2d_27", 0, 0, {}]]], "config": {"gamma_regularizer": null, "epsilon": 0.001, "moving_variance_initializer": {"class_name": "Ones", "config": {}}, "gamma_initializer": {"class_name": "Ones", "config": {}}, "name": "batch_normalization_27", "axis": 3, "gamma_constraint": null, "beta_regularizer": null, "scale": false, "trainable": true, "beta_constraint": null, "beta_initializer": {"class_name": "Zeros", "config": {}}, "momentum": 0.99, "center": true, "moving_mean_initializer": {"class_name": "Zeros", "config": {}}}}, {"class_name": "BatchNormalization", "name": "batch_normalization_30", "inbound_nodes": [[["conv2d_30", 0, 0, {}]]], "config": {"gamma_regularizer": null, "epsilon": 0.001, "moving_variance_initializer": {"class_name": "Ones", "config": {}}, "gamma_initializer": {"class_name": "Ones", "config": {}}, "name": "batch_normalization_30", "axis": 3, "gamma_constraint": null, "beta_regularizer": null, "scale": false, "trainable": true, "beta_constraint": null, "beta_initializer": {"class_name": "Zeros", "config": {}}, "momentum": 0.99, "center": true, "moving_mean_initializer": {"class_name": "Zeros", "config": {}}}}, {"class_name": "Activation", "name": "activation_27", "inbound_nodes": [[["batch_normalization_27", 0, 0, {}]]], "config": {"name": "activation_27", "activation": "relu", "trainable": true}}, {"class_name": "Activation", "name": "activation_30", "inbound_nodes": [[["batch_normalization_30", 0, 0, {}]]], "config": {"name": "activation_30", "activation": "relu", "trainable": true}}, {"class_name": "MaxPooling2D", "name": "max_pooling2d_3", "inbound_nodes": [[["mixed2", 0, 0, {}]]], "config": {"trainable": true, "pool_size": [3, 3], "data_format": "channels_last", "name": "max_pooling2d_3", "strides": [2, 2], "padding": "valid"}}, {"class_name": "Concatenate", "name": "mixed3", "inbound_nodes": [[["activation_27", 0, 0, {}], ["activation_30", 0, 0, {}], ["max_pooling2d_3", 0, 0, {}]]], "config": {"name": "mixed3", "trainable": true, "axis": 3}}, {"class_name": "Conv2D", "name": "conv2d_35", "inbound_nodes": [[["mixed3", 0, 0, {}]]], "config": {"activity_regularizer": null, "bias_constraint": null, "kernel_constraint": null, "bias_initializer": {"class_name": "Zeros", "config": {}}, "name": "conv2d_35", "padding": "same", "strides": [1, 1], "dilation_rate": [1, 1], "kernel_size": [1, 1], "kernel_regularizer": null, "activation": "linear", "trainable": true, "use_bias": false, "data_format": "channels_last", "bias_regularizer": null, "filters": 128, "kernel_initializer": {"class_name": "VarianceScaling", "config": {"scale": 1.0, "mode": "fan_avg", "seed": null, "distribution": "uniform"}}}}, {"class_name": "BatchNormalization", "name": "batch_normalization_35", "inbound_nodes": [[["conv2d_35", 0, 0, {}]]], "config": {"gamma_regularizer": null, "epsilon": 0.001, "moving_variance_initializer": {"class_name": "Ones", "config": {}}, "gamma_initializer": {"class_name": "Ones", "config": {}}, "name": "batch_normalization_35", "axis": 3, "gamma_constraint": null, "beta_regularizer": null, "scale": false, "trainable": true, "beta_constraint": null, "beta_initializer": {"class_name": "Zeros", "config": {}}, "momentum": 0.99, "center": true, "moving_mean_initializer": {"class_name": "Zeros", "config": {}}}}, {"class_name": "Activation", "name": "activation_35", "inbound_nodes": [[["batch_normalization_35", 0, 0, {}]]], "config": {"name": "activation_35", "activation": "relu", "trainable": true}}, {"class_name": "Conv2D", "name": "conv2d_36", "inbound_nodes": [[["activation_35", 0, 0, {}]]], "config": {"activity_regularizer": null, "bias_constraint": null, "kernel_constraint": null, "bias_initializer": {"class_name": "Zeros", "config": {}}, "name": "conv2d_36", "padding": "same", "strides": [1, 1], "dilation_rate": [1, 1], "kernel_size": [7, 1], "kernel_regularizer": null, "activation": "linear", "trainable": true, "use_bias": false, "data_format": "channels_last", "bias_regularizer": null, "filters": 128, "kernel_initializer": {"class_name": "VarianceScaling", "config": {"scale": 1.0, "mode": "fan_avg", "seed": null, "distribution": "uniform"}}}}, {"class_name": "BatchNormalization", "name": "batch_normalization_36", "inbound_nodes": [[["conv2d_36", 0, 0, {}]]], "config": {"gamma_regularizer": null, "epsilon": 0.001, "moving_variance_initializer": {"class_name": "Ones", "config": {}}, "gamma_initializer": {"class_name": "Ones", "config": {}}, "name": "batch_normalization_36", "axis": 3, "gamma_constraint": null, "beta_regularizer": null, "scale": false, "trainable": true, "beta_constraint": null, "beta_initializer": {"class_name": "Zeros", "config": {}}, "momentum": 0.99, "center": true, "moving_mean_initializer": {"class_name": "Zeros", "config": {}}}}, {"class_name": "Activation", "name": "activation_36", "inbound_nodes": [[["batch_normalization_36", 0, 0, {}]]], "config": {"name": "activation_36", "activation": "relu", "trainable": true}}, {"class_name": "Conv2D", "name": "conv2d_32", "inbound_nodes": [[["mixed3", 0, 0, {}]]], "config": {"activity_regularizer": null, "bias_constraint": null, "kernel_constraint": null, "bias_initializer": {"class_name": "Zeros", "config": {}}, "name": "conv2d_32", "padding": "same", "strides": [1, 1], "dilation_rate": [1, 1], "kernel_size": [1, 1], "kernel_regularizer": null, "activation": "linear", "trainable": true, "use_bias": false, "data_format": "channels_last", "bias_regularizer": null, "filters": 128, "kernel_initializer": {"class_name": "VarianceScaling", "config": {"scale": 1.0, "mode": "fan_avg", "seed": null, "distribution": "uniform"}}}}, {"class_name": "Conv2D", "name": "conv2d_37", "inbound_nodes": [[["activation_36", 0, 0, {}]]], "config": {"activity_regularizer": null, "bias_constraint": null, "kernel_constraint": null, "bias_initializer": {"class_name": "Zeros", "config": {}}, "name": "conv2d_37", "padding": "same", "strides": [1, 1], "dilation_rate": [1, 1], "kernel_size": [1, 7], "kernel_regularizer": null, "activation": "linear", "trainable": true, "use_bias": false, "data_format": "channels_last", "bias_regularizer": null, "filters": 128, "kernel_initializer": {"class_name": "VarianceScaling", "config": {"scale": 1.0, "mode": "fan_avg", "seed": null, "distribution": "uniform"}}}}, {"class_name": "BatchNormalization", "name": "batch_normalization_32", "inbound_nodes": [[["conv2d_32", 0, 0, {}]]], "config": {"gamma_regularizer": null, "epsilon": 0.001, "moving_variance_initializer": {"class_name": "Ones", "config": {}}, "gamma_initializer": {"class_name": "Ones", "config": {}}, "name": "batch_normalization_32", "axis": 3, "gamma_constraint": null, "beta_regularizer": null, "scale": false, "trainable": true, "beta_constraint": null, "beta_initializer": {"class_name": "Zeros", "config": {}}, "momentum": 0.99, "center": true, "moving_mean_initializer": {"class_name": "Zeros", "config": {}}}}, {"class_name": "BatchNormalization", "name": "batch_normalization_37", "inbound_nodes": [[["conv2d_37", 0, 0, {}]]], "config": {"gamma_regularizer": null, "epsilon": 0.001, "moving_variance_initializer": {"class_name": "Ones", "config": {}}, "gamma_initializer": {"class_name": "Ones", "config": {}}, "name": "batch_normalization_37", "axis": 3, "gamma_constraint": null, "beta_regularizer": null, "scale": false, "trainable": true, "beta_constraint": null, "beta_initializer": {"class_name": "Zeros", "config": {}}, "momentum": 0.99, "center": true, "moving_mean_initializer": {"class_name": "Zeros", "config": {}}}}, {"class_name": "Activation", "name": "activation_32", "inbound_nodes": [[["batch_normalization_32", 0, 0, {}]]], "config": {"name": "activation_32", "activation": "relu", "trainable": true}}, {"class_name": "Activation", "name": "activation_37", "inbound_nodes": [[["batch_normalization_37", 0, 0, {}]]], "config": {"name": "activation_37", "activation": "relu", "trainable": true}}, {"class_name": "Conv2D", "name": "conv2d_33", "inbound_nodes": [[["activation_32", 0, 0, {}]]], "config": {"activity_regularizer": null, "bias_constraint": null, "kernel_constraint": null, "bias_initializer": {"class_name": "Zeros", "config": {}}, "name": "conv2d_33", "padding": "same", "strides": [1, 1], "dilation_rate": [1, 1], "kernel_size": [1, 7], "kernel_regularizer": null, "activation": "linear", "trainable": true, "use_bias": false, "data_format": "channels_last", "bias_regularizer": null, "filters": 128, "kernel_initializer": {"class_name": "VarianceScaling", "config": {"scale": 1.0, "mode": "fan_avg", "seed": null, "distribution": "uniform"}}}}, {"class_name": "Conv2D", "name": "conv2d_38", "inbound_nodes": [[["activation_37", 0, 0, {}]]], "config": {"activity_regularizer": null, "bias_constraint": null, "kernel_constraint": null, "bias_initializer": {"class_name": "Zeros", "config": {}}, "name": "conv2d_38", "padding": "same", "strides": [1, 1], "dilation_rate": [1, 1], "kernel_size": [7, 1], "kernel_regularizer": null, "activation": "linear", "trainable": true, "use_bias": false, "data_format": "channels_last", "bias_regularizer": null, "filters": 128, "kernel_initializer": {"class_name": "VarianceScaling", "config": {"scale": 1.0, "mode": "fan_avg", "seed": null, "distribution": "uniform"}}}}, {"class_name": "BatchNormalization", "name": "batch_normalization_33", "inbound_nodes": [[["conv2d_33", 0, 0, {}]]], "config": {"gamma_regularizer": null, "epsilon": 0.001, "moving_variance_initializer": {"class_name": "Ones", "config": {}}, "gamma_initializer": {"class_name": "Ones", "config": {}}, "name": "batch_normalization_33", "axis": 3, "gamma_constraint": null, "beta_regularizer": null, "scale": false, "trainable": true, "beta_constraint": null, "beta_initializer": {"class_name": "Zeros", "config": {}}, "momentum": 0.99, "center": true, "moving_mean_initializer": {"class_name": "Zeros", "config": {}}}}, {"class_name": "BatchNormalization", "name": "batch_normalization_38", "inbound_nodes": [[["conv2d_38", 0, 0, {}]]], "config": {"gamma_regularizer": null, "epsilon": 0.001, "moving_variance_initializer": {"class_name": "Ones", "config": {}}, "gamma_initializer": {"class_name": "Ones", "config": {}}, "name": "batch_normalization_38", "axis": 3, "gamma_constraint": null, "beta_regularizer": null, "scale": false, "trainable": true, "beta_constraint": null, "beta_initializer": {"class_name": "Zeros", "config": {}}, "momentum": 0.99, "center": true, "moving_mean_initializer": {"class_name": "Zeros", "config": {}}}}, {"class_name": "Activation", "name": "activation_33", "inbound_nodes": [[["batch_normalization_33", 0, 0, {}]]], "config": {"name": "activation_33", "activation": "relu", "trainable": true}}, {"class_name": "Activation", "name": "activation_38", "inbound_nodes": [[["batch_normalization_38", 0, 0, {}]]], "config": {"name": "activation_38", "activation": "relu", "trainable": true}}, {"class_name": "AveragePooling2D", "name": "average_pooling2d_4", "inbound_nodes": [[["mixed3", 0, 0, {}]]], "config": {"trainable": true, "pool_size": [3, 3], "data_format": "channels_last", "name": "average_pooling2d_4", "strides": [1, 1], "padding": "same"}}, {"class_name": "Conv2D", "name": "conv2d_31", "inbound_nodes": [[["mixed3", 0, 0, {}]]], "config": {"activity_regularizer": null, "bias_constraint": null, "kernel_constraint": null, "bias_initializer": {"class_name": "Zeros", "config": {}}, "name": "conv2d_31", "padding": "same", "strides": [1, 1], "dilation_rate": [1, 1], "kernel_size": [1, 1], "kernel_regularizer": null, "activation": "linear", "trainable": true, "use_bias": false, "data_format": "channels_last", "bias_regularizer": null, "filters": 192, "kernel_initializer": {"class_name": "VarianceScaling", "config": {"scale": 1.0, "mode": "fan_avg", "seed": null, "distribution": "uniform"}}}}, {"class_name": "Conv2D", "name": "conv2d_34", "inbound_nodes": [[["activation_33", 0, 0, {}]]], "config": {"activity_regularizer": null, "bias_constraint": null, "kernel_constraint": null, "bias_initializer": {"class_name": "Zeros", "config": {}}, "name": "conv2d_34", "padding": "same", "strides": [1, 1], "dilation_rate": [1, 1], "kernel_size": [7, 1], "kernel_regularizer": null, "activation": "linear", "trainable": true, "use_bias": false, "data_format": "channels_last", "bias_regularizer": null, "filters": 192, "kernel_initializer": {"class_name": "VarianceScaling", "config": {"scale": 1.0, "mode": "fan_avg", "seed": null, "distribution": "uniform"}}}}, {"class_name": "Conv2D", "name": "conv2d_39", "inbound_nodes": [[["activation_38", 0, 0, {}]]], "config": {"activity_regularizer": null, "bias_constraint": null, "kernel_constraint": null, "bias_initializer": {"class_name": "Zeros", "config": {}}, "name": "conv2d_39", "padding": "same", "strides": [1, 1], "dilation_rate": [1, 1], "kernel_size": [1, 7], "kernel_regularizer": null, "activation": "linear", "trainable": true, "use_bias": false, "data_format": "channels_last", "bias_regularizer": null, "filters": 192, "kernel_initializer": {"class_name": "VarianceScaling", "config": {"scale": 1.0, "mode": "fan_avg", "seed": null, "distribution": "uniform"}}}}, {"class_name": "Conv2D", "name": "conv2d_40", "inbound_nodes": [[["average_pooling2d_4", 0, 0, {}]]], "config": {"activity_regularizer": null, "bias_constraint": null, "kernel_constraint": null, "bias_initializer": {"class_name": "Zeros", "config": {}}, "name": "conv2d_40", "padding": "same", "strides": [1, 1], "dilation_rate": [1, 1], "kernel_size": [1, 1], "kernel_regularizer": null, "activation": "linear", "trainable": true, "use_bias": false, "data_format": "channels_last", "bias_regularizer": null, "filters": 192, "kernel_initializer": {"class_name": "VarianceScaling", "config": {"scale": 1.0, "mode": "fan_avg", "seed": null, "distribution": "uniform"}}}}, {"class_name": "BatchNormalization", "name": "batch_normalization_31", "inbound_nodes": [[["conv2d_31", 0, 0, {}]]], "config": {"gamma_regularizer": null, "epsilon": 0.001, "moving_variance_initializer": {"class_name": "Ones", "config": {}}, "gamma_initializer": {"class_name": "Ones", "config": {}}, "name": "batch_normalization_31", "axis": 3, "gamma_constraint": null, "beta_regularizer": null, "scale": false, "trainable": true, "beta_constraint": null, "beta_initializer": {"class_name": "Zeros", "config": {}}, "momentum": 0.99, "center": true, "moving_mean_initializer": {"class_name": "Zeros", "config": {}}}}, {"class_name": "BatchNormalization", "name": "batch_normalization_34", "inbound_nodes": [[["conv2d_34", 0, 0, {}]]], "config": {"gamma_regularizer": null, "epsilon": 0.001, "moving_variance_initializer": {"class_name": "Ones", "config": {}}, "gamma_initializer": {"class_name": "Ones", "config": {}}, "name": "batch_normalization_34", "axis": 3, "gamma_constraint": null, "beta_regularizer": null, "scale": false, "trainable": true, "beta_constraint": null, "beta_initializer": {"class_name": "Zeros", "config": {}}, "momentum": 0.99, "center": true, "moving_mean_initializer": {"class_name": "Zeros", "config": {}}}}, {"class_name": "BatchNormalization", "name": "batch_normalization_39", "inbound_nodes": [[["conv2d_39", 0, 0, {}]]], "config": {"gamma_regularizer": null, "epsilon": 0.001, "moving_variance_initializer": {"class_name": "Ones", "config": {}}, "gamma_initializer": {"class_name": "Ones", "config": {}}, "name": "batch_normalization_39", "axis": 3, "gamma_constraint": null, "beta_regularizer": null, "scale": false, "trainable": true, "beta_constraint": null, "beta_initializer": {"class_name": "Zeros", "config": {}}, "momentum": 0.99, "center": true, "moving_mean_initializer": {"class_name": "Zeros", "config": {}}}}, {"class_name": "BatchNormalization", "name": "batch_normalization_40", "inbound_nodes": [[["conv2d_40", 0, 0, {}]]], "config": {"gamma_regularizer": null, "epsilon": 0.001, "moving_variance_initializer": {"class_name": "Ones", "config": {}}, "gamma_initializer": {"class_name": "Ones", "config": {}}, "name": "batch_normalization_40", "axis": 3, "gamma_constraint": null, "beta_regularizer": null, "scale": false, "trainable": true, "beta_constraint": null, "beta_initializer": {"class_name": "Zeros", "config": {}}, "momentum": 0.99, "center": true, "moving_mean_initializer": {"class_name": "Zeros", "config": {}}}}, {"class_name": "Activation", "name": "activation_31", "inbound_nodes": [[["batch_normalization_31", 0, 0, {}]]], "config": {"name": "activation_31", "activation": "relu", "trainable": true}}, {"class_name": "Activation", "name": "activation_34", "inbound_nodes": [[["batch_normalization_34", 0, 0, {}]]], "config": {"name": "activation_34", "activation": "relu", "trainable": true}}, {"class_name": "Activation", "name": "activation_39", "inbound_nodes": [[["batch_normalization_39", 0, 0, {}]]], "config": {"name": "activation_39", "activation": "relu", "trainable": true}}, {"class_name": "Activation", "name": "activation_40", "inbound_nodes": [[["batch_normalization_40", 0, 0, {}]]], "config": {"name": "activation_40", "activation": "relu", "trainable": true}}, {"class_name": "Concatenate", "name": "mixed4", "inbound_nodes": [[["activation_31", 0, 0, {}], ["activation_34", 0, 0, {}], ["activation_39", 0, 0, {}], ["activation_40", 0, 0, {}]]], "config": {"name": "mixed4", "trainable": true, "axis": 3}}, {"class_name": "Conv2D", "name": "conv2d_45", "inbound_nodes": [[["mixed4", 0, 0, {}]]], "config": {"activity_regularizer": null, "bias_constraint": null, "kernel_constraint": null, "bias_initializer": {"class_name": "Zeros", "config": {}}, "name": "conv2d_45", "padding": "same", "strides": [1, 1], "dilation_rate": [1, 1], "kernel_size": [1, 1], "kernel_regularizer": null, "activation": "linear", "trainable": true, "use_bias": false, "data_format": "channels_last", "bias_regularizer": null, "filters": 160, "kernel_initializer": {"class_name": "VarianceScaling", "config": {"scale": 1.0, "mode": "fan_avg", "seed": null, "distribution": "uniform"}}}}, {"class_name": "BatchNormalization", "name": "batch_normalization_45", "inbound_nodes": [[["conv2d_45", 0, 0, {}]]], "config": {"gamma_regularizer": null, "epsilon": 0.001, "moving_variance_initializer": {"class_name": "Ones", "config": {}}, "gamma_initializer": {"class_name": "Ones", "config": {}}, "name": "batch_normalization_45", "axis": 3, "gamma_constraint": null, "beta_regularizer": null, "scale": false, "trainable": true, "beta_constraint": null, "beta_initializer": {"class_name": "Zeros", "config": {}}, "momentum": 0.99, "center": true, "moving_mean_initializer": {"class_name": "Zeros", "config": {}}}}, {"class_name": "Activation", "name": "activation_45", "inbound_nodes": [[["batch_normalization_45", 0, 0, {}]]], "config": {"name": "activation_45", "activation": "relu", "trainable": true}}, {"class_name": "Conv2D", "name": "conv2d_46", "inbound_nodes": [[["activation_45", 0, 0, {}]]], "config": {"activity_regularizer": null, "bias_constraint": null, "kernel_constraint": null, "bias_initializer": {"class_name": "Zeros", "config": {}}, "name": "conv2d_46", "padding": "same", "strides": [1, 1], "dilation_rate": [1, 1], "kernel_size": [7, 1], "kernel_regularizer": null, "activation": "linear", "trainable": true, "use_bias": false, "data_format": "channels_last", "bias_regularizer": null, "filters": 160, "kernel_initializer": {"class_name": "VarianceScaling", "config": {"scale": 1.0, "mode": "fan_avg", "seed": null, "distribution": "uniform"}}}}, {"class_name": "BatchNormalization", "name": "batch_normalization_46", "inbound_nodes": [[["conv2d_46", 0, 0, {}]]], "config": {"gamma_regularizer": null, "epsilon": 0.001, "moving_variance_initializer": {"class_name": "Ones", "config": {}}, "gamma_initializer": {"class_name": "Ones", "config": {}}, "name": "batch_normalization_46", "axis": 3, "gamma_constraint": null, "beta_regularizer": null, "scale": false, "trainable": true, "beta_constraint": null, "beta_initializer": {"class_name": "Zeros", "config": {}}, "momentum": 0.99, "center": true, "moving_mean_initializer": {"class_name": "Zeros", "config": {}}}}, {"class_name": "Activation", "name": "activation_46", "inbound_nodes": [[["batch_normalization_46", 0, 0, {}]]], "config": {"name": "activation_46", "activation": "relu", "trainable": true}}, {"class_name": "Conv2D", "name": "conv2d_42", "inbound_nodes": [[["mixed4", 0, 0, {}]]], "config": {"activity_regularizer": null, "bias_constraint": null, "kernel_constraint": null, "bias_initializer": {"class_name": "Zeros", "config": {}}, "name": "conv2d_42", "padding": "same", "strides": [1, 1], "dilation_rate": [1, 1], "kernel_size": [1, 1], "kernel_regularizer": null, "activation": "linear", "trainable": true, "use_bias": false, "data_format": "channels_last", "bias_regularizer": null, "filters": 160, "kernel_initializer": {"class_name": "VarianceScaling", "config": {"scale": 1.0, "mode": "fan_avg", "seed": null, "distribution": "uniform"}}}}, {"class_name": "Conv2D", "name": "conv2d_47", "inbound_nodes": [[["activation_46", 0, 0, {}]]], "config": {"activity_regularizer": null, "bias_constraint": null, "kernel_constraint": null, "bias_initializer": {"class_name": "Zeros", "config": {}}, "name": "conv2d_47", "padding": "same", "strides": [1, 1], "dilation_rate": [1, 1], "kernel_size": [1, 7], "kernel_regularizer": null, "activation": "linear", "trainable": true, "use_bias": false, "data_format": "channels_last", "bias_regularizer": null, "filters": 160, "kernel_initializer": {"class_name": "VarianceScaling", "config": {"scale": 1.0, "mode": "fan_avg", "seed": null, "distribution": "uniform"}}}}, {"class_name": "BatchNormalization", "name": "batch_normalization_42", "inbound_nodes": [[["conv2d_42", 0, 0, {}]]], "config": {"gamma_regularizer": null, "epsilon": 0.001, "moving_variance_initializer": {"class_name": "Ones", "config": {}}, "gamma_initializer": {"class_name": "Ones", "config": {}}, "name": "batch_normalization_42", "axis": 3, "gamma_constraint": null, "beta_regularizer": null, "scale": false, "trainable": true, "beta_constraint": null, "beta_initializer": {"class_name": "Zeros", "config": {}}, "momentum": 0.99, "center": true, "moving_mean_initializer": {"class_name": "Zeros", "config": {}}}}, {"class_name": "BatchNormalization", "name": "batch_normalization_47", "inbound_nodes": [[["conv2d_47", 0, 0, {}]]], "config": {"gamma_regularizer": null, "epsilon": 0.001, "moving_variance_initializer": {"class_name": "Ones", "config": {}}, "gamma_initializer": {"class_name": "Ones", "config": {}}, "name": "batch_normalization_47", "axis": 3, "gamma_constraint": null, "beta_regularizer": null, "scale": false, "trainable": true, "beta_constraint": null, "beta_initializer": {"class_name": "Zeros", "config": {}}, "momentum": 0.99, "center": true, "moving_mean_initializer": {"class_name": "Zeros", "config": {}}}}, {"class_name": "Activation", "name": "activation_42", "inbound_nodes": [[["batch_normalization_42", 0, 0, {}]]], "config": {"name": "activation_42", "activation": "relu", "trainable": true}}, {"class_name": "Activation", "name": "activation_47", "inbound_nodes": [[["batch_normalization_47", 0, 0, {}]]], "config": {"name": "activation_47", "activation": "relu", "trainable": true}}, {"class_name": "Conv2D", "name": "conv2d_43", "inbound_nodes": [[["activation_42", 0, 0, {}]]], "config": {"activity_regularizer": null, "bias_constraint": null, "kernel_constraint": null, "bias_initializer": {"class_name": "Zeros", "config": {}}, "name": "conv2d_43", "padding": "same", "strides": [1, 1], "dilation_rate": [1, 1], "kernel_size": [1, 7], "kernel_regularizer": null, "activation": "linear", "trainable": true, "use_bias": false, "data_format": "channels_last", "bias_regularizer": null, "filters": 160, "kernel_initializer": {"class_name": "VarianceScaling", "config": {"scale": 1.0, "mode": "fan_avg", "seed": null, "distribution": "uniform"}}}}, {"class_name": "Conv2D", "name": "conv2d_48", "inbound_nodes": [[["activation_47", 0, 0, {}]]], "config": {"activity_regularizer": null, "bias_constraint": null, "kernel_constraint": null, "bias_initializer": {"class_name": "Zeros", "config": {}}, "name": "conv2d_48", "padding": "same", "strides": [1, 1], "dilation_rate": [1, 1], "kernel_size": [7, 1], "kernel_regularizer": null, "activation": "linear", "trainable": true, "use_bias": false, "data_format": "channels_last", "bias_regularizer": null, "filters": 160, "kernel_initializer": {"class_name": "VarianceScaling", "config": {"scale": 1.0, "mode": "fan_avg", "seed": null, "distribution": "uniform"}}}}, {"class_name": "BatchNormalization", "name": "batch_normalization_43", "inbound_nodes": [[["conv2d_43", 0, 0, {}]]], "config": {"gamma_regularizer": null, "epsilon": 0.001, "moving_variance_initializer": {"class_name": "Ones", "config": {}}, "gamma_initializer": {"class_name": "Ones", "config": {}}, "name": "batch_normalization_43", "axis": 3, "gamma_constraint": null, "beta_regularizer": null, "scale": false, "trainable": true, "beta_constraint": null, "beta_initializer": {"class_name": "Zeros", "config": {}}, "momentum": 0.99, "center": true, "moving_mean_initializer": {"class_name": "Zeros", "config": {}}}}, {"class_name": "BatchNormalization", "name": "batch_normalization_48", "inbound_nodes": [[["conv2d_48", 0, 0, {}]]], "config": {"gamma_regularizer": null, "epsilon": 0.001, "moving_variance_initializer": {"class_name": "Ones", "config": {}}, "gamma_initializer": {"class_name": "Ones", "config": {}}, "name": "batch_normalization_48", "axis": 3, "gamma_constraint": null, "beta_regularizer": null, "scale": false, "trainable": true, "beta_constraint": null, "beta_initializer": {"class_name": "Zeros", "config": {}}, "momentum": 0.99, "center": true, "moving_mean_initializer": {"class_name": "Zeros", "config": {}}}}, {"class_name": "Activation", "name": "activation_43", "inbound_nodes": [[["batch_normalization_43", 0, 0, {}]]], "config": {"name": "activation_43", "activation": "relu", "trainable": true}}, {"class_name": "Activation", "name": "activation_48", "inbound_nodes": [[["batch_normalization_48", 0, 0, {}]]], "config": {"name": "activation_48", "activation": "relu", "trainable": true}}, {"class_name": "AveragePooling2D", "name": "average_pooling2d_5", "inbound_nodes": [[["mixed4", 0, 0, {}]]], "config": {"trainable": true, "pool_size": [3, 3], "data_format": "channels_last", "name": "average_pooling2d_5", "strides": [1, 1], "padding": "same"}}, {"class_name": "Conv2D", "name": "conv2d_41", "inbound_nodes": [[["mixed4", 0, 0, {}]]], "config": {"activity_regularizer": null, "bias_constraint": null, "kernel_constraint": null, "bias_initializer": {"class_name": "Zeros", "config": {}}, "name": "conv2d_41", "padding": "same", "strides": [1, 1], "dilation_rate": [1, 1], "kernel_size": [1, 1], "kernel_regularizer": null, "activation": "linear", "trainable": true, "use_bias": false, "data_format": "channels_last", "bias_regularizer": null, "filters": 192, "kernel_initializer": {"class_name": "VarianceScaling", "config": {"scale": 1.0, "mode": "fan_avg", "seed": null, "distribution": "uniform"}}}}, {"class_name": "Conv2D", "name": "conv2d_44", "inbound_nodes": [[["activation_43", 0, 0, {}]]], "config": {"activity_regularizer": null, "bias_constraint": null, "kernel_constraint": null, "bias_initializer": {"class_name": "Zeros", "config": {}}, "name": "conv2d_44", "padding": "same", "strides": [1, 1], "dilation_rate": [1, 1], "kernel_size": [7, 1], "kernel_regularizer": null, "activation": "linear", "trainable": true, "use_bias": false, "data_format": "channels_last", "bias_regularizer": null, "filters": 192, "kernel_initializer": {"class_name": "VarianceScaling", "config": {"scale": 1.0, "mode": "fan_avg", "seed": null, "distribution": "uniform"}}}}, {"class_name": "Conv2D", "name": "conv2d_49", "inbound_nodes": [[["activation_48", 0, 0, {}]]], "config": {"activity_regularizer": null, "bias_constraint": null, "kernel_constraint": null, "bias_initializer": {"class_name": "Zeros", "config": {}}, "name": "conv2d_49", "padding": "same", "strides": [1, 1], "dilation_rate": [1, 1], "kernel_size": [1, 7], "kernel_regularizer": null, "activation": "linear", "trainable": true, "use_bias": false, "data_format": "channels_last", "bias_regularizer": null, "filters": 192, "kernel_initializer": {"class_name": "VarianceScaling", "config": {"scale": 1.0, "mode": "fan_avg", "seed": null, "distribution": "uniform"}}}}, {"class_name": "Conv2D", "name": "conv2d_50", "inbound_nodes": [[["average_pooling2d_5", 0, 0, {}]]], "config": {"activity_regularizer": null, "bias_constraint": null, "kernel_constraint": null, "bias_initializer": {"class_name": "Zeros", "config": {}}, "name": "conv2d_50", "padding": "same", "strides": [1, 1], "dilation_rate": [1, 1], "kernel_size": [1, 1], "kernel_regularizer": null, "activation": "linear", "trainable": true, "use_bias": false, "data_format": "channels_last", "bias_regularizer": null, "filters": 192, "kernel_initializer": {"class_name": "VarianceScaling", "config": {"scale": 1.0, "mode": "fan_avg", "seed": null, "distribution": "uniform"}}}}, {"class_name": "BatchNormalization", "name": "batch_normalization_41", "inbound_nodes": [[["conv2d_41", 0, 0, {}]]], "config": {"gamma_regularizer": null, "epsilon": 0.001, "moving_variance_initializer": {"class_name": "Ones", "config": {}}, "gamma_initializer": {"class_name": "Ones", "config": {}}, "name": "batch_normalization_41", "axis": 3, "gamma_constraint": null, "beta_regularizer": null, "scale": false, "trainable": true, "beta_constraint": null, "beta_initializer": {"class_name": "Zeros", "config": {}}, "momentum": 0.99, "center": true, "moving_mean_initializer": {"class_name": "Zeros", "config": {}}}}, {"class_name": "BatchNormalization", "name": "batch_normalization_44", "inbound_nodes": [[["conv2d_44", 0, 0, {}]]], "config": {"gamma_regularizer": null, "epsilon": 0.001, "moving_variance_initializer": {"class_name": "Ones", "config": {}}, "gamma_initializer": {"class_name": "Ones", "config": {}}, "name": "batch_normalization_44", "axis": 3, "gamma_constraint": null, "beta_regularizer": null, "scale": false, "trainable": true, "beta_constraint": null, "beta_initializer": {"class_name": "Zeros", "config": {}}, "momentum": 0.99, "center": true, "moving_mean_initializer": {"class_name": "Zeros", "config": {}}}}, {"class_name": "BatchNormalization", "name": "batch_normalization_49", "inbound_nodes": [[["conv2d_49", 0, 0, {}]]], "config": {"gamma_regularizer": null, "epsilon": 0.001, "moving_variance_initializer": {"class_name": "Ones", "config": {}}, "gamma_initializer": {"class_name": "Ones", "config": {}}, "name": "batch_normalization_49", "axis": 3, "gamma_constraint": null, "beta_regularizer": null, "scale": false, "trainable": true, "beta_constraint": null, "beta_initializer": {"class_name": "Zeros", "config": {}}, "momentum": 0.99, "center": true, "moving_mean_initializer": {"class_name": "Zeros", "config": {}}}}, {"class_name": "BatchNormalization", "name": "batch_normalization_50", "inbound_nodes": [[["conv2d_50", 0, 0, {}]]], "config": {"gamma_regularizer": null, "epsilon": 0.001, "moving_variance_initializer": {"class_name": "Ones", "config": {}}, "gamma_initializer": {"class_name": "Ones", "config": {}}, "name": "batch_normalization_50", "axis": 3, "gamma_constraint": null, "beta_regularizer": null, "scale": false, "trainable": true, "beta_constraint": null, "beta_initializer": {"class_name": "Zeros", "config": {}}, "momentum": 0.99, "center": true, "moving_mean_initializer": {"class_name": "Zeros", "config": {}}}}, {"class_name": "Activation", "name": "activation_41", "inbound_nodes": [[["batch_normalization_41", 0, 0, {}]]], "config": {"name": "activation_41", "activation": "relu", "trainable": true}}, {"class_name": "Activation", "name": "activation_44", "inbound_nodes": [[["batch_normalization_44", 0, 0, {}]]], "config": {"name": "activation_44", "activation": "relu", "trainable": true}}, {"class_name": "Activation", "name": "activation_49", "inbound_nodes": [[["batch_normalization_49", 0, 0, {}]]], "config": {"name": "activation_49", "activation": "relu", "trainable": true}}, {"class_name": "Activation", "name": "activation_50", "inbound_nodes": [[["batch_normalization_50", 0, 0, {}]]], "config": {"name": "activation_50", "activation": "relu", "trainable": true}}, {"class_name": "Concatenate", "name": "mixed5", "inbound_nodes": [[["activation_41", 0, 0, {}], ["activation_44", 0, 0, {}], ["activation_49", 0, 0, {}], ["activation_50", 0, 0, {}]]], "config": {"name": "mixed5", "trainable": true, "axis": 3}}, {"class_name": "GlobalAveragePooling2D", "name": "global_average_pooling2d_1", "inbound_nodes": [[["mixed5", 0, 0, {}]]], "config": {"name": "global_average_pooling2d_1", "trainable": true, "data_format": "channels_last"}}, {"class_name": "Dense", "name": "dense_1", "inbound_nodes": [[["global_average_pooling2d_1", 0, 0, {}]]], "config": {"activity_regularizer": null, "bias_constraint": null, "kernel_constraint": null, "units": 1024, "name": "dense_1", "bias_initializer": {"class_name": "Zeros", "config": {}}, "kernel_regularizer": null, "bias_regularizer": null, "activation": "relu", "trainable": true, "use_bias": true, "kernel_initializer": {"class_name": "VarianceScaling", "config": {"scale": 1.0, "mode": "fan_avg", "seed": null, "distribution": "uniform"}}}}, {"class_name": "Dense", "name": "dense_2", "inbound_nodes": [[["dense_1", 0, 0, {}]]], "config": {"activity_regularizer": null, "bias_constraint": null, "kernel_constraint": null, "units": 128, "name": "dense_2", "bias_initializer": {"class_name": "Zeros", "config": {}}, "kernel_regularizer": null, "bias_regularizer": null, "activation": "linear", "trainable": true, "use_bias": true, "kernel_initializer": {"class_name": "VarianceScaling", "config": {"scale": 1.0, "mode": "fan_avg", "seed": null, "distribution": "uniform"}}}}], "name": "model_1", "input_layers": [["input_1", 0, 0]], "output_layers": [["dense_2", 0, 0]]}, "keras_version": "2.1.2"}