{"backend": "tensorflow", "config": {"name": "model_1", "output_layers": [["dense_2", 0, 0]], "layers": [{"name": "input_1", "inbound_nodes": [], "config": {"name": "input_1", "sparse": false, "batch_input_shape": [null, null, null, 3], "dtype": "float32"}, "class_name": "InputLayer"}, {"name": "conv2d_1", "inbound_nodes": [[["input_1", 0, 0, {}]]], "config": {"kernel_size": [3, 3], "name": "conv2d_1", "activity_regularizer": null, "strides": [2, 2], "activation": "linear", "bias_initializer": {"config": {}, "class_name": "Zeros"}, "kernel_regularizer": null, "use_bias": false, "trainable": true, "bias_constraint": null, "padding": "valid", "bias_regularizer": null, "filters": 32, "kernel_initializer": {"config": {"distribution": "uniform", "mode": "fan_avg", "scale": 1.0, "seed": null}, "class_name": "VarianceScaling"}, "dilation_rate": [1, 1], "kernel_constraint": null, "data_format": "channels_last"}, "class_name": "Conv2D"}, {"name": "batch_normalization_1", "inbound_nodes": [[["conv2d_1", 0, 0, {}]]], "config": {"gamma_constraint": null, "trainable": true, "moving_mean_initializer": {"config": {}, "class_name": "Zeros"}, "momentum": 0.99, "name": "batch_normalization_1", "moving_variance_initializer": {"config": {}, "class_name": "Ones"}, "epsilon": 0.001, "gamma_initializer": {"config": {}, "class_name": "Ones"}, "beta_constraint": null, "scale": false, "beta_regularizer": null, "center": true, "axis": 3, "beta_initializer": {"config": {}, "class_name": "Zeros"}, "gamma_regularizer": null}, "class_name": "BatchNormalization"}, {"name": "activation_1", "inbound_nodes": [[["batch_normalization_1", 0, 0, {}]]], "config": {"trainable": true, "activation": "relu", "name": "activation_1"}, "class_name": "Activation"}, {"name": "conv2d_2", "inbound_nodes": [[["activation_1", 0, 0, {}]]], "config": {"kernel_size": [3, 3], "name": "conv2d_2", "activity_regularizer": null, "strides": [1, 1], "activation": "linear", "bias_initializer": {"config": {}, "class_name": "Zeros"}, "kernel_regularizer": null, "use_bias": false, "trainable": true, "bias_constraint": null, "padding": "valid", "bias_regularizer": null, "filters": 32, "kernel_initializer": {"config": {"distribution": "uniform", "mode": "fan_avg", "scale": 1.0, "seed": null}, "class_name": "VarianceScaling"}, "dilation_rate": [1, 1], "kernel_constraint": null, "data_format": "channels_last"}, "class_name": "Conv2D"}, {"name": "batch_normalization_2", "inbound_nodes": [[["conv2d_2", 0, 0, {}]]], "config": {"gamma_constraint": null, "trainable": true, "moving_mean_initializer": {"config": {}, "class_name": "Zeros"}, "momentum": 0.99, "name": "batch_normalization_2", "moving_variance_initializer": {"config": {}, "class_name": "Ones"}, "epsilon": 0.001, "gamma_initializer": {"config": {}, "class_name": "Ones"}, "beta_constraint": null, "scale": false, "beta_regularizer": null, "center": true, "axis": 3, "beta_initializer": {"config": {}, "class_name": "Zeros"}, "gamma_regularizer": null}, "class_name": "BatchNormalization"}, {"name": "activation_2", "inbound_nodes": [[["batch_normalization_2", 0, 0, {}]]], "config": {"trainable": true, "activation": "relu", "name": "activation_2"}, "class_name": "Activation"}, {"name": "conv2d_3", "inbound_nodes": [[["activation_2", 0, 0, {}]]], "config": {"kernel_size": [3, 3], "name": "conv2d_3", "activity_regularizer": null, "strides": [1, 1], "activation": "linear", "bias_initializer": {"config": {}, "class_name": "Zeros"}, "kernel_regularizer": null, "use_bias": false, "trainable": true, "bias_constraint": null, "padding": "same", "bias_regularizer": null, "filters": 64, "kernel_initializer": {"config": {"distribution": "uniform", "mode": "fan_avg", "scale": 1.0, "seed": null}, "class_name": "VarianceScaling"}, "dilation_rate": [1, 1], "kernel_constraint": null, "data_format": "channels_last"}, "class_name": "Conv2D"}, {"name": "batch_normalization_3", "inbound_nodes": [[["conv2d_3", 0, 0, {}]]], "config": {"gamma_constraint": null, "trainable": true, "moving_mean_initializer": {"config": {}, "class_name": "Zeros"}, "momentum": 0.99, "name": "batch_normalization_3", "moving_variance_initializer": {"config": {}, "class_name": "Ones"}, "epsilon": 0.001, "gamma_initializer": {"config": {}, "class_name": "Ones"}, "beta_constraint": null, "scale": false, "beta_regularizer": null, "center": true, "axis": 3, "beta_initializer": {"config": {}, "class_name": "Zeros"}, "gamma_regularizer": null}, "class_name": "BatchNormalization"}, {"name": "activation_3", "inbound_nodes": [[["batch_normalization_3", 0, 0, {}]]], "config": {"trainable": true, "activation": "relu", "name": "activation_3"}, "class_name": "Activation"}, {"name": "max_pooling2d_1", "inbound_nodes": [[["activation_3", 0, 0, {}]]], "config": {"trainable": true, "padding": "valid", "strides": [2, 2], "name": "max_pooling2d_1", "pool_size": [3, 3], "data_format": "channels_last"}, "class_name": "MaxPooling2D"}, {"name": "conv2d_4", "inbound_nodes": [[["max_pooling2d_1", 0, 0, {}]]], "config": {"kernel_size": [1, 1], "name": "conv2d_4", "activity_regularizer": null, "strides": [1, 1], "activation": "linear", "bias_initializer": {"config": {}, "class_name": "Zeros"}, "kernel_regularizer": null, "use_bias": false, "trainable": true, "bias_constraint": null, "padding": "valid", "bias_regularizer": null, "filters": 80, "kernel_initializer": {"config": {"distribution": "uniform", "mode": "fan_avg", "scale": 1.0, "seed": null}, "class_name": "VarianceScaling"}, "dilation_rate": [1, 1], "kernel_constraint": null, "data_format": "channels_last"}, "class_name": "Conv2D"}, {"name": "batch_normalization_4", "inbound_nodes": [[["conv2d_4", 0, 0, {}]]], "config": {"gamma_constraint": null, "trainable": true, "moving_mean_initializer": {"config": {}, "class_name": "Zeros"}, "momentum": 0.99, "name": "batch_normalization_4", "moving_variance_initializer": {"config": {}, "class_name": "Ones"}, "epsilon": 0.001, "gamma_initializer": {"config": {}, "class_name": "Ones"}, "beta_constraint": null, "scale": false, "beta_regularizer": null, "center": true, "axis": 3, "beta_initializer": {"config": {}, "class_name": "Zeros"}, "gamma_regularizer": null}, "class_name": "BatchNormalization"}, {"name": "activation_4", "inbound_nodes": [[["batch_normalization_4", 0, 0, {}]]], "config": {"trainable": true, "activation": "relu", "name": "activation_4"}, "class_name": "Activation"}, {"name": "conv2d_5", "inbound_nodes": [[["activation_4", 0, 0, {}]]], "config": {"kernel_size": [3, 3], "name": "conv2d_5", "activity_regularizer": null, "strides": [1, 1], "activation": "linear", "bias_initializer": {"config": {}, "class_name": "Zeros"}, "kernel_regularizer": null, "use_bias": false, "trainable": true, "bias_constraint": null, "padding": "valid", "bias_regularizer": null, "filters": 192, "kernel_initializer": {"config": {"distribution": "uniform", "mode": "fan_avg", "scale": 1.0, "seed": null}, "class_name": "VarianceScaling"}, "dilation_rate": [1, 1], "kernel_constraint": null, "data_format": "channels_last"}, "class_name": "Conv2D"}, {"name": "batch_normalization_5", "inbound_nodes": [[["conv2d_5", 0, 0, {}]]], "config": {"gamma_constraint": null, "trainable": true, "moving_mean_initializer": {"config": {}, "class_name": "Zeros"}, "momentum": 0.99, "name": "batch_normalization_5", "moving_variance_initializer": {"config": {}, "class_name": "Ones"}, "epsilon": 0.001, "gamma_initializer": {"config": {}, "class_name": "Ones"}, "beta_constraint": null, "scale": false, "beta_regularizer": null, "center": true, "axis": 3, "beta_initializer": {"config": {}, "class_name": "Zeros"}, "gamma_regularizer": null}, "class_name": "BatchNormalization"}, {"name": "activation_5", "inbound_nodes": [[["batch_normalization_5", 0, 0, {}]]], "config": {"trainable": true, "activation": "relu", "name": "activation_5"}, "class_name": "Activation"}, {"name": "max_pooling2d_2", "inbound_nodes": [[["activation_5", 0, 0, {}]]], "config": {"trainable": true, "padding": "valid", "strides": [2, 2], "name": "max_pooling2d_2", "pool_size": [3, 3], "data_format": "channels_last"}, "class_name": "MaxPooling2D"}, {"name": "conv2d_9", "inbound_nodes": [[["max_pooling2d_2", 0, 0, {}]]], "config": {"kernel_size": [1, 1], "name": "conv2d_9", "activity_regularizer": null, "strides": [1, 1], "activation": "linear", "bias_initializer": {"config": {}, "class_name": "Zeros"}, "kernel_regularizer": null, "use_bias": false, "trainable": true, "bias_constraint": null, "padding": "same", "bias_regularizer": null, "filters": 64, "kernel_initializer": {"config": {"distribution": "uniform", "mode": "fan_avg", "scale": 1.0, "seed": null}, "class_name": "VarianceScaling"}, "dilation_rate": [1, 1], "kernel_constraint": null, "data_format": "channels_last"}, "class_name": "Conv2D"}, {"name": "batch_normalization_9", "inbound_nodes": [[["conv2d_9", 0, 0, {}]]], "config": {"gamma_constraint": null, "trainable": true, "moving_mean_initializer": {"config": {}, "class_name": "Zeros"}, "momentum": 0.99, "name": "batch_normalization_9", "moving_variance_initializer": {"config": {}, "class_name": "Ones"}, "epsilon": 0.001, "gamma_initializer": {"config": {}, "class_name": "Ones"}, "beta_constraint": null, "scale": false, "beta_regularizer": null, "center": true, "axis": 3, "beta_initializer": {"config": {}, "class_name": "Zeros"}, "gamma_regularizer": null}, "class_name": "BatchNormalization"}, {"name": "activation_9", "inbound_nodes": [[["batch_normalization_9", 0, 0, {}]]], "config": {"trainable": true, "activation": "relu", "name": "activation_9"}, "class_name": "Activation"}, {"name": "conv2d_7", "inbound_nodes": [[["max_pooling2d_2", 0, 0, {}]]], "config": {"kernel_size": [1, 1], "name": "conv2d_7", "activity_regularizer": null, "strides": [1, 1], "activation": "linear", "bias_initializer": {"config": {}, "class_name": "Zeros"}, "kernel_regularizer": null, "use_bias": false, "trainable": true, "bias_constraint": null, "padding": "same", "bias_regularizer": null, "filters": 48, "kernel_initializer": {"config": {"distribution": "uniform", "mode": "fan_avg", "scale": 1.0, "seed": null}, "class_name": "VarianceScaling"}, "dilation_rate": [1, 1], "kernel_constraint": null, "data_format": "channels_last"}, "class_name": "Conv2D"}, {"name": "conv2d_10", "inbound_nodes": [[["activation_9", 0, 0, {}]]], "config": {"kernel_size": [3, 3], "name": "conv2d_10", "activity_regularizer": null, "strides": [1, 1], "activation": "linear", "bias_initializer": {"config": {}, "class_name": "Zeros"}, "kernel_regularizer": null, "use_bias": false, "trainable": true, "bias_constraint": null, "padding": "same", "bias_regularizer": null, "filters": 96, "kernel_initializer": {"config": {"distribution": "uniform", "mode": "fan_avg", "scale": 1.0, "seed": null}, "class_name": "VarianceScaling"}, "dilation_rate": [1, 1], "kernel_constraint": null, "data_format": "channels_last"}, "class_name": "Conv2D"}, {"name": "batch_normalization_7", "inbound_nodes": [[["conv2d_7", 0, 0, {}]]], "config": {"gamma_constraint": null, "trainable": true, "moving_mean_initializer": {"config": {}, "class_name": "Zeros"}, "momentum": 0.99, "name": "batch_normalization_7", "moving_variance_initializer": {"config": {}, "class_name": "Ones"}, "epsilon": 0.001, "gamma_initializer": {"config": {}, "class_name": "Ones"}, "beta_constraint": null, "scale": false, "beta_regularizer": null, "center": true, "axis": 3, "beta_initializer": {"config": {}, "class_name": "Zeros"}, "gamma_regularizer": null}, "class_name": "BatchNormalization"}, {"name": "batch_normalization_10", "inbound_nodes": [[["conv2d_10", 0, 0, {}]]], "config": {"gamma_constraint": null, "trainable": true, "moving_mean_initializer": {"config": {}, "class_name": "Zeros"}, "momentum": 0.99, "name": "batch_normalization_10", "moving_variance_initializer": {"config": {}, "class_name": "Ones"}, "epsilon": 0.001, "gamma_initializer": {"config": {}, "class_name": "Ones"}, "beta_constraint": null, "scale": false, "beta_regularizer": null, "center": true, "axis": 3, "beta_initializer": {"config": {}, "class_name": "Zeros"}, "gamma_regularizer": null}, "class_name": "BatchNormalization"}, {"name": "activation_7", "inbound_nodes": [[["batch_normalization_7", 0, 0, {}]]], "config": {"trainable": true, "activation": "relu", "name": "activation_7"}, "class_name": "Activation"}, {"name": "activation_10", "inbound_nodes": [[["batch_normalization_10", 0, 0, {}]]], "config": {"trainable": true, "activation": "relu", "name": "activation_10"}, "class_name": "Activation"}, {"name": "average_pooling2d_1", "inbound_nodes": [[["max_pooling2d_2", 0, 0, {}]]], "config": {"trainable": true, "padding": "same", "strides": [1, 1], "name": "average_pooling2d_1", "pool_size": [3, 3], "data_format": "channels_last"}, "class_name": "AveragePooling2D"}, {"name": "conv2d_6", "inbound_nodes": [[["max_pooling2d_2", 0, 0, {}]]], "config": {"kernel_size": [1, 1], "name": "conv2d_6", "activity_regularizer": null, "strides": [1, 1], "activation": "linear", "bias_initializer": {"config": {}, "class_name": "Zeros"}, "kernel_regularizer": null, "use_bias": false, "trainable": true, "bias_constraint": null, "padding": "same", "bias_regularizer": null, "filters": 64, "kernel_initializer": {"config": {"distribution": "uniform", "mode": "fan_avg", "scale": 1.0, "seed": null}, "class_name": "VarianceScaling"}, "dilation_rate": [1, 1], "kernel_constraint": null, "data_format": "channels_last"}, "class_name": "Conv2D"}, {"name": "conv2d_8", "inbound_nodes": [[["activation_7", 0, 0, {}]]], "config": {"kernel_size": [5, 5], "name": "conv2d_8", "activity_regularizer": null, "strides": [1, 1], "activation": "linear", "bias_initializer": {"config": {}, "class_name": "Zeros"}, "kernel_regularizer": null, "use_bias": false, "trainable": true, "bias_constraint": null, "padding": "same", "bias_regularizer": null, "filters": 64, "kernel_initializer": {"config": {"distribution": "uniform", "mode": "fan_avg", "scale": 1.0, "seed": null}, "class_name": "VarianceScaling"}, "dilation_rate": [1, 1], "kernel_constraint": null, "data_format": "channels_last"}, "class_name": "Conv2D"}, {"name": "conv2d_11", "inbound_nodes": [[["activation_10", 0, 0, {}]]], "config": {"kernel_size": [3, 3], "name": "conv2d_11", "activity_regularizer": null, "strides": [1, 1], "activation": "linear", "bias_initializer": {"config": {}, "class_name": "Zeros"}, "kernel_regularizer": null, "use_bias": false, "trainable": true, "bias_constraint": null, "padding": "same", "bias_regularizer": null, "filters": 96, "kernel_initializer": {"config": {"distribution": "uniform", "mode": "fan_avg", "scale": 1.0, "seed": null}, "class_name": "VarianceScaling"}, "dilation_rate": [1, 1], "kernel_constraint": null, "data_format": "channels_last"}, "class_name": "Conv2D"}, {"name": "conv2d_12", "inbound_nodes": [[["average_pooling2d_1", 0, 0, {}]]], "config": {"kernel_size": [1, 1], "name": "conv2d_12", "activity_regularizer": null, "strides": [1, 1], "activation": "linear", "bias_initializer": {"config": {}, "class_name": "Zeros"}, "kernel_regularizer": null, "use_bias": false, "trainable": true, "bias_constraint": null, "padding": "same", "bias_regularizer": null, "filters": 32, "kernel_initializer": {"config": {"distribution": "uniform", "mode": "fan_avg", "scale": 1.0, "seed": null}, "class_name": "VarianceScaling"}, "dilation_rate": [1, 1], "kernel_constraint": null, "data_format": "channels_last"}, "class_name": "Conv2D"}, {"name": "batch_normalization_6", "inbound_nodes": [[["conv2d_6", 0, 0, {}]]], "config": {"gamma_constraint": null, "trainable": true, "moving_mean_initializer": {"config": {}, "class_name": "Zeros"}, "momentum": 0.99, "name": "batch_normalization_6", "moving_variance_initializer": {"config": {}, "class_name": "Ones"}, "epsilon": 0.001, "gamma_initializer": {"config": {}, "class_name": "Ones"}, "beta_constraint": null, "scale": false, "beta_regularizer": null, "center": true, "axis": 3, "beta_initializer": {"config": {}, "class_name": "Zeros"}, "gamma_regularizer": null}, "class_name": "BatchNormalization"}, {"name": "batch_normalization_8", "inbound_nodes": [[["conv2d_8", 0, 0, {}]]], "config": {"gamma_constraint": null, "trainable": true, "moving_mean_initializer": {"config": {}, "class_name": "Zeros"}, "momentum": 0.99, "name": "batch_normalization_8", "moving_variance_initializer": {"config": {}, "class_name": "Ones"}, "epsilon": 0.001, "gamma_initializer": {"config": {}, "class_name": "Ones"}, "beta_constraint": null, "scale": false, "beta_regularizer": null, "center": true, "axis": 3, "beta_initializer": {"config": {}, "class_name": "Zeros"}, "gamma_regularizer": null}, "class_name": "BatchNormalization"}, {"name": "batch_normalization_11", "inbound_nodes": [[["conv2d_11", 0, 0, {}]]], "config": {"gamma_constraint": null, "trainable": true, "moving_mean_initializer": {"config": {}, "class_name": "Zeros"}, "momentum": 0.99, "name": "batch_normalization_11", "moving_variance_initializer": {"config": {}, "class_name": "Ones"}, "epsilon": 0.001, "gamma_initializer": {"config": {}, "class_name": "Ones"}, "beta_constraint": null, "scale": false, "beta_regularizer": null, "center": true, "axis": 3, "beta_initializer": {"config": {}, "class_name": "Zeros"}, "gamma_regularizer": null}, "class_name": "BatchNormalization"}, {"name": "batch_normalization_12", "inbound_nodes": [[["conv2d_12", 0, 0, {}]]], "config": {"gamma_constraint": null, "trainable": true, "moving_mean_initializer": {"config": {}, "class_name": "Zeros"}, "momentum": 0.99, "name": "batch_normalization_12", "moving_variance_initializer": {"config": {}, "class_name": "Ones"}, "epsilon": 0.001, "gamma_initializer": {"config": {}, "class_name": "Ones"}, "beta_constraint": null, "scale": false, "beta_regularizer": null, "center": true, "axis": 3, "beta_initializer": {"config": {}, "class_name": "Zeros"}, "gamma_regularizer": null}, "class_name": "BatchNormalization"}, {"name": "activation_6", "inbound_nodes": [[["batch_normalization_6", 0, 0, {}]]], "config": {"trainable": true, "activation": "relu", "name": "activation_6"}, "class_name": "Activation"}, {"name": "activation_8", "inbound_nodes": [[["batch_normalization_8", 0, 0, {}]]], "config": {"trainable": true, "activation": "relu", "name": "activation_8"}, "class_name": "Activation"}, {"name": "activation_11", "inbound_nodes": [[["batch_normalization_11", 0, 0, {}]]], "config": {"trainable": true, "activation": "relu", "name": "activation_11"}, "class_name": "Activation"}, {"name": "activation_12", "inbound_nodes": [[["batch_normalization_12", 0, 0, {}]]], "config": {"trainable": true, "activation": "relu", "name": "activation_12"}, "class_name": "Activation"}, {"name": "mixed0", "inbound_nodes": [[["activation_6", 0, 0, {}], ["activation_8", 0, 0, {}], ["activation_11", 0, 0, {}], ["activation_12", 0, 0, {}]]], "config": {"trainable": true, "name": "mixed0", "axis": 3}, "class_name": "Concatenate"}, {"name": "conv2d_16", "inbound_nodes": [[["mixed0", 0, 0, {}]]], "config": {"kernel_size": [1, 1], "name": "conv2d_16", "activity_regularizer": null, "strides": [1, 1], "activation": "linear", "bias_initializer": {"config": {}, "class_name": "Zeros"}, "kernel_regularizer": null, "use_bias": false, "trainable": true, "bias_constraint": null, "padding": "same", "bias_regularizer": null, "filters": 64, "kernel_initializer": {"config": {"distribution": "uniform", "mode": "fan_avg", "scale": 1.0, "seed": null}, "class_name": "VarianceScaling"}, "dilation_rate": [1, 1], "kernel_constraint": null, "data_format": "channels_last"}, "class_name": "Conv2D"}, {"name": "batch_normalization_16", "inbound_nodes": [[["conv2d_16", 0, 0, {}]]], "config": {"gamma_constraint": null, "trainable": true, "moving_mean_initializer": {"config": {}, "class_name": "Zeros"}, "momentum": 0.99, "name": "batch_normalization_16", "moving_variance_initializer": {"config": {}, "class_name": "Ones"}, "epsilon": 0.001, "gamma_initializer": {"config": {}, "class_name": "Ones"}, "beta_constraint": null, "scale": false, "beta_regularizer": null, "center": true, "axis": 3, "beta_initializer": {"config": {}, "class_name": "Zeros"}, "gamma_regularizer": null}, "class_name": "BatchNormalization"}, {"name": "activation_16", "inbound_nodes": [[["batch_normalization_16", 0, 0, {}]]], "config": {"trainable": true, "activation": "relu", "name": "activation_16"}, "class_name": "Activation"}, {"name": "conv2d_14", "inbound_nodes": [[["mixed0", 0, 0, {}]]], "config": {"kernel_size": [1, 1], "name": "conv2d_14", "activity_regularizer": null, "strides": [1, 1], "activation": "linear", "bias_initializer": {"config": {}, "class_name": "Zeros"}, "kernel_regularizer": null, "use_bias": false, "trainable": true, "bias_constraint": null, "padding": "same", "bias_regularizer": null, "filters": 48, "kernel_initializer": {"config": {"distribution": "uniform", "mode": "fan_avg", "scale": 1.0, "seed": null}, "class_name": "VarianceScaling"}, "dilation_rate": [1, 1], "kernel_constraint": null, "data_format": "channels_last"}, "class_name": "Conv2D"}, {"name": "conv2d_17", "inbound_nodes": [[["activation_16", 0, 0, {}]]], "config": {"kernel_size": [3, 3], "name": "conv2d_17", "activity_regularizer": null, "strides": [1, 1], "activation": "linear", "bias_initializer": {"config": {}, "class_name": "Zeros"}, "kernel_regularizer": null, "use_bias": false, "trainable": true, "bias_constraint": null, "padding": "same", "bias_regularizer": null, "filters": 96, "kernel_initializer": {"config": {"distribution": "uniform", "mode": "fan_avg", "scale": 1.0, "seed": null}, "class_name": "VarianceScaling"}, "dilation_rate": [1, 1], "kernel_constraint": null, "data_format": "channels_last"}, "class_name": "Conv2D"}, {"name": "batch_normalization_14", "inbound_nodes": [[["conv2d_14", 0, 0, {}]]], "config": {"gamma_constraint": null, "trainable": true, "moving_mean_initializer": {"config": {}, "class_name": "Zeros"}, "momentum": 0.99, "name": "batch_normalization_14", "moving_variance_initializer": {"config": {}, "class_name": "Ones"}, "epsilon": 0.001, "gamma_initializer": {"config": {}, "class_name": "Ones"}, "beta_constraint": null, "scale": false, "beta_regularizer": null, "center": true, "axis": 3, "beta_initializer": {"config": {}, "class_name": "Zeros"}, "gamma_regularizer": null}, "class_name": "BatchNormalization"}, {"name": "batch_normalization_17", "inbound_nodes": [[["conv2d_17", 0, 0, {}]]], "config": {"gamma_constraint": null, "trainable": true, "moving_mean_initializer": {"config": {}, "class_name": "Zeros"}, "momentum": 0.99, "name": "batch_normalization_17", "moving_variance_initializer": {"config": {}, "class_name": "Ones"}, "epsilon": 0.001, "gamma_initializer": {"config": {}, "class_name": "Ones"}, "beta_constraint": null, "scale": false, "beta_regularizer": null, "center": true, "axis": 3, "beta_initializer": {"config": {}, "class_name": "Zeros"}, "gamma_regularizer": null}, "class_name": "BatchNormalization"}, {"name": "activation_14", "inbound_nodes": [[["batch_normalization_14", 0, 0, {}]]], "config": {"trainable": true, "activation": "relu", "name": "activation_14"}, "class_name": "Activation"}, {"name": "activation_17", "inbound_nodes": [[["batch_normalization_17", 0, 0, {}]]], "config": {"trainable": true, "activation": "relu", "name": "activation_17"}, "class_name": "Activation"}, {"name": "average_pooling2d_2", "inbound_nodes": [[["mixed0", 0, 0, {}]]], "config": {"trainable": true, "padding": "same", "strides": [1, 1], "name": "average_pooling2d_2", "pool_size": [3, 3], "data_format": "channels_last"}, "class_name": "AveragePooling2D"}, {"name": "conv2d_13", "inbound_nodes": [[["mixed0", 0, 0, {}]]], "config": {"kernel_size": [1, 1], "name": "conv2d_13", "activity_regularizer": null, "strides": [1, 1], "activation": "linear", "bias_initializer": {"config": {}, "class_name": "Zeros"}, "kernel_regularizer": null, "use_bias": false, "trainable": true, "bias_constraint": null, "padding": "same", "bias_regularizer": null, "filters": 64, "kernel_initializer": {"config": {"distribution": "uniform", "mode": "fan_avg", "scale": 1.0, "seed": null}, "class_name": "VarianceScaling"}, "dilation_rate": [1, 1], "kernel_constraint": null, "data_format": "channels_last"}, "class_name": "Conv2D"}, {"name": "conv2d_15", "inbound_nodes": [[["activation_14", 0, 0, {}]]], "config": {"kernel_size": [5, 5], "name": "conv2d_15", "activity_regularizer": null, "strides": [1, 1], "activation": "linear", "bias_initializer": {"config": {}, "class_name": "Zeros"}, "kernel_regularizer": null, "use_bias": false, "trainable": true, "bias_constraint": null, "padding": "same", "bias_regularizer": null, "filters": 64, "kernel_initializer": {"config": {"distribution": "uniform", "mode": "fan_avg", "scale": 1.0, "seed": null}, "class_name": "VarianceScaling"}, "dilation_rate": [1, 1], "kernel_constraint": null, "data_format": "channels_last"}, "class_name": "Conv2D"}, {"name": "conv2d_18", "inbound_nodes": [[["activation_17", 0, 0, {}]]], "config": {"kernel_size": [3, 3], "name": "conv2d_18", "activity_regularizer": null, "strides": [1, 1], "activation": "linear", "bias_initializer": {"config": {}, "class_name": "Zeros"}, "kernel_regularizer": null, "use_bias": false, "trainable": true, "bias_constraint": null, "padding": "same", "bias_regularizer": null, "filters": 96, "kernel_initializer": {"config": {"distribution": "uniform", "mode": "fan_avg", "scale": 1.0, "seed": null}, "class_name": "VarianceScaling"}, "dilation_rate": [1, 1], "kernel_constraint": null, "data_format": "channels_last"}, "class_name": "Conv2D"}, {"name": "conv2d_19", "inbound_nodes": [[["average_pooling2d_2", 0, 0, {}]]], "config": {"kernel_size": [1, 1], "name": "conv2d_19", "activity_regularizer": null, "strides": [1, 1], "activation": "linear", "bias_initializer": {"config": {}, "class_name": "Zeros"}, "kernel_regularizer": null, "use_bias": false, "trainable": true, "bias_constraint": null, "padding": "same", "bias_regularizer": null, "filters": 64, "kernel_initializer": {"config": {"distribution": "uniform", "mode": "fan_avg", "scale": 1.0, "seed": null}, "class_name": "VarianceScaling"}, "dilation_rate": [1, 1], "kernel_constraint": null, "data_format": "channels_last"}, "class_name": "Conv2D"}, {"name": "batch_normalization_13", "inbound_nodes": [[["conv2d_13", 0, 0, {}]]], "config": {"gamma_constraint": null, "trainable": true, "moving_mean_initializer": {"config": {}, "class_name": "Zeros"}, "momentum": 0.99, "name": "batch_normalization_13", "moving_variance_initializer": {"config": {}, "class_name": "Ones"}, "epsilon": 0.001, "gamma_initializer": {"config": {}, "class_name": "Ones"}, "beta_constraint": null, "scale": false, "beta_regularizer": null, "center": true, "axis": 3, "beta_initializer": {"config": {}, "class_name": "Zeros"}, "gamma_regularizer": null}, "class_name": "BatchNormalization"}, {"name": "batch_normalization_15", "inbound_nodes": [[["conv2d_15", 0, 0, {}]]], "config": {"gamma_constraint": null, "trainable": true, "moving_mean_initializer": {"config": {}, "class_name": "Zeros"}, "momentum": 0.99, "name": "batch_normalization_15", "moving_variance_initializer": {"config": {}, "class_name": "Ones"}, "epsilon": 0.001, "gamma_initializer": {"config": {}, "class_name": "Ones"}, "beta_constraint": null, "scale": false, "beta_regularizer": null, "center": true, "axis": 3, "beta_initializer": {"config": {}, "class_name": "Zeros"}, "gamma_regularizer": null}, "class_name": "BatchNormalization"}, {"name": "batch_normalization_18", "inbound_nodes": [[["conv2d_18", 0, 0, {}]]], "config": {"gamma_constraint": null, "trainable": true, "moving_mean_initializer": {"config": {}, "class_name": "Zeros"}, "momentum": 0.99, "name": "batch_normalization_18", "moving_variance_initializer": {"config": {}, "class_name": "Ones"}, "epsilon": 0.001, "gamma_initializer": {"config": {}, "class_name": "Ones"}, "beta_constraint": null, "scale": false, "beta_regularizer": null, "center": true, "axis": 3, "beta_initializer": {"config": {}, "class_name": "Zeros"}, "gamma_regularizer": null}, "class_name": "BatchNormalization"}, {"name": "batch_normalization_19", "inbound_nodes": [[["conv2d_19", 0, 0, {}]]], "config": {"gamma_constraint": null, "trainable": true, "moving_mean_initializer": {"config": {}, "class_name": "Zeros"}, "momentum": 0.99, "name": "batch_normalization_19", "moving_variance_initializer": {"config": {}, "class_name": "Ones"}, "epsilon": 0.001, "gamma_initializer": {"config": {}, "class_name": "Ones"}, "beta_constraint": null, "scale": false, "beta_regularizer": null, "center": true, "axis": 3, "beta_initializer": {"config": {}, "class_name": "Zeros"}, "gamma_regularizer": null}, "class_name": "BatchNormalization"}, {"name": "activation_13", "inbound_nodes": [[["batch_normalization_13", 0, 0, {}]]], "config": {"trainable": true, "activation": "relu", "name": "activation_13"}, "class_name": "Activation"}, {"name": "activation_15", "inbound_nodes": [[["batch_normalization_15", 0, 0, {}]]], "config": {"trainable": true, "activation": "relu", "name": "activation_15"}, "class_name": "Activation"}, {"name": "activation_18", "inbound_nodes": [[["batch_normalization_18", 0, 0, {}]]], "config": {"trainable": true, "activation": "relu", "name": "activation_18"}, "class_name": "Activation"}, {"name": "activation_19", "inbound_nodes": [[["batch_normalization_19", 0, 0, {}]]], "config": {"trainable": true, "activation": "relu", "name": "activation_19"}, "class_name": "Activation"}, {"name": "mixed1", "inbound_nodes": [[["activation_13", 0, 0, {}], ["activation_15", 0, 0, {}], ["activation_18", 0, 0, {}], ["activation_19", 0, 0, {}]]], "config": {"trainable": true, "name": "mixed1", "axis": 3}, "class_name": "Concatenate"}, {"name": "conv2d_23", "inbound_nodes": [[["mixed1", 0, 0, {}]]], "config": {"kernel_size": [1, 1], "name": "conv2d_23", "activity_regularizer": null, "strides": [1, 1], "activation": "linear", "bias_initializer": {"config": {}, "class_name": "Zeros"}, "kernel_regularizer": null, "use_bias": false, "trainable": true, "bias_constraint": null, "padding": "same", "bias_regularizer": null, "filters": 64, "kernel_initializer": {"config": {"distribution": "uniform", "mode": "fan_avg", "scale": 1.0, "seed": null}, "class_name": "VarianceScaling"}, "dilation_rate": [1, 1], "kernel_constraint": null, "data_format": "channels_last"}, "class_name": "Conv2D"}, {"name": "batch_normalization_23", "inbound_nodes": [[["conv2d_23", 0, 0, {}]]], "config": {"gamma_constraint": null, "trainable": true, "moving_mean_initializer": {"config": {}, "class_name": "Zeros"}, "momentum": 0.99, "name": "batch_normalization_23", "moving_variance_initializer": {"config": {}, "class_name": "Ones"}, "epsilon": 0.001, "gamma_initializer": {"config": {}, "class_name": "Ones"}, "beta_constraint": null, "scale": false, "beta_regularizer": null, "center": true, "axis": 3, "beta_initializer": {"config": {}, "class_name": "Zeros"}, "gamma_regularizer": null}, "class_name": "BatchNormalization"}, {"name": "activation_23", "inbound_nodes": [[["batch_normalization_23", 0, 0, {}]]], "config": {"trainable": true, "activation": "relu", "name": "activation_23"}, "class_name": "Activation"}, {"name": "conv2d_21", "inbound_nodes": [[["mixed1", 0, 0, {}]]], "config": {"kernel_size": [1, 1], "name": "conv2d_21", "activity_regularizer": null, "strides": [1, 1], "activation": "linear", "bias_initializer": {"config": {}, "class_name": "Zeros"}, "kernel_regularizer": null, "use_bias": false, "trainable": true, "bias_constraint": null, "padding": "same", "bias_regularizer": null, "filters": 48, "kernel_initializer": {"config": {"distribution": "uniform", "mode": "fan_avg", "scale": 1.0, "seed": null}, "class_name": "VarianceScaling"}, "dilation_rate": [1, 1], "kernel_constraint": null, "data_format": "channels_last"}, "class_name": "Conv2D"}, {"name": "conv2d_24", "inbound_nodes": [[["activation_23", 0, 0, {}]]], "config": {"kernel_size": [3, 3], "name": "conv2d_24", "activity_regularizer": null, "strides": [1, 1], "activation": "linear", "bias_initializer": {"config": {}, "class_name": "Zeros"}, "kernel_regularizer": null, "use_bias": false, "trainable": true, "bias_constraint": null, "padding": "same", "bias_regularizer": null, "filters": 96, "kernel_initializer": {"config": {"distribution": "uniform", "mode": "fan_avg", "scale": 1.0, "seed": null}, "class_name": "VarianceScaling"}, "dilation_rate": [1, 1], "kernel_constraint": null, "data_format": "channels_last"}, "class_name": "Conv2D"}, {"name": "batch_normalization_21", "inbound_nodes": [[["conv2d_21", 0, 0, {}]]], "config": {"gamma_constraint": null, "trainable": true, "moving_mean_initializer": {"config": {}, "class_name": "Zeros"}, "momentum": 0.99, "name": "batch_normalization_21", "moving_variance_initializer": {"config": {}, "class_name": "Ones"}, "epsilon": 0.001, "gamma_initializer": {"config": {}, "class_name": "Ones"}, "beta_constraint": null, "scale": false, "beta_regularizer": null, "center": true, "axis": 3, "beta_initializer": {"config": {}, "class_name": "Zeros"}, "gamma_regularizer": null}, "class_name": "BatchNormalization"}, {"name": "batch_normalization_24", "inbound_nodes": [[["conv2d_24", 0, 0, {}]]], "config": {"gamma_constraint": null, "trainable": true, "moving_mean_initializer": {"config": {}, "class_name": "Zeros"}, "momentum": 0.99, "name": "batch_normalization_24", "moving_variance_initializer": {"config": {}, "class_name": "Ones"}, "epsilon": 0.001, "gamma_initializer": {"config": {}, "class_name": "Ones"}, "beta_constraint": null, "scale": false, "beta_regularizer": null, "center": true, "axis": 3, "beta_initializer": {"config": {}, "class_name": "Zeros"}, "gamma_regularizer": null}, "class_name": "BatchNormalization"}, {"name": "activation_21", "inbound_nodes": [[["batch_normalization_21", 0, 0, {}]]], "config": {"trainable": true, "activation": "relu", "name": "activation_21"}, "class_name": "Activation"}, {"name": "activation_24", "inbound_nodes": [[["batch_normalization_24", 0, 0, {}]]], "config": {"trainable": true, "activation": "relu", "name": "activation_24"}, "class_name": "Activation"}, {"name": "average_pooling2d_3", "inbound_nodes": [[["mixed1", 0, 0, {}]]], "config": {"trainable": true, "padding": "same", "strides": [1, 1], "name": "average_pooling2d_3", "pool_size": [3, 3], "data_format": "channels_last"}, "class_name": "AveragePooling2D"}, {"name": "conv2d_20", "inbound_nodes": [[["mixed1", 0, 0, {}]]], "config": {"kernel_size": [1, 1], "name": "conv2d_20", "activity_regularizer": null, "strides": [1, 1], "activation": "linear", "bias_initializer": {"config": {}, "class_name": "Zeros"}, "kernel_regularizer": null, "use_bias": false, "trainable": true, "bias_constraint": null, "padding": "same", "bias_regularizer": null, "filters": 64, "kernel_initializer": {"config": {"distribution": "uniform", "mode": "fan_avg", "scale": 1.0, "seed": null}, "class_name": "VarianceScaling"}, "dilation_rate": [1, 1], "kernel_constraint": null, "data_format": "channels_last"}, "class_name": "Conv2D"}, {"name": "conv2d_22", "inbound_nodes": [[["activation_21", 0, 0, {}]]], "config": {"kernel_size": [5, 5], "name": "conv2d_22", "activity_regularizer": null, "strides": [1, 1], "activation": "linear", "bias_initializer": {"config": {}, "class_name": "Zeros"}, "kernel_regularizer": null, "use_bias": false, "trainable": true, "bias_constraint": null, "padding": "same", "bias_regularizer": null, "filters": 64, "kernel_initializer": {"config": {"distribution": "uniform", "mode": "fan_avg", "scale": 1.0, "seed": null}, "class_name": "VarianceScaling"}, "dilation_rate": [1, 1], "kernel_constraint": null, "data_format": "channels_last"}, "class_name": "Conv2D"}, {"name": "conv2d_25", "inbound_nodes": [[["activation_24", 0, 0, {}]]], "config": {"kernel_size": [3, 3], "name": "conv2d_25", "activity_regularizer": null, "strides": [1, 1], "activation": "linear", "bias_initializer": {"config": {}, "class_name": "Zeros"}, "kernel_regularizer": null, "use_bias": false, "trainable": true, "bias_constraint": null, "padding": "same", "bias_regularizer": null, "filters": 96, "kernel_initializer": {"config": {"distribution": "uniform", "mode": "fan_avg", "scale": 1.0, "seed": null}, "class_name": "VarianceScaling"}, "dilation_rate": [1, 1], "kernel_constraint": null, "data_format": "channels_last"}, "class_name": "Conv2D"}, {"name": "conv2d_26", "inbound_nodes": [[["average_pooling2d_3", 0, 0, {}]]], "config": {"kernel_size": [1, 1], "name": "conv2d_26", "activity_regularizer": null, "strides": [1, 1], "activation": "linear", "bias_initializer": {"config": {}, "class_name": "Zeros"}, "kernel_regularizer": null, "use_bias": false, "trainable": true, "bias_constraint": null, "padding": "same", "bias_regularizer": null, "filters": 64, "kernel_initializer": {"config": {"distribution": "uniform", "mode": "fan_avg", "scale": 1.0, "seed": null}, "class_name": "VarianceScaling"}, "dilation_rate": [1, 1], "kernel_constraint": null, "data_format": "channels_last"}, "class_name": "Conv2D"}, {"name": "batch_normalization_20", "inbound_nodes": [[["conv2d_20", 0, 0, {}]]], "config": {"gamma_constraint": null, "trainable": true, "moving_mean_initializer": {"config": {}, "class_name": "Zeros"}, "momentum": 0.99, "name": "batch_normalization_20", "moving_variance_initializer": {"config": {}, "class_name": "Ones"}, "epsilon": 0.001, "gamma_initializer": {"config": {}, "class_name": "Ones"}, "beta_constraint": null, "scale": false, "beta_regularizer": null, "center": true, "axis": 3, "beta_initializer": {"config": {}, "class_name": "Zeros"}, "gamma_regularizer": null}, "class_name": "BatchNormalization"}, {"name": "batch_normalization_22", "inbound_nodes": [[["conv2d_22", 0, 0, {}]]], "config": {"gamma_constraint": null, "trainable": true, "moving_mean_initializer": {"config": {}, "class_name": "Zeros"}, "momentum": 0.99, "name": "batch_normalization_22", "moving_variance_initializer": {"config": {}, "class_name": "Ones"}, "epsilon": 0.001, "gamma_initializer": {"config": {}, "class_name": "Ones"}, "beta_constraint": null, "scale": false, "beta_regularizer": null, "center": true, "axis": 3, "beta_initializer": {"config": {}, "class_name": "Zeros"}, "gamma_regularizer": null}, "class_name": "BatchNormalization"}, {"name": "batch_normalization_25", "inbound_nodes": [[["conv2d_25", 0, 0, {}]]], "config": {"gamma_constraint": null, "trainable": true, "moving_mean_initializer": {"config": {}, "class_name": "Zeros"}, "momentum": 0.99, "name": "batch_normalization_25", "moving_variance_initializer": {"config": {}, "class_name": "Ones"}, "epsilon": 0.001, "gamma_initializer": {"config": {}, "class_name": "Ones"}, "beta_constraint": null, "scale": false, "beta_regularizer": null, "center": true, "axis": 3, "beta_initializer": {"config": {}, "class_name": "Zeros"}, "gamma_regularizer": null}, "class_name": "BatchNormalization"}, {"name": "batch_normalization_26", "inbound_nodes": [[["conv2d_26", 0, 0, {}]]], "config": {"gamma_constraint": null, "trainable": true, "moving_mean_initializer": {"config": {}, "class_name": "Zeros"}, "momentum": 0.99, "name": "batch_normalization_26", "moving_variance_initializer": {"config": {}, "class_name": "Ones"}, "epsilon": 0.001, "gamma_initializer": {"config": {}, "class_name": "Ones"}, "beta_constraint": null, "scale": false, "beta_regularizer": null, "center": true, "axis": 3, "beta_initializer": {"config": {}, "class_name": "Zeros"}, "gamma_regularizer": null}, "class_name": "BatchNormalization"}, {"name": "activation_20", "inbound_nodes": [[["batch_normalization_20", 0, 0, {}]]], "config": {"trainable": true, "activation": "relu", "name": "activation_20"}, "class_name": "Activation"}, {"name": "activation_22", "inbound_nodes": [[["batch_normalization_22", 0, 0, {}]]], "config": {"trainable": true, "activation": "relu", "name": "activation_22"}, "class_name": "Activation"}, {"name": "activation_25", "inbound_nodes": [[["batch_normalization_25", 0, 0, {}]]], "config": {"trainable": true, "activation": "relu", "name": "activation_25"}, "class_name": "Activation"}, {"name": "activation_26", "inbound_nodes": [[["batch_normalization_26", 0, 0, {}]]], "config": {"trainable": true, "activation": "relu", "name": "activation_26"}, "class_name": "Activation"}, {"name": "mixed2", "inbound_nodes": [[["activation_20", 0, 0, {}], ["activation_22", 0, 0, {}], ["activation_25", 0, 0, {}], ["activation_26", 0, 0, {}]]], "config": {"trainable": true, "name": "mixed2", "axis": 3}, "class_name": "Concatenate"}, {"name": "conv2d_28", "inbound_nodes": [[["mixed2", 0, 0, {}]]], "config": {"kernel_size": [1, 1], "name": "conv2d_28", "activity_regularizer": null, "strides": [1, 1], "activation": "linear", "bias_initializer": {"config": {}, "class_name": "Zeros"}, "kernel_regularizer": null, "use_bias": false, "trainable": true, "bias_constraint": null, "padding": "same", "bias_regularizer": null, "filters": 64, "kernel_initializer": {"config": {"distribution": "uniform", "mode": "fan_avg", "scale": 1.0, "seed": null}, "class_name": "VarianceScaling"}, "dilation_rate": [1, 1], "kernel_constraint": null, "data_format": "channels_last"}, "class_name": "Conv2D"}, {"name": "batch_normalization_28", "inbound_nodes": [[["conv2d_28", 0, 0, {}]]], "config": {"gamma_constraint": null, "trainable": true, "moving_mean_initializer": {"config": {}, "class_name": "Zeros"}, "momentum": 0.99, "name": "batch_normalization_28", "moving_variance_initializer": {"config": {}, "class_name": "Ones"}, "epsilon": 0.001, "gamma_initializer": {"config": {}, "class_name": "Ones"}, "beta_constraint": null, "scale": false, "beta_regularizer": null, "center": true, "axis": 3, "beta_initializer": {"config": {}, "class_name": "Zeros"}, "gamma_regularizer": null}, "class_name": "BatchNormalization"}, {"name": "activation_28", "inbound_nodes": [[["batch_normalization_28", 0, 0, {}]]], "config": {"trainable": true, "activation": "relu", "name": "activation_28"}, "class_name": "Activation"}, {"name": "conv2d_29", "inbound_nodes": [[["activation_28", 0, 0, {}]]], "config": {"kernel_size": [3, 3], "name": "conv2d_29", "activity_regularizer": null, "strides": [1, 1], "activation": "linear", "bias_initializer": {"config": {}, "class_name": "Zeros"}, "kernel_regularizer": null, "use_bias": false, "trainable": true, "bias_constraint": null, "padding": "same", "bias_regularizer": null, "filters": 96, "kernel_initializer": {"config": {"distribution": "uniform", "mode": "fan_avg", "scale": 1.0, "seed": null}, "class_name": "VarianceScaling"}, "dilation_rate": [1, 1], "kernel_constraint": null, "data_format": "channels_last"}, "class_name": "Conv2D"}, {"name": "batch_normalization_29", "inbound_nodes": [[["conv2d_29", 0, 0, {}]]], "config": {"gamma_constraint": null, "trainable": true, "moving_mean_initializer": {"config": {}, "class_name": "Zeros"}, "momentum": 0.99, "name": "batch_normalization_29", "moving_variance_initializer": {"config": {}, "class_name": "Ones"}, "epsilon": 0.001, "gamma_initializer": {"config": {}, "class_name": "Ones"}, "beta_constraint": null, "scale": false, "beta_regularizer": null, "center": true, "axis": 3, "beta_initializer": {"config": {}, "class_name": "Zeros"}, "gamma_regularizer": null}, "class_name": "BatchNormalization"}, {"name": "activation_29", "inbound_nodes": [[["batch_normalization_29", 0, 0, {}]]], "config": {"trainable": true, "activation": "relu", "name": "activation_29"}, "class_name": "Activation"}, {"name": "conv2d_27", "inbound_nodes": [[["mixed2", 0, 0, {}]]], "config": {"kernel_size": [3, 3], "name": "conv2d_27", "activity_regularizer": null, "strides": [2, 2], "activation": "linear", "bias_initializer": {"config": {}, "class_name": "Zeros"}, "kernel_regularizer": null, "use_bias": false, "trainable": true, "bias_constraint": null, "padding": "valid", "bias_regularizer": null, "filters": 384, "kernel_initializer": {"config": {"distribution": "uniform", "mode": "fan_avg", "scale": 1.0, "seed": null}, "class_name": "VarianceScaling"}, "dilation_rate": [1, 1], "kernel_constraint": null, "data_format": "channels_last"}, "class_name": "Conv2D"}, {"name": "conv2d_30", "inbound_nodes": [[["activation_29", 0, 0, {}]]], "config": {"kernel_size": [3, 3], "name": "conv2d_30", "activity_regularizer": null, "strides": [2, 2], "activation": "linear", "bias_initializer": {"config": {}, "class_name": "Zeros"}, "kernel_regularizer": null, "use_bias": false, "trainable": true, "bias_constraint": null, "padding": "valid", "bias_regularizer": null, "filters": 96, "kernel_initializer": {"config": {"distribution": "uniform", "mode": "fan_avg", "scale": 1.0, "seed": null}, "class_name": "VarianceScaling"}, "dilation_rate": [1, 1], "kernel_constraint": null, "data_format": "channels_last"}, "class_name": "Conv2D"}, {"name": "batch_normalization_27", "inbound_nodes": [[["conv2d_27", 0, 0, {}]]], "config": {"gamma_constraint": null, "trainable": true, "moving_mean_initializer": {"config": {}, "class_name": "Zeros"}, "momentum": 0.99, "name": "batch_normalization_27", "moving_variance_initializer": {"config": {}, "class_name": "Ones"}, "epsilon": 0.001, "gamma_initializer": {"config": {}, "class_name": "Ones"}, "beta_constraint": null, "scale": false, "beta_regularizer": null, "center": true, "axis": 3, "beta_initializer": {"config": {}, "class_name": "Zeros"}, "gamma_regularizer": null}, "class_name": "BatchNormalization"}, {"name": "batch_normalization_30", "inbound_nodes": [[["conv2d_30", 0, 0, {}]]], "config": {"gamma_constraint": null, "trainable": true, "moving_mean_initializer": {"config": {}, "class_name": "Zeros"}, "momentum": 0.99, "name": "batch_normalization_30", "moving_variance_initializer": {"config": {}, "class_name": "Ones"}, "epsilon": 0.001, "gamma_initializer": {"config": {}, "class_name": "Ones"}, "beta_constraint": null, "scale": false, "beta_regularizer": null, "center": true, "axis": 3, "beta_initializer": {"config": {}, "class_name": "Zeros"}, "gamma_regularizer": null}, "class_name": "BatchNormalization"}, {"name": "activation_27", "inbound_nodes": [[["batch_normalization_27", 0, 0, {}]]], "config": {"trainable": true, "activation": "relu", "name": "activation_27"}, "class_name": "Activation"}, {"name": "activation_30", "inbound_nodes": [[["batch_normalization_30", 0, 0, {}]]], "config": {"trainable": true, "activation": "relu", "name": "activation_30"}, "class_name": "Activation"}, {"name": "max_pooling2d_3", "inbound_nodes": [[["mixed2", 0, 0, {}]]], "config": {"trainable": true, "padding": "valid", "strides": [2, 2], "name": "max_pooling2d_3", "pool_size": [3, 3], "data_format": "channels_last"}, "class_name": "MaxPooling2D"}, {"name": "mixed3", "inbound_nodes": [[["activation_27", 0, 0, {}], ["activation_30", 0, 0, {}], ["max_pooling2d_3", 0, 0, {}]]], "config": {"trainable": true, "name": "mixed3", "axis": 3}, "class_name": "Concatenate"}, {"name": "conv2d_35", "inbound_nodes": [[["mixed3", 0, 0, {}]]], "config": {"kernel_size": [1, 1], "name": "conv2d_35", "activity_regularizer": null, "strides": [1, 1], "activation": "linear", "bias_initializer": {"config": {}, "class_name": "Zeros"}, "kernel_regularizer": null, "use_bias": false, "trainable": true, "bias_constraint": null, "padding": "same", "bias_regularizer": null, "filters": 128, "kernel_initializer": {"config": {"distribution": "uniform", "mode": "fan_avg", "scale": 1.0, "seed": null}, "class_name": "VarianceScaling"}, "dilation_rate": [1, 1], "kernel_constraint": null, "data_format": "channels_last"}, "class_name": "Conv2D"}, {"name": "batch_normalization_35", "inbound_nodes": [[["conv2d_35", 0, 0, {}]]], "config": {"gamma_constraint": null, "trainable": true, "moving_mean_initializer": {"config": {}, "class_name": "Zeros"}, "momentum": 0.99, "name": "batch_normalization_35", "moving_variance_initializer": {"config": {}, "class_name": "Ones"}, "epsilon": 0.001, "gamma_initializer": {"config": {}, "class_name": "Ones"}, "beta_constraint": null, "scale": false, "beta_regularizer": null, "center": true, "axis": 3, "beta_initializer": {"config": {}, "class_name": "Zeros"}, "gamma_regularizer": null}, "class_name": "BatchNormalization"}, {"name": "activation_35", "inbound_nodes": [[["batch_normalization_35", 0, 0, {}]]], "config": {"trainable": true, "activation": "relu", "name": "activation_35"}, "class_name": "Activation"}, {"name": "conv2d_36", "inbound_nodes": [[["activation_35", 0, 0, {}]]], "config": {"kernel_size": [7, 1], "name": "conv2d_36", "activity_regularizer": null, "strides": [1, 1], "activation": "linear", "bias_initializer": {"config": {}, "class_name": "Zeros"}, "kernel_regularizer": null, "use_bias": false, "trainable": true, "bias_constraint": null, "padding": "same", "bias_regularizer": null, "filters": 128, "kernel_initializer": {"config": {"distribution": "uniform", "mode": "fan_avg", "scale": 1.0, "seed": null}, "class_name": "VarianceScaling"}, "dilation_rate": [1, 1], "kernel_constraint": null, "data_format": "channels_last"}, "class_name": "Conv2D"}, {"name": "batch_normalization_36", "inbound_nodes": [[["conv2d_36", 0, 0, {}]]], "config": {"gamma_constraint": null, "trainable": true, "moving_mean_initializer": {"config": {}, "class_name": "Zeros"}, "momentum": 0.99, "name": "batch_normalization_36", "moving_variance_initializer": {"config": {}, "class_name": "Ones"}, "epsilon": 0.001, "gamma_initializer": {"config": {}, "class_name": "Ones"}, "beta_constraint": null, "scale": false, "beta_regularizer": null, "center": true, "axis": 3, "beta_initializer": {"config": {}, "class_name": "Zeros"}, "gamma_regularizer": null}, "class_name": "BatchNormalization"}, {"name": "activation_36", "inbound_nodes": [[["batch_normalization_36", 0, 0, {}]]], "config": {"trainable": true, "activation": "relu", "name": "activation_36"}, "class_name": "Activation"}, {"name": "conv2d_32", "inbound_nodes": [[["mixed3", 0, 0, {}]]], "config": {"kernel_size": [1, 1], "name": "conv2d_32", "activity_regularizer": null, "strides": [1, 1], "activation": "linear", "bias_initializer": {"config": {}, "class_name": "Zeros"}, "kernel_regularizer": null, "use_bias": false, "trainable": true, "bias_constraint": null, "padding": "same", "bias_regularizer": null, "filters": 128, "kernel_initializer": {"config": {"distribution": "uniform", "mode": "fan_avg", "scale": 1.0, "seed": null}, "class_name": "VarianceScaling"}, "dilation_rate": [1, 1], "kernel_constraint": null, "data_format": "channels_last"}, "class_name": "Conv2D"}, {"name": "conv2d_37", "inbound_nodes": [[["activation_36", 0, 0, {}]]], "config": {"kernel_size": [1, 7], "name": "conv2d_37", "activity_regularizer": null, "strides": [1, 1], "activation": "linear", "bias_initializer": {"config": {}, "class_name": "Zeros"}, "kernel_regularizer": null, "use_bias": false, "trainable": true, "bias_constraint": null, "padding": "same", "bias_regularizer": null, "filters": 128, "kernel_initializer": {"config": {"distribution": "uniform", "mode": "fan_avg", "scale": 1.0, "seed": null}, "class_name": "VarianceScaling"}, "dilation_rate": [1, 1], "kernel_constraint": null, "data_format": "channels_last"}, "class_name": "Conv2D"}, {"name": "batch_normalization_32", "inbound_nodes": [[["conv2d_32", 0, 0, {}]]], "config": {"gamma_constraint": null, "trainable": true, "moving_mean_initializer": {"config": {}, "class_name": "Zeros"}, "momentum": 0.99, "name": "batch_normalization_32", "moving_variance_initializer": {"config": {}, "class_name": "Ones"}, "epsilon": 0.001, "gamma_initializer": {"config": {}, "class_name": "Ones"}, "beta_constraint": null, "scale": false, "beta_regularizer": null, "center": true, "axis": 3, "beta_initializer": {"config": {}, "class_name": "Zeros"}, "gamma_regularizer": null}, "class_name": "BatchNormalization"}, {"name": "batch_normalization_37", "inbound_nodes": [[["conv2d_37", 0, 0, {}]]], "config": {"gamma_constraint": null, "trainable": true, "moving_mean_initializer": {"config": {}, "class_name": "Zeros"}, "momentum": 0.99, "name": "batch_normalization_37", "moving_variance_initializer": {"config": {}, "class_name": "Ones"}, "epsilon": 0.001, "gamma_initializer": {"config": {}, "class_name": "Ones"}, "beta_constraint": null, "scale": false, "beta_regularizer": null, "center": true, "axis": 3, "beta_initializer": {"config": {}, "class_name": "Zeros"}, "gamma_regularizer": null}, "class_name": "BatchNormalization"}, {"name": "activation_32", "inbound_nodes": [[["batch_normalization_32", 0, 0, {}]]], "config": {"trainable": true, "activation": "relu", "name": "activation_32"}, "class_name": "Activation"}, {"name": "activation_37", "inbound_nodes": [[["batch_normalization_37", 0, 0, {}]]], "config": {"trainable": true, "activation": "relu", "name": "activation_37"}, "class_name": "Activation"}, {"name": "conv2d_33", "inbound_nodes": [[["activation_32", 0, 0, {}]]], "config": {"kernel_size": [1, 7], "name": "conv2d_33", "activity_regularizer": null, "strides": [1, 1], "activation": "linear", "bias_initializer": {"config": {}, "class_name": "Zeros"}, "kernel_regularizer": null, "use_bias": false, "trainable": true, "bias_constraint": null, "padding": "same", "bias_regularizer": null, "filters": 128, "kernel_initializer": {"config": {"distribution": "uniform", "mode": "fan_avg", "scale": 1.0, "seed": null}, "class_name": "VarianceScaling"}, "dilation_rate": [1, 1], "kernel_constraint": null, "data_format": "channels_last"}, "class_name": "Conv2D"}, {"name": "conv2d_38", "inbound_nodes": [[["activation_37", 0, 0, {}]]], "config": {"kernel_size": [7, 1], "name": "conv2d_38", "activity_regularizer": null, "strides": [1, 1], "activation": "linear", "bias_initializer": {"config": {}, "class_name": "Zeros"}, "kernel_regularizer": null, "use_bias": false, "trainable": true, "bias_constraint": null, "padding": "same", "bias_regularizer": null, "filters": 128, "kernel_initializer": {"config": {"distribution": "uniform", "mode": "fan_avg", "scale": 1.0, "seed": null}, "class_name": "VarianceScaling"}, "dilation_rate": [1, 1], "kernel_constraint": null, "data_format": "channels_last"}, "class_name": "Conv2D"}, {"name": "batch_normalization_33", "inbound_nodes": [[["conv2d_33", 0, 0, {}]]], "config": {"gamma_constraint": null, "trainable": true, "moving_mean_initializer": {"config": {}, "class_name": "Zeros"}, "momentum": 0.99, "name": "batch_normalization_33", "moving_variance_initializer": {"config": {}, "class_name": "Ones"}, "epsilon": 0.001, "gamma_initializer": {"config": {}, "class_name": "Ones"}, "beta_constraint": null, "scale": false, "beta_regularizer": null, "center": true, "axis": 3, "beta_initializer": {"config": {}, "class_name": "Zeros"}, "gamma_regularizer": null}, "class_name": "BatchNormalization"}, {"name": "batch_normalization_38", "inbound_nodes": [[["conv2d_38", 0, 0, {}]]], "config": {"gamma_constraint": null, "trainable": true, "moving_mean_initializer": {"config": {}, "class_name": "Zeros"}, "momentum": 0.99, "name": "batch_normalization_38", "moving_variance_initializer": {"config": {}, "class_name": "Ones"}, "epsilon": 0.001, "gamma_initializer": {"config": {}, "class_name": "Ones"}, "beta_constraint": null, "scale": false, "beta_regularizer": null, "center": true, "axis": 3, "beta_initializer": {"config": {}, "class_name": "Zeros"}, "gamma_regularizer": null}, "class_name": "BatchNormalization"}, {"name": "activation_33", "inbound_nodes": [[["batch_normalization_33", 0, 0, {}]]], "config": {"trainable": true, "activation": "relu", "name": "activation_33"}, "class_name": "Activation"}, {"name": "activation_38", "inbound_nodes": [[["batch_normalization_38", 0, 0, {}]]], "config": {"trainable": true, "activation": "relu", "name": "activation_38"}, "class_name": "Activation"}, {"name": "average_pooling2d_4", "inbound_nodes": [[["mixed3", 0, 0, {}]]], "config": {"trainable": true, "padding": "same", "strides": [1, 1], "name": "average_pooling2d_4", "pool_size": [3, 3], "data_format": "channels_last"}, "class_name": "AveragePooling2D"}, {"name": "conv2d_31", "inbound_nodes": [[["mixed3", 0, 0, {}]]], "config": {"kernel_size": [1, 1], "name": "conv2d_31", "activity_regularizer": null, "strides": [1, 1], "activation": "linear", "bias_initializer": {"config": {}, "class_name": "Zeros"}, "kernel_regularizer": null, "use_bias": false, "trainable": true, "bias_constraint": null, "padding": "same", "bias_regularizer": null, "filters": 192, "kernel_initializer": {"config": {"distribution": "uniform", "mode": "fan_avg", "scale": 1.0, "seed": null}, "class_name": "VarianceScaling"}, "dilation_rate": [1, 1], "kernel_constraint": null, "data_format": "channels_last"}, "class_name": "Conv2D"}, {"name": "conv2d_34", "inbound_nodes": [[["activation_33", 0, 0, {}]]], "config": {"kernel_size": [7, 1], "name": "conv2d_34", "activity_regularizer": null, "strides": [1, 1], "activation": "linear", "bias_initializer": {"config": {}, "class_name": "Zeros"}, "kernel_regularizer": null, "use_bias": false, "trainable": true, "bias_constraint": null, "padding": "same", "bias_regularizer": null, "filters": 192, "kernel_initializer": {"config": {"distribution": "uniform", "mode": "fan_avg", "scale": 1.0, "seed": null}, "class_name": "VarianceScaling"}, "dilation_rate": [1, 1], "kernel_constraint": null, "data_format": "channels_last"}, "class_name": "Conv2D"}, {"name": "conv2d_39", "inbound_nodes": [[["activation_38", 0, 0, {}]]], "config": {"kernel_size": [1, 7], "name": "conv2d_39", "activity_regularizer": null, "strides": [1, 1], "activation": "linear", "bias_initializer": {"config": {}, "class_name": "Zeros"}, "kernel_regularizer": null, "use_bias": false, "trainable": true, "bias_constraint": null, "padding": "same", "bias_regularizer": null, "filters": 192, "kernel_initializer": {"config": {"distribution": "uniform", "mode": "fan_avg", "scale": 1.0, "seed": null}, "class_name": "VarianceScaling"}, "dilation_rate": [1, 1], "kernel_constraint": null, "data_format": "channels_last"}, "class_name": "Conv2D"}, {"name": "conv2d_40", "inbound_nodes": [[["average_pooling2d_4", 0, 0, {}]]], "config": {"kernel_size": [1, 1], "name": "conv2d_40", "activity_regularizer": null, "strides": [1, 1], "activation": "linear", "bias_initializer": {"config": {}, "class_name": "Zeros"}, "kernel_regularizer": null, "use_bias": false, "trainable": true, "bias_constraint": null, "padding": "same", "bias_regularizer": null, "filters": 192, "kernel_initializer": {"config": {"distribution": "uniform", "mode": "fan_avg", "scale": 1.0, "seed": null}, "class_name": "VarianceScaling"}, "dilation_rate": [1, 1], "kernel_constraint": null, "data_format": "channels_last"}, "class_name": "Conv2D"}, {"name": "batch_normalization_31", "inbound_nodes": [[["conv2d_31", 0, 0, {}]]], "config": {"gamma_constraint": null, "trainable": true, "moving_mean_initializer": {"config": {}, "class_name": "Zeros"}, "momentum": 0.99, "name": "batch_normalization_31", "moving_variance_initializer": {"config": {}, "class_name": "Ones"}, "epsilon": 0.001, "gamma_initializer": {"config": {}, "class_name": "Ones"}, "beta_constraint": null, "scale": false, "beta_regularizer": null, "center": true, "axis": 3, "beta_initializer": {"config": {}, "class_name": "Zeros"}, "gamma_regularizer": null}, "class_name": "BatchNormalization"}, {"name": "batch_normalization_34", "inbound_nodes": [[["conv2d_34", 0, 0, {}]]], "config": {"gamma_constraint": null, "trainable": true, "moving_mean_initializer": {"config": {}, "class_name": "Zeros"}, "momentum": 0.99, "name": "batch_normalization_34", "moving_variance_initializer": {"config": {}, "class_name": "Ones"}, "epsilon": 0.001, "gamma_initializer": {"config": {}, "class_name": "Ones"}, "beta_constraint": null, "scale": false, "beta_regularizer": null, "center": true, "axis": 3, "beta_initializer": {"config": {}, "class_name": "Zeros"}, "gamma_regularizer": null}, "class_name": "BatchNormalization"}, {"name": "batch_normalization_39", "inbound_nodes": [[["conv2d_39", 0, 0, {}]]], "config": {"gamma_constraint": null, "trainable": true, "moving_mean_initializer": {"config": {}, "class_name": "Zeros"}, "momentum": 0.99, "name": "batch_normalization_39", "moving_variance_initializer": {"config": {}, "class_name": "Ones"}, "epsilon": 0.001, "gamma_initializer": {"config": {}, "class_name": "Ones"}, "beta_constraint": null, "scale": false, "beta_regularizer": null, "center": true, "axis": 3, "beta_initializer": {"config": {}, "class_name": "Zeros"}, "gamma_regularizer": null}, "class_name": "BatchNormalization"}, {"name": "batch_normalization_40", "inbound_nodes": [[["conv2d_40", 0, 0, {}]]], "config": {"gamma_constraint": null, "trainable": true, "moving_mean_initializer": {"config": {}, "class_name": "Zeros"}, "momentum": 0.99, "name": "batch_normalization_40", "moving_variance_initializer": {"config": {}, "class_name": "Ones"}, "epsilon": 0.001, "gamma_initializer": {"config": {}, "class_name": "Ones"}, "beta_constraint": null, "scale": false, "beta_regularizer": null, "center": true, "axis": 3, "beta_initializer": {"config": {}, "class_name": "Zeros"}, "gamma_regularizer": null}, "class_name": "BatchNormalization"}, {"name": "activation_31", "inbound_nodes": [[["batch_normalization_31", 0, 0, {}]]], "config": {"trainable": true, "activation": "relu", "name": "activation_31"}, "class_name": "Activation"}, {"name": "activation_34", "inbound_nodes": [[["batch_normalization_34", 0, 0, {}]]], "config": {"trainable": true, "activation": "relu", "name": "activation_34"}, "class_name": "Activation"}, {"name": "activation_39", "inbound_nodes": [[["batch_normalization_39", 0, 0, {}]]], "config": {"trainable": true, "activation": "relu", "name": "activation_39"}, "class_name": "Activation"}, {"name": "activation_40", "inbound_nodes": [[["batch_normalization_40", 0, 0, {}]]], "config": {"trainable": true, "activation": "relu", "name": "activation_40"}, "class_name": "Activation"}, {"name": "mixed4", "inbound_nodes": [[["activation_31", 0, 0, {}], ["activation_34", 0, 0, {}], ["activation_39", 0, 0, {}], ["activation_40", 0, 0, {}]]], "config": {"trainable": true, "name": "mixed4", "axis": 3}, "class_name": "Concatenate"}, {"name": "conv2d_45", "inbound_nodes": [[["mixed4", 0, 0, {}]]], "config": {"kernel_size": [1, 1], "name": "conv2d_45", "activity_regularizer": null, "strides": [1, 1], "activation": "linear", "bias_initializer": {"config": {}, "class_name": "Zeros"}, "kernel_regularizer": null, "use_bias": false, "trainable": true, "bias_constraint": null, "padding": "same", "bias_regularizer": null, "filters": 160, "kernel_initializer": {"config": {"distribution": "uniform", "mode": "fan_avg", "scale": 1.0, "seed": null}, "class_name": "VarianceScaling"}, "dilation_rate": [1, 1], "kernel_constraint": null, "data_format": "channels_last"}, "class_name": "Conv2D"}, {"name": "batch_normalization_45", "inbound_nodes": [[["conv2d_45", 0, 0, {}]]], "config": {"gamma_constraint": null, "trainable": true, "moving_mean_initializer": {"config": {}, "class_name": "Zeros"}, "momentum": 0.99, "name": "batch_normalization_45", "moving_variance_initializer": {"config": {}, "class_name": "Ones"}, "epsilon": 0.001, "gamma_initializer": {"config": {}, "class_name": "Ones"}, "beta_constraint": null, "scale": false, "beta_regularizer": null, "center": true, "axis": 3, "beta_initializer": {"config": {}, "class_name": "Zeros"}, "gamma_regularizer": null}, "class_name": "BatchNormalization"}, {"name": "activation_45", "inbound_nodes": [[["batch_normalization_45", 0, 0, {}]]], "config": {"trainable": true, "activation": "relu", "name": "activation_45"}, "class_name": "Activation"}, {"name": "conv2d_46", "inbound_nodes": [[["activation_45", 0, 0, {}]]], "config": {"kernel_size": [7, 1], "name": "conv2d_46", "activity_regularizer": null, "strides": [1, 1], "activation": "linear", "bias_initializer": {"config": {}, "class_name": "Zeros"}, "kernel_regularizer": null, "use_bias": false, "trainable": true, "bias_constraint": null, "padding": "same", "bias_regularizer": null, "filters": 160, "kernel_initializer": {"config": {"distribution": "uniform", "mode": "fan_avg", "scale": 1.0, "seed": null}, "class_name": "VarianceScaling"}, "dilation_rate": [1, 1], "kernel_constraint": null, "data_format": "channels_last"}, "class_name": "Conv2D"}, {"name": "batch_normalization_46", "inbound_nodes": [[["conv2d_46", 0, 0, {}]]], "config": {"gamma_constraint": null, "trainable": true, "moving_mean_initializer": {"config": {}, "class_name": "Zeros"}, "momentum": 0.99, "name": "batch_normalization_46", "moving_variance_initializer": {"config": {}, "class_name": "Ones"}, "epsilon": 0.001, "gamma_initializer": {"config": {}, "class_name": "Ones"}, "beta_constraint": null, "scale": false, "beta_regularizer": null, "center": true, "axis": 3, "beta_initializer": {"config": {}, "class_name": "Zeros"}, "gamma_regularizer": null}, "class_name": "BatchNormalization"}, {"name": "activation_46", "inbound_nodes": [[["batch_normalization_46", 0, 0, {}]]], "config": {"trainable": true, "activation": "relu", "name": "activation_46"}, "class_name": "Activation"}, {"name": "conv2d_42", "inbound_nodes": [[["mixed4", 0, 0, {}]]], "config": {"kernel_size": [1, 1], "name": "conv2d_42", "activity_regularizer": null, "strides": [1, 1], "activation": "linear", "bias_initializer": {"config": {}, "class_name": "Zeros"}, "kernel_regularizer": null, "use_bias": false, "trainable": true, "bias_constraint": null, "padding": "same", "bias_regularizer": null, "filters": 160, "kernel_initializer": {"config": {"distribution": "uniform", "mode": "fan_avg", "scale": 1.0, "seed": null}, "class_name": "VarianceScaling"}, "dilation_rate": [1, 1], "kernel_constraint": null, "data_format": "channels_last"}, "class_name": "Conv2D"}, {"name": "conv2d_47", "inbound_nodes": [[["activation_46", 0, 0, {}]]], "config": {"kernel_size": [1, 7], "name": "conv2d_47", "activity_regularizer": null, "strides": [1, 1], "activation": "linear", "bias_initializer": {"config": {}, "class_name": "Zeros"}, "kernel_regularizer": null, "use_bias": false, "trainable": true, "bias_constraint": null, "padding": "same", "bias_regularizer": null, "filters": 160, "kernel_initializer": {"config": {"distribution": "uniform", "mode": "fan_avg", "scale": 1.0, "seed": null}, "class_name": "VarianceScaling"}, "dilation_rate": [1, 1], "kernel_constraint": null, "data_format": "channels_last"}, "class_name": "Conv2D"}, {"name": "batch_normalization_42", "inbound_nodes": [[["conv2d_42", 0, 0, {}]]], "config": {"gamma_constraint": null, "trainable": true, "moving_mean_initializer": {"config": {}, "class_name": "Zeros"}, "momentum": 0.99, "name": "batch_normalization_42", "moving_variance_initializer": {"config": {}, "class_name": "Ones"}, "epsilon": 0.001, "gamma_initializer": {"config": {}, "class_name": "Ones"}, "beta_constraint": null, "scale": false, "beta_regularizer": null, "center": true, "axis": 3, "beta_initializer": {"config": {}, "class_name": "Zeros"}, "gamma_regularizer": null}, "class_name": "BatchNormalization"}, {"name": "batch_normalization_47", "inbound_nodes": [[["conv2d_47", 0, 0, {}]]], "config": {"gamma_constraint": null, "trainable": true, "moving_mean_initializer": {"config": {}, "class_name": "Zeros"}, "momentum": 0.99, "name": "batch_normalization_47", "moving_variance_initializer": {"config": {}, "class_name": "Ones"}, "epsilon": 0.001, "gamma_initializer": {"config": {}, "class_name": "Ones"}, "beta_constraint": null, "scale": false, "beta_regularizer": null, "center": true, "axis": 3, "beta_initializer": {"config": {}, "class_name": "Zeros"}, "gamma_regularizer": null}, "class_name": "BatchNormalization"}, {"name": "activation_42", "inbound_nodes": [[["batch_normalization_42", 0, 0, {}]]], "config": {"trainable": true, "activation": "relu", "name": "activation_42"}, "class_name": "Activation"}, {"name": "activation_47", "inbound_nodes": [[["batch_normalization_47", 0, 0, {}]]], "config": {"trainable": true, "activation": "relu", "name": "activation_47"}, "class_name": "Activation"}, {"name": "conv2d_43", "inbound_nodes": [[["activation_42", 0, 0, {}]]], "config": {"kernel_size": [1, 7], "name": "conv2d_43", "activity_regularizer": null, "strides": [1, 1], "activation": "linear", "bias_initializer": {"config": {}, "class_name": "Zeros"}, "kernel_regularizer": null, "use_bias": false, "trainable": true, "bias_constraint": null, "padding": "same", "bias_regularizer": null, "filters": 160, "kernel_initializer": {"config": {"distribution": "uniform", "mode": "fan_avg", "scale": 1.0, "seed": null}, "class_name": "VarianceScaling"}, "dilation_rate": [1, 1], "kernel_constraint": null, "data_format": "channels_last"}, "class_name": "Conv2D"}, {"name": "conv2d_48", "inbound_nodes": [[["activation_47", 0, 0, {}]]], "config": {"kernel_size": [7, 1], "name": "conv2d_48", "activity_regularizer": null, "strides": [1, 1], "activation": "linear", "bias_initializer": {"config": {}, "class_name": "Zeros"}, "kernel_regularizer": null, "use_bias": false, "trainable": true, "bias_constraint": null, "padding": "same", "bias_regularizer": null, "filters": 160, "kernel_initializer": {"config": {"distribution": "uniform", "mode": "fan_avg", "scale": 1.0, "seed": null}, "class_name": "VarianceScaling"}, "dilation_rate": [1, 1], "kernel_constraint": null, "data_format": "channels_last"}, "class_name": "Conv2D"}, {"name": "batch_normalization_43", "inbound_nodes": [[["conv2d_43", 0, 0, {}]]], "config": {"gamma_constraint": null, "trainable": true, "moving_mean_initializer": {"config": {}, "class_name": "Zeros"}, "momentum": 0.99, "name": "batch_normalization_43", "moving_variance_initializer": {"config": {}, "class_name": "Ones"}, "epsilon": 0.001, "gamma_initializer": {"config": {}, "class_name": "Ones"}, "beta_constraint": null, "scale": false, "beta_regularizer": null, "center": true, "axis": 3, "beta_initializer": {"config": {}, "class_name": "Zeros"}, "gamma_regularizer": null}, "class_name": "BatchNormalization"}, {"name": "batch_normalization_48", "inbound_nodes": [[["conv2d_48", 0, 0, {}]]], "config": {"gamma_constraint": null, "trainable": true, "moving_mean_initializer": {"config": {}, "class_name": "Zeros"}, "momentum": 0.99, "name": "batch_normalization_48", "moving_variance_initializer": {"config": {}, "class_name": "Ones"}, "epsilon": 0.001, "gamma_initializer": {"config": {}, "class_name": "Ones"}, "beta_constraint": null, "scale": false, "beta_regularizer": null, "center": true, "axis": 3, "beta_initializer": {"config": {}, "class_name": "Zeros"}, "gamma_regularizer": null}, "class_name": "BatchNormalization"}, {"name": "activation_43", "inbound_nodes": [[["batch_normalization_43", 0, 0, {}]]], "config": {"trainable": true, "activation": "relu", "name": "activation_43"}, "class_name": "Activation"}, {"name": "activation_48", "inbound_nodes": [[["batch_normalization_48", 0, 0, {}]]], "config": {"trainable": true, "activation": "relu", "name": "activation_48"}, "class_name": "Activation"}, {"name": "average_pooling2d_5", "inbound_nodes": [[["mixed4", 0, 0, {}]]], "config": {"trainable": true, "padding": "same", "strides": [1, 1], "name": "average_pooling2d_5", "pool_size": [3, 3], "data_format": "channels_last"}, "class_name": "AveragePooling2D"}, {"name": "conv2d_41", "inbound_nodes": [[["mixed4", 0, 0, {}]]], "config": {"kernel_size": [1, 1], "name": "conv2d_41", "activity_regularizer": null, "strides": [1, 1], "activation": "linear", "bias_initializer": {"config": {}, "class_name": "Zeros"}, "kernel_regularizer": null, "use_bias": false, "trainable": true, "bias_constraint": null, "padding": "same", "bias_regularizer": null, "filters": 192, "kernel_initializer": {"config": {"distribution": "uniform", "mode": "fan_avg", "scale": 1.0, "seed": null}, "class_name": "VarianceScaling"}, "dilation_rate": [1, 1], "kernel_constraint": null, "data_format": "channels_last"}, "class_name": "Conv2D"}, {"name": "conv2d_44", "inbound_nodes": [[["activation_43", 0, 0, {}]]], "config": {"kernel_size": [7, 1], "name": "conv2d_44", "activity_regularizer": null, "strides": [1, 1], "activation": "linear", "bias_initializer": {"config": {}, "class_name": "Zeros"}, "kernel_regularizer": null, "use_bias": false, "trainable": true, "bias_constraint": null, "padding": "same", "bias_regularizer": null, "filters": 192, "kernel_initializer": {"config": {"distribution": "uniform", "mode": "fan_avg", "scale": 1.0, "seed": null}, "class_name": "VarianceScaling"}, "dilation_rate": [1, 1], "kernel_constraint": null, "data_format": "channels_last"}, "class_name": "Conv2D"}, {"name": "conv2d_49", "inbound_nodes": [[["activation_48", 0, 0, {}]]], "config": {"kernel_size": [1, 7], "name": "conv2d_49", "activity_regularizer": null, "strides": [1, 1], "activation": "linear", "bias_initializer": {"config": {}, "class_name": "Zeros"}, "kernel_regularizer": null, "use_bias": false, "trainable": true, "bias_constraint": null, "padding": "same", "bias_regularizer": null, "filters": 192, "kernel_initializer": {"config": {"distribution": "uniform", "mode": "fan_avg", "scale": 1.0, "seed": null}, "class_name": "VarianceScaling"}, "dilation_rate": [1, 1], "kernel_constraint": null, "data_format": "channels_last"}, "class_name": "Conv2D"}, {"name": "conv2d_50", "inbound_nodes": [[["average_pooling2d_5", 0, 0, {}]]], "config": {"kernel_size": [1, 1], "name": "conv2d_50", "activity_regularizer": null, "strides": [1, 1], "activation": "linear", "bias_initializer": {"config": {}, "class_name": "Zeros"}, "kernel_regularizer": null, "use_bias": false, "trainable": true, "bias_constraint": null, "padding": "same", "bias_regularizer": null, "filters": 192, "kernel_initializer": {"config": {"distribution": "uniform", "mode": "fan_avg", "scale": 1.0, "seed": null}, "class_name": "VarianceScaling"}, "dilation_rate": [1, 1], "kernel_constraint": null, "data_format": "channels_last"}, "class_name": "Conv2D"}, {"name": "batch_normalization_41", "inbound_nodes": [[["conv2d_41", 0, 0, {}]]], "config": {"gamma_constraint": null, "trainable": true, "moving_mean_initializer": {"config": {}, "class_name": "Zeros"}, "momentum": 0.99, "name": "batch_normalization_41", "moving_variance_initializer": {"config": {}, "class_name": "Ones"}, "epsilon": 0.001, "gamma_initializer": {"config": {}, "class_name": "Ones"}, "beta_constraint": null, "scale": false, "beta_regularizer": null, "center": true, "axis": 3, "beta_initializer": {"config": {}, "class_name": "Zeros"}, "gamma_regularizer": null}, "class_name": "BatchNormalization"}, {"name": "batch_normalization_44", "inbound_nodes": [[["conv2d_44", 0, 0, {}]]], "config": {"gamma_constraint": null, "trainable": true, "moving_mean_initializer": {"config": {}, "class_name": "Zeros"}, "momentum": 0.99, "name": "batch_normalization_44", "moving_variance_initializer": {"config": {}, "class_name": "Ones"}, "epsilon": 0.001, "gamma_initializer": {"config": {}, "class_name": "Ones"}, "beta_constraint": null, "scale": false, "beta_regularizer": null, "center": true, "axis": 3, "beta_initializer": {"config": {}, "class_name": "Zeros"}, "gamma_regularizer": null}, "class_name": "BatchNormalization"}, {"name": "batch_normalization_49", "inbound_nodes": [[["conv2d_49", 0, 0, {}]]], "config": {"gamma_constraint": null, "trainable": true, "moving_mean_initializer": {"config": {}, "class_name": "Zeros"}, "momentum": 0.99, "name": "batch_normalization_49", "moving_variance_initializer": {"config": {}, "class_name": "Ones"}, "epsilon": 0.001, "gamma_initializer": {"config": {}, "class_name": "Ones"}, "beta_constraint": null, "scale": false, "beta_regularizer": null, "center": true, "axis": 3, "beta_initializer": {"config": {}, "class_name": "Zeros"}, "gamma_regularizer": null}, "class_name": "BatchNormalization"}, {"name": "batch_normalization_50", "inbound_nodes": [[["conv2d_50", 0, 0, {}]]], "config": {"gamma_constraint": null, "trainable": true, "moving_mean_initializer": {"config": {}, "class_name": "Zeros"}, "momentum": 0.99, "name": "batch_normalization_50", "moving_variance_initializer": {"config": {}, "class_name": "Ones"}, "epsilon": 0.001, "gamma_initializer": {"config": {}, "class_name": "Ones"}, "beta_constraint": null, "scale": false, "beta_regularizer": null, "center": true, "axis": 3, "beta_initializer": {"config": {}, "class_name": "Zeros"}, "gamma_regularizer": null}, "class_name": "BatchNormalization"}, {"name": "activation_41", "inbound_nodes": [[["batch_normalization_41", 0, 0, {}]]], "config": {"trainable": true, "activation": "relu", "name": "activation_41"}, "class_name": "Activation"}, {"name": "activation_44", "inbound_nodes": [[["batch_normalization_44", 0, 0, {}]]], "config": {"trainable": true, "activation": "relu", "name": "activation_44"}, "class_name": "Activation"}, {"name": "activation_49", "inbound_nodes": [[["batch_normalization_49", 0, 0, {}]]], "config": {"trainable": true, "activation": "relu", "name": "activation_49"}, "class_name": "Activation"}, {"name": "activation_50", "inbound_nodes": [[["batch_normalization_50", 0, 0, {}]]], "config": {"trainable": true, "activation": "relu", "name": "activation_50"}, "class_name": "Activation"}, {"name": "mixed5", "inbound_nodes": [[["activation_41", 0, 0, {}], ["activation_44", 0, 0, {}], ["activation_49", 0, 0, {}], ["activation_50", 0, 0, {}]]], "config": {"trainable": true, "name": "mixed5", "axis": 3}, "class_name": "Concatenate"}, {"name": "global_average_pooling2d_1", "inbound_nodes": [[["mixed5", 0, 0, {}]]], "config": {"trainable": true, "name": "global_average_pooling2d_1", "data_format": "channels_last"}, "class_name": "GlobalAveragePooling2D"}, {"name": "dense_1", "inbound_nodes": [[["global_average_pooling2d_1", 0, 0, {}]]], "config": {"bias_initializer": {"config": {}, "class_name": "Zeros"}, "activity_regularizer": null, "activation": "relu", "use_bias": true, "kernel_regularizer": null, "kernel_constraint": null, "trainable": true, "bias_constraint": null, "bias_regularizer": null, "kernel_initializer": {"config": {"distribution": "uniform", "mode": "fan_avg", "scale": 1.0, "seed": null}, "class_name": "VarianceScaling"}, "name": "dense_1", "units": 1024}, "class_name": "Dense"}, {"name": "dense_2", "inbound_nodes": [[["dense_1", 0, 0, {}]]], "config": {"bias_initializer": {"config": {}, "class_name": "Zeros"}, "activity_regularizer": null, "activation": "linear", "use_bias": true, "kernel_regularizer": null, "kernel_constraint": null, "trainable": true, "bias_constraint": null, "bias_regularizer": null, "kernel_initializer": {"config": {"distribution": "uniform", "mode": "fan_avg", "scale": 1.0, "seed": null}, "class_name": "VarianceScaling"}, "name": "dense_2", "units": 128}, "class_name": "Dense"}], "input_layers": [["input_1", 0, 0]]}, "keras_version": "2.1.2", "class_name": "Model"}