{"class_name": "Model", "backend": "tensorflow", "keras_version": "2.1.2", "config": {"input_layers": [["input_anchor", 0, 0], ["input_positive", 0, 0], ["input_negative", 0, 0]], "output_layers": [["triplet_loss", 0, 0]], "layers": [{"class_name": "InputLayer", "config": {"dtype": "float32", "batch_input_shape": [null, 224, 224, 3], "sparse": false, "name": "input_anchor"}, "name": "input_anchor", "inbound_nodes": []}, {"class_name": "InputLayer", "config": {"dtype": "float32", "batch_input_shape": [null, 224, 224, 3], "sparse": false, "name": "input_positive"}, "name": "input_positive", "inbound_nodes": []}, {"class_name": "InputLayer", "config": {"dtype": "float32", "batch_input_shape": [null, 224, 224, 3], "sparse": false, "name": "input_negative"}, "name": "input_negative", "inbound_nodes": []}, {"class_name": "Model", "config": {"input_layers": [["input_1", 0, 0]], "output_layers": [["dense_2", 0, 0]], "layers": [{"class_name": "InputLayer", "config": {"dtype": "float32", "name": "input_1", "sparse": false, "batch_input_shape": [null, null, null, 3]}, "name": "input_1", "inbound_nodes": []}, {"class_name": "Conv2D", "config": {"kernel_regularizer": null, "name": "conv2d_1", "padding": "valid", "kernel_constraint": null, "strides": [2, 2], "kernel_initializer": {"class_name": "VarianceScaling", "config": {"scale": 1.0, "seed": null, "distribution": "uniform", "mode": "fan_avg"}}, "bias_initializer": {"class_name": "Zeros", "config": {}}, "bias_regularizer": null, "activation": "linear", "dilation_rate": [1, 1], "use_bias": false, "data_format": "channels_last", "activity_regularizer": null, "kernel_size": [3, 3], "trainable": true, "bias_constraint": null, "filters": 32}, "name": "conv2d_1", "inbound_nodes": [[["input_1", 0, 0, {}]]]}, {"class_name": "BatchNormalization", "config": {"gamma_constraint": null, "moving_mean_initializer": {"class_name": "Zeros", "config": {}}, "axis": 3, "gamma_initializer": {"class_name": "Ones", "config": {}}, "gamma_regularizer": null, "momentum": 0.99, "epsilon": 0.001, "scale": false, "beta_initializer": {"class_name": "Zeros", "config": {}}, "name": "batch_normalization_1", "beta_regularizer": null, "moving_variance_initializer": {"class_name": "Ones", "config": {}}, "center": true, "trainable": true, "beta_constraint": null}, "name": "batch_normalization_1", "inbound_nodes": [[["conv2d_1", 0, 0, {}]]]}, {"class_name": "Activation", "config": {"activation": "relu", "name": "activation_1", "trainable": true}, "name": "activation_1", "inbound_nodes": [[["batch_normalization_1", 0, 0, {}]]]}, {"class_name": "Conv2D", "config": {"kernel_regularizer": null, "name": "conv2d_2", "padding": "valid", "kernel_constraint": null, "strides": [1, 1], "kernel_initializer": {"class_name": "VarianceScaling", "config": {"scale": 1.0, "seed": null, "distribution": "uniform", "mode": "fan_avg"}}, "bias_initializer": {"class_name": "Zeros", "config": {}}, "bias_regularizer": null, "activation": "linear", "dilation_rate": [1, 1], "use_bias": false, "data_format": "channels_last", "activity_regularizer": null, "kernel_size": [3, 3], "trainable": true, "bias_constraint": null, "filters": 32}, "name": "conv2d_2", "inbound_nodes": [[["activation_1", 0, 0, {}]]]}, {"class_name": "BatchNormalization", "config": {"gamma_constraint": null, "moving_mean_initializer": {"class_name": "Zeros", "config": {}}, "axis": 3, "gamma_initializer": {"class_name": "Ones", "config": {}}, "gamma_regularizer": null, "momentum": 0.99, "epsilon": 0.001, "scale": false, "beta_initializer": {"class_name": "Zeros", "config": {}}, "name": "batch_normalization_2", "beta_regularizer": null, "moving_variance_initializer": {"class_name": "Ones", "config": {}}, "center": true, "trainable": true, "beta_constraint": null}, "name": "batch_normalization_2", "inbound_nodes": [[["conv2d_2", 0, 0, {}]]]}, {"class_name": "Activation", "config": {"activation": "relu", "name": "activation_2", "trainable": true}, "name": "activation_2", "inbound_nodes": [[["batch_normalization_2", 0, 0, {}]]]}, {"class_name": "Conv2D", "config": {"kernel_regularizer": null, "name": "conv2d_3", "padding": "same", "kernel_constraint": null, "strides": [1, 1], "kernel_initializer": {"class_name": "VarianceScaling", "config": {"scale": 1.0, "seed": null, "distribution": "uniform", "mode": "fan_avg"}}, "bias_initializer": {"class_name": "Zeros", "config": {}}, "bias_regularizer": null, "activation": "linear", "dilation_rate": [1, 1], "use_bias": false, "data_format": "channels_last", "activity_regularizer": null, "kernel_size": [3, 3], "trainable": true, "bias_constraint": null, "filters": 64}, "name": "conv2d_3", "inbound_nodes": [[["activation_2", 0, 0, {}]]]}, {"class_name": "BatchNormalization", "config": {"gamma_constraint": null, "moving_mean_initializer": {"class_name": "Zeros", "config": {}}, "axis": 3, "gamma_initializer": {"class_name": "Ones", "config": {}}, "gamma_regularizer": null, "momentum": 0.99, "epsilon": 0.001, "scale": false, "beta_initializer": {"class_name": "Zeros", "config": {}}, "name": "batch_normalization_3", "beta_regularizer": null, "moving_variance_initializer": {"class_name": "Ones", "config": {}}, "center": true, "trainable": true, "beta_constraint": null}, "name": "batch_normalization_3", "inbound_nodes": [[["conv2d_3", 0, 0, {}]]]}, {"class_name": "Activation", "config": {"activation": "relu", "name": "activation_3", "trainable": true}, "name": "activation_3", "inbound_nodes": [[["batch_normalization_3", 0, 0, {}]]]}, {"class_name": "MaxPooling2D", "config": {"name": "max_pooling2d_1", "strides": [2, 2], "data_format": "channels_last", "pool_size": [3, 3], "padding": "valid", "trainable": true}, "name": "max_pooling2d_1", "inbound_nodes": [[["activation_3", 0, 0, {}]]]}, {"class_name": "Conv2D", "config": {"kernel_regularizer": null, "name": "conv2d_4", "padding": "valid", "kernel_constraint": null, "strides": [1, 1], "kernel_initializer": {"class_name": "VarianceScaling", "config": {"scale": 1.0, "seed": null, "distribution": "uniform", "mode": "fan_avg"}}, "bias_initializer": {"class_name": "Zeros", "config": {}}, "bias_regularizer": null, "activation": "linear", "dilation_rate": [1, 1], "use_bias": false, "data_format": "channels_last", "activity_regularizer": null, "kernel_size": [1, 1], "trainable": true, "bias_constraint": null, "filters": 80}, "name": "conv2d_4", "inbound_nodes": [[["max_pooling2d_1", 0, 0, {}]]]}, {"class_name": "BatchNormalization", "config": {"gamma_constraint": null, "moving_mean_initializer": {"class_name": "Zeros", "config": {}}, "axis": 3, "gamma_initializer": {"class_name": "Ones", "config": {}}, "gamma_regularizer": null, "momentum": 0.99, "epsilon": 0.001, "scale": false, "beta_initializer": {"class_name": "Zeros", "config": {}}, "name": "batch_normalization_4", "beta_regularizer": null, "moving_variance_initializer": {"class_name": "Ones", "config": {}}, "center": true, "trainable": true, "beta_constraint": null}, "name": "batch_normalization_4", "inbound_nodes": [[["conv2d_4", 0, 0, {}]]]}, {"class_name": "Activation", "config": {"activation": "relu", "name": "activation_4", "trainable": true}, "name": "activation_4", "inbound_nodes": [[["batch_normalization_4", 0, 0, {}]]]}, {"class_name": "Conv2D", "config": {"kernel_regularizer": null, "name": "conv2d_5", "padding": "valid", "kernel_constraint": null, "strides": [1, 1], "kernel_initializer": {"class_name": "VarianceScaling", "config": {"scale": 1.0, "seed": null, "distribution": "uniform", "mode": "fan_avg"}}, "bias_initializer": {"class_name": "Zeros", "config": {}}, "bias_regularizer": null, "activation": "linear", "dilation_rate": [1, 1], "use_bias": false, "data_format": "channels_last", "activity_regularizer": null, "kernel_size": [3, 3], "trainable": true, "bias_constraint": null, "filters": 192}, "name": "conv2d_5", "inbound_nodes": [[["activation_4", 0, 0, {}]]]}, {"class_name": "BatchNormalization", "config": {"gamma_constraint": null, "moving_mean_initializer": {"class_name": "Zeros", "config": {}}, "axis": 3, "gamma_initializer": {"class_name": "Ones", "config": {}}, "gamma_regularizer": null, "momentum": 0.99, "epsilon": 0.001, "scale": false, "beta_initializer": {"class_name": "Zeros", "config": {}}, "name": "batch_normalization_5", "beta_regularizer": null, "moving_variance_initializer": {"class_name": "Ones", "config": {}}, "center": true, "trainable": true, "beta_constraint": null}, "name": "batch_normalization_5", "inbound_nodes": [[["conv2d_5", 0, 0, {}]]]}, {"class_name": "Activation", "config": {"activation": "relu", "name": "activation_5", "trainable": true}, "name": "activation_5", "inbound_nodes": [[["batch_normalization_5", 0, 0, {}]]]}, {"class_name": "MaxPooling2D", "config": {"name": "max_pooling2d_2", "strides": [2, 2], "data_format": "channels_last", "pool_size": [3, 3], "padding": "valid", "trainable": true}, "name": "max_pooling2d_2", "inbound_nodes": [[["activation_5", 0, 0, {}]]]}, {"class_name": "Conv2D", "config": {"kernel_regularizer": null, "name": "conv2d_9", "padding": "same", "kernel_constraint": null, "strides": [1, 1], "kernel_initializer": {"class_name": "VarianceScaling", "config": {"scale": 1.0, "seed": null, "distribution": "uniform", "mode": "fan_avg"}}, "bias_initializer": {"class_name": "Zeros", "config": {}}, "bias_regularizer": null, "activation": "linear", "dilation_rate": [1, 1], "use_bias": false, "data_format": "channels_last", "activity_regularizer": null, "kernel_size": [1, 1], "trainable": true, "bias_constraint": null, "filters": 64}, "name": "conv2d_9", "inbound_nodes": [[["max_pooling2d_2", 0, 0, {}]]]}, {"class_name": "BatchNormalization", "config": {"gamma_constraint": null, "moving_mean_initializer": {"class_name": "Zeros", "config": {}}, "axis": 3, "gamma_initializer": {"class_name": "Ones", "config": {}}, "gamma_regularizer": null, "momentum": 0.99, "epsilon": 0.001, "scale": false, "beta_initializer": {"class_name": "Zeros", "config": {}}, "name": "batch_normalization_9", "beta_regularizer": null, "moving_variance_initializer": {"class_name": "Ones", "config": {}}, "center": true, "trainable": true, "beta_constraint": null}, "name": "batch_normalization_9", "inbound_nodes": [[["conv2d_9", 0, 0, {}]]]}, {"class_name": "Activation", "config": {"activation": "relu", "name": "activation_9", "trainable": true}, "name": "activation_9", "inbound_nodes": [[["batch_normalization_9", 0, 0, {}]]]}, {"class_name": "Conv2D", "config": {"kernel_regularizer": null, "name": "conv2d_7", "padding": "same", "kernel_constraint": null, "strides": [1, 1], "kernel_initializer": {"class_name": "VarianceScaling", "config": {"scale": 1.0, "seed": null, "distribution": "uniform", "mode": "fan_avg"}}, "bias_initializer": {"class_name": "Zeros", "config": {}}, "bias_regularizer": null, "activation": "linear", "dilation_rate": [1, 1], "use_bias": false, "data_format": "channels_last", "activity_regularizer": null, "kernel_size": [1, 1], "trainable": true, "bias_constraint": null, "filters": 48}, "name": "conv2d_7", "inbound_nodes": [[["max_pooling2d_2", 0, 0, {}]]]}, {"class_name": "Conv2D", "config": {"kernel_regularizer": null, "name": "conv2d_10", "padding": "same", "kernel_constraint": null, "strides": [1, 1], "kernel_initializer": {"class_name": "VarianceScaling", "config": {"scale": 1.0, "seed": null, "distribution": "uniform", "mode": "fan_avg"}}, "bias_initializer": {"class_name": "Zeros", "config": {}}, "bias_regularizer": null, "activation": "linear", "dilation_rate": [1, 1], "use_bias": false, "data_format": "channels_last", "activity_regularizer": null, "kernel_size": [3, 3], "trainable": true, "bias_constraint": null, "filters": 96}, "name": "conv2d_10", "inbound_nodes": [[["activation_9", 0, 0, {}]]]}, {"class_name": "BatchNormalization", "config": {"gamma_constraint": null, "moving_mean_initializer": {"class_name": "Zeros", "config": {}}, "axis": 3, "gamma_initializer": {"class_name": "Ones", "config": {}}, "gamma_regularizer": null, "momentum": 0.99, "epsilon": 0.001, "scale": false, "beta_initializer": {"class_name": "Zeros", "config": {}}, "name": "batch_normalization_7", "beta_regularizer": null, "moving_variance_initializer": {"class_name": "Ones", "config": {}}, "center": true, "trainable": true, "beta_constraint": null}, "name": "batch_normalization_7", "inbound_nodes": [[["conv2d_7", 0, 0, {}]]]}, {"class_name": "BatchNormalization", "config": {"gamma_constraint": null, "moving_mean_initializer": {"class_name": "Zeros", "config": {}}, "axis": 3, "gamma_initializer": {"class_name": "Ones", "config": {}}, "gamma_regularizer": null, "momentum": 0.99, "epsilon": 0.001, "scale": false, "beta_initializer": {"class_name": "Zeros", "config": {}}, "name": "batch_normalization_10", "beta_regularizer": null, "moving_variance_initializer": {"class_name": "Ones", "config": {}}, "center": true, "trainable": true, "beta_constraint": null}, "name": "batch_normalization_10", "inbound_nodes": [[["conv2d_10", 0, 0, {}]]]}, {"class_name": "Activation", "config": {"activation": "relu", "name": "activation_7", "trainable": true}, "name": "activation_7", "inbound_nodes": [[["batch_normalization_7", 0, 0, {}]]]}, {"class_name": "Activation", "config": {"activation": "relu", "name": "activation_10", "trainable": true}, "name": "activation_10", "inbound_nodes": [[["batch_normalization_10", 0, 0, {}]]]}, {"class_name": "AveragePooling2D", "config": {"name": "average_pooling2d_1", "strides": [1, 1], "data_format": "channels_last", "pool_size": [3, 3], "padding": "same", "trainable": true}, "name": "average_pooling2d_1", "inbound_nodes": [[["max_pooling2d_2", 0, 0, {}]]]}, {"class_name": "Conv2D", "config": {"kernel_regularizer": null, "name": "conv2d_6", "padding": "same", "kernel_constraint": null, "strides": [1, 1], "kernel_initializer": {"class_name": "VarianceScaling", "config": {"scale": 1.0, "seed": null, "distribution": "uniform", "mode": "fan_avg"}}, "bias_initializer": {"class_name": "Zeros", "config": {}}, "bias_regularizer": null, "activation": "linear", "dilation_rate": [1, 1], "use_bias": false, "data_format": "channels_last", "activity_regularizer": null, "kernel_size": [1, 1], "trainable": true, "bias_constraint": null, "filters": 64}, "name": "conv2d_6", "inbound_nodes": [[["max_pooling2d_2", 0, 0, {}]]]}, {"class_name": "Conv2D", "config": {"kernel_regularizer": null, "name": "conv2d_8", "padding": "same", "kernel_constraint": null, "strides": [1, 1], "kernel_initializer": {"class_name": "VarianceScaling", "config": {"scale": 1.0, "seed": null, "distribution": "uniform", "mode": "fan_avg"}}, "bias_initializer": {"class_name": "Zeros", "config": {}}, "bias_regularizer": null, "activation": "linear", "dilation_rate": [1, 1], "use_bias": false, "data_format": "channels_last", "activity_regularizer": null, "kernel_size": [5, 5], "trainable": true, "bias_constraint": null, "filters": 64}, "name": "conv2d_8", "inbound_nodes": [[["activation_7", 0, 0, {}]]]}, {"class_name": "Conv2D", "config": {"kernel_regularizer": null, "name": "conv2d_11", "padding": "same", "kernel_constraint": null, "strides": [1, 1], "kernel_initializer": {"class_name": "VarianceScaling", "config": {"scale": 1.0, "seed": null, "distribution": "uniform", "mode": "fan_avg"}}, "bias_initializer": {"class_name": "Zeros", "config": {}}, "bias_regularizer": null, "activation": "linear", "dilation_rate": [1, 1], "use_bias": false, "data_format": "channels_last", "activity_regularizer": null, "kernel_size": [3, 3], "trainable": true, "bias_constraint": null, "filters": 96}, "name": "conv2d_11", "inbound_nodes": [[["activation_10", 0, 0, {}]]]}, {"class_name": "Conv2D", "config": {"kernel_regularizer": null, "name": "conv2d_12", "padding": "same", "kernel_constraint": null, "strides": [1, 1], "kernel_initializer": {"class_name": "VarianceScaling", "config": {"scale": 1.0, "seed": null, "distribution": "uniform", "mode": "fan_avg"}}, "bias_initializer": {"class_name": "Zeros", "config": {}}, "bias_regularizer": null, "activation": "linear", "dilation_rate": [1, 1], "use_bias": false, "data_format": "channels_last", "activity_regularizer": null, "kernel_size": [1, 1], "trainable": true, "bias_constraint": null, "filters": 32}, "name": "conv2d_12", "inbound_nodes": [[["average_pooling2d_1", 0, 0, {}]]]}, {"class_name": "BatchNormalization", "config": {"gamma_constraint": null, "moving_mean_initializer": {"class_name": "Zeros", "config": {}}, "axis": 3, "gamma_initializer": {"class_name": "Ones", "config": {}}, "gamma_regularizer": null, "momentum": 0.99, "epsilon": 0.001, "scale": false, "beta_initializer": {"class_name": "Zeros", "config": {}}, "name": "batch_normalization_6", "beta_regularizer": null, "moving_variance_initializer": {"class_name": "Ones", "config": {}}, "center": true, "trainable": true, "beta_constraint": null}, "name": "batch_normalization_6", "inbound_nodes": [[["conv2d_6", 0, 0, {}]]]}, {"class_name": "BatchNormalization", "config": {"gamma_constraint": null, "moving_mean_initializer": {"class_name": "Zeros", "config": {}}, "axis": 3, "gamma_initializer": {"class_name": "Ones", "config": {}}, "gamma_regularizer": null, "momentum": 0.99, "epsilon": 0.001, "scale": false, "beta_initializer": {"class_name": "Zeros", "config": {}}, "name": "batch_normalization_8", "beta_regularizer": null, "moving_variance_initializer": {"class_name": "Ones", "config": {}}, "center": true, "trainable": true, "beta_constraint": null}, "name": "batch_normalization_8", "inbound_nodes": [[["conv2d_8", 0, 0, {}]]]}, {"class_name": "BatchNormalization", "config": {"gamma_constraint": null, "moving_mean_initializer": {"class_name": "Zeros", "config": {}}, "axis": 3, "gamma_initializer": {"class_name": "Ones", "config": {}}, "gamma_regularizer": null, "momentum": 0.99, "epsilon": 0.001, "scale": false, "beta_initializer": {"class_name": "Zeros", "config": {}}, "name": "batch_normalization_11", "beta_regularizer": null, "moving_variance_initializer": {"class_name": "Ones", "config": {}}, "center": true, "trainable": true, "beta_constraint": null}, "name": "batch_normalization_11", "inbound_nodes": [[["conv2d_11", 0, 0, {}]]]}, {"class_name": "BatchNormalization", "config": {"gamma_constraint": null, "moving_mean_initializer": {"class_name": "Zeros", "config": {}}, "axis": 3, "gamma_initializer": {"class_name": "Ones", "config": {}}, "gamma_regularizer": null, "momentum": 0.99, "epsilon": 0.001, "scale": false, "beta_initializer": {"class_name": "Zeros", "config": {}}, "name": "batch_normalization_12", "beta_regularizer": null, "moving_variance_initializer": {"class_name": "Ones", "config": {}}, "center": true, "trainable": true, "beta_constraint": null}, "name": "batch_normalization_12", "inbound_nodes": [[["conv2d_12", 0, 0, {}]]]}, {"class_name": "Activation", "config": {"activation": "relu", "name": "activation_6", "trainable": true}, "name": "activation_6", "inbound_nodes": [[["batch_normalization_6", 0, 0, {}]]]}, {"class_name": "Activation", "config": {"activation": "relu", "name": "activation_8", "trainable": true}, "name": "activation_8", "inbound_nodes": [[["batch_normalization_8", 0, 0, {}]]]}, {"class_name": "Activation", "config": {"activation": "relu", "name": "activation_11", "trainable": true}, "name": "activation_11", "inbound_nodes": [[["batch_normalization_11", 0, 0, {}]]]}, {"class_name": "Activation", "config": {"activation": "relu", "name": "activation_12", "trainable": true}, "name": "activation_12", "inbound_nodes": [[["batch_normalization_12", 0, 0, {}]]]}, {"class_name": "Concatenate", "config": {"axis": 3, "name": "mixed0", "trainable": true}, "name": "mixed0", "inbound_nodes": [[["activation_6", 0, 0, {}], ["activation_8", 0, 0, {}], ["activation_11", 0, 0, {}], ["activation_12", 0, 0, {}]]]}, {"class_name": "Conv2D", "config": {"kernel_regularizer": null, "name": "conv2d_16", "padding": "same", "kernel_constraint": null, "strides": [1, 1], "kernel_initializer": {"class_name": "VarianceScaling", "config": {"scale": 1.0, "seed": null, "distribution": "uniform", "mode": "fan_avg"}}, "bias_initializer": {"class_name": "Zeros", "config": {}}, "bias_regularizer": null, "activation": "linear", "dilation_rate": [1, 1], "use_bias": false, "data_format": "channels_last", "activity_regularizer": null, "kernel_size": [1, 1], "trainable": true, "bias_constraint": null, "filters": 64}, "name": "conv2d_16", "inbound_nodes": [[["mixed0", 0, 0, {}]]]}, {"class_name": "BatchNormalization", "config": {"gamma_constraint": null, "moving_mean_initializer": {"class_name": "Zeros", "config": {}}, "axis": 3, "gamma_initializer": {"class_name": "Ones", "config": {}}, "gamma_regularizer": null, "momentum": 0.99, "epsilon": 0.001, "scale": false, "beta_initializer": {"class_name": "Zeros", "config": {}}, "name": "batch_normalization_16", "beta_regularizer": null, "moving_variance_initializer": {"class_name": "Ones", "config": {}}, "center": true, "trainable": true, "beta_constraint": null}, "name": "batch_normalization_16", "inbound_nodes": [[["conv2d_16", 0, 0, {}]]]}, {"class_name": "Activation", "config": {"activation": "relu", "name": "activation_16", "trainable": true}, "name": "activation_16", "inbound_nodes": [[["batch_normalization_16", 0, 0, {}]]]}, {"class_name": "Conv2D", "config": {"kernel_regularizer": null, "name": "conv2d_14", "padding": "same", "kernel_constraint": null, "strides": [1, 1], "kernel_initializer": {"class_name": "VarianceScaling", "config": {"scale": 1.0, "seed": null, "distribution": "uniform", "mode": "fan_avg"}}, "bias_initializer": {"class_name": "Zeros", "config": {}}, "bias_regularizer": null, "activation": "linear", "dilation_rate": [1, 1], "use_bias": false, "data_format": "channels_last", "activity_regularizer": null, "kernel_size": [1, 1], "trainable": true, "bias_constraint": null, "filters": 48}, "name": "conv2d_14", "inbound_nodes": [[["mixed0", 0, 0, {}]]]}, {"class_name": "Conv2D", "config": {"kernel_regularizer": null, "name": "conv2d_17", "padding": "same", "kernel_constraint": null, "strides": [1, 1], "kernel_initializer": {"class_name": "VarianceScaling", "config": {"scale": 1.0, "seed": null, "distribution": "uniform", "mode": "fan_avg"}}, "bias_initializer": {"class_name": "Zeros", "config": {}}, "bias_regularizer": null, "activation": "linear", "dilation_rate": [1, 1], "use_bias": false, "data_format": "channels_last", "activity_regularizer": null, "kernel_size": [3, 3], "trainable": true, "bias_constraint": null, "filters": 96}, "name": "conv2d_17", "inbound_nodes": [[["activation_16", 0, 0, {}]]]}, {"class_name": "BatchNormalization", "config": {"gamma_constraint": null, "moving_mean_initializer": {"class_name": "Zeros", "config": {}}, "axis": 3, "gamma_initializer": {"class_name": "Ones", "config": {}}, "gamma_regularizer": null, "momentum": 0.99, "epsilon": 0.001, "scale": false, "beta_initializer": {"class_name": "Zeros", "config": {}}, "name": "batch_normalization_14", "beta_regularizer": null, "moving_variance_initializer": {"class_name": "Ones", "config": {}}, "center": true, "trainable": true, "beta_constraint": null}, "name": "batch_normalization_14", "inbound_nodes": [[["conv2d_14", 0, 0, {}]]]}, {"class_name": "BatchNormalization", "config": {"gamma_constraint": null, "moving_mean_initializer": {"class_name": "Zeros", "config": {}}, "axis": 3, "gamma_initializer": {"class_name": "Ones", "config": {}}, "gamma_regularizer": null, "momentum": 0.99, "epsilon": 0.001, "scale": false, "beta_initializer": {"class_name": "Zeros", "config": {}}, "name": "batch_normalization_17", "beta_regularizer": null, "moving_variance_initializer": {"class_name": "Ones", "config": {}}, "center": true, "trainable": true, "beta_constraint": null}, "name": "batch_normalization_17", "inbound_nodes": [[["conv2d_17", 0, 0, {}]]]}, {"class_name": "Activation", "config": {"activation": "relu", "name": "activation_14", "trainable": true}, "name": "activation_14", "inbound_nodes": [[["batch_normalization_14", 0, 0, {}]]]}, {"class_name": "Activation", "config": {"activation": "relu", "name": "activation_17", "trainable": true}, "name": "activation_17", "inbound_nodes": [[["batch_normalization_17", 0, 0, {}]]]}, {"class_name": "AveragePooling2D", "config": {"name": "average_pooling2d_2", "strides": [1, 1], "data_format": "channels_last", "pool_size": [3, 3], "padding": "same", "trainable": true}, "name": "average_pooling2d_2", "inbound_nodes": [[["mixed0", 0, 0, {}]]]}, {"class_name": "Conv2D", "config": {"kernel_regularizer": null, "name": "conv2d_13", "padding": "same", "kernel_constraint": null, "strides": [1, 1], "kernel_initializer": {"class_name": "VarianceScaling", "config": {"scale": 1.0, "seed": null, "distribution": "uniform", "mode": "fan_avg"}}, "bias_initializer": {"class_name": "Zeros", "config": {}}, "bias_regularizer": null, "activation": "linear", "dilation_rate": [1, 1], "use_bias": false, "data_format": "channels_last", "activity_regularizer": null, "kernel_size": [1, 1], "trainable": true, "bias_constraint": null, "filters": 64}, "name": "conv2d_13", "inbound_nodes": [[["mixed0", 0, 0, {}]]]}, {"class_name": "Conv2D", "config": {"kernel_regularizer": null, "name": "conv2d_15", "padding": "same", "kernel_constraint": null, "strides": [1, 1], "kernel_initializer": {"class_name": "VarianceScaling", "config": {"scale": 1.0, "seed": null, "distribution": "uniform", "mode": "fan_avg"}}, "bias_initializer": {"class_name": "Zeros", "config": {}}, "bias_regularizer": null, "activation": "linear", "dilation_rate": [1, 1], "use_bias": false, "data_format": "channels_last", "activity_regularizer": null, "kernel_size": [5, 5], "trainable": true, "bias_constraint": null, "filters": 64}, "name": "conv2d_15", "inbound_nodes": [[["activation_14", 0, 0, {}]]]}, {"class_name": "Conv2D", "config": {"kernel_regularizer": null, "name": "conv2d_18", "padding": "same", "kernel_constraint": null, "strides": [1, 1], "kernel_initializer": {"class_name": "VarianceScaling", "config": {"scale": 1.0, "seed": null, "distribution": "uniform", "mode": "fan_avg"}}, "bias_initializer": {"class_name": "Zeros", "config": {}}, "bias_regularizer": null, "activation": "linear", "dilation_rate": [1, 1], "use_bias": false, "data_format": "channels_last", "activity_regularizer": null, "kernel_size": [3, 3], "trainable": true, "bias_constraint": null, "filters": 96}, "name": "conv2d_18", "inbound_nodes": [[["activation_17", 0, 0, {}]]]}, {"class_name": "Conv2D", "config": {"kernel_regularizer": null, "name": "conv2d_19", "padding": "same", "kernel_constraint": null, "strides": [1, 1], "kernel_initializer": {"class_name": "VarianceScaling", "config": {"scale": 1.0, "seed": null, "distribution": "uniform", "mode": "fan_avg"}}, "bias_initializer": {"class_name": "Zeros", "config": {}}, "bias_regularizer": null, "activation": "linear", "dilation_rate": [1, 1], "use_bias": false, "data_format": "channels_last", "activity_regularizer": null, "kernel_size": [1, 1], "trainable": true, "bias_constraint": null, "filters": 64}, "name": "conv2d_19", "inbound_nodes": [[["average_pooling2d_2", 0, 0, {}]]]}, {"class_name": "BatchNormalization", "config": {"gamma_constraint": null, "moving_mean_initializer": {"class_name": "Zeros", "config": {}}, "axis": 3, "gamma_initializer": {"class_name": "Ones", "config": {}}, "gamma_regularizer": null, "momentum": 0.99, "epsilon": 0.001, "scale": false, "beta_initializer": {"class_name": "Zeros", "config": {}}, "name": "batch_normalization_13", "beta_regularizer": null, "moving_variance_initializer": {"class_name": "Ones", "config": {}}, "center": true, "trainable": true, "beta_constraint": null}, "name": "batch_normalization_13", "inbound_nodes": [[["conv2d_13", 0, 0, {}]]]}, {"class_name": "BatchNormalization", "config": {"gamma_constraint": null, "moving_mean_initializer": {"class_name": "Zeros", "config": {}}, "axis": 3, "gamma_initializer": {"class_name": "Ones", "config": {}}, "gamma_regularizer": null, "momentum": 0.99, "epsilon": 0.001, "scale": false, "beta_initializer": {"class_name": "Zeros", "config": {}}, "name": "batch_normalization_15", "beta_regularizer": null, "moving_variance_initializer": {"class_name": "Ones", "config": {}}, "center": true, "trainable": true, "beta_constraint": null}, "name": "batch_normalization_15", "inbound_nodes": [[["conv2d_15", 0, 0, {}]]]}, {"class_name": "BatchNormalization", "config": {"gamma_constraint": null, "moving_mean_initializer": {"class_name": "Zeros", "config": {}}, "axis": 3, "gamma_initializer": {"class_name": "Ones", "config": {}}, "gamma_regularizer": null, "momentum": 0.99, "epsilon": 0.001, "scale": false, "beta_initializer": {"class_name": "Zeros", "config": {}}, "name": "batch_normalization_18", "beta_regularizer": null, "moving_variance_initializer": {"class_name": "Ones", "config": {}}, "center": true, "trainable": true, "beta_constraint": null}, "name": "batch_normalization_18", "inbound_nodes": [[["conv2d_18", 0, 0, {}]]]}, {"class_name": "BatchNormalization", "config": {"gamma_constraint": null, "moving_mean_initializer": {"class_name": "Zeros", "config": {}}, "axis": 3, "gamma_initializer": {"class_name": "Ones", "config": {}}, "gamma_regularizer": null, "momentum": 0.99, "epsilon": 0.001, "scale": false, "beta_initializer": {"class_name": "Zeros", "config": {}}, "name": "batch_normalization_19", "beta_regularizer": null, "moving_variance_initializer": {"class_name": "Ones", "config": {}}, "center": true, "trainable": true, "beta_constraint": null}, "name": "batch_normalization_19", "inbound_nodes": [[["conv2d_19", 0, 0, {}]]]}, {"class_name": "Activation", "config": {"activation": "relu", "name": "activation_13", "trainable": true}, "name": "activation_13", "inbound_nodes": [[["batch_normalization_13", 0, 0, {}]]]}, {"class_name": "Activation", "config": {"activation": "relu", "name": "activation_15", "trainable": true}, "name": "activation_15", "inbound_nodes": [[["batch_normalization_15", 0, 0, {}]]]}, {"class_name": "Activation", "config": {"activation": "relu", "name": "activation_18", "trainable": true}, "name": "activation_18", "inbound_nodes": [[["batch_normalization_18", 0, 0, {}]]]}, {"class_name": "Activation", "config": {"activation": "relu", "name": "activation_19", "trainable": true}, "name": "activation_19", "inbound_nodes": [[["batch_normalization_19", 0, 0, {}]]]}, {"class_name": "Concatenate", "config": {"axis": 3, "name": "mixed1", "trainable": true}, "name": "mixed1", "inbound_nodes": [[["activation_13", 0, 0, {}], ["activation_15", 0, 0, {}], ["activation_18", 0, 0, {}], ["activation_19", 0, 0, {}]]]}, {"class_name": "Conv2D", "config": {"kernel_regularizer": null, "name": "conv2d_23", "padding": "same", "kernel_constraint": null, "strides": [1, 1], "kernel_initializer": {"class_name": "VarianceScaling", "config": {"scale": 1.0, "seed": null, "distribution": "uniform", "mode": "fan_avg"}}, "bias_initializer": {"class_name": "Zeros", "config": {}}, "bias_regularizer": null, "activation": "linear", "dilation_rate": [1, 1], "use_bias": false, "data_format": "channels_last", "activity_regularizer": null, "kernel_size": [1, 1], "trainable": true, "bias_constraint": null, "filters": 64}, "name": "conv2d_23", "inbound_nodes": [[["mixed1", 0, 0, {}]]]}, {"class_name": "BatchNormalization", "config": {"gamma_constraint": null, "moving_mean_initializer": {"class_name": "Zeros", "config": {}}, "axis": 3, "gamma_initializer": {"class_name": "Ones", "config": {}}, "gamma_regularizer": null, "momentum": 0.99, "epsilon": 0.001, "scale": false, "beta_initializer": {"class_name": "Zeros", "config": {}}, "name": "batch_normalization_23", "beta_regularizer": null, "moving_variance_initializer": {"class_name": "Ones", "config": {}}, "center": true, "trainable": true, "beta_constraint": null}, "name": "batch_normalization_23", "inbound_nodes": [[["conv2d_23", 0, 0, {}]]]}, {"class_name": "Activation", "config": {"activation": "relu", "name": "activation_23", "trainable": true}, "name": "activation_23", "inbound_nodes": [[["batch_normalization_23", 0, 0, {}]]]}, {"class_name": "Conv2D", "config": {"kernel_regularizer": null, "name": "conv2d_21", "padding": "same", "kernel_constraint": null, "strides": [1, 1], "kernel_initializer": {"class_name": "VarianceScaling", "config": {"scale": 1.0, "seed": null, "distribution": "uniform", "mode": "fan_avg"}}, "bias_initializer": {"class_name": "Zeros", "config": {}}, "bias_regularizer": null, "activation": "linear", "dilation_rate": [1, 1], "use_bias": false, "data_format": "channels_last", "activity_regularizer": null, "kernel_size": [1, 1], "trainable": true, "bias_constraint": null, "filters": 48}, "name": "conv2d_21", "inbound_nodes": [[["mixed1", 0, 0, {}]]]}, {"class_name": "Conv2D", "config": {"kernel_regularizer": null, "name": "conv2d_24", "padding": "same", "kernel_constraint": null, "strides": [1, 1], "kernel_initializer": {"class_name": "VarianceScaling", "config": {"scale": 1.0, "seed": null, "distribution": "uniform", "mode": "fan_avg"}}, "bias_initializer": {"class_name": "Zeros", "config": {}}, "bias_regularizer": null, "activation": "linear", "dilation_rate": [1, 1], "use_bias": false, "data_format": "channels_last", "activity_regularizer": null, "kernel_size": [3, 3], "trainable": true, "bias_constraint": null, "filters": 96}, "name": "conv2d_24", "inbound_nodes": [[["activation_23", 0, 0, {}]]]}, {"class_name": "BatchNormalization", "config": {"gamma_constraint": null, "moving_mean_initializer": {"class_name": "Zeros", "config": {}}, "axis": 3, "gamma_initializer": {"class_name": "Ones", "config": {}}, "gamma_regularizer": null, "momentum": 0.99, "epsilon": 0.001, "scale": false, "beta_initializer": {"class_name": "Zeros", "config": {}}, "name": "batch_normalization_21", "beta_regularizer": null, "moving_variance_initializer": {"class_name": "Ones", "config": {}}, "center": true, "trainable": true, "beta_constraint": null}, "name": "batch_normalization_21", "inbound_nodes": [[["conv2d_21", 0, 0, {}]]]}, {"class_name": "BatchNormalization", "config": {"gamma_constraint": null, "moving_mean_initializer": {"class_name": "Zeros", "config": {}}, "axis": 3, "gamma_initializer": {"class_name": "Ones", "config": {}}, "gamma_regularizer": null, "momentum": 0.99, "epsilon": 0.001, "scale": false, "beta_initializer": {"class_name": "Zeros", "config": {}}, "name": "batch_normalization_24", "beta_regularizer": null, "moving_variance_initializer": {"class_name": "Ones", "config": {}}, "center": true, "trainable": true, "beta_constraint": null}, "name": "batch_normalization_24", "inbound_nodes": [[["conv2d_24", 0, 0, {}]]]}, {"class_name": "Activation", "config": {"activation": "relu", "name": "activation_21", "trainable": true}, "name": "activation_21", "inbound_nodes": [[["batch_normalization_21", 0, 0, {}]]]}, {"class_name": "Activation", "config": {"activation": "relu", "name": "activation_24", "trainable": true}, "name": "activation_24", "inbound_nodes": [[["batch_normalization_24", 0, 0, {}]]]}, {"class_name": "AveragePooling2D", "config": {"name": "average_pooling2d_3", "strides": [1, 1], "data_format": "channels_last", "pool_size": [3, 3], "padding": "same", "trainable": true}, "name": "average_pooling2d_3", "inbound_nodes": [[["mixed1", 0, 0, {}]]]}, {"class_name": "Conv2D", "config": {"kernel_regularizer": null, "name": "conv2d_20", "padding": "same", "kernel_constraint": null, "strides": [1, 1], "kernel_initializer": {"class_name": "VarianceScaling", "config": {"scale": 1.0, "seed": null, "distribution": "uniform", "mode": "fan_avg"}}, "bias_initializer": {"class_name": "Zeros", "config": {}}, "bias_regularizer": null, "activation": "linear", "dilation_rate": [1, 1], "use_bias": false, "data_format": "channels_last", "activity_regularizer": null, "kernel_size": [1, 1], "trainable": true, "bias_constraint": null, "filters": 64}, "name": "conv2d_20", "inbound_nodes": [[["mixed1", 0, 0, {}]]]}, {"class_name": "Conv2D", "config": {"kernel_regularizer": null, "name": "conv2d_22", "padding": "same", "kernel_constraint": null, "strides": [1, 1], "kernel_initializer": {"class_name": "VarianceScaling", "config": {"scale": 1.0, "seed": null, "distribution": "uniform", "mode": "fan_avg"}}, "bias_initializer": {"class_name": "Zeros", "config": {}}, "bias_regularizer": null, "activation": "linear", "dilation_rate": [1, 1], "use_bias": false, "data_format": "channels_last", "activity_regularizer": null, "kernel_size": [5, 5], "trainable": true, "bias_constraint": null, "filters": 64}, "name": "conv2d_22", "inbound_nodes": [[["activation_21", 0, 0, {}]]]}, {"class_name": "Conv2D", "config": {"kernel_regularizer": null, "name": "conv2d_25", "padding": "same", "kernel_constraint": null, "strides": [1, 1], "kernel_initializer": {"class_name": "VarianceScaling", "config": {"scale": 1.0, "seed": null, "distribution": "uniform", "mode": "fan_avg"}}, "bias_initializer": {"class_name": "Zeros", "config": {}}, "bias_regularizer": null, "activation": "linear", "dilation_rate": [1, 1], "use_bias": false, "data_format": "channels_last", "activity_regularizer": null, "kernel_size": [3, 3], "trainable": true, "bias_constraint": null, "filters": 96}, "name": "conv2d_25", "inbound_nodes": [[["activation_24", 0, 0, {}]]]}, {"class_name": "Conv2D", "config": {"kernel_regularizer": null, "name": "conv2d_26", "padding": "same", "kernel_constraint": null, "strides": [1, 1], "kernel_initializer": {"class_name": "VarianceScaling", "config": {"scale": 1.0, "seed": null, "distribution": "uniform", "mode": "fan_avg"}}, "bias_initializer": {"class_name": "Zeros", "config": {}}, "bias_regularizer": null, "activation": "linear", "dilation_rate": [1, 1], "use_bias": false, "data_format": "channels_last", "activity_regularizer": null, "kernel_size": [1, 1], "trainable": true, "bias_constraint": null, "filters": 64}, "name": "conv2d_26", "inbound_nodes": [[["average_pooling2d_3", 0, 0, {}]]]}, {"class_name": "BatchNormalization", "config": {"gamma_constraint": null, "moving_mean_initializer": {"class_name": "Zeros", "config": {}}, "axis": 3, "gamma_initializer": {"class_name": "Ones", "config": {}}, "gamma_regularizer": null, "momentum": 0.99, "epsilon": 0.001, "scale": false, "beta_initializer": {"class_name": "Zeros", "config": {}}, "name": "batch_normalization_20", "beta_regularizer": null, "moving_variance_initializer": {"class_name": "Ones", "config": {}}, "center": true, "trainable": true, "beta_constraint": null}, "name": "batch_normalization_20", "inbound_nodes": [[["conv2d_20", 0, 0, {}]]]}, {"class_name": "BatchNormalization", "config": {"gamma_constraint": null, "moving_mean_initializer": {"class_name": "Zeros", "config": {}}, "axis": 3, "gamma_initializer": {"class_name": "Ones", "config": {}}, "gamma_regularizer": null, "momentum": 0.99, "epsilon": 0.001, "scale": false, "beta_initializer": {"class_name": "Zeros", "config": {}}, "name": "batch_normalization_22", "beta_regularizer": null, "moving_variance_initializer": {"class_name": "Ones", "config": {}}, "center": true, "trainable": true, "beta_constraint": null}, "name": "batch_normalization_22", "inbound_nodes": [[["conv2d_22", 0, 0, {}]]]}, {"class_name": "BatchNormalization", "config": {"gamma_constraint": null, "moving_mean_initializer": {"class_name": "Zeros", "config": {}}, "axis": 3, "gamma_initializer": {"class_name": "Ones", "config": {}}, "gamma_regularizer": null, "momentum": 0.99, "epsilon": 0.001, "scale": false, "beta_initializer": {"class_name": "Zeros", "config": {}}, "name": "batch_normalization_25", "beta_regularizer": null, "moving_variance_initializer": {"class_name": "Ones", "config": {}}, "center": true, "trainable": true, "beta_constraint": null}, "name": "batch_normalization_25", "inbound_nodes": [[["conv2d_25", 0, 0, {}]]]}, {"class_name": "BatchNormalization", "config": {"gamma_constraint": null, "moving_mean_initializer": {"class_name": "Zeros", "config": {}}, "axis": 3, "gamma_initializer": {"class_name": "Ones", "config": {}}, "gamma_regularizer": null, "momentum": 0.99, "epsilon": 0.001, "scale": false, "beta_initializer": {"class_name": "Zeros", "config": {}}, "name": "batch_normalization_26", "beta_regularizer": null, "moving_variance_initializer": {"class_name": "Ones", "config": {}}, "center": true, "trainable": true, "beta_constraint": null}, "name": "batch_normalization_26", "inbound_nodes": [[["conv2d_26", 0, 0, {}]]]}, {"class_name": "Activation", "config": {"activation": "relu", "name": "activation_20", "trainable": true}, "name": "activation_20", "inbound_nodes": [[["batch_normalization_20", 0, 0, {}]]]}, {"class_name": "Activation", "config": {"activation": "relu", "name": "activation_22", "trainable": true}, "name": "activation_22", "inbound_nodes": [[["batch_normalization_22", 0, 0, {}]]]}, {"class_name": "Activation", "config": {"activation": "relu", "name": "activation_25", "trainable": true}, "name": "activation_25", "inbound_nodes": [[["batch_normalization_25", 0, 0, {}]]]}, {"class_name": "Activation", "config": {"activation": "relu", "name": "activation_26", "trainable": true}, "name": "activation_26", "inbound_nodes": [[["batch_normalization_26", 0, 0, {}]]]}, {"class_name": "Concatenate", "config": {"axis": 3, "name": "mixed2", "trainable": true}, "name": "mixed2", "inbound_nodes": [[["activation_20", 0, 0, {}], ["activation_22", 0, 0, {}], ["activation_25", 0, 0, {}], ["activation_26", 0, 0, {}]]]}, {"class_name": "Conv2D", "config": {"kernel_regularizer": null, "name": "conv2d_28", "padding": "same", "kernel_constraint": null, "strides": [1, 1], "kernel_initializer": {"class_name": "VarianceScaling", "config": {"scale": 1.0, "seed": null, "distribution": "uniform", "mode": "fan_avg"}}, "bias_initializer": {"class_name": "Zeros", "config": {}}, "bias_regularizer": null, "activation": "linear", "dilation_rate": [1, 1], "use_bias": false, "data_format": "channels_last", "activity_regularizer": null, "kernel_size": [1, 1], "trainable": true, "bias_constraint": null, "filters": 64}, "name": "conv2d_28", "inbound_nodes": [[["mixed2", 0, 0, {}]]]}, {"class_name": "BatchNormalization", "config": {"gamma_constraint": null, "moving_mean_initializer": {"class_name": "Zeros", "config": {}}, "axis": 3, "gamma_initializer": {"class_name": "Ones", "config": {}}, "gamma_regularizer": null, "momentum": 0.99, "epsilon": 0.001, "scale": false, "beta_initializer": {"class_name": "Zeros", "config": {}}, "name": "batch_normalization_28", "beta_regularizer": null, "moving_variance_initializer": {"class_name": "Ones", "config": {}}, "center": true, "trainable": true, "beta_constraint": null}, "name": "batch_normalization_28", "inbound_nodes": [[["conv2d_28", 0, 0, {}]]]}, {"class_name": "Activation", "config": {"activation": "relu", "name": "activation_28", "trainable": true}, "name": "activation_28", "inbound_nodes": [[["batch_normalization_28", 0, 0, {}]]]}, {"class_name": "Conv2D", "config": {"kernel_regularizer": null, "name": "conv2d_29", "padding": "same", "kernel_constraint": null, "strides": [1, 1], "kernel_initializer": {"class_name": "VarianceScaling", "config": {"scale": 1.0, "seed": null, "distribution": "uniform", "mode": "fan_avg"}}, "bias_initializer": {"class_name": "Zeros", "config": {}}, "bias_regularizer": null, "activation": "linear", "dilation_rate": [1, 1], "use_bias": false, "data_format": "channels_last", "activity_regularizer": null, "kernel_size": [3, 3], "trainable": true, "bias_constraint": null, "filters": 96}, "name": "conv2d_29", "inbound_nodes": [[["activation_28", 0, 0, {}]]]}, {"class_name": "BatchNormalization", "config": {"gamma_constraint": null, "moving_mean_initializer": {"class_name": "Zeros", "config": {}}, "axis": 3, "gamma_initializer": {"class_name": "Ones", "config": {}}, "gamma_regularizer": null, "momentum": 0.99, "epsilon": 0.001, "scale": false, "beta_initializer": {"class_name": "Zeros", "config": {}}, "name": "batch_normalization_29", "beta_regularizer": null, "moving_variance_initializer": {"class_name": "Ones", "config": {}}, "center": true, "trainable": true, "beta_constraint": null}, "name": "batch_normalization_29", "inbound_nodes": [[["conv2d_29", 0, 0, {}]]]}, {"class_name": "Activation", "config": {"activation": "relu", "name": "activation_29", "trainable": true}, "name": "activation_29", "inbound_nodes": [[["batch_normalization_29", 0, 0, {}]]]}, {"class_name": "Conv2D", "config": {"kernel_regularizer": null, "name": "conv2d_27", "padding": "valid", "kernel_constraint": null, "strides": [2, 2], "kernel_initializer": {"class_name": "VarianceScaling", "config": {"scale": 1.0, "seed": null, "distribution": "uniform", "mode": "fan_avg"}}, "bias_initializer": {"class_name": "Zeros", "config": {}}, "bias_regularizer": null, "activation": "linear", "dilation_rate": [1, 1], "use_bias": false, "data_format": "channels_last", "activity_regularizer": null, "kernel_size": [3, 3], "trainable": true, "bias_constraint": null, "filters": 384}, "name": "conv2d_27", "inbound_nodes": [[["mixed2", 0, 0, {}]]]}, {"class_name": "Conv2D", "config": {"kernel_regularizer": null, "name": "conv2d_30", "padding": "valid", "kernel_constraint": null, "strides": [2, 2], "kernel_initializer": {"class_name": "VarianceScaling", "config": {"scale": 1.0, "seed": null, "distribution": "uniform", "mode": "fan_avg"}}, "bias_initializer": {"class_name": "Zeros", "config": {}}, "bias_regularizer": null, "activation": "linear", "dilation_rate": [1, 1], "use_bias": false, "data_format": "channels_last", "activity_regularizer": null, "kernel_size": [3, 3], "trainable": true, "bias_constraint": null, "filters": 96}, "name": "conv2d_30", "inbound_nodes": [[["activation_29", 0, 0, {}]]]}, {"class_name": "BatchNormalization", "config": {"gamma_constraint": null, "moving_mean_initializer": {"class_name": "Zeros", "config": {}}, "axis": 3, "gamma_initializer": {"class_name": "Ones", "config": {}}, "gamma_regularizer": null, "momentum": 0.99, "epsilon": 0.001, "scale": false, "beta_initializer": {"class_name": "Zeros", "config": {}}, "name": "batch_normalization_27", "beta_regularizer": null, "moving_variance_initializer": {"class_name": "Ones", "config": {}}, "center": true, "trainable": true, "beta_constraint": null}, "name": "batch_normalization_27", "inbound_nodes": [[["conv2d_27", 0, 0, {}]]]}, {"class_name": "BatchNormalization", "config": {"gamma_constraint": null, "moving_mean_initializer": {"class_name": "Zeros", "config": {}}, "axis": 3, "gamma_initializer": {"class_name": "Ones", "config": {}}, "gamma_regularizer": null, "momentum": 0.99, "epsilon": 0.001, "scale": false, "beta_initializer": {"class_name": "Zeros", "config": {}}, "name": "batch_normalization_30", "beta_regularizer": null, "moving_variance_initializer": {"class_name": "Ones", "config": {}}, "center": true, "trainable": true, "beta_constraint": null}, "name": "batch_normalization_30", "inbound_nodes": [[["conv2d_30", 0, 0, {}]]]}, {"class_name": "Activation", "config": {"activation": "relu", "name": "activation_27", "trainable": true}, "name": "activation_27", "inbound_nodes": [[["batch_normalization_27", 0, 0, {}]]]}, {"class_name": "Activation", "config": {"activation": "relu", "name": "activation_30", "trainable": true}, "name": "activation_30", "inbound_nodes": [[["batch_normalization_30", 0, 0, {}]]]}, {"class_name": "MaxPooling2D", "config": {"name": "max_pooling2d_3", "strides": [2, 2], "data_format": "channels_last", "pool_size": [3, 3], "padding": "valid", "trainable": true}, "name": "max_pooling2d_3", "inbound_nodes": [[["mixed2", 0, 0, {}]]]}, {"class_name": "Concatenate", "config": {"axis": 3, "name": "mixed3", "trainable": true}, "name": "mixed3", "inbound_nodes": [[["activation_27", 0, 0, {}], ["activation_30", 0, 0, {}], ["max_pooling2d_3", 0, 0, {}]]]}, {"class_name": "Conv2D", "config": {"kernel_regularizer": null, "name": "conv2d_35", "padding": "same", "kernel_constraint": null, "strides": [1, 1], "kernel_initializer": {"class_name": "VarianceScaling", "config": {"scale": 1.0, "seed": null, "distribution": "uniform", "mode": "fan_avg"}}, "bias_initializer": {"class_name": "Zeros", "config": {}}, "bias_regularizer": null, "activation": "linear", "dilation_rate": [1, 1], "use_bias": false, "data_format": "channels_last", "activity_regularizer": null, "kernel_size": [1, 1], "trainable": true, "bias_constraint": null, "filters": 128}, "name": "conv2d_35", "inbound_nodes": [[["mixed3", 0, 0, {}]]]}, {"class_name": "BatchNormalization", "config": {"gamma_constraint": null, "moving_mean_initializer": {"class_name": "Zeros", "config": {}}, "axis": 3, "gamma_initializer": {"class_name": "Ones", "config": {}}, "gamma_regularizer": null, "momentum": 0.99, "epsilon": 0.001, "scale": false, "beta_initializer": {"class_name": "Zeros", "config": {}}, "name": "batch_normalization_35", "beta_regularizer": null, "moving_variance_initializer": {"class_name": "Ones", "config": {}}, "center": true, "trainable": true, "beta_constraint": null}, "name": "batch_normalization_35", "inbound_nodes": [[["conv2d_35", 0, 0, {}]]]}, {"class_name": "Activation", "config": {"activation": "relu", "name": "activation_35", "trainable": true}, "name": "activation_35", "inbound_nodes": [[["batch_normalization_35", 0, 0, {}]]]}, {"class_name": "Conv2D", "config": {"kernel_regularizer": null, "name": "conv2d_36", "padding": "same", "kernel_constraint": null, "strides": [1, 1], "kernel_initializer": {"class_name": "VarianceScaling", "config": {"scale": 1.0, "seed": null, "distribution": "uniform", "mode": "fan_avg"}}, "bias_initializer": {"class_name": "Zeros", "config": {}}, "bias_regularizer": null, "activation": "linear", "dilation_rate": [1, 1], "use_bias": false, "data_format": "channels_last", "activity_regularizer": null, "kernel_size": [7, 1], "trainable": true, "bias_constraint": null, "filters": 128}, "name": "conv2d_36", "inbound_nodes": [[["activation_35", 0, 0, {}]]]}, {"class_name": "BatchNormalization", "config": {"gamma_constraint": null, "moving_mean_initializer": {"class_name": "Zeros", "config": {}}, "axis": 3, "gamma_initializer": {"class_name": "Ones", "config": {}}, "gamma_regularizer": null, "momentum": 0.99, "epsilon": 0.001, "scale": false, "beta_initializer": {"class_name": "Zeros", "config": {}}, "name": "batch_normalization_36", "beta_regularizer": null, "moving_variance_initializer": {"class_name": "Ones", "config": {}}, "center": true, "trainable": true, "beta_constraint": null}, "name": "batch_normalization_36", "inbound_nodes": [[["conv2d_36", 0, 0, {}]]]}, {"class_name": "Activation", "config": {"activation": "relu", "name": "activation_36", "trainable": true}, "name": "activation_36", "inbound_nodes": [[["batch_normalization_36", 0, 0, {}]]]}, {"class_name": "Conv2D", "config": {"kernel_regularizer": null, "name": "conv2d_32", "padding": "same", "kernel_constraint": null, "strides": [1, 1], "kernel_initializer": {"class_name": "VarianceScaling", "config": {"scale": 1.0, "seed": null, "distribution": "uniform", "mode": "fan_avg"}}, "bias_initializer": {"class_name": "Zeros", "config": {}}, "bias_regularizer": null, "activation": "linear", "dilation_rate": [1, 1], "use_bias": false, "data_format": "channels_last", "activity_regularizer": null, "kernel_size": [1, 1], "trainable": true, "bias_constraint": null, "filters": 128}, "name": "conv2d_32", "inbound_nodes": [[["mixed3", 0, 0, {}]]]}, {"class_name": "Conv2D", "config": {"kernel_regularizer": null, "name": "conv2d_37", "padding": "same", "kernel_constraint": null, "strides": [1, 1], "kernel_initializer": {"class_name": "VarianceScaling", "config": {"scale": 1.0, "seed": null, "distribution": "uniform", "mode": "fan_avg"}}, "bias_initializer": {"class_name": "Zeros", "config": {}}, "bias_regularizer": null, "activation": "linear", "dilation_rate": [1, 1], "use_bias": false, "data_format": "channels_last", "activity_regularizer": null, "kernel_size": [1, 7], "trainable": true, "bias_constraint": null, "filters": 128}, "name": "conv2d_37", "inbound_nodes": [[["activation_36", 0, 0, {}]]]}, {"class_name": "BatchNormalization", "config": {"gamma_constraint": null, "moving_mean_initializer": {"class_name": "Zeros", "config": {}}, "axis": 3, "gamma_initializer": {"class_name": "Ones", "config": {}}, "gamma_regularizer": null, "momentum": 0.99, "epsilon": 0.001, "scale": false, "beta_initializer": {"class_name": "Zeros", "config": {}}, "name": "batch_normalization_32", "beta_regularizer": null, "moving_variance_initializer": {"class_name": "Ones", "config": {}}, "center": true, "trainable": true, "beta_constraint": null}, "name": "batch_normalization_32", "inbound_nodes": [[["conv2d_32", 0, 0, {}]]]}, {"class_name": "BatchNormalization", "config": {"gamma_constraint": null, "moving_mean_initializer": {"class_name": "Zeros", "config": {}}, "axis": 3, "gamma_initializer": {"class_name": "Ones", "config": {}}, "gamma_regularizer": null, "momentum": 0.99, "epsilon": 0.001, "scale": false, "beta_initializer": {"class_name": "Zeros", "config": {}}, "name": "batch_normalization_37", "beta_regularizer": null, "moving_variance_initializer": {"class_name": "Ones", "config": {}}, "center": true, "trainable": true, "beta_constraint": null}, "name": "batch_normalization_37", "inbound_nodes": [[["conv2d_37", 0, 0, {}]]]}, {"class_name": "Activation", "config": {"activation": "relu", "name": "activation_32", "trainable": true}, "name": "activation_32", "inbound_nodes": [[["batch_normalization_32", 0, 0, {}]]]}, {"class_name": "Activation", "config": {"activation": "relu", "name": "activation_37", "trainable": true}, "name": "activation_37", "inbound_nodes": [[["batch_normalization_37", 0, 0, {}]]]}, {"class_name": "Conv2D", "config": {"kernel_regularizer": null, "name": "conv2d_33", "padding": "same", "kernel_constraint": null, "strides": [1, 1], "kernel_initializer": {"class_name": "VarianceScaling", "config": {"scale": 1.0, "seed": null, "distribution": "uniform", "mode": "fan_avg"}}, "bias_initializer": {"class_name": "Zeros", "config": {}}, "bias_regularizer": null, "activation": "linear", "dilation_rate": [1, 1], "use_bias": false, "data_format": "channels_last", "activity_regularizer": null, "kernel_size": [1, 7], "trainable": true, "bias_constraint": null, "filters": 128}, "name": "conv2d_33", "inbound_nodes": [[["activation_32", 0, 0, {}]]]}, {"class_name": "Conv2D", "config": {"kernel_regularizer": null, "name": "conv2d_38", "padding": "same", "kernel_constraint": null, "strides": [1, 1], "kernel_initializer": {"class_name": "VarianceScaling", "config": {"scale": 1.0, "seed": null, "distribution": "uniform", "mode": "fan_avg"}}, "bias_initializer": {"class_name": "Zeros", "config": {}}, "bias_regularizer": null, "activation": "linear", "dilation_rate": [1, 1], "use_bias": false, "data_format": "channels_last", "activity_regularizer": null, "kernel_size": [7, 1], "trainable": true, "bias_constraint": null, "filters": 128}, "name": "conv2d_38", "inbound_nodes": [[["activation_37", 0, 0, {}]]]}, {"class_name": "BatchNormalization", "config": {"gamma_constraint": null, "moving_mean_initializer": {"class_name": "Zeros", "config": {}}, "axis": 3, "gamma_initializer": {"class_name": "Ones", "config": {}}, "gamma_regularizer": null, "momentum": 0.99, "epsilon": 0.001, "scale": false, "beta_initializer": {"class_name": "Zeros", "config": {}}, "name": "batch_normalization_33", "beta_regularizer": null, "moving_variance_initializer": {"class_name": "Ones", "config": {}}, "center": true, "trainable": true, "beta_constraint": null}, "name": "batch_normalization_33", "inbound_nodes": [[["conv2d_33", 0, 0, {}]]]}, {"class_name": "BatchNormalization", "config": {"gamma_constraint": null, "moving_mean_initializer": {"class_name": "Zeros", "config": {}}, "axis": 3, "gamma_initializer": {"class_name": "Ones", "config": {}}, "gamma_regularizer": null, "momentum": 0.99, "epsilon": 0.001, "scale": false, "beta_initializer": {"class_name": "Zeros", "config": {}}, "name": "batch_normalization_38", "beta_regularizer": null, "moving_variance_initializer": {"class_name": "Ones", "config": {}}, "center": true, "trainable": true, "beta_constraint": null}, "name": "batch_normalization_38", "inbound_nodes": [[["conv2d_38", 0, 0, {}]]]}, {"class_name": "Activation", "config": {"activation": "relu", "name": "activation_33", "trainable": true}, "name": "activation_33", "inbound_nodes": [[["batch_normalization_33", 0, 0, {}]]]}, {"class_name": "Activation", "config": {"activation": "relu", "name": "activation_38", "trainable": true}, "name": "activation_38", "inbound_nodes": [[["batch_normalization_38", 0, 0, {}]]]}, {"class_name": "AveragePooling2D", "config": {"name": "average_pooling2d_4", "strides": [1, 1], "data_format": "channels_last", "pool_size": [3, 3], "padding": "same", "trainable": true}, "name": "average_pooling2d_4", "inbound_nodes": [[["mixed3", 0, 0, {}]]]}, {"class_name": "Conv2D", "config": {"kernel_regularizer": null, "name": "conv2d_31", "padding": "same", "kernel_constraint": null, "strides": [1, 1], "kernel_initializer": {"class_name": "VarianceScaling", "config": {"scale": 1.0, "seed": null, "distribution": "uniform", "mode": "fan_avg"}}, "bias_initializer": {"class_name": "Zeros", "config": {}}, "bias_regularizer": null, "activation": "linear", "dilation_rate": [1, 1], "use_bias": false, "data_format": "channels_last", "activity_regularizer": null, "kernel_size": [1, 1], "trainable": true, "bias_constraint": null, "filters": 192}, "name": "conv2d_31", "inbound_nodes": [[["mixed3", 0, 0, {}]]]}, {"class_name": "Conv2D", "config": {"kernel_regularizer": null, "name": "conv2d_34", "padding": "same", "kernel_constraint": null, "strides": [1, 1], "kernel_initializer": {"class_name": "VarianceScaling", "config": {"scale": 1.0, "seed": null, "distribution": "uniform", "mode": "fan_avg"}}, "bias_initializer": {"class_name": "Zeros", "config": {}}, "bias_regularizer": null, "activation": "linear", "dilation_rate": [1, 1], "use_bias": false, "data_format": "channels_last", "activity_regularizer": null, "kernel_size": [7, 1], "trainable": true, "bias_constraint": null, "filters": 192}, "name": "conv2d_34", "inbound_nodes": [[["activation_33", 0, 0, {}]]]}, {"class_name": "Conv2D", "config": {"kernel_regularizer": null, "name": "conv2d_39", "padding": "same", "kernel_constraint": null, "strides": [1, 1], "kernel_initializer": {"class_name": "VarianceScaling", "config": {"scale": 1.0, "seed": null, "distribution": "uniform", "mode": "fan_avg"}}, "bias_initializer": {"class_name": "Zeros", "config": {}}, "bias_regularizer": null, "activation": "linear", "dilation_rate": [1, 1], "use_bias": false, "data_format": "channels_last", "activity_regularizer": null, "kernel_size": [1, 7], "trainable": true, "bias_constraint": null, "filters": 192}, "name": "conv2d_39", "inbound_nodes": [[["activation_38", 0, 0, {}]]]}, {"class_name": "Conv2D", "config": {"kernel_regularizer": null, "name": "conv2d_40", "padding": "same", "kernel_constraint": null, "strides": [1, 1], "kernel_initializer": {"class_name": "VarianceScaling", "config": {"scale": 1.0, "seed": null, "distribution": "uniform", "mode": "fan_avg"}}, "bias_initializer": {"class_name": "Zeros", "config": {}}, "bias_regularizer": null, "activation": "linear", "dilation_rate": [1, 1], "use_bias": false, "data_format": "channels_last", "activity_regularizer": null, "kernel_size": [1, 1], "trainable": true, "bias_constraint": null, "filters": 192}, "name": "conv2d_40", "inbound_nodes": [[["average_pooling2d_4", 0, 0, {}]]]}, {"class_name": "BatchNormalization", "config": {"gamma_constraint": null, "moving_mean_initializer": {"class_name": "Zeros", "config": {}}, "axis": 3, "gamma_initializer": {"class_name": "Ones", "config": {}}, "gamma_regularizer": null, "momentum": 0.99, "epsilon": 0.001, "scale": false, "beta_initializer": {"class_name": "Zeros", "config": {}}, "name": "batch_normalization_31", "beta_regularizer": null, "moving_variance_initializer": {"class_name": "Ones", "config": {}}, "center": true, "trainable": true, "beta_constraint": null}, "name": "batch_normalization_31", "inbound_nodes": [[["conv2d_31", 0, 0, {}]]]}, {"class_name": "BatchNormalization", "config": {"gamma_constraint": null, "moving_mean_initializer": {"class_name": "Zeros", "config": {}}, "axis": 3, "gamma_initializer": {"class_name": "Ones", "config": {}}, "gamma_regularizer": null, "momentum": 0.99, "epsilon": 0.001, "scale": false, "beta_initializer": {"class_name": "Zeros", "config": {}}, "name": "batch_normalization_34", "beta_regularizer": null, "moving_variance_initializer": {"class_name": "Ones", "config": {}}, "center": true, "trainable": true, "beta_constraint": null}, "name": "batch_normalization_34", "inbound_nodes": [[["conv2d_34", 0, 0, {}]]]}, {"class_name": "BatchNormalization", "config": {"gamma_constraint": null, "moving_mean_initializer": {"class_name": "Zeros", "config": {}}, "axis": 3, "gamma_initializer": {"class_name": "Ones", "config": {}}, "gamma_regularizer": null, "momentum": 0.99, "epsilon": 0.001, "scale": false, "beta_initializer": {"class_name": "Zeros", "config": {}}, "name": "batch_normalization_39", "beta_regularizer": null, "moving_variance_initializer": {"class_name": "Ones", "config": {}}, "center": true, "trainable": true, "beta_constraint": null}, "name": "batch_normalization_39", "inbound_nodes": [[["conv2d_39", 0, 0, {}]]]}, {"class_name": "BatchNormalization", "config": {"gamma_constraint": null, "moving_mean_initializer": {"class_name": "Zeros", "config": {}}, "axis": 3, "gamma_initializer": {"class_name": "Ones", "config": {}}, "gamma_regularizer": null, "momentum": 0.99, "epsilon": 0.001, "scale": false, "beta_initializer": {"class_name": "Zeros", "config": {}}, "name": "batch_normalization_40", "beta_regularizer": null, "moving_variance_initializer": {"class_name": "Ones", "config": {}}, "center": true, "trainable": true, "beta_constraint": null}, "name": "batch_normalization_40", "inbound_nodes": [[["conv2d_40", 0, 0, {}]]]}, {"class_name": "Activation", "config": {"activation": "relu", "name": "activation_31", "trainable": true}, "name": "activation_31", "inbound_nodes": [[["batch_normalization_31", 0, 0, {}]]]}, {"class_name": "Activation", "config": {"activation": "relu", "name": "activation_34", "trainable": true}, "name": "activation_34", "inbound_nodes": [[["batch_normalization_34", 0, 0, {}]]]}, {"class_name": "Activation", "config": {"activation": "relu", "name": "activation_39", "trainable": true}, "name": "activation_39", "inbound_nodes": [[["batch_normalization_39", 0, 0, {}]]]}, {"class_name": "Activation", "config": {"activation": "relu", "name": "activation_40", "trainable": true}, "name": "activation_40", "inbound_nodes": [[["batch_normalization_40", 0, 0, {}]]]}, {"class_name": "Concatenate", "config": {"axis": 3, "name": "mixed4", "trainable": true}, "name": "mixed4", "inbound_nodes": [[["activation_31", 0, 0, {}], ["activation_34", 0, 0, {}], ["activation_39", 0, 0, {}], ["activation_40", 0, 0, {}]]]}, {"class_name": "Conv2D", "config": {"kernel_regularizer": null, "name": "conv2d_45", "padding": "same", "kernel_constraint": null, "strides": [1, 1], "kernel_initializer": {"class_name": "VarianceScaling", "config": {"scale": 1.0, "seed": null, "distribution": "uniform", "mode": "fan_avg"}}, "bias_initializer": {"class_name": "Zeros", "config": {}}, "bias_regularizer": null, "activation": "linear", "dilation_rate": [1, 1], "use_bias": false, "data_format": "channels_last", "activity_regularizer": null, "kernel_size": [1, 1], "trainable": true, "bias_constraint": null, "filters": 160}, "name": "conv2d_45", "inbound_nodes": [[["mixed4", 0, 0, {}]]]}, {"class_name": "BatchNormalization", "config": {"gamma_constraint": null, "moving_mean_initializer": {"class_name": "Zeros", "config": {}}, "axis": 3, "gamma_initializer": {"class_name": "Ones", "config": {}}, "gamma_regularizer": null, "momentum": 0.99, "epsilon": 0.001, "scale": false, "beta_initializer": {"class_name": "Zeros", "config": {}}, "name": "batch_normalization_45", "beta_regularizer": null, "moving_variance_initializer": {"class_name": "Ones", "config": {}}, "center": true, "trainable": true, "beta_constraint": null}, "name": "batch_normalization_45", "inbound_nodes": [[["conv2d_45", 0, 0, {}]]]}, {"class_name": "Activation", "config": {"activation": "relu", "name": "activation_45", "trainable": true}, "name": "activation_45", "inbound_nodes": [[["batch_normalization_45", 0, 0, {}]]]}, {"class_name": "Conv2D", "config": {"kernel_regularizer": null, "name": "conv2d_46", "padding": "same", "kernel_constraint": null, "strides": [1, 1], "kernel_initializer": {"class_name": "VarianceScaling", "config": {"scale": 1.0, "seed": null, "distribution": "uniform", "mode": "fan_avg"}}, "bias_initializer": {"class_name": "Zeros", "config": {}}, "bias_regularizer": null, "activation": "linear", "dilation_rate": [1, 1], "use_bias": false, "data_format": "channels_last", "activity_regularizer": null, "kernel_size": [7, 1], "trainable": true, "bias_constraint": null, "filters": 160}, "name": "conv2d_46", "inbound_nodes": [[["activation_45", 0, 0, {}]]]}, {"class_name": "BatchNormalization", "config": {"gamma_constraint": null, "moving_mean_initializer": {"class_name": "Zeros", "config": {}}, "axis": 3, "gamma_initializer": {"class_name": "Ones", "config": {}}, "gamma_regularizer": null, "momentum": 0.99, "epsilon": 0.001, "scale": false, "beta_initializer": {"class_name": "Zeros", "config": {}}, "name": "batch_normalization_46", "beta_regularizer": null, "moving_variance_initializer": {"class_name": "Ones", "config": {}}, "center": true, "trainable": true, "beta_constraint": null}, "name": "batch_normalization_46", "inbound_nodes": [[["conv2d_46", 0, 0, {}]]]}, {"class_name": "Activation", "config": {"activation": "relu", "name": "activation_46", "trainable": true}, "name": "activation_46", "inbound_nodes": [[["batch_normalization_46", 0, 0, {}]]]}, {"class_name": "Conv2D", "config": {"kernel_regularizer": null, "name": "conv2d_42", "padding": "same", "kernel_constraint": null, "strides": [1, 1], "kernel_initializer": {"class_name": "VarianceScaling", "config": {"scale": 1.0, "seed": null, "distribution": "uniform", "mode": "fan_avg"}}, "bias_initializer": {"class_name": "Zeros", "config": {}}, "bias_regularizer": null, "activation": "linear", "dilation_rate": [1, 1], "use_bias": false, "data_format": "channels_last", "activity_regularizer": null, "kernel_size": [1, 1], "trainable": true, "bias_constraint": null, "filters": 160}, "name": "conv2d_42", "inbound_nodes": [[["mixed4", 0, 0, {}]]]}, {"class_name": "Conv2D", "config": {"kernel_regularizer": null, "name": "conv2d_47", "padding": "same", "kernel_constraint": null, "strides": [1, 1], "kernel_initializer": {"class_name": "VarianceScaling", "config": {"scale": 1.0, "seed": null, "distribution": "uniform", "mode": "fan_avg"}}, "bias_initializer": {"class_name": "Zeros", "config": {}}, "bias_regularizer": null, "activation": "linear", "dilation_rate": [1, 1], "use_bias": false, "data_format": "channels_last", "activity_regularizer": null, "kernel_size": [1, 7], "trainable": true, "bias_constraint": null, "filters": 160}, "name": "conv2d_47", "inbound_nodes": [[["activation_46", 0, 0, {}]]]}, {"class_name": "BatchNormalization", "config": {"gamma_constraint": null, "moving_mean_initializer": {"class_name": "Zeros", "config": {}}, "axis": 3, "gamma_initializer": {"class_name": "Ones", "config": {}}, "gamma_regularizer": null, "momentum": 0.99, "epsilon": 0.001, "scale": false, "beta_initializer": {"class_name": "Zeros", "config": {}}, "name": "batch_normalization_42", "beta_regularizer": null, "moving_variance_initializer": {"class_name": "Ones", "config": {}}, "center": true, "trainable": true, "beta_constraint": null}, "name": "batch_normalization_42", "inbound_nodes": [[["conv2d_42", 0, 0, {}]]]}, {"class_name": "BatchNormalization", "config": {"gamma_constraint": null, "moving_mean_initializer": {"class_name": "Zeros", "config": {}}, "axis": 3, "gamma_initializer": {"class_name": "Ones", "config": {}}, "gamma_regularizer": null, "momentum": 0.99, "epsilon": 0.001, "scale": false, "beta_initializer": {"class_name": "Zeros", "config": {}}, "name": "batch_normalization_47", "beta_regularizer": null, "moving_variance_initializer": {"class_name": "Ones", "config": {}}, "center": true, "trainable": true, "beta_constraint": null}, "name": "batch_normalization_47", "inbound_nodes": [[["conv2d_47", 0, 0, {}]]]}, {"class_name": "Activation", "config": {"activation": "relu", "name": "activation_42", "trainable": true}, "name": "activation_42", "inbound_nodes": [[["batch_normalization_42", 0, 0, {}]]]}, {"class_name": "Activation", "config": {"activation": "relu", "name": "activation_47", "trainable": true}, "name": "activation_47", "inbound_nodes": [[["batch_normalization_47", 0, 0, {}]]]}, {"class_name": "Conv2D", "config": {"kernel_regularizer": null, "name": "conv2d_43", "padding": "same", "kernel_constraint": null, "strides": [1, 1], "kernel_initializer": {"class_name": "VarianceScaling", "config": {"scale": 1.0, "seed": null, "distribution": "uniform", "mode": "fan_avg"}}, "bias_initializer": {"class_name": "Zeros", "config": {}}, "bias_regularizer": null, "activation": "linear", "dilation_rate": [1, 1], "use_bias": false, "data_format": "channels_last", "activity_regularizer": null, "kernel_size": [1, 7], "trainable": true, "bias_constraint": null, "filters": 160}, "name": "conv2d_43", "inbound_nodes": [[["activation_42", 0, 0, {}]]]}, {"class_name": "Conv2D", "config": {"kernel_regularizer": null, "name": "conv2d_48", "padding": "same", "kernel_constraint": null, "strides": [1, 1], "kernel_initializer": {"class_name": "VarianceScaling", "config": {"scale": 1.0, "seed": null, "distribution": "uniform", "mode": "fan_avg"}}, "bias_initializer": {"class_name": "Zeros", "config": {}}, "bias_regularizer": null, "activation": "linear", "dilation_rate": [1, 1], "use_bias": false, "data_format": "channels_last", "activity_regularizer": null, "kernel_size": [7, 1], "trainable": true, "bias_constraint": null, "filters": 160}, "name": "conv2d_48", "inbound_nodes": [[["activation_47", 0, 0, {}]]]}, {"class_name": "BatchNormalization", "config": {"gamma_constraint": null, "moving_mean_initializer": {"class_name": "Zeros", "config": {}}, "axis": 3, "gamma_initializer": {"class_name": "Ones", "config": {}}, "gamma_regularizer": null, "momentum": 0.99, "epsilon": 0.001, "scale": false, "beta_initializer": {"class_name": "Zeros", "config": {}}, "name": "batch_normalization_43", "beta_regularizer": null, "moving_variance_initializer": {"class_name": "Ones", "config": {}}, "center": true, "trainable": true, "beta_constraint": null}, "name": "batch_normalization_43", "inbound_nodes": [[["conv2d_43", 0, 0, {}]]]}, {"class_name": "BatchNormalization", "config": {"gamma_constraint": null, "moving_mean_initializer": {"class_name": "Zeros", "config": {}}, "axis": 3, "gamma_initializer": {"class_name": "Ones", "config": {}}, "gamma_regularizer": null, "momentum": 0.99, "epsilon": 0.001, "scale": false, "beta_initializer": {"class_name": "Zeros", "config": {}}, "name": "batch_normalization_48", "beta_regularizer": null, "moving_variance_initializer": {"class_name": "Ones", "config": {}}, "center": true, "trainable": true, "beta_constraint": null}, "name": "batch_normalization_48", "inbound_nodes": [[["conv2d_48", 0, 0, {}]]]}, {"class_name": "Activation", "config": {"activation": "relu", "name": "activation_43", "trainable": true}, "name": "activation_43", "inbound_nodes": [[["batch_normalization_43", 0, 0, {}]]]}, {"class_name": "Activation", "config": {"activation": "relu", "name": "activation_48", "trainable": true}, "name": "activation_48", "inbound_nodes": [[["batch_normalization_48", 0, 0, {}]]]}, {"class_name": "AveragePooling2D", "config": {"name": "average_pooling2d_5", "strides": [1, 1], "data_format": "channels_last", "pool_size": [3, 3], "padding": "same", "trainable": true}, "name": "average_pooling2d_5", "inbound_nodes": [[["mixed4", 0, 0, {}]]]}, {"class_name": "Conv2D", "config": {"kernel_regularizer": null, "name": "conv2d_41", "padding": "same", "kernel_constraint": null, "strides": [1, 1], "kernel_initializer": {"class_name": "VarianceScaling", "config": {"scale": 1.0, "seed": null, "distribution": "uniform", "mode": "fan_avg"}}, "bias_initializer": {"class_name": "Zeros", "config": {}}, "bias_regularizer": null, "activation": "linear", "dilation_rate": [1, 1], "use_bias": false, "data_format": "channels_last", "activity_regularizer": null, "kernel_size": [1, 1], "trainable": true, "bias_constraint": null, "filters": 192}, "name": "conv2d_41", "inbound_nodes": [[["mixed4", 0, 0, {}]]]}, {"class_name": "Conv2D", "config": {"kernel_regularizer": null, "name": "conv2d_44", "padding": "same", "kernel_constraint": null, "strides": [1, 1], "kernel_initializer": {"class_name": "VarianceScaling", "config": {"scale": 1.0, "seed": null, "distribution": "uniform", "mode": "fan_avg"}}, "bias_initializer": {"class_name": "Zeros", "config": {}}, "bias_regularizer": null, "activation": "linear", "dilation_rate": [1, 1], "use_bias": false, "data_format": "channels_last", "activity_regularizer": null, "kernel_size": [7, 1], "trainable": true, "bias_constraint": null, "filters": 192}, "name": "conv2d_44", "inbound_nodes": [[["activation_43", 0, 0, {}]]]}, {"class_name": "Conv2D", "config": {"kernel_regularizer": null, "name": "conv2d_49", "padding": "same", "kernel_constraint": null, "strides": [1, 1], "kernel_initializer": {"class_name": "VarianceScaling", "config": {"scale": 1.0, "seed": null, "distribution": "uniform", "mode": "fan_avg"}}, "bias_initializer": {"class_name": "Zeros", "config": {}}, "bias_regularizer": null, "activation": "linear", "dilation_rate": [1, 1], "use_bias": false, "data_format": "channels_last", "activity_regularizer": null, "kernel_size": [1, 7], "trainable": true, "bias_constraint": null, "filters": 192}, "name": "conv2d_49", "inbound_nodes": [[["activation_48", 0, 0, {}]]]}, {"class_name": "Conv2D", "config": {"kernel_regularizer": null, "name": "conv2d_50", "padding": "same", "kernel_constraint": null, "strides": [1, 1], "kernel_initializer": {"class_name": "VarianceScaling", "config": {"scale": 1.0, "seed": null, "distribution": "uniform", "mode": "fan_avg"}}, "bias_initializer": {"class_name": "Zeros", "config": {}}, "bias_regularizer": null, "activation": "linear", "dilation_rate": [1, 1], "use_bias": false, "data_format": "channels_last", "activity_regularizer": null, "kernel_size": [1, 1], "trainable": true, "bias_constraint": null, "filters": 192}, "name": "conv2d_50", "inbound_nodes": [[["average_pooling2d_5", 0, 0, {}]]]}, {"class_name": "BatchNormalization", "config": {"gamma_constraint": null, "moving_mean_initializer": {"class_name": "Zeros", "config": {}}, "axis": 3, "gamma_initializer": {"class_name": "Ones", "config": {}}, "gamma_regularizer": null, "momentum": 0.99, "epsilon": 0.001, "scale": false, "beta_initializer": {"class_name": "Zeros", "config": {}}, "name": "batch_normalization_41", "beta_regularizer": null, "moving_variance_initializer": {"class_name": "Ones", "config": {}}, "center": true, "trainable": true, "beta_constraint": null}, "name": "batch_normalization_41", "inbound_nodes": [[["conv2d_41", 0, 0, {}]]]}, {"class_name": "BatchNormalization", "config": {"gamma_constraint": null, "moving_mean_initializer": {"class_name": "Zeros", "config": {}}, "axis": 3, "gamma_initializer": {"class_name": "Ones", "config": {}}, "gamma_regularizer": null, "momentum": 0.99, "epsilon": 0.001, "scale": false, "beta_initializer": {"class_name": "Zeros", "config": {}}, "name": "batch_normalization_44", "beta_regularizer": null, "moving_variance_initializer": {"class_name": "Ones", "config": {}}, "center": true, "trainable": true, "beta_constraint": null}, "name": "batch_normalization_44", "inbound_nodes": [[["conv2d_44", 0, 0, {}]]]}, {"class_name": "BatchNormalization", "config": {"gamma_constraint": null, "moving_mean_initializer": {"class_name": "Zeros", "config": {}}, "axis": 3, "gamma_initializer": {"class_name": "Ones", "config": {}}, "gamma_regularizer": null, "momentum": 0.99, "epsilon": 0.001, "scale": false, "beta_initializer": {"class_name": "Zeros", "config": {}}, "name": "batch_normalization_49", "beta_regularizer": null, "moving_variance_initializer": {"class_name": "Ones", "config": {}}, "center": true, "trainable": true, "beta_constraint": null}, "name": "batch_normalization_49", "inbound_nodes": [[["conv2d_49", 0, 0, {}]]]}, {"class_name": "BatchNormalization", "config": {"gamma_constraint": null, "moving_mean_initializer": {"class_name": "Zeros", "config": {}}, "axis": 3, "gamma_initializer": {"class_name": "Ones", "config": {}}, "gamma_regularizer": null, "momentum": 0.99, "epsilon": 0.001, "scale": false, "beta_initializer": {"class_name": "Zeros", "config": {}}, "name": "batch_normalization_50", "beta_regularizer": null, "moving_variance_initializer": {"class_name": "Ones", "config": {}}, "center": true, "trainable": true, "beta_constraint": null}, "name": "batch_normalization_50", "inbound_nodes": [[["conv2d_50", 0, 0, {}]]]}, {"class_name": "Activation", "config": {"activation": "relu", "name": "activation_41", "trainable": true}, "name": "activation_41", "inbound_nodes": [[["batch_normalization_41", 0, 0, {}]]]}, {"class_name": "Activation", "config": {"activation": "relu", "name": "activation_44", "trainable": true}, "name": "activation_44", "inbound_nodes": [[["batch_normalization_44", 0, 0, {}]]]}, {"class_name": "Activation", "config": {"activation": "relu", "name": "activation_49", "trainable": true}, "name": "activation_49", "inbound_nodes": [[["batch_normalization_49", 0, 0, {}]]]}, {"class_name": "Activation", "config": {"activation": "relu", "name": "activation_50", "trainable": true}, "name": "activation_50", "inbound_nodes": [[["batch_normalization_50", 0, 0, {}]]]}, {"class_name": "Concatenate", "config": {"axis": 3, "name": "mixed5", "trainable": true}, "name": "mixed5", "inbound_nodes": [[["activation_41", 0, 0, {}], ["activation_44", 0, 0, {}], ["activation_49", 0, 0, {}], ["activation_50", 0, 0, {}]]]}, {"class_name": "GlobalAveragePooling2D", "config": {"data_format": "channels_last", "name": "global_average_pooling2d_1", "trainable": true}, "name": "global_average_pooling2d_1", "inbound_nodes": [[["mixed5", 0, 0, {}]]]}, {"class_name": "Dense", "config": {"kernel_regularizer": null, "use_bias": true, "kernel_constraint": null, "activation": "relu", "kernel_initializer": {"class_name": "VarianceScaling", "config": {"scale": 1.0, "seed": null, "distribution": "uniform", "mode": "fan_avg"}}, "bias_regularizer": null, "bias_initializer": {"class_name": "Zeros", "config": {}}, "name": "dense_1", "activity_regularizer": null, "bias_constraint": null, "trainable": true, "units": 1024}, "name": "dense_1", "inbound_nodes": [[["global_average_pooling2d_1", 0, 0, {}]]]}, {"class_name": "Dense", "config": {"kernel_regularizer": null, "use_bias": true, "kernel_constraint": null, "activation": "linear", "kernel_initializer": {"class_name": "VarianceScaling", "config": {"scale": 1.0, "seed": null, "distribution": "uniform", "mode": "fan_avg"}}, "bias_regularizer": null, "bias_initializer": {"class_name": "Zeros", "config": {}}, "name": "dense_2", "activity_regularizer": null, "bias_constraint": null, "trainable": true, "units": 128}, "name": "dense_2", "inbound_nodes": [[["dense_1", 0, 0, {}]]]}], "name": "model_1"}, "name": "model_1", "inbound_nodes": [[["input_anchor", 0, 0, {}]], [["input_positive", 0, 0, {}]], [["input_negative", 0, 0, {}]]]}, {"class_name": "Lambda", "config": {"function_type": "lambda", "function": ["4wIAAAAAAAAACQAAAAUAAABDAAAAc4AAAABkAQB9AgB8AABcAwB9AwB9BAB9BQB0AABqAQB0AABq\nAgB8AwB8BAAYgwEAZAIAZAUAgwEBfQYAdAAAagEAdAAAagIAfAMAfAUAGIMBAGQCAGQGAIMBAX0H\nAHQAAGoDAHQAAGoEAGQEAHwGAHwHABh8AQAXgwIAgwEAfQgAfAgAUykHTucAAAAAAADwP9oEYXhp\nc+kBAAAA5wAAAAAAAAAA6f////9yBQAAACkF2gFL2gNzdW3aBnNxdWFyZdoEbWVhbtoHbWF4aW11\nbSkJ2gN2ZWPaBWFscGhh2gRiZXRh2gZhbmNob3LaCHBvc2l0aXZl2ghuZWdhdGl2ZdoDZF9w2gNk\nX27aBGxvc3OpAHIUAAAA+hx0Y25fdHJpcGxldGxvc3NfZ2VuZXJhdG9yLnB52gx0cmlwbGV0X2xv\nc3MgAAAAcwwAAAAAAQYBDwEiASIBIwE=\n", [0.2], null], "output_shape": ["4wEAAAAAAAAABAAAAAMAAABDAAAAcx0AAAB8AABcAwB9AQB9AgB9AwB8AQBkAQAZZAIAZgIAUykD\nTukAAAAA6QEAAACpACkE2gZzaGFwZXPaBnNoYXBlMdoGc2hhcGUy2gZzaGFwZTNyAwAAAHIDAAAA\n+hx0Y25fdHJpcGxldGxvc3NfZ2VuZXJhdG9yLnB52hR0cmlwbGV0X291dHB1dF9zaGFwZTgAAABz\nBAAAAAABDwE=\n", null, null], "name": "triplet_loss", "output_shape_type": "lambda", "arguments": {}, "trainable": true}, "name": "triplet_loss", "inbound_nodes": [[["model_1", 1, 0, {}], ["model_1", 2, 0, {}], ["model_1", 3, 0, {}]]]}], "name": "model_2"}}