{"config": {"layers": [{"config": {"sparse": false, "batch_input_shape": [null, 224, 224, 3], "dtype": "float32", "name": "input_anchor"}, "inbound_nodes": [], "class_name": "InputLayer", "name": "input_anchor"}, {"config": {"sparse": false, "batch_input_shape": [null, 224, 224, 3], "dtype": "float32", "name": "input_positive"}, "inbound_nodes": [], "class_name": "InputLayer", "name": "input_positive"}, {"config": {"sparse": false, "batch_input_shape": [null, 224, 224, 3], "dtype": "float32", "name": "input_negative"}, "inbound_nodes": [], "class_name": "InputLayer", "name": "input_negative"}, {"config": {"layers": [{"config": {"sparse": false, "batch_input_shape": [null, null, null, 3], "dtype": "float32", "name": "input_1"}, "inbound_nodes": [], "class_name": "InputLayer", "name": "input_1"}, {"config": {"strides": [2, 2], "activity_regularizer": null, "activation": "linear", "bias_initializer": {"config": {}, "class_name": "Zeros"}, "filters": 32, "bias_regularizer": null, "name": "conv2d_1", "padding": "valid", "dilation_rate": [1, 1], "kernel_constraint": null, "kernel_regularizer": null, "kernel_size": [3, 3], "data_format": "channels_last", "bias_constraint": null, "kernel_initializer": {"config": {"mode": "fan_avg", "seed": null, "distribution": "uniform", "scale": 1.0}, "class_name": "VarianceScaling"}, "use_bias": false, "trainable": true}, "inbound_nodes": [[["input_1", 0, 0, {}]]], "class_name": "Conv2D", "name": "conv2d_1"}, {"config": {"gamma_initializer": {"config": {}, "class_name": "Ones"}, "beta_regularizer": null, "axis": 3, "epsilon": 0.001, "center": true, "beta_initializer": {"config": {}, "class_name": "Zeros"}, "scale": false, "name": "batch_normalization_1", "gamma_constraint": null, "beta_constraint": null, "moving_mean_initializer": {"config": {}, "class_name": "Zeros"}, "momentum": 0.99, "moving_variance_initializer": {"config": {}, "class_name": "Ones"}, "trainable": true, "gamma_regularizer": null}, "inbound_nodes": [[["conv2d_1", 0, 0, {}]]], "class_name": "BatchNormalization", "name": "batch_normalization_1"}, {"config": {"trainable": true, "activation": "relu", "name": "activation_1"}, "inbound_nodes": [[["batch_normalization_1", 0, 0, {}]]], "class_name": "Activation", "name": "activation_1"}, {"config": {"strides": [1, 1], "activity_regularizer": null, "activation": "linear", "bias_initializer": {"config": {}, "class_name": "Zeros"}, "filters": 32, "bias_regularizer": null, "name": "conv2d_2", "padding": "valid", "dilation_rate": [1, 1], "kernel_constraint": null, "kernel_regularizer": null, "kernel_size": [3, 3], "data_format": "channels_last", "bias_constraint": null, "kernel_initializer": {"config": {"mode": "fan_avg", "seed": null, "distribution": "uniform", "scale": 1.0}, "class_name": "VarianceScaling"}, "use_bias": false, "trainable": true}, "inbound_nodes": [[["activation_1", 0, 0, {}]]], "class_name": "Conv2D", "name": "conv2d_2"}, {"config": {"gamma_initializer": {"config": {}, "class_name": "Ones"}, "beta_regularizer": null, "axis": 3, "epsilon": 0.001, "center": true, "beta_initializer": {"config": {}, "class_name": "Zeros"}, "scale": false, "name": "batch_normalization_2", "gamma_constraint": null, "beta_constraint": null, "moving_mean_initializer": {"config": {}, "class_name": "Zeros"}, "momentum": 0.99, "moving_variance_initializer": {"config": {}, "class_name": "Ones"}, "trainable": true, "gamma_regularizer": null}, "inbound_nodes": [[["conv2d_2", 0, 0, {}]]], "class_name": "BatchNormalization", "name": "batch_normalization_2"}, {"config": {"trainable": true, "activation": "relu", "name": "activation_2"}, "inbound_nodes": [[["batch_normalization_2", 0, 0, {}]]], "class_name": "Activation", "name": "activation_2"}, {"config": {"strides": [1, 1], "activity_regularizer": null, "activation": "linear", "bias_initializer": {"config": {}, "class_name": "Zeros"}, "filters": 64, "bias_regularizer": null, "name": "conv2d_3", "padding": "same", "dilation_rate": [1, 1], "kernel_constraint": null, "kernel_regularizer": null, "kernel_size": [3, 3], "data_format": "channels_last", "bias_constraint": null, "kernel_initializer": {"config": {"mode": "fan_avg", "seed": null, "distribution": "uniform", "scale": 1.0}, "class_name": "VarianceScaling"}, "use_bias": false, "trainable": true}, "inbound_nodes": [[["activation_2", 0, 0, {}]]], "class_name": "Conv2D", "name": "conv2d_3"}, {"config": {"gamma_initializer": {"config": {}, "class_name": "Ones"}, "beta_regularizer": null, "axis": 3, "epsilon": 0.001, "center": true, "beta_initializer": {"config": {}, "class_name": "Zeros"}, "scale": false, "name": "batch_normalization_3", "gamma_constraint": null, "beta_constraint": null, "moving_mean_initializer": {"config": {}, "class_name": "Zeros"}, "momentum": 0.99, "moving_variance_initializer": {"config": {}, "class_name": "Ones"}, "trainable": true, "gamma_regularizer": null}, "inbound_nodes": [[["conv2d_3", 0, 0, {}]]], "class_name": "BatchNormalization", "name": "batch_normalization_3"}, {"config": {"trainable": true, "activation": "relu", "name": "activation_3"}, "inbound_nodes": [[["batch_normalization_3", 0, 0, {}]]], "class_name": "Activation", "name": "activation_3"}, {"config": {"padding": "valid", "strides": [2, 2], "data_format": "channels_last", "trainable": true, "pool_size": [3, 3], "name": "max_pooling2d_1"}, "inbound_nodes": [[["activation_3", 0, 0, {}]]], "class_name": "MaxPooling2D", "name": "max_pooling2d_1"}, {"config": {"strides": [1, 1], "activity_regularizer": null, "activation": "linear", "bias_initializer": {"config": {}, "class_name": "Zeros"}, "filters": 80, "bias_regularizer": null, "name": "conv2d_4", "padding": "valid", "dilation_rate": [1, 1], "kernel_constraint": null, "kernel_regularizer": null, "kernel_size": [1, 1], "data_format": "channels_last", "bias_constraint": null, "kernel_initializer": {"config": {"mode": "fan_avg", "seed": null, "distribution": "uniform", "scale": 1.0}, "class_name": "VarianceScaling"}, "use_bias": false, "trainable": true}, "inbound_nodes": [[["max_pooling2d_1", 0, 0, {}]]], "class_name": "Conv2D", "name": "conv2d_4"}, {"config": {"gamma_initializer": {"config": {}, "class_name": "Ones"}, "beta_regularizer": null, "axis": 3, "epsilon": 0.001, "center": true, "beta_initializer": {"config": {}, "class_name": "Zeros"}, "scale": false, "name": "batch_normalization_4", "gamma_constraint": null, "beta_constraint": null, "moving_mean_initializer": {"config": {}, "class_name": "Zeros"}, "momentum": 0.99, "moving_variance_initializer": {"config": {}, "class_name": "Ones"}, "trainable": true, "gamma_regularizer": null}, "inbound_nodes": [[["conv2d_4", 0, 0, {}]]], "class_name": "BatchNormalization", "name": "batch_normalization_4"}, {"config": {"trainable": true, "activation": "relu", "name": "activation_4"}, "inbound_nodes": [[["batch_normalization_4", 0, 0, {}]]], "class_name": "Activation", "name": "activation_4"}, {"config": {"strides": [1, 1], "activity_regularizer": null, "activation": "linear", "bias_initializer": {"config": {}, "class_name": "Zeros"}, "filters": 192, "bias_regularizer": null, "name": "conv2d_5", "padding": "valid", "dilation_rate": [1, 1], "kernel_constraint": null, "kernel_regularizer": null, "kernel_size": [3, 3], "data_format": "channels_last", "bias_constraint": null, "kernel_initializer": {"config": {"mode": "fan_avg", "seed": null, "distribution": "uniform", "scale": 1.0}, "class_name": "VarianceScaling"}, "use_bias": false, "trainable": true}, "inbound_nodes": [[["activation_4", 0, 0, {}]]], "class_name": "Conv2D", "name": "conv2d_5"}, {"config": {"gamma_initializer": {"config": {}, "class_name": "Ones"}, "beta_regularizer": null, "axis": 3, "epsilon": 0.001, "center": true, "beta_initializer": {"config": {}, "class_name": "Zeros"}, "scale": false, "name": "batch_normalization_5", "gamma_constraint": null, "beta_constraint": null, "moving_mean_initializer": {"config": {}, "class_name": "Zeros"}, "momentum": 0.99, "moving_variance_initializer": {"config": {}, "class_name": "Ones"}, "trainable": true, "gamma_regularizer": null}, "inbound_nodes": [[["conv2d_5", 0, 0, {}]]], "class_name": "BatchNormalization", "name": "batch_normalization_5"}, {"config": {"trainable": true, "activation": "relu", "name": "activation_5"}, "inbound_nodes": [[["batch_normalization_5", 0, 0, {}]]], "class_name": "Activation", "name": "activation_5"}, {"config": {"padding": "valid", "strides": [2, 2], "data_format": "channels_last", "trainable": true, "pool_size": [3, 3], "name": "max_pooling2d_2"}, "inbound_nodes": [[["activation_5", 0, 0, {}]]], "class_name": "MaxPooling2D", "name": "max_pooling2d_2"}, {"config": {"strides": [1, 1], "activity_regularizer": null, "activation": "linear", "bias_initializer": {"config": {}, "class_name": "Zeros"}, "filters": 64, "bias_regularizer": null, "name": "conv2d_9", "padding": "same", "dilation_rate": [1, 1], "kernel_constraint": null, "kernel_regularizer": null, "kernel_size": [1, 1], "data_format": "channels_last", "bias_constraint": null, "kernel_initializer": {"config": {"mode": "fan_avg", "seed": null, "distribution": "uniform", "scale": 1.0}, "class_name": "VarianceScaling"}, "use_bias": false, "trainable": true}, "inbound_nodes": [[["max_pooling2d_2", 0, 0, {}]]], "class_name": "Conv2D", "name": "conv2d_9"}, {"config": {"gamma_initializer": {"config": {}, "class_name": "Ones"}, "beta_regularizer": null, "axis": 3, "epsilon": 0.001, "center": true, "beta_initializer": {"config": {}, "class_name": "Zeros"}, "scale": false, "name": "batch_normalization_9", "gamma_constraint": null, "beta_constraint": null, "moving_mean_initializer": {"config": {}, "class_name": "Zeros"}, "momentum": 0.99, "moving_variance_initializer": {"config": {}, "class_name": "Ones"}, "trainable": true, "gamma_regularizer": null}, "inbound_nodes": [[["conv2d_9", 0, 0, {}]]], "class_name": "BatchNormalization", "name": "batch_normalization_9"}, {"config": {"trainable": true, "activation": "relu", "name": "activation_9"}, "inbound_nodes": [[["batch_normalization_9", 0, 0, {}]]], "class_name": "Activation", "name": "activation_9"}, {"config": {"strides": [1, 1], "activity_regularizer": null, "activation": "linear", "bias_initializer": {"config": {}, "class_name": "Zeros"}, "filters": 48, "bias_regularizer": null, "name": "conv2d_7", "padding": "same", "dilation_rate": [1, 1], "kernel_constraint": null, "kernel_regularizer": null, "kernel_size": [1, 1], "data_format": "channels_last", "bias_constraint": null, "kernel_initializer": {"config": {"mode": "fan_avg", "seed": null, "distribution": "uniform", "scale": 1.0}, "class_name": "VarianceScaling"}, "use_bias": false, "trainable": true}, "inbound_nodes": [[["max_pooling2d_2", 0, 0, {}]]], "class_name": "Conv2D", "name": "conv2d_7"}, {"config": {"strides": [1, 1], "activity_regularizer": null, "activation": "linear", "bias_initializer": {"config": {}, "class_name": "Zeros"}, "filters": 96, "bias_regularizer": null, "name": "conv2d_10", "padding": "same", "dilation_rate": [1, 1], "kernel_constraint": null, "kernel_regularizer": null, "kernel_size": [3, 3], "data_format": "channels_last", "bias_constraint": null, "kernel_initializer": {"config": {"mode": "fan_avg", "seed": null, "distribution": "uniform", "scale": 1.0}, "class_name": "VarianceScaling"}, "use_bias": false, "trainable": true}, "inbound_nodes": [[["activation_9", 0, 0, {}]]], "class_name": "Conv2D", "name": "conv2d_10"}, {"config": {"gamma_initializer": {"config": {}, "class_name": "Ones"}, "beta_regularizer": null, "axis": 3, "epsilon": 0.001, "center": true, "beta_initializer": {"config": {}, "class_name": "Zeros"}, "scale": false, "name": "batch_normalization_7", "gamma_constraint": null, "beta_constraint": null, "moving_mean_initializer": {"config": {}, "class_name": "Zeros"}, "momentum": 0.99, "moving_variance_initializer": {"config": {}, "class_name": "Ones"}, "trainable": true, "gamma_regularizer": null}, "inbound_nodes": [[["conv2d_7", 0, 0, {}]]], "class_name": "BatchNormalization", "name": "batch_normalization_7"}, {"config": {"gamma_initializer": {"config": {}, "class_name": "Ones"}, "beta_regularizer": null, "axis": 3, "epsilon": 0.001, "center": true, "beta_initializer": {"config": {}, "class_name": "Zeros"}, "scale": false, "name": "batch_normalization_10", "gamma_constraint": null, "beta_constraint": null, "moving_mean_initializer": {"config": {}, "class_name": "Zeros"}, "momentum": 0.99, "moving_variance_initializer": {"config": {}, "class_name": "Ones"}, "trainable": true, "gamma_regularizer": null}, "inbound_nodes": [[["conv2d_10", 0, 0, {}]]], "class_name": "BatchNormalization", "name": "batch_normalization_10"}, {"config": {"trainable": true, "activation": "relu", "name": "activation_7"}, "inbound_nodes": [[["batch_normalization_7", 0, 0, {}]]], "class_name": "Activation", "name": "activation_7"}, {"config": {"trainable": true, "activation": "relu", "name": "activation_10"}, "inbound_nodes": [[["batch_normalization_10", 0, 0, {}]]], "class_name": "Activation", "name": "activation_10"}, {"config": {"padding": "same", "strides": [1, 1], "data_format": "channels_last", "trainable": true, "pool_size": [3, 3], "name": "average_pooling2d_1"}, "inbound_nodes": [[["max_pooling2d_2", 0, 0, {}]]], "class_name": "AveragePooling2D", "name": "average_pooling2d_1"}, {"config": {"strides": [1, 1], "activity_regularizer": null, "activation": "linear", "bias_initializer": {"config": {}, "class_name": "Zeros"}, "filters": 64, "bias_regularizer": null, "name": "conv2d_6", "padding": "same", "dilation_rate": [1, 1], "kernel_constraint": null, "kernel_regularizer": null, "kernel_size": [1, 1], "data_format": "channels_last", "bias_constraint": null, "kernel_initializer": {"config": {"mode": "fan_avg", "seed": null, "distribution": "uniform", "scale": 1.0}, "class_name": "VarianceScaling"}, "use_bias": false, "trainable": true}, "inbound_nodes": [[["max_pooling2d_2", 0, 0, {}]]], "class_name": "Conv2D", "name": "conv2d_6"}, {"config": {"strides": [1, 1], "activity_regularizer": null, "activation": "linear", "bias_initializer": {"config": {}, "class_name": "Zeros"}, "filters": 64, "bias_regularizer": null, "name": "conv2d_8", "padding": "same", "dilation_rate": [1, 1], "kernel_constraint": null, "kernel_regularizer": null, "kernel_size": [5, 5], "data_format": "channels_last", "bias_constraint": null, "kernel_initializer": {"config": {"mode": "fan_avg", "seed": null, "distribution": "uniform", "scale": 1.0}, "class_name": "VarianceScaling"}, "use_bias": false, "trainable": true}, "inbound_nodes": [[["activation_7", 0, 0, {}]]], "class_name": "Conv2D", "name": "conv2d_8"}, {"config": {"strides": [1, 1], "activity_regularizer": null, "activation": "linear", "bias_initializer": {"config": {}, "class_name": "Zeros"}, "filters": 96, "bias_regularizer": null, "name": "conv2d_11", "padding": "same", "dilation_rate": [1, 1], "kernel_constraint": null, "kernel_regularizer": null, "kernel_size": [3, 3], "data_format": "channels_last", "bias_constraint": null, "kernel_initializer": {"config": {"mode": "fan_avg", "seed": null, "distribution": "uniform", "scale": 1.0}, "class_name": "VarianceScaling"}, "use_bias": false, "trainable": true}, "inbound_nodes": [[["activation_10", 0, 0, {}]]], "class_name": "Conv2D", "name": "conv2d_11"}, {"config": {"strides": [1, 1], "activity_regularizer": null, "activation": "linear", "bias_initializer": {"config": {}, "class_name": "Zeros"}, "filters": 32, "bias_regularizer": null, "name": "conv2d_12", "padding": "same", "dilation_rate": [1, 1], "kernel_constraint": null, "kernel_regularizer": null, "kernel_size": [1, 1], "data_format": "channels_last", "bias_constraint": null, "kernel_initializer": {"config": {"mode": "fan_avg", "seed": null, "distribution": "uniform", "scale": 1.0}, "class_name": "VarianceScaling"}, "use_bias": false, "trainable": true}, "inbound_nodes": [[["average_pooling2d_1", 0, 0, {}]]], "class_name": "Conv2D", "name": "conv2d_12"}, {"config": {"gamma_initializer": {"config": {}, "class_name": "Ones"}, "beta_regularizer": null, "axis": 3, "epsilon": 0.001, "center": true, "beta_initializer": {"config": {}, "class_name": "Zeros"}, "scale": false, "name": "batch_normalization_6", "gamma_constraint": null, "beta_constraint": null, "moving_mean_initializer": {"config": {}, "class_name": "Zeros"}, "momentum": 0.99, "moving_variance_initializer": {"config": {}, "class_name": "Ones"}, "trainable": true, "gamma_regularizer": null}, "inbound_nodes": [[["conv2d_6", 0, 0, {}]]], "class_name": "BatchNormalization", "name": "batch_normalization_6"}, {"config": {"gamma_initializer": {"config": {}, "class_name": "Ones"}, "beta_regularizer": null, "axis": 3, "epsilon": 0.001, "center": true, "beta_initializer": {"config": {}, "class_name": "Zeros"}, "scale": false, "name": "batch_normalization_8", "gamma_constraint": null, "beta_constraint": null, "moving_mean_initializer": {"config": {}, "class_name": "Zeros"}, "momentum": 0.99, "moving_variance_initializer": {"config": {}, "class_name": "Ones"}, "trainable": true, "gamma_regularizer": null}, "inbound_nodes": [[["conv2d_8", 0, 0, {}]]], "class_name": "BatchNormalization", "name": "batch_normalization_8"}, {"config": {"gamma_initializer": {"config": {}, "class_name": "Ones"}, "beta_regularizer": null, "axis": 3, "epsilon": 0.001, "center": true, "beta_initializer": {"config": {}, "class_name": "Zeros"}, "scale": false, "name": "batch_normalization_11", "gamma_constraint": null, "beta_constraint": null, "moving_mean_initializer": {"config": {}, "class_name": "Zeros"}, "momentum": 0.99, "moving_variance_initializer": {"config": {}, "class_name": "Ones"}, "trainable": true, "gamma_regularizer": null}, "inbound_nodes": [[["conv2d_11", 0, 0, {}]]], "class_name": "BatchNormalization", "name": "batch_normalization_11"}, {"config": {"gamma_initializer": {"config": {}, "class_name": "Ones"}, "beta_regularizer": null, "axis": 3, "epsilon": 0.001, "center": true, "beta_initializer": {"config": {}, "class_name": "Zeros"}, "scale": false, "name": "batch_normalization_12", "gamma_constraint": null, "beta_constraint": null, "moving_mean_initializer": {"config": {}, "class_name": "Zeros"}, "momentum": 0.99, "moving_variance_initializer": {"config": {}, "class_name": "Ones"}, "trainable": true, "gamma_regularizer": null}, "inbound_nodes": [[["conv2d_12", 0, 0, {}]]], "class_name": "BatchNormalization", "name": "batch_normalization_12"}, {"config": {"trainable": true, "activation": "relu", "name": "activation_6"}, "inbound_nodes": [[["batch_normalization_6", 0, 0, {}]]], "class_name": "Activation", "name": "activation_6"}, {"config": {"trainable": true, "activation": "relu", "name": "activation_8"}, "inbound_nodes": [[["batch_normalization_8", 0, 0, {}]]], "class_name": "Activation", "name": "activation_8"}, {"config": {"trainable": true, "activation": "relu", "name": "activation_11"}, "inbound_nodes": [[["batch_normalization_11", 0, 0, {}]]], "class_name": "Activation", "name": "activation_11"}, {"config": {"trainable": true, "activation": "relu", "name": "activation_12"}, "inbound_nodes": [[["batch_normalization_12", 0, 0, {}]]], "class_name": "Activation", "name": "activation_12"}, {"config": {"trainable": true, "axis": 3, "name": "mixed0"}, "inbound_nodes": [[["activation_6", 0, 0, {}], ["activation_8", 0, 0, {}], ["activation_11", 0, 0, {}], ["activation_12", 0, 0, {}]]], "class_name": "Concatenate", "name": "mixed0"}, {"config": {"strides": [1, 1], "activity_regularizer": null, "activation": "linear", "bias_initializer": {"config": {}, "class_name": "Zeros"}, "filters": 64, "bias_regularizer": null, "name": "conv2d_16", "padding": "same", "dilation_rate": [1, 1], "kernel_constraint": null, "kernel_regularizer": null, "kernel_size": [1, 1], "data_format": "channels_last", "bias_constraint": null, "kernel_initializer": {"config": {"mode": "fan_avg", "seed": null, "distribution": "uniform", "scale": 1.0}, "class_name": "VarianceScaling"}, "use_bias": false, "trainable": true}, "inbound_nodes": [[["mixed0", 0, 0, {}]]], "class_name": "Conv2D", "name": "conv2d_16"}, {"config": {"gamma_initializer": {"config": {}, "class_name": "Ones"}, "beta_regularizer": null, "axis": 3, "epsilon": 0.001, "center": true, "beta_initializer": {"config": {}, "class_name": "Zeros"}, "scale": false, "name": "batch_normalization_16", "gamma_constraint": null, "beta_constraint": null, "moving_mean_initializer": {"config": {}, "class_name": "Zeros"}, "momentum": 0.99, "moving_variance_initializer": {"config": {}, "class_name": "Ones"}, "trainable": true, "gamma_regularizer": null}, "inbound_nodes": [[["conv2d_16", 0, 0, {}]]], "class_name": "BatchNormalization", "name": "batch_normalization_16"}, {"config": {"trainable": true, "activation": "relu", "name": "activation_16"}, "inbound_nodes": [[["batch_normalization_16", 0, 0, {}]]], "class_name": "Activation", "name": "activation_16"}, {"config": {"strides": [1, 1], "activity_regularizer": null, "activation": "linear", "bias_initializer": {"config": {}, "class_name": "Zeros"}, "filters": 48, "bias_regularizer": null, "name": "conv2d_14", "padding": "same", "dilation_rate": [1, 1], "kernel_constraint": null, "kernel_regularizer": null, "kernel_size": [1, 1], "data_format": "channels_last", "bias_constraint": null, "kernel_initializer": {"config": {"mode": "fan_avg", "seed": null, "distribution": "uniform", "scale": 1.0}, "class_name": "VarianceScaling"}, "use_bias": false, "trainable": true}, "inbound_nodes": [[["mixed0", 0, 0, {}]]], "class_name": "Conv2D", "name": "conv2d_14"}, {"config": {"strides": [1, 1], "activity_regularizer": null, "activation": "linear", "bias_initializer": {"config": {}, "class_name": "Zeros"}, "filters": 96, "bias_regularizer": null, "name": "conv2d_17", "padding": "same", "dilation_rate": [1, 1], "kernel_constraint": null, "kernel_regularizer": null, "kernel_size": [3, 3], "data_format": "channels_last", "bias_constraint": null, "kernel_initializer": {"config": {"mode": "fan_avg", "seed": null, "distribution": "uniform", "scale": 1.0}, "class_name": "VarianceScaling"}, "use_bias": false, "trainable": true}, "inbound_nodes": [[["activation_16", 0, 0, {}]]], "class_name": "Conv2D", "name": "conv2d_17"}, {"config": {"gamma_initializer": {"config": {}, "class_name": "Ones"}, "beta_regularizer": null, "axis": 3, "epsilon": 0.001, "center": true, "beta_initializer": {"config": {}, "class_name": "Zeros"}, "scale": false, "name": "batch_normalization_14", "gamma_constraint": null, "beta_constraint": null, "moving_mean_initializer": {"config": {}, "class_name": "Zeros"}, "momentum": 0.99, "moving_variance_initializer": {"config": {}, "class_name": "Ones"}, "trainable": true, "gamma_regularizer": null}, "inbound_nodes": [[["conv2d_14", 0, 0, {}]]], "class_name": "BatchNormalization", "name": "batch_normalization_14"}, {"config": {"gamma_initializer": {"config": {}, "class_name": "Ones"}, "beta_regularizer": null, "axis": 3, "epsilon": 0.001, "center": true, "beta_initializer": {"config": {}, "class_name": "Zeros"}, "scale": false, "name": "batch_normalization_17", "gamma_constraint": null, "beta_constraint": null, "moving_mean_initializer": {"config": {}, "class_name": "Zeros"}, "momentum": 0.99, "moving_variance_initializer": {"config": {}, "class_name": "Ones"}, "trainable": true, "gamma_regularizer": null}, "inbound_nodes": [[["conv2d_17", 0, 0, {}]]], "class_name": "BatchNormalization", "name": "batch_normalization_17"}, {"config": {"trainable": true, "activation": "relu", "name": "activation_14"}, "inbound_nodes": [[["batch_normalization_14", 0, 0, {}]]], "class_name": "Activation", "name": "activation_14"}, {"config": {"trainable": true, "activation": "relu", "name": "activation_17"}, "inbound_nodes": [[["batch_normalization_17", 0, 0, {}]]], "class_name": "Activation", "name": "activation_17"}, {"config": {"padding": "same", "strides": [1, 1], "data_format": "channels_last", "trainable": true, "pool_size": [3, 3], "name": "average_pooling2d_2"}, "inbound_nodes": [[["mixed0", 0, 0, {}]]], "class_name": "AveragePooling2D", "name": "average_pooling2d_2"}, {"config": {"strides": [1, 1], "activity_regularizer": null, "activation": "linear", "bias_initializer": {"config": {}, "class_name": "Zeros"}, "filters": 64, "bias_regularizer": null, "name": "conv2d_13", "padding": "same", "dilation_rate": [1, 1], "kernel_constraint": null, "kernel_regularizer": null, "kernel_size": [1, 1], "data_format": "channels_last", "bias_constraint": null, "kernel_initializer": {"config": {"mode": "fan_avg", "seed": null, "distribution": "uniform", "scale": 1.0}, "class_name": "VarianceScaling"}, "use_bias": false, "trainable": true}, "inbound_nodes": [[["mixed0", 0, 0, {}]]], "class_name": "Conv2D", "name": "conv2d_13"}, {"config": {"strides": [1, 1], "activity_regularizer": null, "activation": "linear", "bias_initializer": {"config": {}, "class_name": "Zeros"}, "filters": 64, "bias_regularizer": null, "name": "conv2d_15", "padding": "same", "dilation_rate": [1, 1], "kernel_constraint": null, "kernel_regularizer": null, "kernel_size": [5, 5], "data_format": "channels_last", "bias_constraint": null, "kernel_initializer": {"config": {"mode": "fan_avg", "seed": null, "distribution": "uniform", "scale": 1.0}, "class_name": "VarianceScaling"}, "use_bias": false, "trainable": true}, "inbound_nodes": [[["activation_14", 0, 0, {}]]], "class_name": "Conv2D", "name": "conv2d_15"}, {"config": {"strides": [1, 1], "activity_regularizer": null, "activation": "linear", "bias_initializer": {"config": {}, "class_name": "Zeros"}, "filters": 96, "bias_regularizer": null, "name": "conv2d_18", "padding": "same", "dilation_rate": [1, 1], "kernel_constraint": null, "kernel_regularizer": null, "kernel_size": [3, 3], "data_format": "channels_last", "bias_constraint": null, "kernel_initializer": {"config": {"mode": "fan_avg", "seed": null, "distribution": "uniform", "scale": 1.0}, "class_name": "VarianceScaling"}, "use_bias": false, "trainable": true}, "inbound_nodes": [[["activation_17", 0, 0, {}]]], "class_name": "Conv2D", "name": "conv2d_18"}, {"config": {"strides": [1, 1], "activity_regularizer": null, "activation": "linear", "bias_initializer": {"config": {}, "class_name": "Zeros"}, "filters": 64, "bias_regularizer": null, "name": "conv2d_19", "padding": "same", "dilation_rate": [1, 1], "kernel_constraint": null, "kernel_regularizer": null, "kernel_size": [1, 1], "data_format": "channels_last", "bias_constraint": null, "kernel_initializer": {"config": {"mode": "fan_avg", "seed": null, "distribution": "uniform", "scale": 1.0}, "class_name": "VarianceScaling"}, "use_bias": false, "trainable": true}, "inbound_nodes": [[["average_pooling2d_2", 0, 0, {}]]], "class_name": "Conv2D", "name": "conv2d_19"}, {"config": {"gamma_initializer": {"config": {}, "class_name": "Ones"}, "beta_regularizer": null, "axis": 3, "epsilon": 0.001, "center": true, "beta_initializer": {"config": {}, "class_name": "Zeros"}, "scale": false, "name": "batch_normalization_13", "gamma_constraint": null, "beta_constraint": null, "moving_mean_initializer": {"config": {}, "class_name": "Zeros"}, "momentum": 0.99, "moving_variance_initializer": {"config": {}, "class_name": "Ones"}, "trainable": true, "gamma_regularizer": null}, "inbound_nodes": [[["conv2d_13", 0, 0, {}]]], "class_name": "BatchNormalization", "name": "batch_normalization_13"}, {"config": {"gamma_initializer": {"config": {}, "class_name": "Ones"}, "beta_regularizer": null, "axis": 3, "epsilon": 0.001, "center": true, "beta_initializer": {"config": {}, "class_name": "Zeros"}, "scale": false, "name": "batch_normalization_15", "gamma_constraint": null, "beta_constraint": null, "moving_mean_initializer": {"config": {}, "class_name": "Zeros"}, "momentum": 0.99, "moving_variance_initializer": {"config": {}, "class_name": "Ones"}, "trainable": true, "gamma_regularizer": null}, "inbound_nodes": [[["conv2d_15", 0, 0, {}]]], "class_name": "BatchNormalization", "name": "batch_normalization_15"}, {"config": {"gamma_initializer": {"config": {}, "class_name": "Ones"}, "beta_regularizer": null, "axis": 3, "epsilon": 0.001, "center": true, "beta_initializer": {"config": {}, "class_name": "Zeros"}, "scale": false, "name": "batch_normalization_18", "gamma_constraint": null, "beta_constraint": null, "moving_mean_initializer": {"config": {}, "class_name": "Zeros"}, "momentum": 0.99, "moving_variance_initializer": {"config": {}, "class_name": "Ones"}, "trainable": true, "gamma_regularizer": null}, "inbound_nodes": [[["conv2d_18", 0, 0, {}]]], "class_name": "BatchNormalization", "name": "batch_normalization_18"}, {"config": {"gamma_initializer": {"config": {}, "class_name": "Ones"}, "beta_regularizer": null, "axis": 3, "epsilon": 0.001, "center": true, "beta_initializer": {"config": {}, "class_name": "Zeros"}, "scale": false, "name": "batch_normalization_19", "gamma_constraint": null, "beta_constraint": null, "moving_mean_initializer": {"config": {}, "class_name": "Zeros"}, "momentum": 0.99, "moving_variance_initializer": {"config": {}, "class_name": "Ones"}, "trainable": true, "gamma_regularizer": null}, "inbound_nodes": [[["conv2d_19", 0, 0, {}]]], "class_name": "BatchNormalization", "name": "batch_normalization_19"}, {"config": {"trainable": true, "activation": "relu", "name": "activation_13"}, "inbound_nodes": [[["batch_normalization_13", 0, 0, {}]]], "class_name": "Activation", "name": "activation_13"}, {"config": {"trainable": true, "activation": "relu", "name": "activation_15"}, "inbound_nodes": [[["batch_normalization_15", 0, 0, {}]]], "class_name": "Activation", "name": "activation_15"}, {"config": {"trainable": true, "activation": "relu", "name": "activation_18"}, "inbound_nodes": [[["batch_normalization_18", 0, 0, {}]]], "class_name": "Activation", "name": "activation_18"}, {"config": {"trainable": true, "activation": "relu", "name": "activation_19"}, "inbound_nodes": [[["batch_normalization_19", 0, 0, {}]]], "class_name": "Activation", "name": "activation_19"}, {"config": {"trainable": true, "axis": 3, "name": "mixed1"}, "inbound_nodes": [[["activation_13", 0, 0, {}], ["activation_15", 0, 0, {}], ["activation_18", 0, 0, {}], ["activation_19", 0, 0, {}]]], "class_name": "Concatenate", "name": "mixed1"}, {"config": {"strides": [1, 1], "activity_regularizer": null, "activation": "linear", "bias_initializer": {"config": {}, "class_name": "Zeros"}, "filters": 64, "bias_regularizer": null, "name": "conv2d_23", "padding": "same", "dilation_rate": [1, 1], "kernel_constraint": null, "kernel_regularizer": null, "kernel_size": [1, 1], "data_format": "channels_last", "bias_constraint": null, "kernel_initializer": {"config": {"mode": "fan_avg", "seed": null, "distribution": "uniform", "scale": 1.0}, "class_name": "VarianceScaling"}, "use_bias": false, "trainable": true}, "inbound_nodes": [[["mixed1", 0, 0, {}]]], "class_name": "Conv2D", "name": "conv2d_23"}, {"config": {"gamma_initializer": {"config": {}, "class_name": "Ones"}, "beta_regularizer": null, "axis": 3, "epsilon": 0.001, "center": true, "beta_initializer": {"config": {}, "class_name": "Zeros"}, "scale": false, "name": "batch_normalization_23", "gamma_constraint": null, "beta_constraint": null, "moving_mean_initializer": {"config": {}, "class_name": "Zeros"}, "momentum": 0.99, "moving_variance_initializer": {"config": {}, "class_name": "Ones"}, "trainable": true, "gamma_regularizer": null}, "inbound_nodes": [[["conv2d_23", 0, 0, {}]]], "class_name": "BatchNormalization", "name": "batch_normalization_23"}, {"config": {"trainable": true, "activation": "relu", "name": "activation_23"}, "inbound_nodes": [[["batch_normalization_23", 0, 0, {}]]], "class_name": "Activation", "name": "activation_23"}, {"config": {"strides": [1, 1], "activity_regularizer": null, "activation": "linear", "bias_initializer": {"config": {}, "class_name": "Zeros"}, "filters": 48, "bias_regularizer": null, "name": "conv2d_21", "padding": "same", "dilation_rate": [1, 1], "kernel_constraint": null, "kernel_regularizer": null, "kernel_size": [1, 1], "data_format": "channels_last", "bias_constraint": null, "kernel_initializer": {"config": {"mode": "fan_avg", "seed": null, "distribution": "uniform", "scale": 1.0}, "class_name": "VarianceScaling"}, "use_bias": false, "trainable": true}, "inbound_nodes": [[["mixed1", 0, 0, {}]]], "class_name": "Conv2D", "name": "conv2d_21"}, {"config": {"strides": [1, 1], "activity_regularizer": null, "activation": "linear", "bias_initializer": {"config": {}, "class_name": "Zeros"}, "filters": 96, "bias_regularizer": null, "name": "conv2d_24", "padding": "same", "dilation_rate": [1, 1], "kernel_constraint": null, "kernel_regularizer": null, "kernel_size": [3, 3], "data_format": "channels_last", "bias_constraint": null, "kernel_initializer": {"config": {"mode": "fan_avg", "seed": null, "distribution": "uniform", "scale": 1.0}, "class_name": "VarianceScaling"}, "use_bias": false, "trainable": true}, "inbound_nodes": [[["activation_23", 0, 0, {}]]], "class_name": "Conv2D", "name": "conv2d_24"}, {"config": {"gamma_initializer": {"config": {}, "class_name": "Ones"}, "beta_regularizer": null, "axis": 3, "epsilon": 0.001, "center": true, "beta_initializer": {"config": {}, "class_name": "Zeros"}, "scale": false, "name": "batch_normalization_21", "gamma_constraint": null, "beta_constraint": null, "moving_mean_initializer": {"config": {}, "class_name": "Zeros"}, "momentum": 0.99, "moving_variance_initializer": {"config": {}, "class_name": "Ones"}, "trainable": true, "gamma_regularizer": null}, "inbound_nodes": [[["conv2d_21", 0, 0, {}]]], "class_name": "BatchNormalization", "name": "batch_normalization_21"}, {"config": {"gamma_initializer": {"config": {}, "class_name": "Ones"}, "beta_regularizer": null, "axis": 3, "epsilon": 0.001, "center": true, "beta_initializer": {"config": {}, "class_name": "Zeros"}, "scale": false, "name": "batch_normalization_24", "gamma_constraint": null, "beta_constraint": null, "moving_mean_initializer": {"config": {}, "class_name": "Zeros"}, "momentum": 0.99, "moving_variance_initializer": {"config": {}, "class_name": "Ones"}, "trainable": true, "gamma_regularizer": null}, "inbound_nodes": [[["conv2d_24", 0, 0, {}]]], "class_name": "BatchNormalization", "name": "batch_normalization_24"}, {"config": {"trainable": true, "activation": "relu", "name": "activation_21"}, "inbound_nodes": [[["batch_normalization_21", 0, 0, {}]]], "class_name": "Activation", "name": "activation_21"}, {"config": {"trainable": true, "activation": "relu", "name": "activation_24"}, "inbound_nodes": [[["batch_normalization_24", 0, 0, {}]]], "class_name": "Activation", "name": "activation_24"}, {"config": {"padding": "same", "strides": [1, 1], "data_format": "channels_last", "trainable": true, "pool_size": [3, 3], "name": "average_pooling2d_3"}, "inbound_nodes": [[["mixed1", 0, 0, {}]]], "class_name": "AveragePooling2D", "name": "average_pooling2d_3"}, {"config": {"strides": [1, 1], "activity_regularizer": null, "activation": "linear", "bias_initializer": {"config": {}, "class_name": "Zeros"}, "filters": 64, "bias_regularizer": null, "name": "conv2d_20", "padding": "same", "dilation_rate": [1, 1], "kernel_constraint": null, "kernel_regularizer": null, "kernel_size": [1, 1], "data_format": "channels_last", "bias_constraint": null, "kernel_initializer": {"config": {"mode": "fan_avg", "seed": null, "distribution": "uniform", "scale": 1.0}, "class_name": "VarianceScaling"}, "use_bias": false, "trainable": true}, "inbound_nodes": [[["mixed1", 0, 0, {}]]], "class_name": "Conv2D", "name": "conv2d_20"}, {"config": {"strides": [1, 1], "activity_regularizer": null, "activation": "linear", "bias_initializer": {"config": {}, "class_name": "Zeros"}, "filters": 64, "bias_regularizer": null, "name": "conv2d_22", "padding": "same", "dilation_rate": [1, 1], "kernel_constraint": null, "kernel_regularizer": null, "kernel_size": [5, 5], "data_format": "channels_last", "bias_constraint": null, "kernel_initializer": {"config": {"mode": "fan_avg", "seed": null, "distribution": "uniform", "scale": 1.0}, "class_name": "VarianceScaling"}, "use_bias": false, "trainable": true}, "inbound_nodes": [[["activation_21", 0, 0, {}]]], "class_name": "Conv2D", "name": "conv2d_22"}, {"config": {"strides": [1, 1], "activity_regularizer": null, "activation": "linear", "bias_initializer": {"config": {}, "class_name": "Zeros"}, "filters": 96, "bias_regularizer": null, "name": "conv2d_25", "padding": "same", "dilation_rate": [1, 1], "kernel_constraint": null, "kernel_regularizer": null, "kernel_size": [3, 3], "data_format": "channels_last", "bias_constraint": null, "kernel_initializer": {"config": {"mode": "fan_avg", "seed": null, "distribution": "uniform", "scale": 1.0}, "class_name": "VarianceScaling"}, "use_bias": false, "trainable": true}, "inbound_nodes": [[["activation_24", 0, 0, {}]]], "class_name": "Conv2D", "name": "conv2d_25"}, {"config": {"strides": [1, 1], "activity_regularizer": null, "activation": "linear", "bias_initializer": {"config": {}, "class_name": "Zeros"}, "filters": 64, "bias_regularizer": null, "name": "conv2d_26", "padding": "same", "dilation_rate": [1, 1], "kernel_constraint": null, "kernel_regularizer": null, "kernel_size": [1, 1], "data_format": "channels_last", "bias_constraint": null, "kernel_initializer": {"config": {"mode": "fan_avg", "seed": null, "distribution": "uniform", "scale": 1.0}, "class_name": "VarianceScaling"}, "use_bias": false, "trainable": true}, "inbound_nodes": [[["average_pooling2d_3", 0, 0, {}]]], "class_name": "Conv2D", "name": "conv2d_26"}, {"config": {"gamma_initializer": {"config": {}, "class_name": "Ones"}, "beta_regularizer": null, "axis": 3, "epsilon": 0.001, "center": true, "beta_initializer": {"config": {}, "class_name": "Zeros"}, "scale": false, "name": "batch_normalization_20", "gamma_constraint": null, "beta_constraint": null, "moving_mean_initializer": {"config": {}, "class_name": "Zeros"}, "momentum": 0.99, "moving_variance_initializer": {"config": {}, "class_name": "Ones"}, "trainable": true, "gamma_regularizer": null}, "inbound_nodes": [[["conv2d_20", 0, 0, {}]]], "class_name": "BatchNormalization", "name": "batch_normalization_20"}, {"config": {"gamma_initializer": {"config": {}, "class_name": "Ones"}, "beta_regularizer": null, "axis": 3, "epsilon": 0.001, "center": true, "beta_initializer": {"config": {}, "class_name": "Zeros"}, "scale": false, "name": "batch_normalization_22", "gamma_constraint": null, "beta_constraint": null, "moving_mean_initializer": {"config": {}, "class_name": "Zeros"}, "momentum": 0.99, "moving_variance_initializer": {"config": {}, "class_name": "Ones"}, "trainable": true, "gamma_regularizer": null}, "inbound_nodes": [[["conv2d_22", 0, 0, {}]]], "class_name": "BatchNormalization", "name": "batch_normalization_22"}, {"config": {"gamma_initializer": {"config": {}, "class_name": "Ones"}, "beta_regularizer": null, "axis": 3, "epsilon": 0.001, "center": true, "beta_initializer": {"config": {}, "class_name": "Zeros"}, "scale": false, "name": "batch_normalization_25", "gamma_constraint": null, "beta_constraint": null, "moving_mean_initializer": {"config": {}, "class_name": "Zeros"}, "momentum": 0.99, "moving_variance_initializer": {"config": {}, "class_name": "Ones"}, "trainable": true, "gamma_regularizer": null}, "inbound_nodes": [[["conv2d_25", 0, 0, {}]]], "class_name": "BatchNormalization", "name": "batch_normalization_25"}, {"config": {"gamma_initializer": {"config": {}, "class_name": "Ones"}, "beta_regularizer": null, "axis": 3, "epsilon": 0.001, "center": true, "beta_initializer": {"config": {}, "class_name": "Zeros"}, "scale": false, "name": "batch_normalization_26", "gamma_constraint": null, "beta_constraint": null, "moving_mean_initializer": {"config": {}, "class_name": "Zeros"}, "momentum": 0.99, "moving_variance_initializer": {"config": {}, "class_name": "Ones"}, "trainable": true, "gamma_regularizer": null}, "inbound_nodes": [[["conv2d_26", 0, 0, {}]]], "class_name": "BatchNormalization", "name": "batch_normalization_26"}, {"config": {"trainable": true, "activation": "relu", "name": "activation_20"}, "inbound_nodes": [[["batch_normalization_20", 0, 0, {}]]], "class_name": "Activation", "name": "activation_20"}, {"config": {"trainable": true, "activation": "relu", "name": "activation_22"}, "inbound_nodes": [[["batch_normalization_22", 0, 0, {}]]], "class_name": "Activation", "name": "activation_22"}, {"config": {"trainable": true, "activation": "relu", "name": "activation_25"}, "inbound_nodes": [[["batch_normalization_25", 0, 0, {}]]], "class_name": "Activation", "name": "activation_25"}, {"config": {"trainable": true, "activation": "relu", "name": "activation_26"}, "inbound_nodes": [[["batch_normalization_26", 0, 0, {}]]], "class_name": "Activation", "name": "activation_26"}, {"config": {"trainable": true, "axis": 3, "name": "mixed2"}, "inbound_nodes": [[["activation_20", 0, 0, {}], ["activation_22", 0, 0, {}], ["activation_25", 0, 0, {}], ["activation_26", 0, 0, {}]]], "class_name": "Concatenate", "name": "mixed2"}, {"config": {"strides": [1, 1], "activity_regularizer": null, "activation": "linear", "bias_initializer": {"config": {}, "class_name": "Zeros"}, "filters": 64, "bias_regularizer": null, "name": "conv2d_28", "padding": "same", "dilation_rate": [1, 1], "kernel_constraint": null, "kernel_regularizer": null, "kernel_size": [1, 1], "data_format": "channels_last", "bias_constraint": null, "kernel_initializer": {"config": {"mode": "fan_avg", "seed": null, "distribution": "uniform", "scale": 1.0}, "class_name": "VarianceScaling"}, "use_bias": false, "trainable": true}, "inbound_nodes": [[["mixed2", 0, 0, {}]]], "class_name": "Conv2D", "name": "conv2d_28"}, {"config": {"gamma_initializer": {"config": {}, "class_name": "Ones"}, "beta_regularizer": null, "axis": 3, "epsilon": 0.001, "center": true, "beta_initializer": {"config": {}, "class_name": "Zeros"}, "scale": false, "name": "batch_normalization_28", "gamma_constraint": null, "beta_constraint": null, "moving_mean_initializer": {"config": {}, "class_name": "Zeros"}, "momentum": 0.99, "moving_variance_initializer": {"config": {}, "class_name": "Ones"}, "trainable": true, "gamma_regularizer": null}, "inbound_nodes": [[["conv2d_28", 0, 0, {}]]], "class_name": "BatchNormalization", "name": "batch_normalization_28"}, {"config": {"trainable": true, "activation": "relu", "name": "activation_28"}, "inbound_nodes": [[["batch_normalization_28", 0, 0, {}]]], "class_name": "Activation", "name": "activation_28"}, {"config": {"strides": [1, 1], "activity_regularizer": null, "activation": "linear", "bias_initializer": {"config": {}, "class_name": "Zeros"}, "filters": 96, "bias_regularizer": null, "name": "conv2d_29", "padding": "same", "dilation_rate": [1, 1], "kernel_constraint": null, "kernel_regularizer": null, "kernel_size": [3, 3], "data_format": "channels_last", "bias_constraint": null, "kernel_initializer": {"config": {"mode": "fan_avg", "seed": null, "distribution": "uniform", "scale": 1.0}, "class_name": "VarianceScaling"}, "use_bias": false, "trainable": true}, "inbound_nodes": [[["activation_28", 0, 0, {}]]], "class_name": "Conv2D", "name": "conv2d_29"}, {"config": {"gamma_initializer": {"config": {}, "class_name": "Ones"}, "beta_regularizer": null, "axis": 3, "epsilon": 0.001, "center": true, "beta_initializer": {"config": {}, "class_name": "Zeros"}, "scale": false, "name": "batch_normalization_29", "gamma_constraint": null, "beta_constraint": null, "moving_mean_initializer": {"config": {}, "class_name": "Zeros"}, "momentum": 0.99, "moving_variance_initializer": {"config": {}, "class_name": "Ones"}, "trainable": true, "gamma_regularizer": null}, "inbound_nodes": [[["conv2d_29", 0, 0, {}]]], "class_name": "BatchNormalization", "name": "batch_normalization_29"}, {"config": {"trainable": true, "activation": "relu", "name": "activation_29"}, "inbound_nodes": [[["batch_normalization_29", 0, 0, {}]]], "class_name": "Activation", "name": "activation_29"}, {"config": {"strides": [2, 2], "activity_regularizer": null, "activation": "linear", "bias_initializer": {"config": {}, "class_name": "Zeros"}, "filters": 384, "bias_regularizer": null, "name": "conv2d_27", "padding": "valid", "dilation_rate": [1, 1], "kernel_constraint": null, "kernel_regularizer": null, "kernel_size": [3, 3], "data_format": "channels_last", "bias_constraint": null, "kernel_initializer": {"config": {"mode": "fan_avg", "seed": null, "distribution": "uniform", "scale": 1.0}, "class_name": "VarianceScaling"}, "use_bias": false, "trainable": true}, "inbound_nodes": [[["mixed2", 0, 0, {}]]], "class_name": "Conv2D", "name": "conv2d_27"}, {"config": {"strides": [2, 2], "activity_regularizer": null, "activation": "linear", "bias_initializer": {"config": {}, "class_name": "Zeros"}, "filters": 96, "bias_regularizer": null, "name": "conv2d_30", "padding": "valid", "dilation_rate": [1, 1], "kernel_constraint": null, "kernel_regularizer": null, "kernel_size": [3, 3], "data_format": "channels_last", "bias_constraint": null, "kernel_initializer": {"config": {"mode": "fan_avg", "seed": null, "distribution": "uniform", "scale": 1.0}, "class_name": "VarianceScaling"}, "use_bias": false, "trainable": true}, "inbound_nodes": [[["activation_29", 0, 0, {}]]], "class_name": "Conv2D", "name": "conv2d_30"}, {"config": {"gamma_initializer": {"config": {}, "class_name": "Ones"}, "beta_regularizer": null, "axis": 3, "epsilon": 0.001, "center": true, "beta_initializer": {"config": {}, "class_name": "Zeros"}, "scale": false, "name": "batch_normalization_27", "gamma_constraint": null, "beta_constraint": null, "moving_mean_initializer": {"config": {}, "class_name": "Zeros"}, "momentum": 0.99, "moving_variance_initializer": {"config": {}, "class_name": "Ones"}, "trainable": true, "gamma_regularizer": null}, "inbound_nodes": [[["conv2d_27", 0, 0, {}]]], "class_name": "BatchNormalization", "name": "batch_normalization_27"}, {"config": {"gamma_initializer": {"config": {}, "class_name": "Ones"}, "beta_regularizer": null, "axis": 3, "epsilon": 0.001, "center": true, "beta_initializer": {"config": {}, "class_name": "Zeros"}, "scale": false, "name": "batch_normalization_30", "gamma_constraint": null, "beta_constraint": null, "moving_mean_initializer": {"config": {}, "class_name": "Zeros"}, "momentum": 0.99, "moving_variance_initializer": {"config": {}, "class_name": "Ones"}, "trainable": true, "gamma_regularizer": null}, "inbound_nodes": [[["conv2d_30", 0, 0, {}]]], "class_name": "BatchNormalization", "name": "batch_normalization_30"}, {"config": {"trainable": true, "activation": "relu", "name": "activation_27"}, "inbound_nodes": [[["batch_normalization_27", 0, 0, {}]]], "class_name": "Activation", "name": "activation_27"}, {"config": {"trainable": true, "activation": "relu", "name": "activation_30"}, "inbound_nodes": [[["batch_normalization_30", 0, 0, {}]]], "class_name": "Activation", "name": "activation_30"}, {"config": {"padding": "valid", "strides": [2, 2], "data_format": "channels_last", "trainable": true, "pool_size": [3, 3], "name": "max_pooling2d_3"}, "inbound_nodes": [[["mixed2", 0, 0, {}]]], "class_name": "MaxPooling2D", "name": "max_pooling2d_3"}, {"config": {"trainable": true, "axis": 3, "name": "mixed3"}, "inbound_nodes": [[["activation_27", 0, 0, {}], ["activation_30", 0, 0, {}], ["max_pooling2d_3", 0, 0, {}]]], "class_name": "Concatenate", "name": "mixed3"}, {"config": {"strides": [1, 1], "activity_regularizer": null, "activation": "linear", "bias_initializer": {"config": {}, "class_name": "Zeros"}, "filters": 128, "bias_regularizer": null, "name": "conv2d_35", "padding": "same", "dilation_rate": [1, 1], "kernel_constraint": null, "kernel_regularizer": null, "kernel_size": [1, 1], "data_format": "channels_last", "bias_constraint": null, "kernel_initializer": {"config": {"mode": "fan_avg", "seed": null, "distribution": "uniform", "scale": 1.0}, "class_name": "VarianceScaling"}, "use_bias": false, "trainable": true}, "inbound_nodes": [[["mixed3", 0, 0, {}]]], "class_name": "Conv2D", "name": "conv2d_35"}, {"config": {"gamma_initializer": {"config": {}, "class_name": "Ones"}, "beta_regularizer": null, "axis": 3, "epsilon": 0.001, "center": true, "beta_initializer": {"config": {}, "class_name": "Zeros"}, "scale": false, "name": "batch_normalization_35", "gamma_constraint": null, "beta_constraint": null, "moving_mean_initializer": {"config": {}, "class_name": "Zeros"}, "momentum": 0.99, "moving_variance_initializer": {"config": {}, "class_name": "Ones"}, "trainable": true, "gamma_regularizer": null}, "inbound_nodes": [[["conv2d_35", 0, 0, {}]]], "class_name": "BatchNormalization", "name": "batch_normalization_35"}, {"config": {"trainable": true, "activation": "relu", "name": "activation_35"}, "inbound_nodes": [[["batch_normalization_35", 0, 0, {}]]], "class_name": "Activation", "name": "activation_35"}, {"config": {"strides": [1, 1], "activity_regularizer": null, "activation": "linear", "bias_initializer": {"config": {}, "class_name": "Zeros"}, "filters": 128, "bias_regularizer": null, "name": "conv2d_36", "padding": "same", "dilation_rate": [1, 1], "kernel_constraint": null, "kernel_regularizer": null, "kernel_size": [7, 1], "data_format": "channels_last", "bias_constraint": null, "kernel_initializer": {"config": {"mode": "fan_avg", "seed": null, "distribution": "uniform", "scale": 1.0}, "class_name": "VarianceScaling"}, "use_bias": false, "trainable": true}, "inbound_nodes": [[["activation_35", 0, 0, {}]]], "class_name": "Conv2D", "name": "conv2d_36"}, {"config": {"gamma_initializer": {"config": {}, "class_name": "Ones"}, "beta_regularizer": null, "axis": 3, "epsilon": 0.001, "center": true, "beta_initializer": {"config": {}, "class_name": "Zeros"}, "scale": false, "name": "batch_normalization_36", "gamma_constraint": null, "beta_constraint": null, "moving_mean_initializer": {"config": {}, "class_name": "Zeros"}, "momentum": 0.99, "moving_variance_initializer": {"config": {}, "class_name": "Ones"}, "trainable": true, "gamma_regularizer": null}, "inbound_nodes": [[["conv2d_36", 0, 0, {}]]], "class_name": "BatchNormalization", "name": "batch_normalization_36"}, {"config": {"trainable": true, "activation": "relu", "name": "activation_36"}, "inbound_nodes": [[["batch_normalization_36", 0, 0, {}]]], "class_name": "Activation", "name": "activation_36"}, {"config": {"strides": [1, 1], "activity_regularizer": null, "activation": "linear", "bias_initializer": {"config": {}, "class_name": "Zeros"}, "filters": 128, "bias_regularizer": null, "name": "conv2d_32", "padding": "same", "dilation_rate": [1, 1], "kernel_constraint": null, "kernel_regularizer": null, "kernel_size": [1, 1], "data_format": "channels_last", "bias_constraint": null, "kernel_initializer": {"config": {"mode": "fan_avg", "seed": null, "distribution": "uniform", "scale": 1.0}, "class_name": "VarianceScaling"}, "use_bias": false, "trainable": true}, "inbound_nodes": [[["mixed3", 0, 0, {}]]], "class_name": "Conv2D", "name": "conv2d_32"}, {"config": {"strides": [1, 1], "activity_regularizer": null, "activation": "linear", "bias_initializer": {"config": {}, "class_name": "Zeros"}, "filters": 128, "bias_regularizer": null, "name": "conv2d_37", "padding": "same", "dilation_rate": [1, 1], "kernel_constraint": null, "kernel_regularizer": null, "kernel_size": [1, 7], "data_format": "channels_last", "bias_constraint": null, "kernel_initializer": {"config": {"mode": "fan_avg", "seed": null, "distribution": "uniform", "scale": 1.0}, "class_name": "VarianceScaling"}, "use_bias": false, "trainable": true}, "inbound_nodes": [[["activation_36", 0, 0, {}]]], "class_name": "Conv2D", "name": "conv2d_37"}, {"config": {"gamma_initializer": {"config": {}, "class_name": "Ones"}, "beta_regularizer": null, "axis": 3, "epsilon": 0.001, "center": true, "beta_initializer": {"config": {}, "class_name": "Zeros"}, "scale": false, "name": "batch_normalization_32", "gamma_constraint": null, "beta_constraint": null, "moving_mean_initializer": {"config": {}, "class_name": "Zeros"}, "momentum": 0.99, "moving_variance_initializer": {"config": {}, "class_name": "Ones"}, "trainable": true, "gamma_regularizer": null}, "inbound_nodes": [[["conv2d_32", 0, 0, {}]]], "class_name": "BatchNormalization", "name": "batch_normalization_32"}, {"config": {"gamma_initializer": {"config": {}, "class_name": "Ones"}, "beta_regularizer": null, "axis": 3, "epsilon": 0.001, "center": true, "beta_initializer": {"config": {}, "class_name": "Zeros"}, "scale": false, "name": "batch_normalization_37", "gamma_constraint": null, "beta_constraint": null, "moving_mean_initializer": {"config": {}, "class_name": "Zeros"}, "momentum": 0.99, "moving_variance_initializer": {"config": {}, "class_name": "Ones"}, "trainable": true, "gamma_regularizer": null}, "inbound_nodes": [[["conv2d_37", 0, 0, {}]]], "class_name": "BatchNormalization", "name": "batch_normalization_37"}, {"config": {"trainable": true, "activation": "relu", "name": "activation_32"}, "inbound_nodes": [[["batch_normalization_32", 0, 0, {}]]], "class_name": "Activation", "name": "activation_32"}, {"config": {"trainable": true, "activation": "relu", "name": "activation_37"}, "inbound_nodes": [[["batch_normalization_37", 0, 0, {}]]], "class_name": "Activation", "name": "activation_37"}, {"config": {"strides": [1, 1], "activity_regularizer": null, "activation": "linear", "bias_initializer": {"config": {}, "class_name": "Zeros"}, "filters": 128, "bias_regularizer": null, "name": "conv2d_33", "padding": "same", "dilation_rate": [1, 1], "kernel_constraint": null, "kernel_regularizer": null, "kernel_size": [1, 7], "data_format": "channels_last", "bias_constraint": null, "kernel_initializer": {"config": {"mode": "fan_avg", "seed": null, "distribution": "uniform", "scale": 1.0}, "class_name": "VarianceScaling"}, "use_bias": false, "trainable": true}, "inbound_nodes": [[["activation_32", 0, 0, {}]]], "class_name": "Conv2D", "name": "conv2d_33"}, {"config": {"strides": [1, 1], "activity_regularizer": null, "activation": "linear", "bias_initializer": {"config": {}, "class_name": "Zeros"}, "filters": 128, "bias_regularizer": null, "name": "conv2d_38", "padding": "same", "dilation_rate": [1, 1], "kernel_constraint": null, "kernel_regularizer": null, "kernel_size": [7, 1], "data_format": "channels_last", "bias_constraint": null, "kernel_initializer": {"config": {"mode": "fan_avg", "seed": null, "distribution": "uniform", "scale": 1.0}, "class_name": "VarianceScaling"}, "use_bias": false, "trainable": true}, "inbound_nodes": [[["activation_37", 0, 0, {}]]], "class_name": "Conv2D", "name": "conv2d_38"}, {"config": {"gamma_initializer": {"config": {}, "class_name": "Ones"}, "beta_regularizer": null, "axis": 3, "epsilon": 0.001, "center": true, "beta_initializer": {"config": {}, "class_name": "Zeros"}, "scale": false, "name": "batch_normalization_33", "gamma_constraint": null, "beta_constraint": null, "moving_mean_initializer": {"config": {}, "class_name": "Zeros"}, "momentum": 0.99, "moving_variance_initializer": {"config": {}, "class_name": "Ones"}, "trainable": true, "gamma_regularizer": null}, "inbound_nodes": [[["conv2d_33", 0, 0, {}]]], "class_name": "BatchNormalization", "name": "batch_normalization_33"}, {"config": {"gamma_initializer": {"config": {}, "class_name": "Ones"}, "beta_regularizer": null, "axis": 3, "epsilon": 0.001, "center": true, "beta_initializer": {"config": {}, "class_name": "Zeros"}, "scale": false, "name": "batch_normalization_38", "gamma_constraint": null, "beta_constraint": null, "moving_mean_initializer": {"config": {}, "class_name": "Zeros"}, "momentum": 0.99, "moving_variance_initializer": {"config": {}, "class_name": "Ones"}, "trainable": true, "gamma_regularizer": null}, "inbound_nodes": [[["conv2d_38", 0, 0, {}]]], "class_name": "BatchNormalization", "name": "batch_normalization_38"}, {"config": {"trainable": true, "activation": "relu", "name": "activation_33"}, "inbound_nodes": [[["batch_normalization_33", 0, 0, {}]]], "class_name": "Activation", "name": "activation_33"}, {"config": {"trainable": true, "activation": "relu", "name": "activation_38"}, "inbound_nodes": [[["batch_normalization_38", 0, 0, {}]]], "class_name": "Activation", "name": "activation_38"}, {"config": {"padding": "same", "strides": [1, 1], "data_format": "channels_last", "trainable": true, "pool_size": [3, 3], "name": "average_pooling2d_4"}, "inbound_nodes": [[["mixed3", 0, 0, {}]]], "class_name": "AveragePooling2D", "name": "average_pooling2d_4"}, {"config": {"strides": [1, 1], "activity_regularizer": null, "activation": "linear", "bias_initializer": {"config": {}, "class_name": "Zeros"}, "filters": 192, "bias_regularizer": null, "name": "conv2d_31", "padding": "same", "dilation_rate": [1, 1], "kernel_constraint": null, "kernel_regularizer": null, "kernel_size": [1, 1], "data_format": "channels_last", "bias_constraint": null, "kernel_initializer": {"config": {"mode": "fan_avg", "seed": null, "distribution": "uniform", "scale": 1.0}, "class_name": "VarianceScaling"}, "use_bias": false, "trainable": true}, "inbound_nodes": [[["mixed3", 0, 0, {}]]], "class_name": "Conv2D", "name": "conv2d_31"}, {"config": {"strides": [1, 1], "activity_regularizer": null, "activation": "linear", "bias_initializer": {"config": {}, "class_name": "Zeros"}, "filters": 192, "bias_regularizer": null, "name": "conv2d_34", "padding": "same", "dilation_rate": [1, 1], "kernel_constraint": null, "kernel_regularizer": null, "kernel_size": [7, 1], "data_format": "channels_last", "bias_constraint": null, "kernel_initializer": {"config": {"mode": "fan_avg", "seed": null, "distribution": "uniform", "scale": 1.0}, "class_name": "VarianceScaling"}, "use_bias": false, "trainable": true}, "inbound_nodes": [[["activation_33", 0, 0, {}]]], "class_name": "Conv2D", "name": "conv2d_34"}, {"config": {"strides": [1, 1], "activity_regularizer": null, "activation": "linear", "bias_initializer": {"config": {}, "class_name": "Zeros"}, "filters": 192, "bias_regularizer": null, "name": "conv2d_39", "padding": "same", "dilation_rate": [1, 1], "kernel_constraint": null, "kernel_regularizer": null, "kernel_size": [1, 7], "data_format": "channels_last", "bias_constraint": null, "kernel_initializer": {"config": {"mode": "fan_avg", "seed": null, "distribution": "uniform", "scale": 1.0}, "class_name": "VarianceScaling"}, "use_bias": false, "trainable": true}, "inbound_nodes": [[["activation_38", 0, 0, {}]]], "class_name": "Conv2D", "name": "conv2d_39"}, {"config": {"strides": [1, 1], "activity_regularizer": null, "activation": "linear", "bias_initializer": {"config": {}, "class_name": "Zeros"}, "filters": 192, "bias_regularizer": null, "name": "conv2d_40", "padding": "same", "dilation_rate": [1, 1], "kernel_constraint": null, "kernel_regularizer": null, "kernel_size": [1, 1], "data_format": "channels_last", "bias_constraint": null, "kernel_initializer": {"config": {"mode": "fan_avg", "seed": null, "distribution": "uniform", "scale": 1.0}, "class_name": "VarianceScaling"}, "use_bias": false, "trainable": true}, "inbound_nodes": [[["average_pooling2d_4", 0, 0, {}]]], "class_name": "Conv2D", "name": "conv2d_40"}, {"config": {"gamma_initializer": {"config": {}, "class_name": "Ones"}, "beta_regularizer": null, "axis": 3, "epsilon": 0.001, "center": true, "beta_initializer": {"config": {}, "class_name": "Zeros"}, "scale": false, "name": "batch_normalization_31", "gamma_constraint": null, "beta_constraint": null, "moving_mean_initializer": {"config": {}, "class_name": "Zeros"}, "momentum": 0.99, "moving_variance_initializer": {"config": {}, "class_name": "Ones"}, "trainable": true, "gamma_regularizer": null}, "inbound_nodes": [[["conv2d_31", 0, 0, {}]]], "class_name": "BatchNormalization", "name": "batch_normalization_31"}, {"config": {"gamma_initializer": {"config": {}, "class_name": "Ones"}, "beta_regularizer": null, "axis": 3, "epsilon": 0.001, "center": true, "beta_initializer": {"config": {}, "class_name": "Zeros"}, "scale": false, "name": "batch_normalization_34", "gamma_constraint": null, "beta_constraint": null, "moving_mean_initializer": {"config": {}, "class_name": "Zeros"}, "momentum": 0.99, "moving_variance_initializer": {"config": {}, "class_name": "Ones"}, "trainable": true, "gamma_regularizer": null}, "inbound_nodes": [[["conv2d_34", 0, 0, {}]]], "class_name": "BatchNormalization", "name": "batch_normalization_34"}, {"config": {"gamma_initializer": {"config": {}, "class_name": "Ones"}, "beta_regularizer": null, "axis": 3, "epsilon": 0.001, "center": true, "beta_initializer": {"config": {}, "class_name": "Zeros"}, "scale": false, "name": "batch_normalization_39", "gamma_constraint": null, "beta_constraint": null, "moving_mean_initializer": {"config": {}, "class_name": "Zeros"}, "momentum": 0.99, "moving_variance_initializer": {"config": {}, "class_name": "Ones"}, "trainable": true, "gamma_regularizer": null}, "inbound_nodes": [[["conv2d_39", 0, 0, {}]]], "class_name": "BatchNormalization", "name": "batch_normalization_39"}, {"config": {"gamma_initializer": {"config": {}, "class_name": "Ones"}, "beta_regularizer": null, "axis": 3, "epsilon": 0.001, "center": true, "beta_initializer": {"config": {}, "class_name": "Zeros"}, "scale": false, "name": "batch_normalization_40", "gamma_constraint": null, "beta_constraint": null, "moving_mean_initializer": {"config": {}, "class_name": "Zeros"}, "momentum": 0.99, "moving_variance_initializer": {"config": {}, "class_name": "Ones"}, "trainable": true, "gamma_regularizer": null}, "inbound_nodes": [[["conv2d_40", 0, 0, {}]]], "class_name": "BatchNormalization", "name": "batch_normalization_40"}, {"config": {"trainable": true, "activation": "relu", "name": "activation_31"}, "inbound_nodes": [[["batch_normalization_31", 0, 0, {}]]], "class_name": "Activation", "name": "activation_31"}, {"config": {"trainable": true, "activation": "relu", "name": "activation_34"}, "inbound_nodes": [[["batch_normalization_34", 0, 0, {}]]], "class_name": "Activation", "name": "activation_34"}, {"config": {"trainable": true, "activation": "relu", "name": "activation_39"}, "inbound_nodes": [[["batch_normalization_39", 0, 0, {}]]], "class_name": "Activation", "name": "activation_39"}, {"config": {"trainable": true, "activation": "relu", "name": "activation_40"}, "inbound_nodes": [[["batch_normalization_40", 0, 0, {}]]], "class_name": "Activation", "name": "activation_40"}, {"config": {"trainable": true, "axis": 3, "name": "mixed4"}, "inbound_nodes": [[["activation_31", 0, 0, {}], ["activation_34", 0, 0, {}], ["activation_39", 0, 0, {}], ["activation_40", 0, 0, {}]]], "class_name": "Concatenate", "name": "mixed4"}, {"config": {"strides": [1, 1], "activity_regularizer": null, "activation": "linear", "bias_initializer": {"config": {}, "class_name": "Zeros"}, "filters": 160, "bias_regularizer": null, "name": "conv2d_45", "padding": "same", "dilation_rate": [1, 1], "kernel_constraint": null, "kernel_regularizer": null, "kernel_size": [1, 1], "data_format": "channels_last", "bias_constraint": null, "kernel_initializer": {"config": {"mode": "fan_avg", "seed": null, "distribution": "uniform", "scale": 1.0}, "class_name": "VarianceScaling"}, "use_bias": false, "trainable": true}, "inbound_nodes": [[["mixed4", 0, 0, {}]]], "class_name": "Conv2D", "name": "conv2d_45"}, {"config": {"gamma_initializer": {"config": {}, "class_name": "Ones"}, "beta_regularizer": null, "axis": 3, "epsilon": 0.001, "center": true, "beta_initializer": {"config": {}, "class_name": "Zeros"}, "scale": false, "name": "batch_normalization_45", "gamma_constraint": null, "beta_constraint": null, "moving_mean_initializer": {"config": {}, "class_name": "Zeros"}, "momentum": 0.99, "moving_variance_initializer": {"config": {}, "class_name": "Ones"}, "trainable": true, "gamma_regularizer": null}, "inbound_nodes": [[["conv2d_45", 0, 0, {}]]], "class_name": "BatchNormalization", "name": "batch_normalization_45"}, {"config": {"trainable": true, "activation": "relu", "name": "activation_45"}, "inbound_nodes": [[["batch_normalization_45", 0, 0, {}]]], "class_name": "Activation", "name": "activation_45"}, {"config": {"strides": [1, 1], "activity_regularizer": null, "activation": "linear", "bias_initializer": {"config": {}, "class_name": "Zeros"}, "filters": 160, "bias_regularizer": null, "name": "conv2d_46", "padding": "same", "dilation_rate": [1, 1], "kernel_constraint": null, "kernel_regularizer": null, "kernel_size": [7, 1], "data_format": "channels_last", "bias_constraint": null, "kernel_initializer": {"config": {"mode": "fan_avg", "seed": null, "distribution": "uniform", "scale": 1.0}, "class_name": "VarianceScaling"}, "use_bias": false, "trainable": true}, "inbound_nodes": [[["activation_45", 0, 0, {}]]], "class_name": "Conv2D", "name": "conv2d_46"}, {"config": {"gamma_initializer": {"config": {}, "class_name": "Ones"}, "beta_regularizer": null, "axis": 3, "epsilon": 0.001, "center": true, "beta_initializer": {"config": {}, "class_name": "Zeros"}, "scale": false, "name": "batch_normalization_46", "gamma_constraint": null, "beta_constraint": null, "moving_mean_initializer": {"config": {}, "class_name": "Zeros"}, "momentum": 0.99, "moving_variance_initializer": {"config": {}, "class_name": "Ones"}, "trainable": true, "gamma_regularizer": null}, "inbound_nodes": [[["conv2d_46", 0, 0, {}]]], "class_name": "BatchNormalization", "name": "batch_normalization_46"}, {"config": {"trainable": true, "activation": "relu", "name": "activation_46"}, "inbound_nodes": [[["batch_normalization_46", 0, 0, {}]]], "class_name": "Activation", "name": "activation_46"}, {"config": {"strides": [1, 1], "activity_regularizer": null, "activation": "linear", "bias_initializer": {"config": {}, "class_name": "Zeros"}, "filters": 160, "bias_regularizer": null, "name": "conv2d_42", "padding": "same", "dilation_rate": [1, 1], "kernel_constraint": null, "kernel_regularizer": null, "kernel_size": [1, 1], "data_format": "channels_last", "bias_constraint": null, "kernel_initializer": {"config": {"mode": "fan_avg", "seed": null, "distribution": "uniform", "scale": 1.0}, "class_name": "VarianceScaling"}, "use_bias": false, "trainable": true}, "inbound_nodes": [[["mixed4", 0, 0, {}]]], "class_name": "Conv2D", "name": "conv2d_42"}, {"config": {"strides": [1, 1], "activity_regularizer": null, "activation": "linear", "bias_initializer": {"config": {}, "class_name": "Zeros"}, "filters": 160, "bias_regularizer": null, "name": "conv2d_47", "padding": "same", "dilation_rate": [1, 1], "kernel_constraint": null, "kernel_regularizer": null, "kernel_size": [1, 7], "data_format": "channels_last", "bias_constraint": null, "kernel_initializer": {"config": {"mode": "fan_avg", "seed": null, "distribution": "uniform", "scale": 1.0}, "class_name": "VarianceScaling"}, "use_bias": false, "trainable": true}, "inbound_nodes": [[["activation_46", 0, 0, {}]]], "class_name": "Conv2D", "name": "conv2d_47"}, {"config": {"gamma_initializer": {"config": {}, "class_name": "Ones"}, "beta_regularizer": null, "axis": 3, "epsilon": 0.001, "center": true, "beta_initializer": {"config": {}, "class_name": "Zeros"}, "scale": false, "name": "batch_normalization_42", "gamma_constraint": null, "beta_constraint": null, "moving_mean_initializer": {"config": {}, "class_name": "Zeros"}, "momentum": 0.99, "moving_variance_initializer": {"config": {}, "class_name": "Ones"}, "trainable": true, "gamma_regularizer": null}, "inbound_nodes": [[["conv2d_42", 0, 0, {}]]], "class_name": "BatchNormalization", "name": "batch_normalization_42"}, {"config": {"gamma_initializer": {"config": {}, "class_name": "Ones"}, "beta_regularizer": null, "axis": 3, "epsilon": 0.001, "center": true, "beta_initializer": {"config": {}, "class_name": "Zeros"}, "scale": false, "name": "batch_normalization_47", "gamma_constraint": null, "beta_constraint": null, "moving_mean_initializer": {"config": {}, "class_name": "Zeros"}, "momentum": 0.99, "moving_variance_initializer": {"config": {}, "class_name": "Ones"}, "trainable": true, "gamma_regularizer": null}, "inbound_nodes": [[["conv2d_47", 0, 0, {}]]], "class_name": "BatchNormalization", "name": "batch_normalization_47"}, {"config": {"trainable": true, "activation": "relu", "name": "activation_42"}, "inbound_nodes": [[["batch_normalization_42", 0, 0, {}]]], "class_name": "Activation", "name": "activation_42"}, {"config": {"trainable": true, "activation": "relu", "name": "activation_47"}, "inbound_nodes": [[["batch_normalization_47", 0, 0, {}]]], "class_name": "Activation", "name": "activation_47"}, {"config": {"strides": [1, 1], "activity_regularizer": null, "activation": "linear", "bias_initializer": {"config": {}, "class_name": "Zeros"}, "filters": 160, "bias_regularizer": null, "name": "conv2d_43", "padding": "same", "dilation_rate": [1, 1], "kernel_constraint": null, "kernel_regularizer": null, "kernel_size": [1, 7], "data_format": "channels_last", "bias_constraint": null, "kernel_initializer": {"config": {"mode": "fan_avg", "seed": null, "distribution": "uniform", "scale": 1.0}, "class_name": "VarianceScaling"}, "use_bias": false, "trainable": true}, "inbound_nodes": [[["activation_42", 0, 0, {}]]], "class_name": "Conv2D", "name": "conv2d_43"}, {"config": {"strides": [1, 1], "activity_regularizer": null, "activation": "linear", "bias_initializer": {"config": {}, "class_name": "Zeros"}, "filters": 160, "bias_regularizer": null, "name": "conv2d_48", "padding": "same", "dilation_rate": [1, 1], "kernel_constraint": null, "kernel_regularizer": null, "kernel_size": [7, 1], "data_format": "channels_last", "bias_constraint": null, "kernel_initializer": {"config": {"mode": "fan_avg", "seed": null, "distribution": "uniform", "scale": 1.0}, "class_name": "VarianceScaling"}, "use_bias": false, "trainable": true}, "inbound_nodes": [[["activation_47", 0, 0, {}]]], "class_name": "Conv2D", "name": "conv2d_48"}, {"config": {"gamma_initializer": {"config": {}, "class_name": "Ones"}, "beta_regularizer": null, "axis": 3, "epsilon": 0.001, "center": true, "beta_initializer": {"config": {}, "class_name": "Zeros"}, "scale": false, "name": "batch_normalization_43", "gamma_constraint": null, "beta_constraint": null, "moving_mean_initializer": {"config": {}, "class_name": "Zeros"}, "momentum": 0.99, "moving_variance_initializer": {"config": {}, "class_name": "Ones"}, "trainable": true, "gamma_regularizer": null}, "inbound_nodes": [[["conv2d_43", 0, 0, {}]]], "class_name": "BatchNormalization", "name": "batch_normalization_43"}, {"config": {"gamma_initializer": {"config": {}, "class_name": "Ones"}, "beta_regularizer": null, "axis": 3, "epsilon": 0.001, "center": true, "beta_initializer": {"config": {}, "class_name": "Zeros"}, "scale": false, "name": "batch_normalization_48", "gamma_constraint": null, "beta_constraint": null, "moving_mean_initializer": {"config": {}, "class_name": "Zeros"}, "momentum": 0.99, "moving_variance_initializer": {"config": {}, "class_name": "Ones"}, "trainable": true, "gamma_regularizer": null}, "inbound_nodes": [[["conv2d_48", 0, 0, {}]]], "class_name": "BatchNormalization", "name": "batch_normalization_48"}, {"config": {"trainable": true, "activation": "relu", "name": "activation_43"}, "inbound_nodes": [[["batch_normalization_43", 0, 0, {}]]], "class_name": "Activation", "name": "activation_43"}, {"config": {"trainable": true, "activation": "relu", "name": "activation_48"}, "inbound_nodes": [[["batch_normalization_48", 0, 0, {}]]], "class_name": "Activation", "name": "activation_48"}, {"config": {"padding": "same", "strides": [1, 1], "data_format": "channels_last", "trainable": true, "pool_size": [3, 3], "name": "average_pooling2d_5"}, "inbound_nodes": [[["mixed4", 0, 0, {}]]], "class_name": "AveragePooling2D", "name": "average_pooling2d_5"}, {"config": {"strides": [1, 1], "activity_regularizer": null, "activation": "linear", "bias_initializer": {"config": {}, "class_name": "Zeros"}, "filters": 192, "bias_regularizer": null, "name": "conv2d_41", "padding": "same", "dilation_rate": [1, 1], "kernel_constraint": null, "kernel_regularizer": null, "kernel_size": [1, 1], "data_format": "channels_last", "bias_constraint": null, "kernel_initializer": {"config": {"mode": "fan_avg", "seed": null, "distribution": "uniform", "scale": 1.0}, "class_name": "VarianceScaling"}, "use_bias": false, "trainable": true}, "inbound_nodes": [[["mixed4", 0, 0, {}]]], "class_name": "Conv2D", "name": "conv2d_41"}, {"config": {"strides": [1, 1], "activity_regularizer": null, "activation": "linear", "bias_initializer": {"config": {}, "class_name": "Zeros"}, "filters": 192, "bias_regularizer": null, "name": "conv2d_44", "padding": "same", "dilation_rate": [1, 1], "kernel_constraint": null, "kernel_regularizer": null, "kernel_size": [7, 1], "data_format": "channels_last", "bias_constraint": null, "kernel_initializer": {"config": {"mode": "fan_avg", "seed": null, "distribution": "uniform", "scale": 1.0}, "class_name": "VarianceScaling"}, "use_bias": false, "trainable": true}, "inbound_nodes": [[["activation_43", 0, 0, {}]]], "class_name": "Conv2D", "name": "conv2d_44"}, {"config": {"strides": [1, 1], "activity_regularizer": null, "activation": "linear", "bias_initializer": {"config": {}, "class_name": "Zeros"}, "filters": 192, "bias_regularizer": null, "name": "conv2d_49", "padding": "same", "dilation_rate": [1, 1], "kernel_constraint": null, "kernel_regularizer": null, "kernel_size": [1, 7], "data_format": "channels_last", "bias_constraint": null, "kernel_initializer": {"config": {"mode": "fan_avg", "seed": null, "distribution": "uniform", "scale": 1.0}, "class_name": "VarianceScaling"}, "use_bias": false, "trainable": true}, "inbound_nodes": [[["activation_48", 0, 0, {}]]], "class_name": "Conv2D", "name": "conv2d_49"}, {"config": {"strides": [1, 1], "activity_regularizer": null, "activation": "linear", "bias_initializer": {"config": {}, "class_name": "Zeros"}, "filters": 192, "bias_regularizer": null, "name": "conv2d_50", "padding": "same", "dilation_rate": [1, 1], "kernel_constraint": null, "kernel_regularizer": null, "kernel_size": [1, 1], "data_format": "channels_last", "bias_constraint": null, "kernel_initializer": {"config": {"mode": "fan_avg", "seed": null, "distribution": "uniform", "scale": 1.0}, "class_name": "VarianceScaling"}, "use_bias": false, "trainable": true}, "inbound_nodes": [[["average_pooling2d_5", 0, 0, {}]]], "class_name": "Conv2D", "name": "conv2d_50"}, {"config": {"gamma_initializer": {"config": {}, "class_name": "Ones"}, "beta_regularizer": null, "axis": 3, "epsilon": 0.001, "center": true, "beta_initializer": {"config": {}, "class_name": "Zeros"}, "scale": false, "name": "batch_normalization_41", "gamma_constraint": null, "beta_constraint": null, "moving_mean_initializer": {"config": {}, "class_name": "Zeros"}, "momentum": 0.99, "moving_variance_initializer": {"config": {}, "class_name": "Ones"}, "trainable": true, "gamma_regularizer": null}, "inbound_nodes": [[["conv2d_41", 0, 0, {}]]], "class_name": "BatchNormalization", "name": "batch_normalization_41"}, {"config": {"gamma_initializer": {"config": {}, "class_name": "Ones"}, "beta_regularizer": null, "axis": 3, "epsilon": 0.001, "center": true, "beta_initializer": {"config": {}, "class_name": "Zeros"}, "scale": false, "name": "batch_normalization_44", "gamma_constraint": null, "beta_constraint": null, "moving_mean_initializer": {"config": {}, "class_name": "Zeros"}, "momentum": 0.99, "moving_variance_initializer": {"config": {}, "class_name": "Ones"}, "trainable": true, "gamma_regularizer": null}, "inbound_nodes": [[["conv2d_44", 0, 0, {}]]], "class_name": "BatchNormalization", "name": "batch_normalization_44"}, {"config": {"gamma_initializer": {"config": {}, "class_name": "Ones"}, "beta_regularizer": null, "axis": 3, "epsilon": 0.001, "center": true, "beta_initializer": {"config": {}, "class_name": "Zeros"}, "scale": false, "name": "batch_normalization_49", "gamma_constraint": null, "beta_constraint": null, "moving_mean_initializer": {"config": {}, "class_name": "Zeros"}, "momentum": 0.99, "moving_variance_initializer": {"config": {}, "class_name": "Ones"}, "trainable": true, "gamma_regularizer": null}, "inbound_nodes": [[["conv2d_49", 0, 0, {}]]], "class_name": "BatchNormalization", "name": "batch_normalization_49"}, {"config": {"gamma_initializer": {"config": {}, "class_name": "Ones"}, "beta_regularizer": null, "axis": 3, "epsilon": 0.001, "center": true, "beta_initializer": {"config": {}, "class_name": "Zeros"}, "scale": false, "name": "batch_normalization_50", "gamma_constraint": null, "beta_constraint": null, "moving_mean_initializer": {"config": {}, "class_name": "Zeros"}, "momentum": 0.99, "moving_variance_initializer": {"config": {}, "class_name": "Ones"}, "trainable": true, "gamma_regularizer": null}, "inbound_nodes": [[["conv2d_50", 0, 0, {}]]], "class_name": "BatchNormalization", "name": "batch_normalization_50"}, {"config": {"trainable": true, "activation": "relu", "name": "activation_41"}, "inbound_nodes": [[["batch_normalization_41", 0, 0, {}]]], "class_name": "Activation", "name": "activation_41"}, {"config": {"trainable": true, "activation": "relu", "name": "activation_44"}, "inbound_nodes": [[["batch_normalization_44", 0, 0, {}]]], "class_name": "Activation", "name": "activation_44"}, {"config": {"trainable": true, "activation": "relu", "name": "activation_49"}, "inbound_nodes": [[["batch_normalization_49", 0, 0, {}]]], "class_name": "Activation", "name": "activation_49"}, {"config": {"trainable": true, "activation": "relu", "name": "activation_50"}, "inbound_nodes": [[["batch_normalization_50", 0, 0, {}]]], "class_name": "Activation", "name": "activation_50"}, {"config": {"trainable": true, "axis": 3, "name": "mixed5"}, "inbound_nodes": [[["activation_41", 0, 0, {}], ["activation_44", 0, 0, {}], ["activation_49", 0, 0, {}], ["activation_50", 0, 0, {}]]], "class_name": "Concatenate", "name": "mixed5"}, {"config": {"trainable": true, "data_format": "channels_last", "name": "global_average_pooling2d_1"}, "inbound_nodes": [[["mixed5", 0, 0, {}]]], "class_name": "GlobalAveragePooling2D", "name": "global_average_pooling2d_1"}, {"config": {"bias_initializer": {"config": {}, "class_name": "Zeros"}, "activity_regularizer": null, "kernel_constraint": null, "activation": "relu", "bias_regularizer": null, "use_bias": true, "name": "dense_1", "units": 1024, "bias_constraint": null, "kernel_regularizer": null, "trainable": true, "kernel_initializer": {"config": {"mode": "fan_avg", "seed": null, "distribution": "uniform", "scale": 1.0}, "class_name": "VarianceScaling"}}, "inbound_nodes": [[["global_average_pooling2d_1", 0, 0, {}]]], "class_name": "Dense", "name": "dense_1"}, {"config": {"bias_initializer": {"config": {}, "class_name": "Zeros"}, "activity_regularizer": null, "kernel_constraint": null, "activation": "linear", "bias_regularizer": null, "use_bias": true, "name": "dense_2", "units": 128, "bias_constraint": null, "kernel_regularizer": null, "trainable": true, "kernel_initializer": {"config": {"mode": "fan_avg", "seed": null, "distribution": "uniform", "scale": 1.0}, "class_name": "VarianceScaling"}}, "inbound_nodes": [[["dense_1", 0, 0, {}]]], "class_name": "Dense", "name": "dense_2"}], "output_layers": [["dense_2", 0, 0]], "input_layers": [["input_1", 0, 0]], "name": "model_1"}, "inbound_nodes": [[["input_anchor", 0, 0, {}]], [["input_positive", 0, 0, {}]], [["input_negative", 0, 0, {}]]], "class_name": "Model", "name": "model_1"}, {"config": {"function": ["4wIAAAAAAAAACQAAAAUAAABDAAAAc4AAAABkAQB9AgB8AABcAwB9AwB9BAB9BQB0AABqAQB0AABq\nAgB8AwB8BAAYgwEAZAIAZAUAgwEBfQYAdAAAagEAdAAAagIAfAMAfAUAGIMBAGQCAGQGAIMBAX0H\nAHQAAGoDAHQAAGoEAGQEAHwGAHwHABh8AQAXgwIAgwEAfQgAfAgAUykHTucAAAAAAADwP9oEYXhp\nc+kBAAAA5wAAAAAAAAAA6f////9yBQAAACkF2gFL2gNzdW3aBnNxdWFyZdoEbWVhbtoHbWF4aW11\nbSkJ2gN2ZWPaBWFscGhh2gRiZXRh2gZhbmNob3LaCHBvc2l0aXZl2ghuZWdhdGl2ZdoDZF9w2gNk\nX27aBGxvc3OpAHIUAAAA+hx0Y25fdHJpcGxldGxvc3NfZ2VuZXJhdG9yLnB52gx0cmlwbGV0X2xv\nc3MgAAAAcwwAAAAAAQYBDwEiASIBIwE=\n", [0.2], null], "output_shape_type": "lambda", "trainable": true, "name": "triplet_loss", "arguments": {}, "output_shape": ["4wEAAAAAAAAABAAAAAMAAABDAAAAcx0AAAB8AABcAwB9AQB9AgB9AwB8AQBkAQAZZAIAZgIAUykD\nTukAAAAA6QEAAACpACkE2gZzaGFwZXPaBnNoYXBlMdoGc2hhcGUy2gZzaGFwZTNyAwAAAHIDAAAA\n+hx0Y25fdHJpcGxldGxvc3NfZ2VuZXJhdG9yLnB52hR0cmlwbGV0X291dHB1dF9zaGFwZTgAAABz\nBAAAAAABDwE=\n", null, null], "function_type": "lambda"}, "inbound_nodes": [[["model_1", 1, 0, {}], ["model_1", 2, 0, {}], ["model_1", 3, 0, {}]]], "class_name": "Lambda", "name": "triplet_loss"}], "output_layers": [["triplet_loss", 0, 0]], "input_layers": [["input_anchor", 0, 0], ["input_positive", 0, 0], ["input_negative", 0, 0]], "name": "model_2"}, "class_name": "Model", "keras_version": "2.1.2", "backend": "tensorflow"}