{"class_name": "Model", "config": {"layers": [{"name": "input_anchor", "inbound_nodes": [], "config": {"name": "input_anchor", "batch_input_shape": [null, 224, 224, 3], "sparse": false, "dtype": "float32"}, "class_name": "InputLayer"}, {"name": "input_positive", "inbound_nodes": [], "config": {"name": "input_positive", "batch_input_shape": [null, 224, 224, 3], "sparse": false, "dtype": "float32"}, "class_name": "InputLayer"}, {"name": "input_negative", "inbound_nodes": [], "config": {"name": "input_negative", "batch_input_shape": [null, 224, 224, 3], "sparse": false, "dtype": "float32"}, "class_name": "InputLayer"}, {"name": "model_1", "inbound_nodes": [[["input_anchor", 0, 0, {}]], [["input_positive", 0, 0, {}]], [["input_negative", 0, 0, {}]]], "config": {"layers": [{"name": "input_1", "inbound_nodes": [], "config": {"name": "input_1", "batch_input_shape": [null, null, null, 3], "sparse": false, "dtype": "float32"}, "class_name": "InputLayer"}, {"name": "conv2d_1", "inbound_nodes": [[["input_1", 0, 0, {}]]], "config": {"kernel_regularizer": null, "dilation_rate": [1, 1], "bias_initializer": {"class_name": "Zeros", "config": {}}, "kernel_size": [3, 3], "data_format": "channels_last", "padding": "valid", "activity_regularizer": null, "use_bias": false, "activation": "linear", "kernel_initializer": {"class_name": "VarianceScaling", "config": {"distribution": "uniform", "scale": 1.0, "seed": null, "mode": "fan_avg"}}, "filters": 32, "name": "conv2d_1", "bias_constraint": null, "strides": [2, 2], "trainable": true, "kernel_constraint": null, "bias_regularizer": null}, "class_name": "Conv2D"}, {"name": "batch_normalization_1", "inbound_nodes": [[["conv2d_1", 0, 0, {}]]], "config": {"scale": false, "gamma_regularizer": null, "gamma_initializer": {"class_name": "Ones", "config": {}}, "moving_mean_initializer": {"class_name": "Zeros", "config": {}}, "center": true, "beta_constraint": null, "gamma_constraint": null, "beta_initializer": {"class_name": "Zeros", "config": {}}, "momentum": 0.99, "epsilon": 0.001, "name": "batch_normalization_1", "axis": 3, "trainable": true, "moving_variance_initializer": {"class_name": "Ones", "config": {}}, "beta_regularizer": null}, "class_name": "BatchNormalization"}, {"name": "activation_1", "inbound_nodes": [[["batch_normalization_1", 0, 0, {}]]], "config": {"activation": "relu", "name": "activation_1", "trainable": true}, "class_name": "Activation"}, {"name": "conv2d_2", "inbound_nodes": [[["activation_1", 0, 0, {}]]], "config": {"kernel_regularizer": null, "dilation_rate": [1, 1], "bias_initializer": {"class_name": "Zeros", "config": {}}, "kernel_size": [3, 3], "data_format": "channels_last", "padding": "valid", "activity_regularizer": null, "use_bias": false, "activation": "linear", "kernel_initializer": {"class_name": "VarianceScaling", "config": {"distribution": "uniform", "scale": 1.0, "seed": null, "mode": "fan_avg"}}, "filters": 32, "name": "conv2d_2", "bias_constraint": null, "strides": [1, 1], "trainable": true, "kernel_constraint": null, "bias_regularizer": null}, "class_name": "Conv2D"}, {"name": "batch_normalization_2", "inbound_nodes": [[["conv2d_2", 0, 0, {}]]], "config": {"scale": false, "gamma_regularizer": null, "gamma_initializer": {"class_name": "Ones", "config": {}}, "moving_mean_initializer": {"class_name": "Zeros", "config": {}}, "center": true, "beta_constraint": null, "gamma_constraint": null, "beta_initializer": {"class_name": "Zeros", "config": {}}, "momentum": 0.99, "epsilon": 0.001, "name": "batch_normalization_2", "axis": 3, "trainable": true, "moving_variance_initializer": {"class_name": "Ones", "config": {}}, "beta_regularizer": null}, "class_name": "BatchNormalization"}, {"name": "activation_2", "inbound_nodes": [[["batch_normalization_2", 0, 0, {}]]], "config": {"activation": "relu", "name": "activation_2", "trainable": true}, "class_name": "Activation"}, {"name": "conv2d_3", "inbound_nodes": [[["activation_2", 0, 0, {}]]], "config": {"kernel_regularizer": null, "dilation_rate": [1, 1], "bias_initializer": {"class_name": "Zeros", "config": {}}, "kernel_size": [3, 3], "data_format": "channels_last", "padding": "same", "activity_regularizer": null, "use_bias": false, "activation": "linear", "kernel_initializer": {"class_name": "VarianceScaling", "config": {"distribution": "uniform", "scale": 1.0, "seed": null, "mode": "fan_avg"}}, "filters": 64, "name": "conv2d_3", "bias_constraint": null, "strides": [1, 1], "trainable": true, "kernel_constraint": null, "bias_regularizer": null}, "class_name": "Conv2D"}, {"name": "batch_normalization_3", "inbound_nodes": [[["conv2d_3", 0, 0, {}]]], "config": {"scale": false, "gamma_regularizer": null, "gamma_initializer": {"class_name": "Ones", "config": {}}, "moving_mean_initializer": {"class_name": "Zeros", "config": {}}, "center": true, "beta_constraint": null, "gamma_constraint": null, "beta_initializer": {"class_name": "Zeros", "config": {}}, "momentum": 0.99, "epsilon": 0.001, "name": "batch_normalization_3", "axis": 3, "trainable": true, "moving_variance_initializer": {"class_name": "Ones", "config": {}}, "beta_regularizer": null}, "class_name": "BatchNormalization"}, {"name": "activation_3", "inbound_nodes": [[["batch_normalization_3", 0, 0, {}]]], "config": {"activation": "relu", "name": "activation_3", "trainable": true}, "class_name": "Activation"}, {"name": "max_pooling2d_1", "inbound_nodes": [[["activation_3", 0, 0, {}]]], "config": {"strides": [2, 2], "pool_size": [3, 3], "data_format": "channels_last", "name": "max_pooling2d_1", "padding": "valid", "trainable": true}, "class_name": "MaxPooling2D"}, {"name": "conv2d_4", "inbound_nodes": [[["max_pooling2d_1", 0, 0, {}]]], "config": {"kernel_regularizer": null, "dilation_rate": [1, 1], "bias_initializer": {"class_name": "Zeros", "config": {}}, "kernel_size": [1, 1], "data_format": "channels_last", "padding": "valid", "activity_regularizer": null, "use_bias": false, "activation": "linear", "kernel_initializer": {"class_name": "VarianceScaling", "config": {"distribution": "uniform", "scale": 1.0, "seed": null, "mode": "fan_avg"}}, "filters": 80, "name": "conv2d_4", "bias_constraint": null, "strides": [1, 1], "trainable": true, "kernel_constraint": null, "bias_regularizer": null}, "class_name": "Conv2D"}, {"name": "batch_normalization_4", "inbound_nodes": [[["conv2d_4", 0, 0, {}]]], "config": {"scale": false, "gamma_regularizer": null, "gamma_initializer": {"class_name": "Ones", "config": {}}, "moving_mean_initializer": {"class_name": "Zeros", "config": {}}, "center": true, "beta_constraint": null, "gamma_constraint": null, "beta_initializer": {"class_name": "Zeros", "config": {}}, "momentum": 0.99, "epsilon": 0.001, "name": "batch_normalization_4", "axis": 3, "trainable": true, "moving_variance_initializer": {"class_name": "Ones", "config": {}}, "beta_regularizer": null}, "class_name": "BatchNormalization"}, {"name": "activation_4", "inbound_nodes": [[["batch_normalization_4", 0, 0, {}]]], "config": {"activation": "relu", "name": "activation_4", "trainable": true}, "class_name": "Activation"}, {"name": "conv2d_5", "inbound_nodes": [[["activation_4", 0, 0, {}]]], "config": {"kernel_regularizer": null, "dilation_rate": [1, 1], "bias_initializer": {"class_name": "Zeros", "config": {}}, "kernel_size": [3, 3], "data_format": "channels_last", "padding": "valid", "activity_regularizer": null, "use_bias": false, "activation": "linear", "kernel_initializer": {"class_name": "VarianceScaling", "config": {"distribution": "uniform", "scale": 1.0, "seed": null, "mode": "fan_avg"}}, "filters": 192, "name": "conv2d_5", "bias_constraint": null, "strides": [1, 1], "trainable": true, "kernel_constraint": null, "bias_regularizer": null}, "class_name": "Conv2D"}, {"name": "batch_normalization_5", "inbound_nodes": [[["conv2d_5", 0, 0, {}]]], "config": {"scale": false, "gamma_regularizer": null, "gamma_initializer": {"class_name": "Ones", "config": {}}, "moving_mean_initializer": {"class_name": "Zeros", "config": {}}, "center": true, "beta_constraint": null, "gamma_constraint": null, "beta_initializer": {"class_name": "Zeros", "config": {}}, "momentum": 0.99, "epsilon": 0.001, "name": "batch_normalization_5", "axis": 3, "trainable": true, "moving_variance_initializer": {"class_name": "Ones", "config": {}}, "beta_regularizer": null}, "class_name": "BatchNormalization"}, {"name": "activation_5", "inbound_nodes": [[["batch_normalization_5", 0, 0, {}]]], "config": {"activation": "relu", "name": "activation_5", "trainable": true}, "class_name": "Activation"}, {"name": "max_pooling2d_2", "inbound_nodes": [[["activation_5", 0, 0, {}]]], "config": {"strides": [2, 2], "pool_size": [3, 3], "data_format": "channels_last", "name": "max_pooling2d_2", "padding": "valid", "trainable": true}, "class_name": "MaxPooling2D"}, {"name": "conv2d_9", "inbound_nodes": [[["max_pooling2d_2", 0, 0, {}]]], "config": {"kernel_regularizer": null, "dilation_rate": [1, 1], "bias_initializer": {"class_name": "Zeros", "config": {}}, "kernel_size": [1, 1], "data_format": "channels_last", "padding": "same", "activity_regularizer": null, "use_bias": false, "activation": "linear", "kernel_initializer": {"class_name": "VarianceScaling", "config": {"distribution": "uniform", "scale": 1.0, "seed": null, "mode": "fan_avg"}}, "filters": 64, "name": "conv2d_9", "bias_constraint": null, "strides": [1, 1], "trainable": true, "kernel_constraint": null, "bias_regularizer": null}, "class_name": "Conv2D"}, {"name": "batch_normalization_9", "inbound_nodes": [[["conv2d_9", 0, 0, {}]]], "config": {"scale": false, "gamma_regularizer": null, "gamma_initializer": {"class_name": "Ones", "config": {}}, "moving_mean_initializer": {"class_name": "Zeros", "config": {}}, "center": true, "beta_constraint": null, "gamma_constraint": null, "beta_initializer": {"class_name": "Zeros", "config": {}}, "momentum": 0.99, "epsilon": 0.001, "name": "batch_normalization_9", "axis": 3, "trainable": true, "moving_variance_initializer": {"class_name": "Ones", "config": {}}, "beta_regularizer": null}, "class_name": "BatchNormalization"}, {"name": "activation_9", "inbound_nodes": [[["batch_normalization_9", 0, 0, {}]]], "config": {"activation": "relu", "name": "activation_9", "trainable": true}, "class_name": "Activation"}, {"name": "conv2d_7", "inbound_nodes": [[["max_pooling2d_2", 0, 0, {}]]], "config": {"kernel_regularizer": null, "dilation_rate": [1, 1], "bias_initializer": {"class_name": "Zeros", "config": {}}, "kernel_size": [1, 1], "data_format": "channels_last", "padding": "same", "activity_regularizer": null, "use_bias": false, "activation": "linear", "kernel_initializer": {"class_name": "VarianceScaling", "config": {"distribution": "uniform", "scale": 1.0, "seed": null, "mode": "fan_avg"}}, "filters": 48, "name": "conv2d_7", "bias_constraint": null, "strides": [1, 1], "trainable": true, "kernel_constraint": null, "bias_regularizer": null}, "class_name": "Conv2D"}, {"name": "conv2d_10", "inbound_nodes": [[["activation_9", 0, 0, {}]]], "config": {"kernel_regularizer": null, "dilation_rate": [1, 1], "bias_initializer": {"class_name": "Zeros", "config": {}}, "kernel_size": [3, 3], "data_format": "channels_last", "padding": "same", "activity_regularizer": null, "use_bias": false, "activation": "linear", "kernel_initializer": {"class_name": "VarianceScaling", "config": {"distribution": "uniform", "scale": 1.0, "seed": null, "mode": "fan_avg"}}, "filters": 96, "name": "conv2d_10", "bias_constraint": null, "strides": [1, 1], "trainable": true, "kernel_constraint": null, "bias_regularizer": null}, "class_name": "Conv2D"}, {"name": "batch_normalization_7", "inbound_nodes": [[["conv2d_7", 0, 0, {}]]], "config": {"scale": false, "gamma_regularizer": null, "gamma_initializer": {"class_name": "Ones", "config": {}}, "moving_mean_initializer": {"class_name": "Zeros", "config": {}}, "center": true, "beta_constraint": null, "gamma_constraint": null, "beta_initializer": {"class_name": "Zeros", "config": {}}, "momentum": 0.99, "epsilon": 0.001, "name": "batch_normalization_7", "axis": 3, "trainable": true, "moving_variance_initializer": {"class_name": "Ones", "config": {}}, "beta_regularizer": null}, "class_name": "BatchNormalization"}, {"name": "batch_normalization_10", "inbound_nodes": [[["conv2d_10", 0, 0, {}]]], "config": {"scale": false, "gamma_regularizer": null, "gamma_initializer": {"class_name": "Ones", "config": {}}, "moving_mean_initializer": {"class_name": "Zeros", "config": {}}, "center": true, "beta_constraint": null, "gamma_constraint": null, "beta_initializer": {"class_name": "Zeros", "config": {}}, "momentum": 0.99, "epsilon": 0.001, "name": "batch_normalization_10", "axis": 3, "trainable": true, "moving_variance_initializer": {"class_name": "Ones", "config": {}}, "beta_regularizer": null}, "class_name": "BatchNormalization"}, {"name": "activation_7", "inbound_nodes": [[["batch_normalization_7", 0, 0, {}]]], "config": {"activation": "relu", "name": "activation_7", "trainable": true}, "class_name": "Activation"}, {"name": "activation_10", "inbound_nodes": [[["batch_normalization_10", 0, 0, {}]]], "config": {"activation": "relu", "name": "activation_10", "trainable": true}, "class_name": "Activation"}, {"name": "average_pooling2d_1", "inbound_nodes": [[["max_pooling2d_2", 0, 0, {}]]], "config": {"strides": [1, 1], "pool_size": [3, 3], "data_format": "channels_last", "name": "average_pooling2d_1", "padding": "same", "trainable": true}, "class_name": "AveragePooling2D"}, {"name": "conv2d_6", "inbound_nodes": [[["max_pooling2d_2", 0, 0, {}]]], "config": {"kernel_regularizer": null, "dilation_rate": [1, 1], "bias_initializer": {"class_name": "Zeros", "config": {}}, "kernel_size": [1, 1], "data_format": "channels_last", "padding": "same", "activity_regularizer": null, "use_bias": false, "activation": "linear", "kernel_initializer": {"class_name": "VarianceScaling", "config": {"distribution": "uniform", "scale": 1.0, "seed": null, "mode": "fan_avg"}}, "filters": 64, "name": "conv2d_6", "bias_constraint": null, "strides": [1, 1], "trainable": true, "kernel_constraint": null, "bias_regularizer": null}, "class_name": "Conv2D"}, {"name": "conv2d_8", "inbound_nodes": [[["activation_7", 0, 0, {}]]], "config": {"kernel_regularizer": null, "dilation_rate": [1, 1], "bias_initializer": {"class_name": "Zeros", "config": {}}, "kernel_size": [5, 5], "data_format": "channels_last", "padding": "same", "activity_regularizer": null, "use_bias": false, "activation": "linear", "kernel_initializer": {"class_name": "VarianceScaling", "config": {"distribution": "uniform", "scale": 1.0, "seed": null, "mode": "fan_avg"}}, "filters": 64, "name": "conv2d_8", "bias_constraint": null, "strides": [1, 1], "trainable": true, "kernel_constraint": null, "bias_regularizer": null}, "class_name": "Conv2D"}, {"name": "conv2d_11", "inbound_nodes": [[["activation_10", 0, 0, {}]]], "config": {"kernel_regularizer": null, "dilation_rate": [1, 1], "bias_initializer": {"class_name": "Zeros", "config": {}}, "kernel_size": [3, 3], "data_format": "channels_last", "padding": "same", "activity_regularizer": null, "use_bias": false, "activation": "linear", "kernel_initializer": {"class_name": "VarianceScaling", "config": {"distribution": "uniform", "scale": 1.0, "seed": null, "mode": "fan_avg"}}, "filters": 96, "name": "conv2d_11", "bias_constraint": null, "strides": [1, 1], "trainable": true, "kernel_constraint": null, "bias_regularizer": null}, "class_name": "Conv2D"}, {"name": "conv2d_12", "inbound_nodes": [[["average_pooling2d_1", 0, 0, {}]]], "config": {"kernel_regularizer": null, "dilation_rate": [1, 1], "bias_initializer": {"class_name": "Zeros", "config": {}}, "kernel_size": [1, 1], "data_format": "channels_last", "padding": "same", "activity_regularizer": null, "use_bias": false, "activation": "linear", "kernel_initializer": {"class_name": "VarianceScaling", "config": {"distribution": "uniform", "scale": 1.0, "seed": null, "mode": "fan_avg"}}, "filters": 32, "name": "conv2d_12", "bias_constraint": null, "strides": [1, 1], "trainable": true, "kernel_constraint": null, "bias_regularizer": null}, "class_name": "Conv2D"}, {"name": "batch_normalization_6", "inbound_nodes": [[["conv2d_6", 0, 0, {}]]], "config": {"scale": false, "gamma_regularizer": null, "gamma_initializer": {"class_name": "Ones", "config": {}}, "moving_mean_initializer": {"class_name": "Zeros", "config": {}}, "center": true, "beta_constraint": null, "gamma_constraint": null, "beta_initializer": {"class_name": "Zeros", "config": {}}, "momentum": 0.99, "epsilon": 0.001, "name": "batch_normalization_6", "axis": 3, "trainable": true, "moving_variance_initializer": {"class_name": "Ones", "config": {}}, "beta_regularizer": null}, "class_name": "BatchNormalization"}, {"name": "batch_normalization_8", "inbound_nodes": [[["conv2d_8", 0, 0, {}]]], "config": {"scale": false, "gamma_regularizer": null, "gamma_initializer": {"class_name": "Ones", "config": {}}, "moving_mean_initializer": {"class_name": "Zeros", "config": {}}, "center": true, "beta_constraint": null, "gamma_constraint": null, "beta_initializer": {"class_name": "Zeros", "config": {}}, "momentum": 0.99, "epsilon": 0.001, "name": "batch_normalization_8", "axis": 3, "trainable": true, "moving_variance_initializer": {"class_name": "Ones", "config": {}}, "beta_regularizer": null}, "class_name": "BatchNormalization"}, {"name": "batch_normalization_11", "inbound_nodes": [[["conv2d_11", 0, 0, {}]]], "config": {"scale": false, "gamma_regularizer": null, "gamma_initializer": {"class_name": "Ones", "config": {}}, "moving_mean_initializer": {"class_name": "Zeros", "config": {}}, "center": true, "beta_constraint": null, "gamma_constraint": null, "beta_initializer": {"class_name": "Zeros", "config": {}}, "momentum": 0.99, "epsilon": 0.001, "name": "batch_normalization_11", "axis": 3, "trainable": true, "moving_variance_initializer": {"class_name": "Ones", "config": {}}, "beta_regularizer": null}, "class_name": "BatchNormalization"}, {"name": "batch_normalization_12", "inbound_nodes": [[["conv2d_12", 0, 0, {}]]], "config": {"scale": false, "gamma_regularizer": null, "gamma_initializer": {"class_name": "Ones", "config": {}}, "moving_mean_initializer": {"class_name": "Zeros", "config": {}}, "center": true, "beta_constraint": null, "gamma_constraint": null, "beta_initializer": {"class_name": "Zeros", "config": {}}, "momentum": 0.99, "epsilon": 0.001, "name": "batch_normalization_12", "axis": 3, "trainable": true, "moving_variance_initializer": {"class_name": "Ones", "config": {}}, "beta_regularizer": null}, "class_name": "BatchNormalization"}, {"name": "activation_6", "inbound_nodes": [[["batch_normalization_6", 0, 0, {}]]], "config": {"activation": "relu", "name": "activation_6", "trainable": true}, "class_name": "Activation"}, {"name": "activation_8", "inbound_nodes": [[["batch_normalization_8", 0, 0, {}]]], "config": {"activation": "relu", "name": "activation_8", "trainable": true}, "class_name": "Activation"}, {"name": "activation_11", "inbound_nodes": [[["batch_normalization_11", 0, 0, {}]]], "config": {"activation": "relu", "name": "activation_11", "trainable": true}, "class_name": "Activation"}, {"name": "activation_12", "inbound_nodes": [[["batch_normalization_12", 0, 0, {}]]], "config": {"activation": "relu", "name": "activation_12", "trainable": true}, "class_name": "Activation"}, {"name": "mixed0", "inbound_nodes": [[["activation_6", 0, 0, {}], ["activation_8", 0, 0, {}], ["activation_11", 0, 0, {}], ["activation_12", 0, 0, {}]]], "config": {"name": "mixed0", "trainable": true, "axis": 3}, "class_name": "Concatenate"}, {"name": "conv2d_16", "inbound_nodes": [[["mixed0", 0, 0, {}]]], "config": {"kernel_regularizer": null, "dilation_rate": [1, 1], "bias_initializer": {"class_name": "Zeros", "config": {}}, "kernel_size": [1, 1], "data_format": "channels_last", "padding": "same", "activity_regularizer": null, "use_bias": false, "activation": "linear", "kernel_initializer": {"class_name": "VarianceScaling", "config": {"distribution": "uniform", "scale": 1.0, "seed": null, "mode": "fan_avg"}}, "filters": 64, "name": "conv2d_16", "bias_constraint": null, "strides": [1, 1], "trainable": true, "kernel_constraint": null, "bias_regularizer": null}, "class_name": "Conv2D"}, {"name": "batch_normalization_16", "inbound_nodes": [[["conv2d_16", 0, 0, {}]]], "config": {"scale": false, "gamma_regularizer": null, "gamma_initializer": {"class_name": "Ones", "config": {}}, "moving_mean_initializer": {"class_name": "Zeros", "config": {}}, "center": true, "beta_constraint": null, "gamma_constraint": null, "beta_initializer": {"class_name": "Zeros", "config": {}}, "momentum": 0.99, "epsilon": 0.001, "name": "batch_normalization_16", "axis": 3, "trainable": true, "moving_variance_initializer": {"class_name": "Ones", "config": {}}, "beta_regularizer": null}, "class_name": "BatchNormalization"}, {"name": "activation_16", "inbound_nodes": [[["batch_normalization_16", 0, 0, {}]]], "config": {"activation": "relu", "name": "activation_16", "trainable": true}, "class_name": "Activation"}, {"name": "conv2d_14", "inbound_nodes": [[["mixed0", 0, 0, {}]]], "config": {"kernel_regularizer": null, "dilation_rate": [1, 1], "bias_initializer": {"class_name": "Zeros", "config": {}}, "kernel_size": [1, 1], "data_format": "channels_last", "padding": "same", "activity_regularizer": null, "use_bias": false, "activation": "linear", "kernel_initializer": {"class_name": "VarianceScaling", "config": {"distribution": "uniform", "scale": 1.0, "seed": null, "mode": "fan_avg"}}, "filters": 48, "name": "conv2d_14", "bias_constraint": null, "strides": [1, 1], "trainable": true, "kernel_constraint": null, "bias_regularizer": null}, "class_name": "Conv2D"}, {"name": "conv2d_17", "inbound_nodes": [[["activation_16", 0, 0, {}]]], "config": {"kernel_regularizer": null, "dilation_rate": [1, 1], "bias_initializer": {"class_name": "Zeros", "config": {}}, "kernel_size": [3, 3], "data_format": "channels_last", "padding": "same", "activity_regularizer": null, "use_bias": false, "activation": "linear", "kernel_initializer": {"class_name": "VarianceScaling", "config": {"distribution": "uniform", "scale": 1.0, "seed": null, "mode": "fan_avg"}}, "filters": 96, "name": "conv2d_17", "bias_constraint": null, "strides": [1, 1], "trainable": true, "kernel_constraint": null, "bias_regularizer": null}, "class_name": "Conv2D"}, {"name": "batch_normalization_14", "inbound_nodes": [[["conv2d_14", 0, 0, {}]]], "config": {"scale": false, "gamma_regularizer": null, "gamma_initializer": {"class_name": "Ones", "config": {}}, "moving_mean_initializer": {"class_name": "Zeros", "config": {}}, "center": true, "beta_constraint": null, "gamma_constraint": null, "beta_initializer": {"class_name": "Zeros", "config": {}}, "momentum": 0.99, "epsilon": 0.001, "name": "batch_normalization_14", "axis": 3, "trainable": true, "moving_variance_initializer": {"class_name": "Ones", "config": {}}, "beta_regularizer": null}, "class_name": "BatchNormalization"}, {"name": "batch_normalization_17", "inbound_nodes": [[["conv2d_17", 0, 0, {}]]], "config": {"scale": false, "gamma_regularizer": null, "gamma_initializer": {"class_name": "Ones", "config": {}}, "moving_mean_initializer": {"class_name": "Zeros", "config": {}}, "center": true, "beta_constraint": null, "gamma_constraint": null, "beta_initializer": {"class_name": "Zeros", "config": {}}, "momentum": 0.99, "epsilon": 0.001, "name": "batch_normalization_17", "axis": 3, "trainable": true, "moving_variance_initializer": {"class_name": "Ones", "config": {}}, "beta_regularizer": null}, "class_name": "BatchNormalization"}, {"name": "activation_14", "inbound_nodes": [[["batch_normalization_14", 0, 0, {}]]], "config": {"activation": "relu", "name": "activation_14", "trainable": true}, "class_name": "Activation"}, {"name": "activation_17", "inbound_nodes": [[["batch_normalization_17", 0, 0, {}]]], "config": {"activation": "relu", "name": "activation_17", "trainable": true}, "class_name": "Activation"}, {"name": "average_pooling2d_2", "inbound_nodes": [[["mixed0", 0, 0, {}]]], "config": {"strides": [1, 1], "pool_size": [3, 3], "data_format": "channels_last", "name": "average_pooling2d_2", "padding": "same", "trainable": true}, "class_name": "AveragePooling2D"}, {"name": "conv2d_13", "inbound_nodes": [[["mixed0", 0, 0, {}]]], "config": {"kernel_regularizer": null, "dilation_rate": [1, 1], "bias_initializer": {"class_name": "Zeros", "config": {}}, "kernel_size": [1, 1], "data_format": "channels_last", "padding": "same", "activity_regularizer": null, "use_bias": false, "activation": "linear", "kernel_initializer": {"class_name": "VarianceScaling", "config": {"distribution": "uniform", "scale": 1.0, "seed": null, "mode": "fan_avg"}}, "filters": 64, "name": "conv2d_13", "bias_constraint": null, "strides": [1, 1], "trainable": true, "kernel_constraint": null, "bias_regularizer": null}, "class_name": "Conv2D"}, {"name": "conv2d_15", "inbound_nodes": [[["activation_14", 0, 0, {}]]], "config": {"kernel_regularizer": null, "dilation_rate": [1, 1], "bias_initializer": {"class_name": "Zeros", "config": {}}, "kernel_size": [5, 5], "data_format": "channels_last", "padding": "same", "activity_regularizer": null, "use_bias": false, "activation": "linear", "kernel_initializer": {"class_name": "VarianceScaling", "config": {"distribution": "uniform", "scale": 1.0, "seed": null, "mode": "fan_avg"}}, "filters": 64, "name": "conv2d_15", "bias_constraint": null, "strides": [1, 1], "trainable": true, "kernel_constraint": null, "bias_regularizer": null}, "class_name": "Conv2D"}, {"name": "conv2d_18", "inbound_nodes": [[["activation_17", 0, 0, {}]]], "config": {"kernel_regularizer": null, "dilation_rate": [1, 1], "bias_initializer": {"class_name": "Zeros", "config": {}}, "kernel_size": [3, 3], "data_format": "channels_last", "padding": "same", "activity_regularizer": null, "use_bias": false, "activation": "linear", "kernel_initializer": {"class_name": "VarianceScaling", "config": {"distribution": "uniform", "scale": 1.0, "seed": null, "mode": "fan_avg"}}, "filters": 96, "name": "conv2d_18", "bias_constraint": null, "strides": [1, 1], "trainable": true, "kernel_constraint": null, "bias_regularizer": null}, "class_name": "Conv2D"}, {"name": "conv2d_19", "inbound_nodes": [[["average_pooling2d_2", 0, 0, {}]]], "config": {"kernel_regularizer": null, "dilation_rate": [1, 1], "bias_initializer": {"class_name": "Zeros", "config": {}}, "kernel_size": [1, 1], "data_format": "channels_last", "padding": "same", "activity_regularizer": null, "use_bias": false, "activation": "linear", "kernel_initializer": {"class_name": "VarianceScaling", "config": {"distribution": "uniform", "scale": 1.0, "seed": null, "mode": "fan_avg"}}, "filters": 64, "name": "conv2d_19", "bias_constraint": null, "strides": [1, 1], "trainable": true, "kernel_constraint": null, "bias_regularizer": null}, "class_name": "Conv2D"}, {"name": "batch_normalization_13", "inbound_nodes": [[["conv2d_13", 0, 0, {}]]], "config": {"scale": false, "gamma_regularizer": null, "gamma_initializer": {"class_name": "Ones", "config": {}}, "moving_mean_initializer": {"class_name": "Zeros", "config": {}}, "center": true, "beta_constraint": null, "gamma_constraint": null, "beta_initializer": {"class_name": "Zeros", "config": {}}, "momentum": 0.99, "epsilon": 0.001, "name": "batch_normalization_13", "axis": 3, "trainable": true, "moving_variance_initializer": {"class_name": "Ones", "config": {}}, "beta_regularizer": null}, "class_name": "BatchNormalization"}, {"name": "batch_normalization_15", "inbound_nodes": [[["conv2d_15", 0, 0, {}]]], "config": {"scale": false, "gamma_regularizer": null, "gamma_initializer": {"class_name": "Ones", "config": {}}, "moving_mean_initializer": {"class_name": "Zeros", "config": {}}, "center": true, "beta_constraint": null, "gamma_constraint": null, "beta_initializer": {"class_name": "Zeros", "config": {}}, "momentum": 0.99, "epsilon": 0.001, "name": "batch_normalization_15", "axis": 3, "trainable": true, "moving_variance_initializer": {"class_name": "Ones", "config": {}}, "beta_regularizer": null}, "class_name": "BatchNormalization"}, {"name": "batch_normalization_18", "inbound_nodes": [[["conv2d_18", 0, 0, {}]]], "config": {"scale": false, "gamma_regularizer": null, "gamma_initializer": {"class_name": "Ones", "config": {}}, "moving_mean_initializer": {"class_name": "Zeros", "config": {}}, "center": true, "beta_constraint": null, "gamma_constraint": null, "beta_initializer": {"class_name": "Zeros", "config": {}}, "momentum": 0.99, "epsilon": 0.001, "name": "batch_normalization_18", "axis": 3, "trainable": true, "moving_variance_initializer": {"class_name": "Ones", "config": {}}, "beta_regularizer": null}, "class_name": "BatchNormalization"}, {"name": "batch_normalization_19", "inbound_nodes": [[["conv2d_19", 0, 0, {}]]], "config": {"scale": false, "gamma_regularizer": null, "gamma_initializer": {"class_name": "Ones", "config": {}}, "moving_mean_initializer": {"class_name": "Zeros", "config": {}}, "center": true, "beta_constraint": null, "gamma_constraint": null, "beta_initializer": {"class_name": "Zeros", "config": {}}, "momentum": 0.99, "epsilon": 0.001, "name": "batch_normalization_19", "axis": 3, "trainable": true, "moving_variance_initializer": {"class_name": "Ones", "config": {}}, "beta_regularizer": null}, "class_name": "BatchNormalization"}, {"name": "activation_13", "inbound_nodes": [[["batch_normalization_13", 0, 0, {}]]], "config": {"activation": "relu", "name": "activation_13", "trainable": true}, "class_name": "Activation"}, {"name": "activation_15", "inbound_nodes": [[["batch_normalization_15", 0, 0, {}]]], "config": {"activation": "relu", "name": "activation_15", "trainable": true}, "class_name": "Activation"}, {"name": "activation_18", "inbound_nodes": [[["batch_normalization_18", 0, 0, {}]]], "config": {"activation": "relu", "name": "activation_18", "trainable": true}, "class_name": "Activation"}, {"name": "activation_19", "inbound_nodes": [[["batch_normalization_19", 0, 0, {}]]], "config": {"activation": "relu", "name": "activation_19", "trainable": true}, "class_name": "Activation"}, {"name": "mixed1", "inbound_nodes": [[["activation_13", 0, 0, {}], ["activation_15", 0, 0, {}], ["activation_18", 0, 0, {}], ["activation_19", 0, 0, {}]]], "config": {"name": "mixed1", "trainable": true, "axis": 3}, "class_name": "Concatenate"}, {"name": "conv2d_23", "inbound_nodes": [[["mixed1", 0, 0, {}]]], "config": {"kernel_regularizer": null, "dilation_rate": [1, 1], "bias_initializer": {"class_name": "Zeros", "config": {}}, "kernel_size": [1, 1], "data_format": "channels_last", "padding": "same", "activity_regularizer": null, "use_bias": false, "activation": "linear", "kernel_initializer": {"class_name": "VarianceScaling", "config": {"distribution": "uniform", "scale": 1.0, "seed": null, "mode": "fan_avg"}}, "filters": 64, "name": "conv2d_23", "bias_constraint": null, "strides": [1, 1], "trainable": true, "kernel_constraint": null, "bias_regularizer": null}, "class_name": "Conv2D"}, {"name": "batch_normalization_23", "inbound_nodes": [[["conv2d_23", 0, 0, {}]]], "config": {"scale": false, "gamma_regularizer": null, "gamma_initializer": {"class_name": "Ones", "config": {}}, "moving_mean_initializer": {"class_name": "Zeros", "config": {}}, "center": true, "beta_constraint": null, "gamma_constraint": null, "beta_initializer": {"class_name": "Zeros", "config": {}}, "momentum": 0.99, "epsilon": 0.001, "name": "batch_normalization_23", "axis": 3, "trainable": true, "moving_variance_initializer": {"class_name": "Ones", "config": {}}, "beta_regularizer": null}, "class_name": "BatchNormalization"}, {"name": "activation_23", "inbound_nodes": [[["batch_normalization_23", 0, 0, {}]]], "config": {"activation": "relu", "name": "activation_23", "trainable": true}, "class_name": "Activation"}, {"name": "conv2d_21", "inbound_nodes": [[["mixed1", 0, 0, {}]]], "config": {"kernel_regularizer": null, "dilation_rate": [1, 1], "bias_initializer": {"class_name": "Zeros", "config": {}}, "kernel_size": [1, 1], "data_format": "channels_last", "padding": "same", "activity_regularizer": null, "use_bias": false, "activation": "linear", "kernel_initializer": {"class_name": "VarianceScaling", "config": {"distribution": "uniform", "scale": 1.0, "seed": null, "mode": "fan_avg"}}, "filters": 48, "name": "conv2d_21", "bias_constraint": null, "strides": [1, 1], "trainable": true, "kernel_constraint": null, "bias_regularizer": null}, "class_name": "Conv2D"}, {"name": "conv2d_24", "inbound_nodes": [[["activation_23", 0, 0, {}]]], "config": {"kernel_regularizer": null, "dilation_rate": [1, 1], "bias_initializer": {"class_name": "Zeros", "config": {}}, "kernel_size": [3, 3], "data_format": "channels_last", "padding": "same", "activity_regularizer": null, "use_bias": false, "activation": "linear", "kernel_initializer": {"class_name": "VarianceScaling", "config": {"distribution": "uniform", "scale": 1.0, "seed": null, "mode": "fan_avg"}}, "filters": 96, "name": "conv2d_24", "bias_constraint": null, "strides": [1, 1], "trainable": true, "kernel_constraint": null, "bias_regularizer": null}, "class_name": "Conv2D"}, {"name": "batch_normalization_21", "inbound_nodes": [[["conv2d_21", 0, 0, {}]]], "config": {"scale": false, "gamma_regularizer": null, "gamma_initializer": {"class_name": "Ones", "config": {}}, "moving_mean_initializer": {"class_name": "Zeros", "config": {}}, "center": true, "beta_constraint": null, "gamma_constraint": null, "beta_initializer": {"class_name": "Zeros", "config": {}}, "momentum": 0.99, "epsilon": 0.001, "name": "batch_normalization_21", "axis": 3, "trainable": true, "moving_variance_initializer": {"class_name": "Ones", "config": {}}, "beta_regularizer": null}, "class_name": "BatchNormalization"}, {"name": "batch_normalization_24", "inbound_nodes": [[["conv2d_24", 0, 0, {}]]], "config": {"scale": false, "gamma_regularizer": null, "gamma_initializer": {"class_name": "Ones", "config": {}}, "moving_mean_initializer": {"class_name": "Zeros", "config": {}}, "center": true, "beta_constraint": null, "gamma_constraint": null, "beta_initializer": {"class_name": "Zeros", "config": {}}, "momentum": 0.99, "epsilon": 0.001, "name": "batch_normalization_24", "axis": 3, "trainable": true, "moving_variance_initializer": {"class_name": "Ones", "config": {}}, "beta_regularizer": null}, "class_name": "BatchNormalization"}, {"name": "activation_21", "inbound_nodes": [[["batch_normalization_21", 0, 0, {}]]], "config": {"activation": "relu", "name": "activation_21", "trainable": true}, "class_name": "Activation"}, {"name": "activation_24", "inbound_nodes": [[["batch_normalization_24", 0, 0, {}]]], "config": {"activation": "relu", "name": "activation_24", "trainable": true}, "class_name": "Activation"}, {"name": "average_pooling2d_3", "inbound_nodes": [[["mixed1", 0, 0, {}]]], "config": {"strides": [1, 1], "pool_size": [3, 3], "data_format": "channels_last", "name": "average_pooling2d_3", "padding": "same", "trainable": true}, "class_name": "AveragePooling2D"}, {"name": "conv2d_20", "inbound_nodes": [[["mixed1", 0, 0, {}]]], "config": {"kernel_regularizer": null, "dilation_rate": [1, 1], "bias_initializer": {"class_name": "Zeros", "config": {}}, "kernel_size": [1, 1], "data_format": "channels_last", "padding": "same", "activity_regularizer": null, "use_bias": false, "activation": "linear", "kernel_initializer": {"class_name": "VarianceScaling", "config": {"distribution": "uniform", "scale": 1.0, "seed": null, "mode": "fan_avg"}}, "filters": 64, "name": "conv2d_20", "bias_constraint": null, "strides": [1, 1], "trainable": true, "kernel_constraint": null, "bias_regularizer": null}, "class_name": "Conv2D"}, {"name": "conv2d_22", "inbound_nodes": [[["activation_21", 0, 0, {}]]], "config": {"kernel_regularizer": null, "dilation_rate": [1, 1], "bias_initializer": {"class_name": "Zeros", "config": {}}, "kernel_size": [5, 5], "data_format": "channels_last", "padding": "same", "activity_regularizer": null, "use_bias": false, "activation": "linear", "kernel_initializer": {"class_name": "VarianceScaling", "config": {"distribution": "uniform", "scale": 1.0, "seed": null, "mode": "fan_avg"}}, "filters": 64, "name": "conv2d_22", "bias_constraint": null, "strides": [1, 1], "trainable": true, "kernel_constraint": null, "bias_regularizer": null}, "class_name": "Conv2D"}, {"name": "conv2d_25", "inbound_nodes": [[["activation_24", 0, 0, {}]]], "config": {"kernel_regularizer": null, "dilation_rate": [1, 1], "bias_initializer": {"class_name": "Zeros", "config": {}}, "kernel_size": [3, 3], "data_format": "channels_last", "padding": "same", "activity_regularizer": null, "use_bias": false, "activation": "linear", "kernel_initializer": {"class_name": "VarianceScaling", "config": {"distribution": "uniform", "scale": 1.0, "seed": null, "mode": "fan_avg"}}, "filters": 96, "name": "conv2d_25", "bias_constraint": null, "strides": [1, 1], "trainable": true, "kernel_constraint": null, "bias_regularizer": null}, "class_name": "Conv2D"}, {"name": "conv2d_26", "inbound_nodes": [[["average_pooling2d_3", 0, 0, {}]]], "config": {"kernel_regularizer": null, "dilation_rate": [1, 1], "bias_initializer": {"class_name": "Zeros", "config": {}}, "kernel_size": [1, 1], "data_format": "channels_last", "padding": "same", "activity_regularizer": null, "use_bias": false, "activation": "linear", "kernel_initializer": {"class_name": "VarianceScaling", "config": {"distribution": "uniform", "scale": 1.0, "seed": null, "mode": "fan_avg"}}, "filters": 64, "name": "conv2d_26", "bias_constraint": null, "strides": [1, 1], "trainable": true, "kernel_constraint": null, "bias_regularizer": null}, "class_name": "Conv2D"}, {"name": "batch_normalization_20", "inbound_nodes": [[["conv2d_20", 0, 0, {}]]], "config": {"scale": false, "gamma_regularizer": null, "gamma_initializer": {"class_name": "Ones", "config": {}}, "moving_mean_initializer": {"class_name": "Zeros", "config": {}}, "center": true, "beta_constraint": null, "gamma_constraint": null, "beta_initializer": {"class_name": "Zeros", "config": {}}, "momentum": 0.99, "epsilon": 0.001, "name": "batch_normalization_20", "axis": 3, "trainable": true, "moving_variance_initializer": {"class_name": "Ones", "config": {}}, "beta_regularizer": null}, "class_name": "BatchNormalization"}, {"name": "batch_normalization_22", "inbound_nodes": [[["conv2d_22", 0, 0, {}]]], "config": {"scale": false, "gamma_regularizer": null, "gamma_initializer": {"class_name": "Ones", "config": {}}, "moving_mean_initializer": {"class_name": "Zeros", "config": {}}, "center": true, "beta_constraint": null, "gamma_constraint": null, "beta_initializer": {"class_name": "Zeros", "config": {}}, "momentum": 0.99, "epsilon": 0.001, "name": "batch_normalization_22", "axis": 3, "trainable": true, "moving_variance_initializer": {"class_name": "Ones", "config": {}}, "beta_regularizer": null}, "class_name": "BatchNormalization"}, {"name": "batch_normalization_25", "inbound_nodes": [[["conv2d_25", 0, 0, {}]]], "config": {"scale": false, "gamma_regularizer": null, "gamma_initializer": {"class_name": "Ones", "config": {}}, "moving_mean_initializer": {"class_name": "Zeros", "config": {}}, "center": true, "beta_constraint": null, "gamma_constraint": null, "beta_initializer": {"class_name": "Zeros", "config": {}}, "momentum": 0.99, "epsilon": 0.001, "name": "batch_normalization_25", "axis": 3, "trainable": true, "moving_variance_initializer": {"class_name": "Ones", "config": {}}, "beta_regularizer": null}, "class_name": "BatchNormalization"}, {"name": "batch_normalization_26", "inbound_nodes": [[["conv2d_26", 0, 0, {}]]], "config": {"scale": false, "gamma_regularizer": null, "gamma_initializer": {"class_name": "Ones", "config": {}}, "moving_mean_initializer": {"class_name": "Zeros", "config": {}}, "center": true, "beta_constraint": null, "gamma_constraint": null, "beta_initializer": {"class_name": "Zeros", "config": {}}, "momentum": 0.99, "epsilon": 0.001, "name": "batch_normalization_26", "axis": 3, "trainable": true, "moving_variance_initializer": {"class_name": "Ones", "config": {}}, "beta_regularizer": null}, "class_name": "BatchNormalization"}, {"name": "activation_20", "inbound_nodes": [[["batch_normalization_20", 0, 0, {}]]], "config": {"activation": "relu", "name": "activation_20", "trainable": true}, "class_name": "Activation"}, {"name": "activation_22", "inbound_nodes": [[["batch_normalization_22", 0, 0, {}]]], "config": {"activation": "relu", "name": "activation_22", "trainable": true}, "class_name": "Activation"}, {"name": "activation_25", "inbound_nodes": [[["batch_normalization_25", 0, 0, {}]]], "config": {"activation": "relu", "name": "activation_25", "trainable": true}, "class_name": "Activation"}, {"name": "activation_26", "inbound_nodes": [[["batch_normalization_26", 0, 0, {}]]], "config": {"activation": "relu", "name": "activation_26", "trainable": true}, "class_name": "Activation"}, {"name": "mixed2", "inbound_nodes": [[["activation_20", 0, 0, {}], ["activation_22", 0, 0, {}], ["activation_25", 0, 0, {}], ["activation_26", 0, 0, {}]]], "config": {"name": "mixed2", "trainable": true, "axis": 3}, "class_name": "Concatenate"}, {"name": "conv2d_28", "inbound_nodes": [[["mixed2", 0, 0, {}]]], "config": {"kernel_regularizer": null, "dilation_rate": [1, 1], "bias_initializer": {"class_name": "Zeros", "config": {}}, "kernel_size": [1, 1], "data_format": "channels_last", "padding": "same", "activity_regularizer": null, "use_bias": false, "activation": "linear", "kernel_initializer": {"class_name": "VarianceScaling", "config": {"distribution": "uniform", "scale": 1.0, "seed": null, "mode": "fan_avg"}}, "filters": 64, "name": "conv2d_28", "bias_constraint": null, "strides": [1, 1], "trainable": true, "kernel_constraint": null, "bias_regularizer": null}, "class_name": "Conv2D"}, {"name": "batch_normalization_28", "inbound_nodes": [[["conv2d_28", 0, 0, {}]]], "config": {"scale": false, "gamma_regularizer": null, "gamma_initializer": {"class_name": "Ones", "config": {}}, "moving_mean_initializer": {"class_name": "Zeros", "config": {}}, "center": true, "beta_constraint": null, "gamma_constraint": null, "beta_initializer": {"class_name": "Zeros", "config": {}}, "momentum": 0.99, "epsilon": 0.001, "name": "batch_normalization_28", "axis": 3, "trainable": true, "moving_variance_initializer": {"class_name": "Ones", "config": {}}, "beta_regularizer": null}, "class_name": "BatchNormalization"}, {"name": "activation_28", "inbound_nodes": [[["batch_normalization_28", 0, 0, {}]]], "config": {"activation": "relu", "name": "activation_28", "trainable": true}, "class_name": "Activation"}, {"name": "conv2d_29", "inbound_nodes": [[["activation_28", 0, 0, {}]]], "config": {"kernel_regularizer": null, "dilation_rate": [1, 1], "bias_initializer": {"class_name": "Zeros", "config": {}}, "kernel_size": [3, 3], "data_format": "channels_last", "padding": "same", "activity_regularizer": null, "use_bias": false, "activation": "linear", "kernel_initializer": {"class_name": "VarianceScaling", "config": {"distribution": "uniform", "scale": 1.0, "seed": null, "mode": "fan_avg"}}, "filters": 96, "name": "conv2d_29", "bias_constraint": null, "strides": [1, 1], "trainable": true, "kernel_constraint": null, "bias_regularizer": null}, "class_name": "Conv2D"}, {"name": "batch_normalization_29", "inbound_nodes": [[["conv2d_29", 0, 0, {}]]], "config": {"scale": false, "gamma_regularizer": null, "gamma_initializer": {"class_name": "Ones", "config": {}}, "moving_mean_initializer": {"class_name": "Zeros", "config": {}}, "center": true, "beta_constraint": null, "gamma_constraint": null, "beta_initializer": {"class_name": "Zeros", "config": {}}, "momentum": 0.99, "epsilon": 0.001, "name": "batch_normalization_29", "axis": 3, "trainable": true, "moving_variance_initializer": {"class_name": "Ones", "config": {}}, "beta_regularizer": null}, "class_name": "BatchNormalization"}, {"name": "activation_29", "inbound_nodes": [[["batch_normalization_29", 0, 0, {}]]], "config": {"activation": "relu", "name": "activation_29", "trainable": true}, "class_name": "Activation"}, {"name": "conv2d_27", "inbound_nodes": [[["mixed2", 0, 0, {}]]], "config": {"kernel_regularizer": null, "dilation_rate": [1, 1], "bias_initializer": {"class_name": "Zeros", "config": {}}, "kernel_size": [3, 3], "data_format": "channels_last", "padding": "valid", "activity_regularizer": null, "use_bias": false, "activation": "linear", "kernel_initializer": {"class_name": "VarianceScaling", "config": {"distribution": "uniform", "scale": 1.0, "seed": null, "mode": "fan_avg"}}, "filters": 384, "name": "conv2d_27", "bias_constraint": null, "strides": [2, 2], "trainable": true, "kernel_constraint": null, "bias_regularizer": null}, "class_name": "Conv2D"}, {"name": "conv2d_30", "inbound_nodes": [[["activation_29", 0, 0, {}]]], "config": {"kernel_regularizer": null, "dilation_rate": [1, 1], "bias_initializer": {"class_name": "Zeros", "config": {}}, "kernel_size": [3, 3], "data_format": "channels_last", "padding": "valid", "activity_regularizer": null, "use_bias": false, "activation": "linear", "kernel_initializer": {"class_name": "VarianceScaling", "config": {"distribution": "uniform", "scale": 1.0, "seed": null, "mode": "fan_avg"}}, "filters": 96, "name": "conv2d_30", "bias_constraint": null, "strides": [2, 2], "trainable": true, "kernel_constraint": null, "bias_regularizer": null}, "class_name": "Conv2D"}, {"name": "batch_normalization_27", "inbound_nodes": [[["conv2d_27", 0, 0, {}]]], "config": {"scale": false, "gamma_regularizer": null, "gamma_initializer": {"class_name": "Ones", "config": {}}, "moving_mean_initializer": {"class_name": "Zeros", "config": {}}, "center": true, "beta_constraint": null, "gamma_constraint": null, "beta_initializer": {"class_name": "Zeros", "config": {}}, "momentum": 0.99, "epsilon": 0.001, "name": "batch_normalization_27", "axis": 3, "trainable": true, "moving_variance_initializer": {"class_name": "Ones", "config": {}}, "beta_regularizer": null}, "class_name": "BatchNormalization"}, {"name": "batch_normalization_30", "inbound_nodes": [[["conv2d_30", 0, 0, {}]]], "config": {"scale": false, "gamma_regularizer": null, "gamma_initializer": {"class_name": "Ones", "config": {}}, "moving_mean_initializer": {"class_name": "Zeros", "config": {}}, "center": true, "beta_constraint": null, "gamma_constraint": null, "beta_initializer": {"class_name": "Zeros", "config": {}}, "momentum": 0.99, "epsilon": 0.001, "name": "batch_normalization_30", "axis": 3, "trainable": true, "moving_variance_initializer": {"class_name": "Ones", "config": {}}, "beta_regularizer": null}, "class_name": "BatchNormalization"}, {"name": "activation_27", "inbound_nodes": [[["batch_normalization_27", 0, 0, {}]]], "config": {"activation": "relu", "name": "activation_27", "trainable": true}, "class_name": "Activation"}, {"name": "activation_30", "inbound_nodes": [[["batch_normalization_30", 0, 0, {}]]], "config": {"activation": "relu", "name": "activation_30", "trainable": true}, "class_name": "Activation"}, {"name": "max_pooling2d_3", "inbound_nodes": [[["mixed2", 0, 0, {}]]], "config": {"strides": [2, 2], "pool_size": [3, 3], "data_format": "channels_last", "name": "max_pooling2d_3", "padding": "valid", "trainable": true}, "class_name": "MaxPooling2D"}, {"name": "mixed3", "inbound_nodes": [[["activation_27", 0, 0, {}], ["activation_30", 0, 0, {}], ["max_pooling2d_3", 0, 0, {}]]], "config": {"name": "mixed3", "trainable": true, "axis": 3}, "class_name": "Concatenate"}, {"name": "conv2d_35", "inbound_nodes": [[["mixed3", 0, 0, {}]]], "config": {"kernel_regularizer": null, "dilation_rate": [1, 1], "bias_initializer": {"class_name": "Zeros", "config": {}}, "kernel_size": [1, 1], "data_format": "channels_last", "padding": "same", "activity_regularizer": null, "use_bias": false, "activation": "linear", "kernel_initializer": {"class_name": "VarianceScaling", "config": {"distribution": "uniform", "scale": 1.0, "seed": null, "mode": "fan_avg"}}, "filters": 128, "name": "conv2d_35", "bias_constraint": null, "strides": [1, 1], "trainable": true, "kernel_constraint": null, "bias_regularizer": null}, "class_name": "Conv2D"}, {"name": "batch_normalization_35", "inbound_nodes": [[["conv2d_35", 0, 0, {}]]], "config": {"scale": false, "gamma_regularizer": null, "gamma_initializer": {"class_name": "Ones", "config": {}}, "moving_mean_initializer": {"class_name": "Zeros", "config": {}}, "center": true, "beta_constraint": null, "gamma_constraint": null, "beta_initializer": {"class_name": "Zeros", "config": {}}, "momentum": 0.99, "epsilon": 0.001, "name": "batch_normalization_35", "axis": 3, "trainable": true, "moving_variance_initializer": {"class_name": "Ones", "config": {}}, "beta_regularizer": null}, "class_name": "BatchNormalization"}, {"name": "activation_35", "inbound_nodes": [[["batch_normalization_35", 0, 0, {}]]], "config": {"activation": "relu", "name": "activation_35", "trainable": true}, "class_name": "Activation"}, {"name": "conv2d_36", "inbound_nodes": [[["activation_35", 0, 0, {}]]], "config": {"kernel_regularizer": null, "dilation_rate": [1, 1], "bias_initializer": {"class_name": "Zeros", "config": {}}, "kernel_size": [7, 1], "data_format": "channels_last", "padding": "same", "activity_regularizer": null, "use_bias": false, "activation": "linear", "kernel_initializer": {"class_name": "VarianceScaling", "config": {"distribution": "uniform", "scale": 1.0, "seed": null, "mode": "fan_avg"}}, "filters": 128, "name": "conv2d_36", "bias_constraint": null, "strides": [1, 1], "trainable": true, "kernel_constraint": null, "bias_regularizer": null}, "class_name": "Conv2D"}, {"name": "batch_normalization_36", "inbound_nodes": [[["conv2d_36", 0, 0, {}]]], "config": {"scale": false, "gamma_regularizer": null, "gamma_initializer": {"class_name": "Ones", "config": {}}, "moving_mean_initializer": {"class_name": "Zeros", "config": {}}, "center": true, "beta_constraint": null, "gamma_constraint": null, "beta_initializer": {"class_name": "Zeros", "config": {}}, "momentum": 0.99, "epsilon": 0.001, "name": "batch_normalization_36", "axis": 3, "trainable": true, "moving_variance_initializer": {"class_name": "Ones", "config": {}}, "beta_regularizer": null}, "class_name": "BatchNormalization"}, {"name": "activation_36", "inbound_nodes": [[["batch_normalization_36", 0, 0, {}]]], "config": {"activation": "relu", "name": "activation_36", "trainable": true}, "class_name": "Activation"}, {"name": "conv2d_32", "inbound_nodes": [[["mixed3", 0, 0, {}]]], "config": {"kernel_regularizer": null, "dilation_rate": [1, 1], "bias_initializer": {"class_name": "Zeros", "config": {}}, "kernel_size": [1, 1], "data_format": "channels_last", "padding": "same", "activity_regularizer": null, "use_bias": false, "activation": "linear", "kernel_initializer": {"class_name": "VarianceScaling", "config": {"distribution": "uniform", "scale": 1.0, "seed": null, "mode": "fan_avg"}}, "filters": 128, "name": "conv2d_32", "bias_constraint": null, "strides": [1, 1], "trainable": true, "kernel_constraint": null, "bias_regularizer": null}, "class_name": "Conv2D"}, {"name": "conv2d_37", "inbound_nodes": [[["activation_36", 0, 0, {}]]], "config": {"kernel_regularizer": null, "dilation_rate": [1, 1], "bias_initializer": {"class_name": "Zeros", "config": {}}, "kernel_size": [1, 7], "data_format": "channels_last", "padding": "same", "activity_regularizer": null, "use_bias": false, "activation": "linear", "kernel_initializer": {"class_name": "VarianceScaling", "config": {"distribution": "uniform", "scale": 1.0, "seed": null, "mode": "fan_avg"}}, "filters": 128, "name": "conv2d_37", "bias_constraint": null, "strides": [1, 1], "trainable": true, "kernel_constraint": null, "bias_regularizer": null}, "class_name": "Conv2D"}, {"name": "batch_normalization_32", "inbound_nodes": [[["conv2d_32", 0, 0, {}]]], "config": {"scale": false, "gamma_regularizer": null, "gamma_initializer": {"class_name": "Ones", "config": {}}, "moving_mean_initializer": {"class_name": "Zeros", "config": {}}, "center": true, "beta_constraint": null, "gamma_constraint": null, "beta_initializer": {"class_name": "Zeros", "config": {}}, "momentum": 0.99, "epsilon": 0.001, "name": "batch_normalization_32", "axis": 3, "trainable": true, "moving_variance_initializer": {"class_name": "Ones", "config": {}}, "beta_regularizer": null}, "class_name": "BatchNormalization"}, {"name": "batch_normalization_37", "inbound_nodes": [[["conv2d_37", 0, 0, {}]]], "config": {"scale": false, "gamma_regularizer": null, "gamma_initializer": {"class_name": "Ones", "config": {}}, "moving_mean_initializer": {"class_name": "Zeros", "config": {}}, "center": true, "beta_constraint": null, "gamma_constraint": null, "beta_initializer": {"class_name": "Zeros", "config": {}}, "momentum": 0.99, "epsilon": 0.001, "name": "batch_normalization_37", "axis": 3, "trainable": true, "moving_variance_initializer": {"class_name": "Ones", "config": {}}, "beta_regularizer": null}, "class_name": "BatchNormalization"}, {"name": "activation_32", "inbound_nodes": [[["batch_normalization_32", 0, 0, {}]]], "config": {"activation": "relu", "name": "activation_32", "trainable": true}, "class_name": "Activation"}, {"name": "activation_37", "inbound_nodes": [[["batch_normalization_37", 0, 0, {}]]], "config": {"activation": "relu", "name": "activation_37", "trainable": true}, "class_name": "Activation"}, {"name": "conv2d_33", "inbound_nodes": [[["activation_32", 0, 0, {}]]], "config": {"kernel_regularizer": null, "dilation_rate": [1, 1], "bias_initializer": {"class_name": "Zeros", "config": {}}, "kernel_size": [1, 7], "data_format": "channels_last", "padding": "same", "activity_regularizer": null, "use_bias": false, "activation": "linear", "kernel_initializer": {"class_name": "VarianceScaling", "config": {"distribution": "uniform", "scale": 1.0, "seed": null, "mode": "fan_avg"}}, "filters": 128, "name": "conv2d_33", "bias_constraint": null, "strides": [1, 1], "trainable": true, "kernel_constraint": null, "bias_regularizer": null}, "class_name": "Conv2D"}, {"name": "conv2d_38", "inbound_nodes": [[["activation_37", 0, 0, {}]]], "config": {"kernel_regularizer": null, "dilation_rate": [1, 1], "bias_initializer": {"class_name": "Zeros", "config": {}}, "kernel_size": [7, 1], "data_format": "channels_last", "padding": "same", "activity_regularizer": null, "use_bias": false, "activation": "linear", "kernel_initializer": {"class_name": "VarianceScaling", "config": {"distribution": "uniform", "scale": 1.0, "seed": null, "mode": "fan_avg"}}, "filters": 128, "name": "conv2d_38", "bias_constraint": null, "strides": [1, 1], "trainable": true, "kernel_constraint": null, "bias_regularizer": null}, "class_name": "Conv2D"}, {"name": "batch_normalization_33", "inbound_nodes": [[["conv2d_33", 0, 0, {}]]], "config": {"scale": false, "gamma_regularizer": null, "gamma_initializer": {"class_name": "Ones", "config": {}}, "moving_mean_initializer": {"class_name": "Zeros", "config": {}}, "center": true, "beta_constraint": null, "gamma_constraint": null, "beta_initializer": {"class_name": "Zeros", "config": {}}, "momentum": 0.99, "epsilon": 0.001, "name": "batch_normalization_33", "axis": 3, "trainable": true, "moving_variance_initializer": {"class_name": "Ones", "config": {}}, "beta_regularizer": null}, "class_name": "BatchNormalization"}, {"name": "batch_normalization_38", "inbound_nodes": [[["conv2d_38", 0, 0, {}]]], "config": {"scale": false, "gamma_regularizer": null, "gamma_initializer": {"class_name": "Ones", "config": {}}, "moving_mean_initializer": {"class_name": "Zeros", "config": {}}, "center": true, "beta_constraint": null, "gamma_constraint": null, "beta_initializer": {"class_name": "Zeros", "config": {}}, "momentum": 0.99, "epsilon": 0.001, "name": "batch_normalization_38", "axis": 3, "trainable": true, "moving_variance_initializer": {"class_name": "Ones", "config": {}}, "beta_regularizer": null}, "class_name": "BatchNormalization"}, {"name": "activation_33", "inbound_nodes": [[["batch_normalization_33", 0, 0, {}]]], "config": {"activation": "relu", "name": "activation_33", "trainable": true}, "class_name": "Activation"}, {"name": "activation_38", "inbound_nodes": [[["batch_normalization_38", 0, 0, {}]]], "config": {"activation": "relu", "name": "activation_38", "trainable": true}, "class_name": "Activation"}, {"name": "average_pooling2d_4", "inbound_nodes": [[["mixed3", 0, 0, {}]]], "config": {"strides": [1, 1], "pool_size": [3, 3], "data_format": "channels_last", "name": "average_pooling2d_4", "padding": "same", "trainable": true}, "class_name": "AveragePooling2D"}, {"name": "conv2d_31", "inbound_nodes": [[["mixed3", 0, 0, {}]]], "config": {"kernel_regularizer": null, "dilation_rate": [1, 1], "bias_initializer": {"class_name": "Zeros", "config": {}}, "kernel_size": [1, 1], "data_format": "channels_last", "padding": "same", "activity_regularizer": null, "use_bias": false, "activation": "linear", "kernel_initializer": {"class_name": "VarianceScaling", "config": {"distribution": "uniform", "scale": 1.0, "seed": null, "mode": "fan_avg"}}, "filters": 192, "name": "conv2d_31", "bias_constraint": null, "strides": [1, 1], "trainable": true, "kernel_constraint": null, "bias_regularizer": null}, "class_name": "Conv2D"}, {"name": "conv2d_34", "inbound_nodes": [[["activation_33", 0, 0, {}]]], "config": {"kernel_regularizer": null, "dilation_rate": [1, 1], "bias_initializer": {"class_name": "Zeros", "config": {}}, "kernel_size": [7, 1], "data_format": "channels_last", "padding": "same", "activity_regularizer": null, "use_bias": false, "activation": "linear", "kernel_initializer": {"class_name": "VarianceScaling", "config": {"distribution": "uniform", "scale": 1.0, "seed": null, "mode": "fan_avg"}}, "filters": 192, "name": "conv2d_34", "bias_constraint": null, "strides": [1, 1], "trainable": true, "kernel_constraint": null, "bias_regularizer": null}, "class_name": "Conv2D"}, {"name": "conv2d_39", "inbound_nodes": [[["activation_38", 0, 0, {}]]], "config": {"kernel_regularizer": null, "dilation_rate": [1, 1], "bias_initializer": {"class_name": "Zeros", "config": {}}, "kernel_size": [1, 7], "data_format": "channels_last", "padding": "same", "activity_regularizer": null, "use_bias": false, "activation": "linear", "kernel_initializer": {"class_name": "VarianceScaling", "config": {"distribution": "uniform", "scale": 1.0, "seed": null, "mode": "fan_avg"}}, "filters": 192, "name": "conv2d_39", "bias_constraint": null, "strides": [1, 1], "trainable": true, "kernel_constraint": null, "bias_regularizer": null}, "class_name": "Conv2D"}, {"name": "conv2d_40", "inbound_nodes": [[["average_pooling2d_4", 0, 0, {}]]], "config": {"kernel_regularizer": null, "dilation_rate": [1, 1], "bias_initializer": {"class_name": "Zeros", "config": {}}, "kernel_size": [1, 1], "data_format": "channels_last", "padding": "same", "activity_regularizer": null, "use_bias": false, "activation": "linear", "kernel_initializer": {"class_name": "VarianceScaling", "config": {"distribution": "uniform", "scale": 1.0, "seed": null, "mode": "fan_avg"}}, "filters": 192, "name": "conv2d_40", "bias_constraint": null, "strides": [1, 1], "trainable": true, "kernel_constraint": null, "bias_regularizer": null}, "class_name": "Conv2D"}, {"name": "batch_normalization_31", "inbound_nodes": [[["conv2d_31", 0, 0, {}]]], "config": {"scale": false, "gamma_regularizer": null, "gamma_initializer": {"class_name": "Ones", "config": {}}, "moving_mean_initializer": {"class_name": "Zeros", "config": {}}, "center": true, "beta_constraint": null, "gamma_constraint": null, "beta_initializer": {"class_name": "Zeros", "config": {}}, "momentum": 0.99, "epsilon": 0.001, "name": "batch_normalization_31", "axis": 3, "trainable": true, "moving_variance_initializer": {"class_name": "Ones", "config": {}}, "beta_regularizer": null}, "class_name": "BatchNormalization"}, {"name": "batch_normalization_34", "inbound_nodes": [[["conv2d_34", 0, 0, {}]]], "config": {"scale": false, "gamma_regularizer": null, "gamma_initializer": {"class_name": "Ones", "config": {}}, "moving_mean_initializer": {"class_name": "Zeros", "config": {}}, "center": true, "beta_constraint": null, "gamma_constraint": null, "beta_initializer": {"class_name": "Zeros", "config": {}}, "momentum": 0.99, "epsilon": 0.001, "name": "batch_normalization_34", "axis": 3, "trainable": true, "moving_variance_initializer": {"class_name": "Ones", "config": {}}, "beta_regularizer": null}, "class_name": "BatchNormalization"}, {"name": "batch_normalization_39", "inbound_nodes": [[["conv2d_39", 0, 0, {}]]], "config": {"scale": false, "gamma_regularizer": null, "gamma_initializer": {"class_name": "Ones", "config": {}}, "moving_mean_initializer": {"class_name": "Zeros", "config": {}}, "center": true, "beta_constraint": null, "gamma_constraint": null, "beta_initializer": {"class_name": "Zeros", "config": {}}, "momentum": 0.99, "epsilon": 0.001, "name": "batch_normalization_39", "axis": 3, "trainable": true, "moving_variance_initializer": {"class_name": "Ones", "config": {}}, "beta_regularizer": null}, "class_name": "BatchNormalization"}, {"name": "batch_normalization_40", "inbound_nodes": [[["conv2d_40", 0, 0, {}]]], "config": {"scale": false, "gamma_regularizer": null, "gamma_initializer": {"class_name": "Ones", "config": {}}, "moving_mean_initializer": {"class_name": "Zeros", "config": {}}, "center": true, "beta_constraint": null, "gamma_constraint": null, "beta_initializer": {"class_name": "Zeros", "config": {}}, "momentum": 0.99, "epsilon": 0.001, "name": "batch_normalization_40", "axis": 3, "trainable": true, "moving_variance_initializer": {"class_name": "Ones", "config": {}}, "beta_regularizer": null}, "class_name": "BatchNormalization"}, {"name": "activation_31", "inbound_nodes": [[["batch_normalization_31", 0, 0, {}]]], "config": {"activation": "relu", "name": "activation_31", "trainable": true}, "class_name": "Activation"}, {"name": "activation_34", "inbound_nodes": [[["batch_normalization_34", 0, 0, {}]]], "config": {"activation": "relu", "name": "activation_34", "trainable": true}, "class_name": "Activation"}, {"name": "activation_39", "inbound_nodes": [[["batch_normalization_39", 0, 0, {}]]], "config": {"activation": "relu", "name": "activation_39", "trainable": true}, "class_name": "Activation"}, {"name": "activation_40", "inbound_nodes": [[["batch_normalization_40", 0, 0, {}]]], "config": {"activation": "relu", "name": "activation_40", "trainable": true}, "class_name": "Activation"}, {"name": "mixed4", "inbound_nodes": [[["activation_31", 0, 0, {}], ["activation_34", 0, 0, {}], ["activation_39", 0, 0, {}], ["activation_40", 0, 0, {}]]], "config": {"name": "mixed4", "trainable": true, "axis": 3}, "class_name": "Concatenate"}, {"name": "conv2d_45", "inbound_nodes": [[["mixed4", 0, 0, {}]]], "config": {"kernel_regularizer": null, "dilation_rate": [1, 1], "bias_initializer": {"class_name": "Zeros", "config": {}}, "kernel_size": [1, 1], "data_format": "channels_last", "padding": "same", "activity_regularizer": null, "use_bias": false, "activation": "linear", "kernel_initializer": {"class_name": "VarianceScaling", "config": {"distribution": "uniform", "scale": 1.0, "seed": null, "mode": "fan_avg"}}, "filters": 160, "name": "conv2d_45", "bias_constraint": null, "strides": [1, 1], "trainable": true, "kernel_constraint": null, "bias_regularizer": null}, "class_name": "Conv2D"}, {"name": "batch_normalization_45", "inbound_nodes": [[["conv2d_45", 0, 0, {}]]], "config": {"scale": false, "gamma_regularizer": null, "gamma_initializer": {"class_name": "Ones", "config": {}}, "moving_mean_initializer": {"class_name": "Zeros", "config": {}}, "center": true, "beta_constraint": null, "gamma_constraint": null, "beta_initializer": {"class_name": "Zeros", "config": {}}, "momentum": 0.99, "epsilon": 0.001, "name": "batch_normalization_45", "axis": 3, "trainable": true, "moving_variance_initializer": {"class_name": "Ones", "config": {}}, "beta_regularizer": null}, "class_name": "BatchNormalization"}, {"name": "activation_45", "inbound_nodes": [[["batch_normalization_45", 0, 0, {}]]], "config": {"activation": "relu", "name": "activation_45", "trainable": true}, "class_name": "Activation"}, {"name": "conv2d_46", "inbound_nodes": [[["activation_45", 0, 0, {}]]], "config": {"kernel_regularizer": null, "dilation_rate": [1, 1], "bias_initializer": {"class_name": "Zeros", "config": {}}, "kernel_size": [7, 1], "data_format": "channels_last", "padding": "same", "activity_regularizer": null, "use_bias": false, "activation": "linear", "kernel_initializer": {"class_name": "VarianceScaling", "config": {"distribution": "uniform", "scale": 1.0, "seed": null, "mode": "fan_avg"}}, "filters": 160, "name": "conv2d_46", "bias_constraint": null, "strides": [1, 1], "trainable": true, "kernel_constraint": null, "bias_regularizer": null}, "class_name": "Conv2D"}, {"name": "batch_normalization_46", "inbound_nodes": [[["conv2d_46", 0, 0, {}]]], "config": {"scale": false, "gamma_regularizer": null, "gamma_initializer": {"class_name": "Ones", "config": {}}, "moving_mean_initializer": {"class_name": "Zeros", "config": {}}, "center": true, "beta_constraint": null, "gamma_constraint": null, "beta_initializer": {"class_name": "Zeros", "config": {}}, "momentum": 0.99, "epsilon": 0.001, "name": "batch_normalization_46", "axis": 3, "trainable": true, "moving_variance_initializer": {"class_name": "Ones", "config": {}}, "beta_regularizer": null}, "class_name": "BatchNormalization"}, {"name": "activation_46", "inbound_nodes": [[["batch_normalization_46", 0, 0, {}]]], "config": {"activation": "relu", "name": "activation_46", "trainable": true}, "class_name": "Activation"}, {"name": "conv2d_42", "inbound_nodes": [[["mixed4", 0, 0, {}]]], "config": {"kernel_regularizer": null, "dilation_rate": [1, 1], "bias_initializer": {"class_name": "Zeros", "config": {}}, "kernel_size": [1, 1], "data_format": "channels_last", "padding": "same", "activity_regularizer": null, "use_bias": false, "activation": "linear", "kernel_initializer": {"class_name": "VarianceScaling", "config": {"distribution": "uniform", "scale": 1.0, "seed": null, "mode": "fan_avg"}}, "filters": 160, "name": "conv2d_42", "bias_constraint": null, "strides": [1, 1], "trainable": true, "kernel_constraint": null, "bias_regularizer": null}, "class_name": "Conv2D"}, {"name": "conv2d_47", "inbound_nodes": [[["activation_46", 0, 0, {}]]], "config": {"kernel_regularizer": null, "dilation_rate": [1, 1], "bias_initializer": {"class_name": "Zeros", "config": {}}, "kernel_size": [1, 7], "data_format": "channels_last", "padding": "same", "activity_regularizer": null, "use_bias": false, "activation": "linear", "kernel_initializer": {"class_name": "VarianceScaling", "config": {"distribution": "uniform", "scale": 1.0, "seed": null, "mode": "fan_avg"}}, "filters": 160, "name": "conv2d_47", "bias_constraint": null, "strides": [1, 1], "trainable": true, "kernel_constraint": null, "bias_regularizer": null}, "class_name": "Conv2D"}, {"name": "batch_normalization_42", "inbound_nodes": [[["conv2d_42", 0, 0, {}]]], "config": {"scale": false, "gamma_regularizer": null, "gamma_initializer": {"class_name": "Ones", "config": {}}, "moving_mean_initializer": {"class_name": "Zeros", "config": {}}, "center": true, "beta_constraint": null, "gamma_constraint": null, "beta_initializer": {"class_name": "Zeros", "config": {}}, "momentum": 0.99, "epsilon": 0.001, "name": "batch_normalization_42", "axis": 3, "trainable": true, "moving_variance_initializer": {"class_name": "Ones", "config": {}}, "beta_regularizer": null}, "class_name": "BatchNormalization"}, {"name": "batch_normalization_47", "inbound_nodes": [[["conv2d_47", 0, 0, {}]]], "config": {"scale": false, "gamma_regularizer": null, "gamma_initializer": {"class_name": "Ones", "config": {}}, "moving_mean_initializer": {"class_name": "Zeros", "config": {}}, "center": true, "beta_constraint": null, "gamma_constraint": null, "beta_initializer": {"class_name": "Zeros", "config": {}}, "momentum": 0.99, "epsilon": 0.001, "name": "batch_normalization_47", "axis": 3, "trainable": true, "moving_variance_initializer": {"class_name": "Ones", "config": {}}, "beta_regularizer": null}, "class_name": "BatchNormalization"}, {"name": "activation_42", "inbound_nodes": [[["batch_normalization_42", 0, 0, {}]]], "config": {"activation": "relu", "name": "activation_42", "trainable": true}, "class_name": "Activation"}, {"name": "activation_47", "inbound_nodes": [[["batch_normalization_47", 0, 0, {}]]], "config": {"activation": "relu", "name": "activation_47", "trainable": true}, "class_name": "Activation"}, {"name": "conv2d_43", "inbound_nodes": [[["activation_42", 0, 0, {}]]], "config": {"kernel_regularizer": null, "dilation_rate": [1, 1], "bias_initializer": {"class_name": "Zeros", "config": {}}, "kernel_size": [1, 7], "data_format": "channels_last", "padding": "same", "activity_regularizer": null, "use_bias": false, "activation": "linear", "kernel_initializer": {"class_name": "VarianceScaling", "config": {"distribution": "uniform", "scale": 1.0, "seed": null, "mode": "fan_avg"}}, "filters": 160, "name": "conv2d_43", "bias_constraint": null, "strides": [1, 1], "trainable": true, "kernel_constraint": null, "bias_regularizer": null}, "class_name": "Conv2D"}, {"name": "conv2d_48", "inbound_nodes": [[["activation_47", 0, 0, {}]]], "config": {"kernel_regularizer": null, "dilation_rate": [1, 1], "bias_initializer": {"class_name": "Zeros", "config": {}}, "kernel_size": [7, 1], "data_format": "channels_last", "padding": "same", "activity_regularizer": null, "use_bias": false, "activation": "linear", "kernel_initializer": {"class_name": "VarianceScaling", "config": {"distribution": "uniform", "scale": 1.0, "seed": null, "mode": "fan_avg"}}, "filters": 160, "name": "conv2d_48", "bias_constraint": null, "strides": [1, 1], "trainable": true, "kernel_constraint": null, "bias_regularizer": null}, "class_name": "Conv2D"}, {"name": "batch_normalization_43", "inbound_nodes": [[["conv2d_43", 0, 0, {}]]], "config": {"scale": false, "gamma_regularizer": null, "gamma_initializer": {"class_name": "Ones", "config": {}}, "moving_mean_initializer": {"class_name": "Zeros", "config": {}}, "center": true, "beta_constraint": null, "gamma_constraint": null, "beta_initializer": {"class_name": "Zeros", "config": {}}, "momentum": 0.99, "epsilon": 0.001, "name": "batch_normalization_43", "axis": 3, "trainable": true, "moving_variance_initializer": {"class_name": "Ones", "config": {}}, "beta_regularizer": null}, "class_name": "BatchNormalization"}, {"name": "batch_normalization_48", "inbound_nodes": [[["conv2d_48", 0, 0, {}]]], "config": {"scale": false, "gamma_regularizer": null, "gamma_initializer": {"class_name": "Ones", "config": {}}, "moving_mean_initializer": {"class_name": "Zeros", "config": {}}, "center": true, "beta_constraint": null, "gamma_constraint": null, "beta_initializer": {"class_name": "Zeros", "config": {}}, "momentum": 0.99, "epsilon": 0.001, "name": "batch_normalization_48", "axis": 3, "trainable": true, "moving_variance_initializer": {"class_name": "Ones", "config": {}}, "beta_regularizer": null}, "class_name": "BatchNormalization"}, {"name": "activation_43", "inbound_nodes": [[["batch_normalization_43", 0, 0, {}]]], "config": {"activation": "relu", "name": "activation_43", "trainable": true}, "class_name": "Activation"}, {"name": "activation_48", "inbound_nodes": [[["batch_normalization_48", 0, 0, {}]]], "config": {"activation": "relu", "name": "activation_48", "trainable": true}, "class_name": "Activation"}, {"name": "average_pooling2d_5", "inbound_nodes": [[["mixed4", 0, 0, {}]]], "config": {"strides": [1, 1], "pool_size": [3, 3], "data_format": "channels_last", "name": "average_pooling2d_5", "padding": "same", "trainable": true}, "class_name": "AveragePooling2D"}, {"name": "conv2d_41", "inbound_nodes": [[["mixed4", 0, 0, {}]]], "config": {"kernel_regularizer": null, "dilation_rate": [1, 1], "bias_initializer": {"class_name": "Zeros", "config": {}}, "kernel_size": [1, 1], "data_format": "channels_last", "padding": "same", "activity_regularizer": null, "use_bias": false, "activation": "linear", "kernel_initializer": {"class_name": "VarianceScaling", "config": {"distribution": "uniform", "scale": 1.0, "seed": null, "mode": "fan_avg"}}, "filters": 192, "name": "conv2d_41", "bias_constraint": null, "strides": [1, 1], "trainable": true, "kernel_constraint": null, "bias_regularizer": null}, "class_name": "Conv2D"}, {"name": "conv2d_44", "inbound_nodes": [[["activation_43", 0, 0, {}]]], "config": {"kernel_regularizer": null, "dilation_rate": [1, 1], "bias_initializer": {"class_name": "Zeros", "config": {}}, "kernel_size": [7, 1], "data_format": "channels_last", "padding": "same", "activity_regularizer": null, "use_bias": false, "activation": "linear", "kernel_initializer": {"class_name": "VarianceScaling", "config": {"distribution": "uniform", "scale": 1.0, "seed": null, "mode": "fan_avg"}}, "filters": 192, "name": "conv2d_44", "bias_constraint": null, "strides": [1, 1], "trainable": true, "kernel_constraint": null, "bias_regularizer": null}, "class_name": "Conv2D"}, {"name": "conv2d_49", "inbound_nodes": [[["activation_48", 0, 0, {}]]], "config": {"kernel_regularizer": null, "dilation_rate": [1, 1], "bias_initializer": {"class_name": "Zeros", "config": {}}, "kernel_size": [1, 7], "data_format": "channels_last", "padding": "same", "activity_regularizer": null, "use_bias": false, "activation": "linear", "kernel_initializer": {"class_name": "VarianceScaling", "config": {"distribution": "uniform", "scale": 1.0, "seed": null, "mode": "fan_avg"}}, "filters": 192, "name": "conv2d_49", "bias_constraint": null, "strides": [1, 1], "trainable": true, "kernel_constraint": null, "bias_regularizer": null}, "class_name": "Conv2D"}, {"name": "conv2d_50", "inbound_nodes": [[["average_pooling2d_5", 0, 0, {}]]], "config": {"kernel_regularizer": null, "dilation_rate": [1, 1], "bias_initializer": {"class_name": "Zeros", "config": {}}, "kernel_size": [1, 1], "data_format": "channels_last", "padding": "same", "activity_regularizer": null, "use_bias": false, "activation": "linear", "kernel_initializer": {"class_name": "VarianceScaling", "config": {"distribution": "uniform", "scale": 1.0, "seed": null, "mode": "fan_avg"}}, "filters": 192, "name": "conv2d_50", "bias_constraint": null, "strides": [1, 1], "trainable": true, "kernel_constraint": null, "bias_regularizer": null}, "class_name": "Conv2D"}, {"name": "batch_normalization_41", "inbound_nodes": [[["conv2d_41", 0, 0, {}]]], "config": {"scale": false, "gamma_regularizer": null, "gamma_initializer": {"class_name": "Ones", "config": {}}, "moving_mean_initializer": {"class_name": "Zeros", "config": {}}, "center": true, "beta_constraint": null, "gamma_constraint": null, "beta_initializer": {"class_name": "Zeros", "config": {}}, "momentum": 0.99, "epsilon": 0.001, "name": "batch_normalization_41", "axis": 3, "trainable": true, "moving_variance_initializer": {"class_name": "Ones", "config": {}}, "beta_regularizer": null}, "class_name": "BatchNormalization"}, {"name": "batch_normalization_44", "inbound_nodes": [[["conv2d_44", 0, 0, {}]]], "config": {"scale": false, "gamma_regularizer": null, "gamma_initializer": {"class_name": "Ones", "config": {}}, "moving_mean_initializer": {"class_name": "Zeros", "config": {}}, "center": true, "beta_constraint": null, "gamma_constraint": null, "beta_initializer": {"class_name": "Zeros", "config": {}}, "momentum": 0.99, "epsilon": 0.001, "name": "batch_normalization_44", "axis": 3, "trainable": true, "moving_variance_initializer": {"class_name": "Ones", "config": {}}, "beta_regularizer": null}, "class_name": "BatchNormalization"}, {"name": "batch_normalization_49", "inbound_nodes": [[["conv2d_49", 0, 0, {}]]], "config": {"scale": false, "gamma_regularizer": null, "gamma_initializer": {"class_name": "Ones", "config": {}}, "moving_mean_initializer": {"class_name": "Zeros", "config": {}}, "center": true, "beta_constraint": null, "gamma_constraint": null, "beta_initializer": {"class_name": "Zeros", "config": {}}, "momentum": 0.99, "epsilon": 0.001, "name": "batch_normalization_49", "axis": 3, "trainable": true, "moving_variance_initializer": {"class_name": "Ones", "config": {}}, "beta_regularizer": null}, "class_name": "BatchNormalization"}, {"name": "batch_normalization_50", "inbound_nodes": [[["conv2d_50", 0, 0, {}]]], "config": {"scale": false, "gamma_regularizer": null, "gamma_initializer": {"class_name": "Ones", "config": {}}, "moving_mean_initializer": {"class_name": "Zeros", "config": {}}, "center": true, "beta_constraint": null, "gamma_constraint": null, "beta_initializer": {"class_name": "Zeros", "config": {}}, "momentum": 0.99, "epsilon": 0.001, "name": "batch_normalization_50", "axis": 3, "trainable": true, "moving_variance_initializer": {"class_name": "Ones", "config": {}}, "beta_regularizer": null}, "class_name": "BatchNormalization"}, {"name": "activation_41", "inbound_nodes": [[["batch_normalization_41", 0, 0, {}]]], "config": {"activation": "relu", "name": "activation_41", "trainable": true}, "class_name": "Activation"}, {"name": "activation_44", "inbound_nodes": [[["batch_normalization_44", 0, 0, {}]]], "config": {"activation": "relu", "name": "activation_44", "trainable": true}, "class_name": "Activation"}, {"name": "activation_49", "inbound_nodes": [[["batch_normalization_49", 0, 0, {}]]], "config": {"activation": "relu", "name": "activation_49", "trainable": true}, "class_name": "Activation"}, {"name": "activation_50", "inbound_nodes": [[["batch_normalization_50", 0, 0, {}]]], "config": {"activation": "relu", "name": "activation_50", "trainable": true}, "class_name": "Activation"}, {"name": "mixed5", "inbound_nodes": [[["activation_41", 0, 0, {}], ["activation_44", 0, 0, {}], ["activation_49", 0, 0, {}], ["activation_50", 0, 0, {}]]], "config": {"name": "mixed5", "trainable": true, "axis": 3}, "class_name": "Concatenate"}, {"name": "global_average_pooling2d_1", "inbound_nodes": [[["mixed5", 0, 0, {}]]], "config": {"name": "global_average_pooling2d_1", "trainable": true, "data_format": "channels_last"}, "class_name": "GlobalAveragePooling2D"}, {"name": "dense_1", "inbound_nodes": [[["global_average_pooling2d_1", 0, 0, {}]]], "config": {"kernel_regularizer": null, "bias_regularizer": null, "units": 1024, "bias_initializer": {"class_name": "Zeros", "config": {}}, "kernel_constraint": null, "activity_regularizer": null, "use_bias": true, "activation": "relu", "kernel_initializer": {"class_name": "VarianceScaling", "config": {"distribution": "uniform", "scale": 1.0, "seed": null, "mode": "fan_avg"}}, "name": "dense_1", "bias_constraint": null, "trainable": true}, "class_name": "Dense"}, {"name": "dropout_1", "inbound_nodes": [[["dense_1", 0, 0, {}]]], "config": {"name": "dropout_1", "trainable": true, "rate": 0.2, "seed": null, "noise_shape": null}, "class_name": "Dropout"}, {"name": "dense_2", "inbound_nodes": [[["dropout_1", 0, 0, {}]]], "config": {"kernel_regularizer": null, "bias_regularizer": null, "units": 128, "bias_initializer": {"class_name": "Zeros", "config": {}}, "kernel_constraint": null, "activity_regularizer": null, "use_bias": true, "activation": "linear", "kernel_initializer": {"class_name": "VarianceScaling", "config": {"distribution": "uniform", "scale": 1.0, "seed": null, "mode": "fan_avg"}}, "name": "dense_2", "bias_constraint": null, "trainable": true}, "class_name": "Dense"}], "name": "model_1", "input_layers": [["input_1", 0, 0]], "output_layers": [["dense_2", 0, 0]]}, "class_name": "Model"}, {"name": "triplet_loss", "inbound_nodes": [[["model_1", 1, 0, {}], ["model_1", 2, 0, {}], ["model_1", 3, 0, {}]]], "config": {"function_type": "lambda", "function": ["4wIAAAAAAAAACQAAAAQAAABDAAAAc3gAAABkAQB9AgB8AABcAwB9AwB9BAB9BQB0AABqAQB0AABq\nAgB8AwB8BAAYgwEAZAIAZAUAgwEBfQYAdAAAagEAdAAAagIAfAMAfAUAGIMBAGQCAGQGAIMBAX0H\nAHQAAGoDAHQAAGoEAGQEAHwGAIMCAIMBAH0IAHwIAFMpB07nAAAAAAAA8D/aBGF4aXPpAQAAAOcA\nAAAAAAAAAOn/////cgUAAAApBdoBS9oDc3Vt2gZzcXVhcmXaBG1lYW7aB21heGltdW0pCdoDdmVj\n2gVhbHBoYdoEYmV0YdoGYW5jaG9y2ghwb3NpdGl2ZdoIbmVnYXRpdmXaA2RfcNoDZF9u2gRsb3Nz\nqQByFAAAAPocdGNuX3RyaXBsZXRsb3NzX2dlbmVyYXRvci5wedoMdHJpcGxldF9sb3NzHwAAAHMM\nAAAAAAEGAQ8BIgEiARsB\n", [0.2], null], "name": "triplet_loss", "output_shape": ["4wEAAAAAAAAABAAAAAMAAABDAAAAcx0AAAB8AABcAwB9AQB9AgB9AwB8AQBkAQAZZAIAZgIAUykD\nTukAAAAA6QEAAACpACkE2gZzaGFwZXPaBnNoYXBlMdoGc2hhcGUy2gZzaGFwZTNyAwAAAHIDAAAA\n+hx0Y25fdHJpcGxldGxvc3NfZ2VuZXJhdG9yLnB52hR0cmlwbGV0X291dHB1dF9zaGFwZTYAAABz\nBAAAAAABDwE=\n", null, null], "output_shape_type": "lambda", "trainable": true, "arguments": {}}, "class_name": "Lambda"}], "name": "model_2", "input_layers": [["input_anchor", 0, 0], ["input_positive", 0, 0], ["input_negative", 0, 0]], "output_layers": [["triplet_loss", 0, 0]]}, "keras_version": "2.1.2", "backend": "tensorflow"}