{"keras_version": "2.1.2", "class_name": "Model", "backend": "tensorflow", "config": {"layers": [{"class_name": "InputLayer", "name": "input_anchor", "inbound_nodes": [], "config": {"batch_input_shape": [null, 224, 224, 3], "name": "input_anchor", "dtype": "float32", "sparse": false}}, {"class_name": "InputLayer", "name": "input_positive", "inbound_nodes": [], "config": {"batch_input_shape": [null, 224, 224, 3], "name": "input_positive", "dtype": "float32", "sparse": false}}, {"class_name": "InputLayer", "name": "input_negative", "inbound_nodes": [], "config": {"batch_input_shape": [null, 224, 224, 3], "name": "input_negative", "dtype": "float32", "sparse": false}}, {"class_name": "Model", "name": "model_1", "inbound_nodes": [[["input_anchor", 0, 0, {}]], [["input_positive", 0, 0, {}]], [["input_negative", 0, 0, {}]]], "config": {"layers": [{"class_name": "InputLayer", "name": "input_1", "inbound_nodes": [], "config": {"batch_input_shape": [null, null, null, 3], "name": "input_1", "dtype": "float32", "sparse": false}}, {"class_name": "Conv2D", "name": "conv2d_1", "inbound_nodes": [[["input_1", 0, 0, {}]]], "config": {"kernel_initializer": {"class_name": "VarianceScaling", "config": {"mode": "fan_avg", "seed": null, "scale": 1.0, "distribution": "uniform"}}, "name": "conv2d_1", "bias_constraint": null, "data_format": "channels_last", "kernel_constraint": null, "bias_regularizer": null, "use_bias": false, "activation": "linear", "dilation_rate": [1, 1], "filters": 32, "bias_initializer": {"class_name": "Zeros", "config": {}}, "kernel_size": [3, 3], "kernel_regularizer": null, "activity_regularizer": null, "trainable": true, "padding": "valid", "strides": [2, 2]}}, {"class_name": "BatchNormalization", "name": "batch_normalization_1", "inbound_nodes": [[["conv2d_1", 0, 0, {}]]], "config": {"beta_regularizer": null, "gamma_regularizer": null, "name": "batch_normalization_1", "axis": 3, "gamma_initializer": {"class_name": "Ones", "config": {}}, "moving_variance_initializer": {"class_name": "Ones", "config": {}}, "scale": false, "beta_constraint": null, "gamma_constraint": null, "moving_mean_initializer": {"class_name": "Zeros", "config": {}}, "epsilon": 0.001, "center": true, "beta_initializer": {"class_name": "Zeros", "config": {}}, "trainable": true, "momentum": 0.99}}, {"class_name": "Activation", "name": "activation_1", "inbound_nodes": [[["batch_normalization_1", 0, 0, {}]]], "config": {"activation": "relu", "name": "activation_1", "trainable": true}}, {"class_name": "Conv2D", "name": "conv2d_2", "inbound_nodes": [[["activation_1", 0, 0, {}]]], "config": {"kernel_initializer": {"class_name": "VarianceScaling", "config": {"mode": "fan_avg", "seed": null, "scale": 1.0, "distribution": "uniform"}}, "name": "conv2d_2", "bias_constraint": null, "data_format": "channels_last", "kernel_constraint": null, "bias_regularizer": null, "use_bias": false, "activation": "linear", "dilation_rate": [1, 1], "filters": 32, "bias_initializer": {"class_name": "Zeros", "config": {}}, "kernel_size": [3, 3], "kernel_regularizer": null, "activity_regularizer": null, "trainable": true, "padding": "valid", "strides": [1, 1]}}, {"class_name": "BatchNormalization", "name": "batch_normalization_2", "inbound_nodes": [[["conv2d_2", 0, 0, {}]]], "config": {"beta_regularizer": null, "gamma_regularizer": null, "name": "batch_normalization_2", "axis": 3, "gamma_initializer": {"class_name": "Ones", "config": {}}, "moving_variance_initializer": {"class_name": "Ones", "config": {}}, "scale": false, "beta_constraint": null, "gamma_constraint": null, "moving_mean_initializer": {"class_name": "Zeros", "config": {}}, "epsilon": 0.001, "center": true, "beta_initializer": {"class_name": "Zeros", "config": {}}, "trainable": true, "momentum": 0.99}}, {"class_name": "Activation", "name": "activation_2", "inbound_nodes": [[["batch_normalization_2", 0, 0, {}]]], "config": {"activation": "relu", "name": "activation_2", "trainable": true}}, {"class_name": "Conv2D", "name": "conv2d_3", "inbound_nodes": [[["activation_2", 0, 0, {}]]], "config": {"kernel_initializer": {"class_name": "VarianceScaling", "config": {"mode": "fan_avg", "seed": null, "scale": 1.0, "distribution": "uniform"}}, "name": "conv2d_3", "bias_constraint": null, "data_format": "channels_last", "kernel_constraint": null, "bias_regularizer": null, "use_bias": false, "activation": "linear", "dilation_rate": [1, 1], "filters": 64, "bias_initializer": {"class_name": "Zeros", "config": {}}, "kernel_size": [3, 3], "kernel_regularizer": null, "activity_regularizer": null, "trainable": true, "padding": "same", "strides": [1, 1]}}, {"class_name": "BatchNormalization", "name": "batch_normalization_3", "inbound_nodes": [[["conv2d_3", 0, 0, {}]]], "config": {"beta_regularizer": null, "gamma_regularizer": null, "name": "batch_normalization_3", "axis": 3, "gamma_initializer": {"class_name": "Ones", "config": {}}, "moving_variance_initializer": {"class_name": "Ones", "config": {}}, "scale": false, "beta_constraint": null, "gamma_constraint": null, "moving_mean_initializer": {"class_name": "Zeros", "config": {}}, "epsilon": 0.001, "center": true, "beta_initializer": {"class_name": "Zeros", "config": {}}, "trainable": true, "momentum": 0.99}}, {"class_name": "Activation", "name": "activation_3", "inbound_nodes": [[["batch_normalization_3", 0, 0, {}]]], "config": {"activation": "relu", "name": "activation_3", "trainable": true}}, {"class_name": "MaxPooling2D", "name": "max_pooling2d_1", "inbound_nodes": [[["activation_3", 0, 0, {}]]], "config": {"pool_size": [3, 3], "name": "max_pooling2d_1", "data_format": "channels_last", "trainable": true, "padding": "valid", "strides": [2, 2]}}, {"class_name": "Conv2D", "name": "conv2d_4", "inbound_nodes": [[["max_pooling2d_1", 0, 0, {}]]], "config": {"kernel_initializer": {"class_name": "VarianceScaling", "config": {"mode": "fan_avg", "seed": null, "scale": 1.0, "distribution": "uniform"}}, "name": "conv2d_4", "bias_constraint": null, "data_format": "channels_last", "kernel_constraint": null, "bias_regularizer": null, "use_bias": false, "activation": "linear", "dilation_rate": [1, 1], "filters": 80, "bias_initializer": {"class_name": "Zeros", "config": {}}, "kernel_size": [1, 1], "kernel_regularizer": null, "activity_regularizer": null, "trainable": true, "padding": "valid", "strides": [1, 1]}}, {"class_name": "BatchNormalization", "name": "batch_normalization_4", "inbound_nodes": [[["conv2d_4", 0, 0, {}]]], "config": {"beta_regularizer": null, "gamma_regularizer": null, "name": "batch_normalization_4", "axis": 3, "gamma_initializer": {"class_name": "Ones", "config": {}}, "moving_variance_initializer": {"class_name": "Ones", "config": {}}, "scale": false, "beta_constraint": null, "gamma_constraint": null, "moving_mean_initializer": {"class_name": "Zeros", "config": {}}, "epsilon": 0.001, "center": true, "beta_initializer": {"class_name": "Zeros", "config": {}}, "trainable": true, "momentum": 0.99}}, {"class_name": "Activation", "name": "activation_4", "inbound_nodes": [[["batch_normalization_4", 0, 0, {}]]], "config": {"activation": "relu", "name": "activation_4", "trainable": true}}, {"class_name": "Conv2D", "name": "conv2d_5", "inbound_nodes": [[["activation_4", 0, 0, {}]]], "config": {"kernel_initializer": {"class_name": "VarianceScaling", "config": {"mode": "fan_avg", "seed": null, "scale": 1.0, "distribution": "uniform"}}, "name": "conv2d_5", "bias_constraint": null, "data_format": "channels_last", "kernel_constraint": null, "bias_regularizer": null, "use_bias": false, "activation": "linear", "dilation_rate": [1, 1], "filters": 192, "bias_initializer": {"class_name": "Zeros", "config": {}}, "kernel_size": [3, 3], "kernel_regularizer": null, "activity_regularizer": null, "trainable": true, "padding": "valid", "strides": [1, 1]}}, {"class_name": "BatchNormalization", "name": "batch_normalization_5", "inbound_nodes": [[["conv2d_5", 0, 0, {}]]], "config": {"beta_regularizer": null, "gamma_regularizer": null, "name": "batch_normalization_5", "axis": 3, "gamma_initializer": {"class_name": "Ones", "config": {}}, "moving_variance_initializer": {"class_name": "Ones", "config": {}}, "scale": false, "beta_constraint": null, "gamma_constraint": null, "moving_mean_initializer": {"class_name": "Zeros", "config": {}}, "epsilon": 0.001, "center": true, "beta_initializer": {"class_name": "Zeros", "config": {}}, "trainable": true, "momentum": 0.99}}, {"class_name": "Activation", "name": "activation_5", "inbound_nodes": [[["batch_normalization_5", 0, 0, {}]]], "config": {"activation": "relu", "name": "activation_5", "trainable": true}}, {"class_name": "MaxPooling2D", "name": "max_pooling2d_2", "inbound_nodes": [[["activation_5", 0, 0, {}]]], "config": {"pool_size": [3, 3], "name": "max_pooling2d_2", "data_format": "channels_last", "trainable": true, "padding": "valid", "strides": [2, 2]}}, {"class_name": "Conv2D", "name": "conv2d_9", "inbound_nodes": [[["max_pooling2d_2", 0, 0, {}]]], "config": {"kernel_initializer": {"class_name": "VarianceScaling", "config": {"mode": "fan_avg", "seed": null, "scale": 1.0, "distribution": "uniform"}}, "name": "conv2d_9", "bias_constraint": null, "data_format": "channels_last", "kernel_constraint": null, "bias_regularizer": null, "use_bias": false, "activation": "linear", "dilation_rate": [1, 1], "filters": 64, "bias_initializer": {"class_name": "Zeros", "config": {}}, "kernel_size": [1, 1], "kernel_regularizer": null, "activity_regularizer": null, "trainable": true, "padding": "same", "strides": [1, 1]}}, {"class_name": "BatchNormalization", "name": "batch_normalization_9", "inbound_nodes": [[["conv2d_9", 0, 0, {}]]], "config": {"beta_regularizer": null, "gamma_regularizer": null, "name": "batch_normalization_9", "axis": 3, "gamma_initializer": {"class_name": "Ones", "config": {}}, "moving_variance_initializer": {"class_name": "Ones", "config": {}}, "scale": false, "beta_constraint": null, "gamma_constraint": null, "moving_mean_initializer": {"class_name": "Zeros", "config": {}}, "epsilon": 0.001, "center": true, "beta_initializer": {"class_name": "Zeros", "config": {}}, "trainable": true, "momentum": 0.99}}, {"class_name": "Activation", "name": "activation_9", "inbound_nodes": [[["batch_normalization_9", 0, 0, {}]]], "config": {"activation": "relu", "name": "activation_9", "trainable": true}}, {"class_name": "Conv2D", "name": "conv2d_7", "inbound_nodes": [[["max_pooling2d_2", 0, 0, {}]]], "config": {"kernel_initializer": {"class_name": "VarianceScaling", "config": {"mode": "fan_avg", "seed": null, "scale": 1.0, "distribution": "uniform"}}, "name": "conv2d_7", "bias_constraint": null, "data_format": "channels_last", "kernel_constraint": null, "bias_regularizer": null, "use_bias": false, "activation": "linear", "dilation_rate": [1, 1], "filters": 48, "bias_initializer": {"class_name": "Zeros", "config": {}}, "kernel_size": [1, 1], "kernel_regularizer": null, "activity_regularizer": null, "trainable": true, "padding": "same", "strides": [1, 1]}}, {"class_name": "Conv2D", "name": "conv2d_10", "inbound_nodes": [[["activation_9", 0, 0, {}]]], "config": {"kernel_initializer": {"class_name": "VarianceScaling", "config": {"mode": "fan_avg", "seed": null, "scale": 1.0, "distribution": "uniform"}}, "name": "conv2d_10", "bias_constraint": null, "data_format": "channels_last", "kernel_constraint": null, "bias_regularizer": null, "use_bias": false, "activation": "linear", "dilation_rate": [1, 1], "filters": 96, "bias_initializer": {"class_name": "Zeros", "config": {}}, "kernel_size": [3, 3], "kernel_regularizer": null, "activity_regularizer": null, "trainable": true, "padding": "same", "strides": [1, 1]}}, {"class_name": "BatchNormalization", "name": "batch_normalization_7", "inbound_nodes": [[["conv2d_7", 0, 0, {}]]], "config": {"beta_regularizer": null, "gamma_regularizer": null, "name": "batch_normalization_7", "axis": 3, "gamma_initializer": {"class_name": "Ones", "config": {}}, "moving_variance_initializer": {"class_name": "Ones", "config": {}}, "scale": false, "beta_constraint": null, "gamma_constraint": null, "moving_mean_initializer": {"class_name": "Zeros", "config": {}}, "epsilon": 0.001, "center": true, "beta_initializer": {"class_name": "Zeros", "config": {}}, "trainable": true, "momentum": 0.99}}, {"class_name": "BatchNormalization", "name": "batch_normalization_10", "inbound_nodes": [[["conv2d_10", 0, 0, {}]]], "config": {"beta_regularizer": null, "gamma_regularizer": null, "name": "batch_normalization_10", "axis": 3, "gamma_initializer": {"class_name": "Ones", "config": {}}, "moving_variance_initializer": {"class_name": "Ones", "config": {}}, "scale": false, "beta_constraint": null, "gamma_constraint": null, "moving_mean_initializer": {"class_name": "Zeros", "config": {}}, "epsilon": 0.001, "center": true, "beta_initializer": {"class_name": "Zeros", "config": {}}, "trainable": true, "momentum": 0.99}}, {"class_name": "Activation", "name": "activation_7", "inbound_nodes": [[["batch_normalization_7", 0, 0, {}]]], "config": {"activation": "relu", "name": "activation_7", "trainable": true}}, {"class_name": "Activation", "name": "activation_10", "inbound_nodes": [[["batch_normalization_10", 0, 0, {}]]], "config": {"activation": "relu", "name": "activation_10", "trainable": true}}, {"class_name": "AveragePooling2D", "name": "average_pooling2d_1", "inbound_nodes": [[["max_pooling2d_2", 0, 0, {}]]], "config": {"pool_size": [3, 3], "name": "average_pooling2d_1", "data_format": "channels_last", "trainable": true, "padding": "same", "strides": [1, 1]}}, {"class_name": "Conv2D", "name": "conv2d_6", "inbound_nodes": [[["max_pooling2d_2", 0, 0, {}]]], "config": {"kernel_initializer": {"class_name": "VarianceScaling", "config": {"mode": "fan_avg", "seed": null, "scale": 1.0, "distribution": "uniform"}}, "name": "conv2d_6", "bias_constraint": null, "data_format": "channels_last", "kernel_constraint": null, "bias_regularizer": null, "use_bias": false, "activation": "linear", "dilation_rate": [1, 1], "filters": 64, "bias_initializer": {"class_name": "Zeros", "config": {}}, "kernel_size": [1, 1], "kernel_regularizer": null, "activity_regularizer": null, "trainable": true, "padding": "same", "strides": [1, 1]}}, {"class_name": "Conv2D", "name": "conv2d_8", "inbound_nodes": [[["activation_7", 0, 0, {}]]], "config": {"kernel_initializer": {"class_name": "VarianceScaling", "config": {"mode": "fan_avg", "seed": null, "scale": 1.0, "distribution": "uniform"}}, "name": "conv2d_8", "bias_constraint": null, "data_format": "channels_last", "kernel_constraint": null, "bias_regularizer": null, "use_bias": false, "activation": "linear", "dilation_rate": [1, 1], "filters": 64, "bias_initializer": {"class_name": "Zeros", "config": {}}, "kernel_size": [5, 5], "kernel_regularizer": null, "activity_regularizer": null, "trainable": true, "padding": "same", "strides": [1, 1]}}, {"class_name": "Conv2D", "name": "conv2d_11", "inbound_nodes": [[["activation_10", 0, 0, {}]]], "config": {"kernel_initializer": {"class_name": "VarianceScaling", "config": {"mode": "fan_avg", "seed": null, "scale": 1.0, "distribution": "uniform"}}, "name": "conv2d_11", "bias_constraint": null, "data_format": "channels_last", "kernel_constraint": null, "bias_regularizer": null, "use_bias": false, "activation": "linear", "dilation_rate": [1, 1], "filters": 96, "bias_initializer": {"class_name": "Zeros", "config": {}}, "kernel_size": [3, 3], "kernel_regularizer": null, "activity_regularizer": null, "trainable": true, "padding": "same", "strides": [1, 1]}}, {"class_name": "Conv2D", "name": "conv2d_12", "inbound_nodes": [[["average_pooling2d_1", 0, 0, {}]]], "config": {"kernel_initializer": {"class_name": "VarianceScaling", "config": {"mode": "fan_avg", "seed": null, "scale": 1.0, "distribution": "uniform"}}, "name": "conv2d_12", "bias_constraint": null, "data_format": "channels_last", "kernel_constraint": null, "bias_regularizer": null, "use_bias": false, "activation": "linear", "dilation_rate": [1, 1], "filters": 32, "bias_initializer": {"class_name": "Zeros", "config": {}}, "kernel_size": [1, 1], "kernel_regularizer": null, "activity_regularizer": null, "trainable": true, "padding": "same", "strides": [1, 1]}}, {"class_name": "BatchNormalization", "name": "batch_normalization_6", "inbound_nodes": [[["conv2d_6", 0, 0, {}]]], "config": {"beta_regularizer": null, "gamma_regularizer": null, "name": "batch_normalization_6", "axis": 3, "gamma_initializer": {"class_name": "Ones", "config": {}}, "moving_variance_initializer": {"class_name": "Ones", "config": {}}, "scale": false, "beta_constraint": null, "gamma_constraint": null, "moving_mean_initializer": {"class_name": "Zeros", "config": {}}, "epsilon": 0.001, "center": true, "beta_initializer": {"class_name": "Zeros", "config": {}}, "trainable": true, "momentum": 0.99}}, {"class_name": "BatchNormalization", "name": "batch_normalization_8", "inbound_nodes": [[["conv2d_8", 0, 0, {}]]], "config": {"beta_regularizer": null, "gamma_regularizer": null, "name": "batch_normalization_8", "axis": 3, "gamma_initializer": {"class_name": "Ones", "config": {}}, "moving_variance_initializer": {"class_name": "Ones", "config": {}}, "scale": false, "beta_constraint": null, "gamma_constraint": null, "moving_mean_initializer": {"class_name": "Zeros", "config": {}}, "epsilon": 0.001, "center": true, "beta_initializer": {"class_name": "Zeros", "config": {}}, "trainable": true, "momentum": 0.99}}, {"class_name": "BatchNormalization", "name": "batch_normalization_11", "inbound_nodes": [[["conv2d_11", 0, 0, {}]]], "config": {"beta_regularizer": null, "gamma_regularizer": null, "name": "batch_normalization_11", "axis": 3, "gamma_initializer": {"class_name": "Ones", "config": {}}, "moving_variance_initializer": {"class_name": "Ones", "config": {}}, "scale": false, "beta_constraint": null, "gamma_constraint": null, "moving_mean_initializer": {"class_name": "Zeros", "config": {}}, "epsilon": 0.001, "center": true, "beta_initializer": {"class_name": "Zeros", "config": {}}, "trainable": true, "momentum": 0.99}}, {"class_name": "BatchNormalization", "name": "batch_normalization_12", "inbound_nodes": [[["conv2d_12", 0, 0, {}]]], "config": {"beta_regularizer": null, "gamma_regularizer": null, "name": "batch_normalization_12", "axis": 3, "gamma_initializer": {"class_name": "Ones", "config": {}}, "moving_variance_initializer": {"class_name": "Ones", "config": {}}, "scale": false, "beta_constraint": null, "gamma_constraint": null, "moving_mean_initializer": {"class_name": "Zeros", "config": {}}, "epsilon": 0.001, "center": true, "beta_initializer": {"class_name": "Zeros", "config": {}}, "trainable": true, "momentum": 0.99}}, {"class_name": "Activation", "name": "activation_6", "inbound_nodes": [[["batch_normalization_6", 0, 0, {}]]], "config": {"activation": "relu", "name": "activation_6", "trainable": true}}, {"class_name": "Activation", "name": "activation_8", "inbound_nodes": [[["batch_normalization_8", 0, 0, {}]]], "config": {"activation": "relu", "name": "activation_8", "trainable": true}}, {"class_name": "Activation", "name": "activation_11", "inbound_nodes": [[["batch_normalization_11", 0, 0, {}]]], "config": {"activation": "relu", "name": "activation_11", "trainable": true}}, {"class_name": "Activation", "name": "activation_12", "inbound_nodes": [[["batch_normalization_12", 0, 0, {}]]], "config": {"activation": "relu", "name": "activation_12", "trainable": true}}, {"class_name": "Concatenate", "name": "mixed0", "inbound_nodes": [[["activation_6", 0, 0, {}], ["activation_8", 0, 0, {}], ["activation_11", 0, 0, {}], ["activation_12", 0, 0, {}]]], "config": {"name": "mixed0", "axis": 3, "trainable": true}}, {"class_name": "Conv2D", "name": "conv2d_16", "inbound_nodes": [[["mixed0", 0, 0, {}]]], "config": {"kernel_initializer": {"class_name": "VarianceScaling", "config": {"mode": "fan_avg", "seed": null, "scale": 1.0, "distribution": "uniform"}}, "name": "conv2d_16", "bias_constraint": null, "data_format": "channels_last", "kernel_constraint": null, "bias_regularizer": null, "use_bias": false, "activation": "linear", "dilation_rate": [1, 1], "filters": 64, "bias_initializer": {"class_name": "Zeros", "config": {}}, "kernel_size": [1, 1], "kernel_regularizer": null, "activity_regularizer": null, "trainable": true, "padding": "same", "strides": [1, 1]}}, {"class_name": "BatchNormalization", "name": "batch_normalization_16", "inbound_nodes": [[["conv2d_16", 0, 0, {}]]], "config": {"beta_regularizer": null, "gamma_regularizer": null, "name": "batch_normalization_16", "axis": 3, "gamma_initializer": {"class_name": "Ones", "config": {}}, "moving_variance_initializer": {"class_name": "Ones", "config": {}}, "scale": false, "beta_constraint": null, "gamma_constraint": null, "moving_mean_initializer": {"class_name": "Zeros", "config": {}}, "epsilon": 0.001, "center": true, "beta_initializer": {"class_name": "Zeros", "config": {}}, "trainable": true, "momentum": 0.99}}, {"class_name": "Activation", "name": "activation_16", "inbound_nodes": [[["batch_normalization_16", 0, 0, {}]]], "config": {"activation": "relu", "name": "activation_16", "trainable": true}}, {"class_name": "Conv2D", "name": "conv2d_14", "inbound_nodes": [[["mixed0", 0, 0, {}]]], "config": {"kernel_initializer": {"class_name": "VarianceScaling", "config": {"mode": "fan_avg", "seed": null, "scale": 1.0, "distribution": "uniform"}}, "name": "conv2d_14", "bias_constraint": null, "data_format": "channels_last", "kernel_constraint": null, "bias_regularizer": null, "use_bias": false, "activation": "linear", "dilation_rate": [1, 1], "filters": 48, "bias_initializer": {"class_name": "Zeros", "config": {}}, "kernel_size": [1, 1], "kernel_regularizer": null, "activity_regularizer": null, "trainable": true, "padding": "same", "strides": [1, 1]}}, {"class_name": "Conv2D", "name": "conv2d_17", "inbound_nodes": [[["activation_16", 0, 0, {}]]], "config": {"kernel_initializer": {"class_name": "VarianceScaling", "config": {"mode": "fan_avg", "seed": null, "scale": 1.0, "distribution": "uniform"}}, "name": "conv2d_17", "bias_constraint": null, "data_format": "channels_last", "kernel_constraint": null, "bias_regularizer": null, "use_bias": false, "activation": "linear", "dilation_rate": [1, 1], "filters": 96, "bias_initializer": {"class_name": "Zeros", "config": {}}, "kernel_size": [3, 3], "kernel_regularizer": null, "activity_regularizer": null, "trainable": true, "padding": "same", "strides": [1, 1]}}, {"class_name": "BatchNormalization", "name": "batch_normalization_14", "inbound_nodes": [[["conv2d_14", 0, 0, {}]]], "config": {"beta_regularizer": null, "gamma_regularizer": null, "name": "batch_normalization_14", "axis": 3, "gamma_initializer": {"class_name": "Ones", "config": {}}, "moving_variance_initializer": {"class_name": "Ones", "config": {}}, "scale": false, "beta_constraint": null, "gamma_constraint": null, "moving_mean_initializer": {"class_name": "Zeros", "config": {}}, "epsilon": 0.001, "center": true, "beta_initializer": {"class_name": "Zeros", "config": {}}, "trainable": true, "momentum": 0.99}}, {"class_name": "BatchNormalization", "name": "batch_normalization_17", "inbound_nodes": [[["conv2d_17", 0, 0, {}]]], "config": {"beta_regularizer": null, "gamma_regularizer": null, "name": "batch_normalization_17", "axis": 3, "gamma_initializer": {"class_name": "Ones", "config": {}}, "moving_variance_initializer": {"class_name": "Ones", "config": {}}, "scale": false, "beta_constraint": null, "gamma_constraint": null, "moving_mean_initializer": {"class_name": "Zeros", "config": {}}, "epsilon": 0.001, "center": true, "beta_initializer": {"class_name": "Zeros", "config": {}}, "trainable": true, "momentum": 0.99}}, {"class_name": "Activation", "name": "activation_14", "inbound_nodes": [[["batch_normalization_14", 0, 0, {}]]], "config": {"activation": "relu", "name": "activation_14", "trainable": true}}, {"class_name": "Activation", "name": "activation_17", "inbound_nodes": [[["batch_normalization_17", 0, 0, {}]]], "config": {"activation": "relu", "name": "activation_17", "trainable": true}}, {"class_name": "AveragePooling2D", "name": "average_pooling2d_2", "inbound_nodes": [[["mixed0", 0, 0, {}]]], "config": {"pool_size": [3, 3], "name": "average_pooling2d_2", "data_format": "channels_last", "trainable": true, "padding": "same", "strides": [1, 1]}}, {"class_name": "Conv2D", "name": "conv2d_13", "inbound_nodes": [[["mixed0", 0, 0, {}]]], "config": {"kernel_initializer": {"class_name": "VarianceScaling", "config": {"mode": "fan_avg", "seed": null, "scale": 1.0, "distribution": "uniform"}}, "name": "conv2d_13", "bias_constraint": null, "data_format": "channels_last", "kernel_constraint": null, "bias_regularizer": null, "use_bias": false, "activation": "linear", "dilation_rate": [1, 1], "filters": 64, "bias_initializer": {"class_name": "Zeros", "config": {}}, "kernel_size": [1, 1], "kernel_regularizer": null, "activity_regularizer": null, "trainable": true, "padding": "same", "strides": [1, 1]}}, {"class_name": "Conv2D", "name": "conv2d_15", "inbound_nodes": [[["activation_14", 0, 0, {}]]], "config": {"kernel_initializer": {"class_name": "VarianceScaling", "config": {"mode": "fan_avg", "seed": null, "scale": 1.0, "distribution": "uniform"}}, "name": "conv2d_15", "bias_constraint": null, "data_format": "channels_last", "kernel_constraint": null, "bias_regularizer": null, "use_bias": false, "activation": "linear", "dilation_rate": [1, 1], "filters": 64, "bias_initializer": {"class_name": "Zeros", "config": {}}, "kernel_size": [5, 5], "kernel_regularizer": null, "activity_regularizer": null, "trainable": true, "padding": "same", "strides": [1, 1]}}, {"class_name": "Conv2D", "name": "conv2d_18", "inbound_nodes": [[["activation_17", 0, 0, {}]]], "config": {"kernel_initializer": {"class_name": "VarianceScaling", "config": {"mode": "fan_avg", "seed": null, "scale": 1.0, "distribution": "uniform"}}, "name": "conv2d_18", "bias_constraint": null, "data_format": "channels_last", "kernel_constraint": null, "bias_regularizer": null, "use_bias": false, "activation": "linear", "dilation_rate": [1, 1], "filters": 96, "bias_initializer": {"class_name": "Zeros", "config": {}}, "kernel_size": [3, 3], "kernel_regularizer": null, "activity_regularizer": null, "trainable": true, "padding": "same", "strides": [1, 1]}}, {"class_name": "Conv2D", "name": "conv2d_19", "inbound_nodes": [[["average_pooling2d_2", 0, 0, {}]]], "config": {"kernel_initializer": {"class_name": "VarianceScaling", "config": {"mode": "fan_avg", "seed": null, "scale": 1.0, "distribution": "uniform"}}, "name": "conv2d_19", "bias_constraint": null, "data_format": "channels_last", "kernel_constraint": null, "bias_regularizer": null, "use_bias": false, "activation": "linear", "dilation_rate": [1, 1], "filters": 64, "bias_initializer": {"class_name": "Zeros", "config": {}}, "kernel_size": [1, 1], "kernel_regularizer": null, "activity_regularizer": null, "trainable": true, "padding": "same", "strides": [1, 1]}}, {"class_name": "BatchNormalization", "name": "batch_normalization_13", "inbound_nodes": [[["conv2d_13", 0, 0, {}]]], "config": {"beta_regularizer": null, "gamma_regularizer": null, "name": "batch_normalization_13", "axis": 3, "gamma_initializer": {"class_name": "Ones", "config": {}}, "moving_variance_initializer": {"class_name": "Ones", "config": {}}, "scale": false, "beta_constraint": null, "gamma_constraint": null, "moving_mean_initializer": {"class_name": "Zeros", "config": {}}, "epsilon": 0.001, "center": true, "beta_initializer": {"class_name": "Zeros", "config": {}}, "trainable": true, "momentum": 0.99}}, {"class_name": "BatchNormalization", "name": "batch_normalization_15", "inbound_nodes": [[["conv2d_15", 0, 0, {}]]], "config": {"beta_regularizer": null, "gamma_regularizer": null, "name": "batch_normalization_15", "axis": 3, "gamma_initializer": {"class_name": "Ones", "config": {}}, "moving_variance_initializer": {"class_name": "Ones", "config": {}}, "scale": false, "beta_constraint": null, "gamma_constraint": null, "moving_mean_initializer": {"class_name": "Zeros", "config": {}}, "epsilon": 0.001, "center": true, "beta_initializer": {"class_name": "Zeros", "config": {}}, "trainable": true, "momentum": 0.99}}, {"class_name": "BatchNormalization", "name": "batch_normalization_18", "inbound_nodes": [[["conv2d_18", 0, 0, {}]]], "config": {"beta_regularizer": null, "gamma_regularizer": null, "name": "batch_normalization_18", "axis": 3, "gamma_initializer": {"class_name": "Ones", "config": {}}, "moving_variance_initializer": {"class_name": "Ones", "config": {}}, "scale": false, "beta_constraint": null, "gamma_constraint": null, "moving_mean_initializer": {"class_name": "Zeros", "config": {}}, "epsilon": 0.001, "center": true, "beta_initializer": {"class_name": "Zeros", "config": {}}, "trainable": true, "momentum": 0.99}}, {"class_name": "BatchNormalization", "name": "batch_normalization_19", "inbound_nodes": [[["conv2d_19", 0, 0, {}]]], "config": {"beta_regularizer": null, "gamma_regularizer": null, "name": "batch_normalization_19", "axis": 3, "gamma_initializer": {"class_name": "Ones", "config": {}}, "moving_variance_initializer": {"class_name": "Ones", "config": {}}, "scale": false, "beta_constraint": null, "gamma_constraint": null, "moving_mean_initializer": {"class_name": "Zeros", "config": {}}, "epsilon": 0.001, "center": true, "beta_initializer": {"class_name": "Zeros", "config": {}}, "trainable": true, "momentum": 0.99}}, {"class_name": "Activation", "name": "activation_13", "inbound_nodes": [[["batch_normalization_13", 0, 0, {}]]], "config": {"activation": "relu", "name": "activation_13", "trainable": true}}, {"class_name": "Activation", "name": "activation_15", "inbound_nodes": [[["batch_normalization_15", 0, 0, {}]]], "config": {"activation": "relu", "name": "activation_15", "trainable": true}}, {"class_name": "Activation", "name": "activation_18", "inbound_nodes": [[["batch_normalization_18", 0, 0, {}]]], "config": {"activation": "relu", "name": "activation_18", "trainable": true}}, {"class_name": "Activation", "name": "activation_19", "inbound_nodes": [[["batch_normalization_19", 0, 0, {}]]], "config": {"activation": "relu", "name": "activation_19", "trainable": true}}, {"class_name": "Concatenate", "name": "mixed1", "inbound_nodes": [[["activation_13", 0, 0, {}], ["activation_15", 0, 0, {}], ["activation_18", 0, 0, {}], ["activation_19", 0, 0, {}]]], "config": {"name": "mixed1", "axis": 3, "trainable": true}}, {"class_name": "Conv2D", "name": "conv2d_23", "inbound_nodes": [[["mixed1", 0, 0, {}]]], "config": {"kernel_initializer": {"class_name": "VarianceScaling", "config": {"mode": "fan_avg", "seed": null, "scale": 1.0, "distribution": "uniform"}}, "name": "conv2d_23", "bias_constraint": null, "data_format": "channels_last", "kernel_constraint": null, "bias_regularizer": null, "use_bias": false, "activation": "linear", "dilation_rate": [1, 1], "filters": 64, "bias_initializer": {"class_name": "Zeros", "config": {}}, "kernel_size": [1, 1], "kernel_regularizer": null, "activity_regularizer": null, "trainable": true, "padding": "same", "strides": [1, 1]}}, {"class_name": "BatchNormalization", "name": "batch_normalization_23", "inbound_nodes": [[["conv2d_23", 0, 0, {}]]], "config": {"beta_regularizer": null, "gamma_regularizer": null, "name": "batch_normalization_23", "axis": 3, "gamma_initializer": {"class_name": "Ones", "config": {}}, "moving_variance_initializer": {"class_name": "Ones", "config": {}}, "scale": false, "beta_constraint": null, "gamma_constraint": null, "moving_mean_initializer": {"class_name": "Zeros", "config": {}}, "epsilon": 0.001, "center": true, "beta_initializer": {"class_name": "Zeros", "config": {}}, "trainable": true, "momentum": 0.99}}, {"class_name": "Activation", "name": "activation_23", "inbound_nodes": [[["batch_normalization_23", 0, 0, {}]]], "config": {"activation": "relu", "name": "activation_23", "trainable": true}}, {"class_name": "Conv2D", "name": "conv2d_21", "inbound_nodes": [[["mixed1", 0, 0, {}]]], "config": {"kernel_initializer": {"class_name": "VarianceScaling", "config": {"mode": "fan_avg", "seed": null, "scale": 1.0, "distribution": "uniform"}}, "name": "conv2d_21", "bias_constraint": null, "data_format": "channels_last", "kernel_constraint": null, "bias_regularizer": null, "use_bias": false, "activation": "linear", "dilation_rate": [1, 1], "filters": 48, "bias_initializer": {"class_name": "Zeros", "config": {}}, "kernel_size": [1, 1], "kernel_regularizer": null, "activity_regularizer": null, "trainable": true, "padding": "same", "strides": [1, 1]}}, {"class_name": "Conv2D", "name": "conv2d_24", "inbound_nodes": [[["activation_23", 0, 0, {}]]], "config": {"kernel_initializer": {"class_name": "VarianceScaling", "config": {"mode": "fan_avg", "seed": null, "scale": 1.0, "distribution": "uniform"}}, "name": "conv2d_24", "bias_constraint": null, "data_format": "channels_last", "kernel_constraint": null, "bias_regularizer": null, "use_bias": false, "activation": "linear", "dilation_rate": [1, 1], "filters": 96, "bias_initializer": {"class_name": "Zeros", "config": {}}, "kernel_size": [3, 3], "kernel_regularizer": null, "activity_regularizer": null, "trainable": true, "padding": "same", "strides": [1, 1]}}, {"class_name": "BatchNormalization", "name": "batch_normalization_21", "inbound_nodes": [[["conv2d_21", 0, 0, {}]]], "config": {"beta_regularizer": null, "gamma_regularizer": null, "name": "batch_normalization_21", "axis": 3, "gamma_initializer": {"class_name": "Ones", "config": {}}, "moving_variance_initializer": {"class_name": "Ones", "config": {}}, "scale": false, "beta_constraint": null, "gamma_constraint": null, "moving_mean_initializer": {"class_name": "Zeros", "config": {}}, "epsilon": 0.001, "center": true, "beta_initializer": {"class_name": "Zeros", "config": {}}, "trainable": true, "momentum": 0.99}}, {"class_name": "BatchNormalization", "name": "batch_normalization_24", "inbound_nodes": [[["conv2d_24", 0, 0, {}]]], "config": {"beta_regularizer": null, "gamma_regularizer": null, "name": "batch_normalization_24", "axis": 3, "gamma_initializer": {"class_name": "Ones", "config": {}}, "moving_variance_initializer": {"class_name": "Ones", "config": {}}, "scale": false, "beta_constraint": null, "gamma_constraint": null, "moving_mean_initializer": {"class_name": "Zeros", "config": {}}, "epsilon": 0.001, "center": true, "beta_initializer": {"class_name": "Zeros", "config": {}}, "trainable": true, "momentum": 0.99}}, {"class_name": "Activation", "name": "activation_21", "inbound_nodes": [[["batch_normalization_21", 0, 0, {}]]], "config": {"activation": "relu", "name": "activation_21", "trainable": true}}, {"class_name": "Activation", "name": "activation_24", "inbound_nodes": [[["batch_normalization_24", 0, 0, {}]]], "config": {"activation": "relu", "name": "activation_24", "trainable": true}}, {"class_name": "AveragePooling2D", "name": "average_pooling2d_3", "inbound_nodes": [[["mixed1", 0, 0, {}]]], "config": {"pool_size": [3, 3], "name": "average_pooling2d_3", "data_format": "channels_last", "trainable": true, "padding": "same", "strides": [1, 1]}}, {"class_name": "Conv2D", "name": "conv2d_20", "inbound_nodes": [[["mixed1", 0, 0, {}]]], "config": {"kernel_initializer": {"class_name": "VarianceScaling", "config": {"mode": "fan_avg", "seed": null, "scale": 1.0, "distribution": "uniform"}}, "name": "conv2d_20", "bias_constraint": null, "data_format": "channels_last", "kernel_constraint": null, "bias_regularizer": null, "use_bias": false, "activation": "linear", "dilation_rate": [1, 1], "filters": 64, "bias_initializer": {"class_name": "Zeros", "config": {}}, "kernel_size": [1, 1], "kernel_regularizer": null, "activity_regularizer": null, "trainable": true, "padding": "same", "strides": [1, 1]}}, {"class_name": "Conv2D", "name": "conv2d_22", "inbound_nodes": [[["activation_21", 0, 0, {}]]], "config": {"kernel_initializer": {"class_name": "VarianceScaling", "config": {"mode": "fan_avg", "seed": null, "scale": 1.0, "distribution": "uniform"}}, "name": "conv2d_22", "bias_constraint": null, "data_format": "channels_last", "kernel_constraint": null, "bias_regularizer": null, "use_bias": false, "activation": "linear", "dilation_rate": [1, 1], "filters": 64, "bias_initializer": {"class_name": "Zeros", "config": {}}, "kernel_size": [5, 5], "kernel_regularizer": null, "activity_regularizer": null, "trainable": true, "padding": "same", "strides": [1, 1]}}, {"class_name": "Conv2D", "name": "conv2d_25", "inbound_nodes": [[["activation_24", 0, 0, {}]]], "config": {"kernel_initializer": {"class_name": "VarianceScaling", "config": {"mode": "fan_avg", "seed": null, "scale": 1.0, "distribution": "uniform"}}, "name": "conv2d_25", "bias_constraint": null, "data_format": "channels_last", "kernel_constraint": null, "bias_regularizer": null, "use_bias": false, "activation": "linear", "dilation_rate": [1, 1], "filters": 96, "bias_initializer": {"class_name": "Zeros", "config": {}}, "kernel_size": [3, 3], "kernel_regularizer": null, "activity_regularizer": null, "trainable": true, "padding": "same", "strides": [1, 1]}}, {"class_name": "Conv2D", "name": "conv2d_26", "inbound_nodes": [[["average_pooling2d_3", 0, 0, {}]]], "config": {"kernel_initializer": {"class_name": "VarianceScaling", "config": {"mode": "fan_avg", "seed": null, "scale": 1.0, "distribution": "uniform"}}, "name": "conv2d_26", "bias_constraint": null, "data_format": "channels_last", "kernel_constraint": null, "bias_regularizer": null, "use_bias": false, "activation": "linear", "dilation_rate": [1, 1], "filters": 64, "bias_initializer": {"class_name": "Zeros", "config": {}}, "kernel_size": [1, 1], "kernel_regularizer": null, "activity_regularizer": null, "trainable": true, "padding": "same", "strides": [1, 1]}}, {"class_name": "BatchNormalization", "name": "batch_normalization_20", "inbound_nodes": [[["conv2d_20", 0, 0, {}]]], "config": {"beta_regularizer": null, "gamma_regularizer": null, "name": "batch_normalization_20", "axis": 3, "gamma_initializer": {"class_name": "Ones", "config": {}}, "moving_variance_initializer": {"class_name": "Ones", "config": {}}, "scale": false, "beta_constraint": null, "gamma_constraint": null, "moving_mean_initializer": {"class_name": "Zeros", "config": {}}, "epsilon": 0.001, "center": true, "beta_initializer": {"class_name": "Zeros", "config": {}}, "trainable": true, "momentum": 0.99}}, {"class_name": "BatchNormalization", "name": "batch_normalization_22", "inbound_nodes": [[["conv2d_22", 0, 0, {}]]], "config": {"beta_regularizer": null, "gamma_regularizer": null, "name": "batch_normalization_22", "axis": 3, "gamma_initializer": {"class_name": "Ones", "config": {}}, "moving_variance_initializer": {"class_name": "Ones", "config": {}}, "scale": false, "beta_constraint": null, "gamma_constraint": null, "moving_mean_initializer": {"class_name": "Zeros", "config": {}}, "epsilon": 0.001, "center": true, "beta_initializer": {"class_name": "Zeros", "config": {}}, "trainable": true, "momentum": 0.99}}, {"class_name": "BatchNormalization", "name": "batch_normalization_25", "inbound_nodes": [[["conv2d_25", 0, 0, {}]]], "config": {"beta_regularizer": null, "gamma_regularizer": null, "name": "batch_normalization_25", "axis": 3, "gamma_initializer": {"class_name": "Ones", "config": {}}, "moving_variance_initializer": {"class_name": "Ones", "config": {}}, "scale": false, "beta_constraint": null, "gamma_constraint": null, "moving_mean_initializer": {"class_name": "Zeros", "config": {}}, "epsilon": 0.001, "center": true, "beta_initializer": {"class_name": "Zeros", "config": {}}, "trainable": true, "momentum": 0.99}}, {"class_name": "BatchNormalization", "name": "batch_normalization_26", "inbound_nodes": [[["conv2d_26", 0, 0, {}]]], "config": {"beta_regularizer": null, "gamma_regularizer": null, "name": "batch_normalization_26", "axis": 3, "gamma_initializer": {"class_name": "Ones", "config": {}}, "moving_variance_initializer": {"class_name": "Ones", "config": {}}, "scale": false, "beta_constraint": null, "gamma_constraint": null, "moving_mean_initializer": {"class_name": "Zeros", "config": {}}, "epsilon": 0.001, "center": true, "beta_initializer": {"class_name": "Zeros", "config": {}}, "trainable": true, "momentum": 0.99}}, {"class_name": "Activation", "name": "activation_20", "inbound_nodes": [[["batch_normalization_20", 0, 0, {}]]], "config": {"activation": "relu", "name": "activation_20", "trainable": true}}, {"class_name": "Activation", "name": "activation_22", "inbound_nodes": [[["batch_normalization_22", 0, 0, {}]]], "config": {"activation": "relu", "name": "activation_22", "trainable": true}}, {"class_name": "Activation", "name": "activation_25", "inbound_nodes": [[["batch_normalization_25", 0, 0, {}]]], "config": {"activation": "relu", "name": "activation_25", "trainable": true}}, {"class_name": "Activation", "name": "activation_26", "inbound_nodes": [[["batch_normalization_26", 0, 0, {}]]], "config": {"activation": "relu", "name": "activation_26", "trainable": true}}, {"class_name": "Concatenate", "name": "mixed2", "inbound_nodes": [[["activation_20", 0, 0, {}], ["activation_22", 0, 0, {}], ["activation_25", 0, 0, {}], ["activation_26", 0, 0, {}]]], "config": {"name": "mixed2", "axis": 3, "trainable": true}}, {"class_name": "Conv2D", "name": "conv2d_28", "inbound_nodes": [[["mixed2", 0, 0, {}]]], "config": {"kernel_initializer": {"class_name": "VarianceScaling", "config": {"mode": "fan_avg", "seed": null, "scale": 1.0, "distribution": "uniform"}}, "name": "conv2d_28", "bias_constraint": null, "data_format": "channels_last", "kernel_constraint": null, "bias_regularizer": null, "use_bias": false, "activation": "linear", "dilation_rate": [1, 1], "filters": 64, "bias_initializer": {"class_name": "Zeros", "config": {}}, "kernel_size": [1, 1], "kernel_regularizer": null, "activity_regularizer": null, "trainable": true, "padding": "same", "strides": [1, 1]}}, {"class_name": "BatchNormalization", "name": "batch_normalization_28", "inbound_nodes": [[["conv2d_28", 0, 0, {}]]], "config": {"beta_regularizer": null, "gamma_regularizer": null, "name": "batch_normalization_28", "axis": 3, "gamma_initializer": {"class_name": "Ones", "config": {}}, "moving_variance_initializer": {"class_name": "Ones", "config": {}}, "scale": false, "beta_constraint": null, "gamma_constraint": null, "moving_mean_initializer": {"class_name": "Zeros", "config": {}}, "epsilon": 0.001, "center": true, "beta_initializer": {"class_name": "Zeros", "config": {}}, "trainable": true, "momentum": 0.99}}, {"class_name": "Activation", "name": "activation_28", "inbound_nodes": [[["batch_normalization_28", 0, 0, {}]]], "config": {"activation": "relu", "name": "activation_28", "trainable": true}}, {"class_name": "Conv2D", "name": "conv2d_29", "inbound_nodes": [[["activation_28", 0, 0, {}]]], "config": {"kernel_initializer": {"class_name": "VarianceScaling", "config": {"mode": "fan_avg", "seed": null, "scale": 1.0, "distribution": "uniform"}}, "name": "conv2d_29", "bias_constraint": null, "data_format": "channels_last", "kernel_constraint": null, "bias_regularizer": null, "use_bias": false, "activation": "linear", "dilation_rate": [1, 1], "filters": 96, "bias_initializer": {"class_name": "Zeros", "config": {}}, "kernel_size": [3, 3], "kernel_regularizer": null, "activity_regularizer": null, "trainable": true, "padding": "same", "strides": [1, 1]}}, {"class_name": "BatchNormalization", "name": "batch_normalization_29", "inbound_nodes": [[["conv2d_29", 0, 0, {}]]], "config": {"beta_regularizer": null, "gamma_regularizer": null, "name": "batch_normalization_29", "axis": 3, "gamma_initializer": {"class_name": "Ones", "config": {}}, "moving_variance_initializer": {"class_name": "Ones", "config": {}}, "scale": false, "beta_constraint": null, "gamma_constraint": null, "moving_mean_initializer": {"class_name": "Zeros", "config": {}}, "epsilon": 0.001, "center": true, "beta_initializer": {"class_name": "Zeros", "config": {}}, "trainable": true, "momentum": 0.99}}, {"class_name": "Activation", "name": "activation_29", "inbound_nodes": [[["batch_normalization_29", 0, 0, {}]]], "config": {"activation": "relu", "name": "activation_29", "trainable": true}}, {"class_name": "Conv2D", "name": "conv2d_27", "inbound_nodes": [[["mixed2", 0, 0, {}]]], "config": {"kernel_initializer": {"class_name": "VarianceScaling", "config": {"mode": "fan_avg", "seed": null, "scale": 1.0, "distribution": "uniform"}}, "name": "conv2d_27", "bias_constraint": null, "data_format": "channels_last", "kernel_constraint": null, "bias_regularizer": null, "use_bias": false, "activation": "linear", "dilation_rate": [1, 1], "filters": 384, "bias_initializer": {"class_name": "Zeros", "config": {}}, "kernel_size": [3, 3], "kernel_regularizer": null, "activity_regularizer": null, "trainable": true, "padding": "valid", "strides": [2, 2]}}, {"class_name": "Conv2D", "name": "conv2d_30", "inbound_nodes": [[["activation_29", 0, 0, {}]]], "config": {"kernel_initializer": {"class_name": "VarianceScaling", "config": {"mode": "fan_avg", "seed": null, "scale": 1.0, "distribution": "uniform"}}, "name": "conv2d_30", "bias_constraint": null, "data_format": "channels_last", "kernel_constraint": null, "bias_regularizer": null, "use_bias": false, "activation": "linear", "dilation_rate": [1, 1], "filters": 96, "bias_initializer": {"class_name": "Zeros", "config": {}}, "kernel_size": [3, 3], "kernel_regularizer": null, "activity_regularizer": null, "trainable": true, "padding": "valid", "strides": [2, 2]}}, {"class_name": "BatchNormalization", "name": "batch_normalization_27", "inbound_nodes": [[["conv2d_27", 0, 0, {}]]], "config": {"beta_regularizer": null, "gamma_regularizer": null, "name": "batch_normalization_27", "axis": 3, "gamma_initializer": {"class_name": "Ones", "config": {}}, "moving_variance_initializer": {"class_name": "Ones", "config": {}}, "scale": false, "beta_constraint": null, "gamma_constraint": null, "moving_mean_initializer": {"class_name": "Zeros", "config": {}}, "epsilon": 0.001, "center": true, "beta_initializer": {"class_name": "Zeros", "config": {}}, "trainable": true, "momentum": 0.99}}, {"class_name": "BatchNormalization", "name": "batch_normalization_30", "inbound_nodes": [[["conv2d_30", 0, 0, {}]]], "config": {"beta_regularizer": null, "gamma_regularizer": null, "name": "batch_normalization_30", "axis": 3, "gamma_initializer": {"class_name": "Ones", "config": {}}, "moving_variance_initializer": {"class_name": "Ones", "config": {}}, "scale": false, "beta_constraint": null, "gamma_constraint": null, "moving_mean_initializer": {"class_name": "Zeros", "config": {}}, "epsilon": 0.001, "center": true, "beta_initializer": {"class_name": "Zeros", "config": {}}, "trainable": true, "momentum": 0.99}}, {"class_name": "Activation", "name": "activation_27", "inbound_nodes": [[["batch_normalization_27", 0, 0, {}]]], "config": {"activation": "relu", "name": "activation_27", "trainable": true}}, {"class_name": "Activation", "name": "activation_30", "inbound_nodes": [[["batch_normalization_30", 0, 0, {}]]], "config": {"activation": "relu", "name": "activation_30", "trainable": true}}, {"class_name": "MaxPooling2D", "name": "max_pooling2d_3", "inbound_nodes": [[["mixed2", 0, 0, {}]]], "config": {"pool_size": [3, 3], "name": "max_pooling2d_3", "data_format": "channels_last", "trainable": true, "padding": "valid", "strides": [2, 2]}}, {"class_name": "Concatenate", "name": "mixed3", "inbound_nodes": [[["activation_27", 0, 0, {}], ["activation_30", 0, 0, {}], ["max_pooling2d_3", 0, 0, {}]]], "config": {"name": "mixed3", "axis": 3, "trainable": true}}, {"class_name": "Conv2D", "name": "conv2d_35", "inbound_nodes": [[["mixed3", 0, 0, {}]]], "config": {"kernel_initializer": {"class_name": "VarianceScaling", "config": {"mode": "fan_avg", "seed": null, "scale": 1.0, "distribution": "uniform"}}, "name": "conv2d_35", "bias_constraint": null, "data_format": "channels_last", "kernel_constraint": null, "bias_regularizer": null, "use_bias": false, "activation": "linear", "dilation_rate": [1, 1], "filters": 128, "bias_initializer": {"class_name": "Zeros", "config": {}}, "kernel_size": [1, 1], "kernel_regularizer": null, "activity_regularizer": null, "trainable": true, "padding": "same", "strides": [1, 1]}}, {"class_name": "BatchNormalization", "name": "batch_normalization_35", "inbound_nodes": [[["conv2d_35", 0, 0, {}]]], "config": {"beta_regularizer": null, "gamma_regularizer": null, "name": "batch_normalization_35", "axis": 3, "gamma_initializer": {"class_name": "Ones", "config": {}}, "moving_variance_initializer": {"class_name": "Ones", "config": {}}, "scale": false, "beta_constraint": null, "gamma_constraint": null, "moving_mean_initializer": {"class_name": "Zeros", "config": {}}, "epsilon": 0.001, "center": true, "beta_initializer": {"class_name": "Zeros", "config": {}}, "trainable": true, "momentum": 0.99}}, {"class_name": "Activation", "name": "activation_35", "inbound_nodes": [[["batch_normalization_35", 0, 0, {}]]], "config": {"activation": "relu", "name": "activation_35", "trainable": true}}, {"class_name": "Conv2D", "name": "conv2d_36", "inbound_nodes": [[["activation_35", 0, 0, {}]]], "config": {"kernel_initializer": {"class_name": "VarianceScaling", "config": {"mode": "fan_avg", "seed": null, "scale": 1.0, "distribution": "uniform"}}, "name": "conv2d_36", "bias_constraint": null, "data_format": "channels_last", "kernel_constraint": null, "bias_regularizer": null, "use_bias": false, "activation": "linear", "dilation_rate": [1, 1], "filters": 128, "bias_initializer": {"class_name": "Zeros", "config": {}}, "kernel_size": [7, 1], "kernel_regularizer": null, "activity_regularizer": null, "trainable": true, "padding": "same", "strides": [1, 1]}}, {"class_name": "BatchNormalization", "name": "batch_normalization_36", "inbound_nodes": [[["conv2d_36", 0, 0, {}]]], "config": {"beta_regularizer": null, "gamma_regularizer": null, "name": "batch_normalization_36", "axis": 3, "gamma_initializer": {"class_name": "Ones", "config": {}}, "moving_variance_initializer": {"class_name": "Ones", "config": {}}, "scale": false, "beta_constraint": null, "gamma_constraint": null, "moving_mean_initializer": {"class_name": "Zeros", "config": {}}, "epsilon": 0.001, "center": true, "beta_initializer": {"class_name": "Zeros", "config": {}}, "trainable": true, "momentum": 0.99}}, {"class_name": "Activation", "name": "activation_36", "inbound_nodes": [[["batch_normalization_36", 0, 0, {}]]], "config": {"activation": "relu", "name": "activation_36", "trainable": true}}, {"class_name": "Conv2D", "name": "conv2d_32", "inbound_nodes": [[["mixed3", 0, 0, {}]]], "config": {"kernel_initializer": {"class_name": "VarianceScaling", "config": {"mode": "fan_avg", "seed": null, "scale": 1.0, "distribution": "uniform"}}, "name": "conv2d_32", "bias_constraint": null, "data_format": "channels_last", "kernel_constraint": null, "bias_regularizer": null, "use_bias": false, "activation": "linear", "dilation_rate": [1, 1], "filters": 128, "bias_initializer": {"class_name": "Zeros", "config": {}}, "kernel_size": [1, 1], "kernel_regularizer": null, "activity_regularizer": null, "trainable": true, "padding": "same", "strides": [1, 1]}}, {"class_name": "Conv2D", "name": "conv2d_37", "inbound_nodes": [[["activation_36", 0, 0, {}]]], "config": {"kernel_initializer": {"class_name": "VarianceScaling", "config": {"mode": "fan_avg", "seed": null, "scale": 1.0, "distribution": "uniform"}}, "name": "conv2d_37", "bias_constraint": null, "data_format": "channels_last", "kernel_constraint": null, "bias_regularizer": null, "use_bias": false, "activation": "linear", "dilation_rate": [1, 1], "filters": 128, "bias_initializer": {"class_name": "Zeros", "config": {}}, "kernel_size": [1, 7], "kernel_regularizer": null, "activity_regularizer": null, "trainable": true, "padding": "same", "strides": [1, 1]}}, {"class_name": "BatchNormalization", "name": "batch_normalization_32", "inbound_nodes": [[["conv2d_32", 0, 0, {}]]], "config": {"beta_regularizer": null, "gamma_regularizer": null, "name": "batch_normalization_32", "axis": 3, "gamma_initializer": {"class_name": "Ones", "config": {}}, "moving_variance_initializer": {"class_name": "Ones", "config": {}}, "scale": false, "beta_constraint": null, "gamma_constraint": null, "moving_mean_initializer": {"class_name": "Zeros", "config": {}}, "epsilon": 0.001, "center": true, "beta_initializer": {"class_name": "Zeros", "config": {}}, "trainable": true, "momentum": 0.99}}, {"class_name": "BatchNormalization", "name": "batch_normalization_37", "inbound_nodes": [[["conv2d_37", 0, 0, {}]]], "config": {"beta_regularizer": null, "gamma_regularizer": null, "name": "batch_normalization_37", "axis": 3, "gamma_initializer": {"class_name": "Ones", "config": {}}, "moving_variance_initializer": {"class_name": "Ones", "config": {}}, "scale": false, "beta_constraint": null, "gamma_constraint": null, "moving_mean_initializer": {"class_name": "Zeros", "config": {}}, "epsilon": 0.001, "center": true, "beta_initializer": {"class_name": "Zeros", "config": {}}, "trainable": true, "momentum": 0.99}}, {"class_name": "Activation", "name": "activation_32", "inbound_nodes": [[["batch_normalization_32", 0, 0, {}]]], "config": {"activation": "relu", "name": "activation_32", "trainable": true}}, {"class_name": "Activation", "name": "activation_37", "inbound_nodes": [[["batch_normalization_37", 0, 0, {}]]], "config": {"activation": "relu", "name": "activation_37", "trainable": true}}, {"class_name": "Conv2D", "name": "conv2d_33", "inbound_nodes": [[["activation_32", 0, 0, {}]]], "config": {"kernel_initializer": {"class_name": "VarianceScaling", "config": {"mode": "fan_avg", "seed": null, "scale": 1.0, "distribution": "uniform"}}, "name": "conv2d_33", "bias_constraint": null, "data_format": "channels_last", "kernel_constraint": null, "bias_regularizer": null, "use_bias": false, "activation": "linear", "dilation_rate": [1, 1], "filters": 128, "bias_initializer": {"class_name": "Zeros", "config": {}}, "kernel_size": [1, 7], "kernel_regularizer": null, "activity_regularizer": null, "trainable": true, "padding": "same", "strides": [1, 1]}}, {"class_name": "Conv2D", "name": "conv2d_38", "inbound_nodes": [[["activation_37", 0, 0, {}]]], "config": {"kernel_initializer": {"class_name": "VarianceScaling", "config": {"mode": "fan_avg", "seed": null, "scale": 1.0, "distribution": "uniform"}}, "name": "conv2d_38", "bias_constraint": null, "data_format": "channels_last", "kernel_constraint": null, "bias_regularizer": null, "use_bias": false, "activation": "linear", "dilation_rate": [1, 1], "filters": 128, "bias_initializer": {"class_name": "Zeros", "config": {}}, "kernel_size": [7, 1], "kernel_regularizer": null, "activity_regularizer": null, "trainable": true, "padding": "same", "strides": [1, 1]}}, {"class_name": "BatchNormalization", "name": "batch_normalization_33", "inbound_nodes": [[["conv2d_33", 0, 0, {}]]], "config": {"beta_regularizer": null, "gamma_regularizer": null, "name": "batch_normalization_33", "axis": 3, "gamma_initializer": {"class_name": "Ones", "config": {}}, "moving_variance_initializer": {"class_name": "Ones", "config": {}}, "scale": false, "beta_constraint": null, "gamma_constraint": null, "moving_mean_initializer": {"class_name": "Zeros", "config": {}}, "epsilon": 0.001, "center": true, "beta_initializer": {"class_name": "Zeros", "config": {}}, "trainable": true, "momentum": 0.99}}, {"class_name": "BatchNormalization", "name": "batch_normalization_38", "inbound_nodes": [[["conv2d_38", 0, 0, {}]]], "config": {"beta_regularizer": null, "gamma_regularizer": null, "name": "batch_normalization_38", "axis": 3, "gamma_initializer": {"class_name": "Ones", "config": {}}, "moving_variance_initializer": {"class_name": "Ones", "config": {}}, "scale": false, "beta_constraint": null, "gamma_constraint": null, "moving_mean_initializer": {"class_name": "Zeros", "config": {}}, "epsilon": 0.001, "center": true, "beta_initializer": {"class_name": "Zeros", "config": {}}, "trainable": true, "momentum": 0.99}}, {"class_name": "Activation", "name": "activation_33", "inbound_nodes": [[["batch_normalization_33", 0, 0, {}]]], "config": {"activation": "relu", "name": "activation_33", "trainable": true}}, {"class_name": "Activation", "name": "activation_38", "inbound_nodes": [[["batch_normalization_38", 0, 0, {}]]], "config": {"activation": "relu", "name": "activation_38", "trainable": true}}, {"class_name": "AveragePooling2D", "name": "average_pooling2d_4", "inbound_nodes": [[["mixed3", 0, 0, {}]]], "config": {"pool_size": [3, 3], "name": "average_pooling2d_4", "data_format": "channels_last", "trainable": true, "padding": "same", "strides": [1, 1]}}, {"class_name": "Conv2D", "name": "conv2d_31", "inbound_nodes": [[["mixed3", 0, 0, {}]]], "config": {"kernel_initializer": {"class_name": "VarianceScaling", "config": {"mode": "fan_avg", "seed": null, "scale": 1.0, "distribution": "uniform"}}, "name": "conv2d_31", "bias_constraint": null, "data_format": "channels_last", "kernel_constraint": null, "bias_regularizer": null, "use_bias": false, "activation": "linear", "dilation_rate": [1, 1], "filters": 192, "bias_initializer": {"class_name": "Zeros", "config": {}}, "kernel_size": [1, 1], "kernel_regularizer": null, "activity_regularizer": null, "trainable": true, "padding": "same", "strides": [1, 1]}}, {"class_name": "Conv2D", "name": "conv2d_34", "inbound_nodes": [[["activation_33", 0, 0, {}]]], "config": {"kernel_initializer": {"class_name": "VarianceScaling", "config": {"mode": "fan_avg", "seed": null, "scale": 1.0, "distribution": "uniform"}}, "name": "conv2d_34", "bias_constraint": null, "data_format": "channels_last", "kernel_constraint": null, "bias_regularizer": null, "use_bias": false, "activation": "linear", "dilation_rate": [1, 1], "filters": 192, "bias_initializer": {"class_name": "Zeros", "config": {}}, "kernel_size": [7, 1], "kernel_regularizer": null, "activity_regularizer": null, "trainable": true, "padding": "same", "strides": [1, 1]}}, {"class_name": "Conv2D", "name": "conv2d_39", "inbound_nodes": [[["activation_38", 0, 0, {}]]], "config": {"kernel_initializer": {"class_name": "VarianceScaling", "config": {"mode": "fan_avg", "seed": null, "scale": 1.0, "distribution": "uniform"}}, "name": "conv2d_39", "bias_constraint": null, "data_format": "channels_last", "kernel_constraint": null, "bias_regularizer": null, "use_bias": false, "activation": "linear", "dilation_rate": [1, 1], "filters": 192, "bias_initializer": {"class_name": "Zeros", "config": {}}, "kernel_size": [1, 7], "kernel_regularizer": null, "activity_regularizer": null, "trainable": true, "padding": "same", "strides": [1, 1]}}, {"class_name": "Conv2D", "name": "conv2d_40", "inbound_nodes": [[["average_pooling2d_4", 0, 0, {}]]], "config": {"kernel_initializer": {"class_name": "VarianceScaling", "config": {"mode": "fan_avg", "seed": null, "scale": 1.0, "distribution": "uniform"}}, "name": "conv2d_40", "bias_constraint": null, "data_format": "channels_last", "kernel_constraint": null, "bias_regularizer": null, "use_bias": false, "activation": "linear", "dilation_rate": [1, 1], "filters": 192, "bias_initializer": {"class_name": "Zeros", "config": {}}, "kernel_size": [1, 1], "kernel_regularizer": null, "activity_regularizer": null, "trainable": true, "padding": "same", "strides": [1, 1]}}, {"class_name": "BatchNormalization", "name": "batch_normalization_31", "inbound_nodes": [[["conv2d_31", 0, 0, {}]]], "config": {"beta_regularizer": null, "gamma_regularizer": null, "name": "batch_normalization_31", "axis": 3, "gamma_initializer": {"class_name": "Ones", "config": {}}, "moving_variance_initializer": {"class_name": "Ones", "config": {}}, "scale": false, "beta_constraint": null, "gamma_constraint": null, "moving_mean_initializer": {"class_name": "Zeros", "config": {}}, "epsilon": 0.001, "center": true, "beta_initializer": {"class_name": "Zeros", "config": {}}, "trainable": true, "momentum": 0.99}}, {"class_name": "BatchNormalization", "name": "batch_normalization_34", "inbound_nodes": [[["conv2d_34", 0, 0, {}]]], "config": {"beta_regularizer": null, "gamma_regularizer": null, "name": "batch_normalization_34", "axis": 3, "gamma_initializer": {"class_name": "Ones", "config": {}}, "moving_variance_initializer": {"class_name": "Ones", "config": {}}, "scale": false, "beta_constraint": null, "gamma_constraint": null, "moving_mean_initializer": {"class_name": "Zeros", "config": {}}, "epsilon": 0.001, "center": true, "beta_initializer": {"class_name": "Zeros", "config": {}}, "trainable": true, "momentum": 0.99}}, {"class_name": "BatchNormalization", "name": "batch_normalization_39", "inbound_nodes": [[["conv2d_39", 0, 0, {}]]], "config": {"beta_regularizer": null, "gamma_regularizer": null, "name": "batch_normalization_39", "axis": 3, "gamma_initializer": {"class_name": "Ones", "config": {}}, "moving_variance_initializer": {"class_name": "Ones", "config": {}}, "scale": false, "beta_constraint": null, "gamma_constraint": null, "moving_mean_initializer": {"class_name": "Zeros", "config": {}}, "epsilon": 0.001, "center": true, "beta_initializer": {"class_name": "Zeros", "config": {}}, "trainable": true, "momentum": 0.99}}, {"class_name": "BatchNormalization", "name": "batch_normalization_40", "inbound_nodes": [[["conv2d_40", 0, 0, {}]]], "config": {"beta_regularizer": null, "gamma_regularizer": null, "name": "batch_normalization_40", "axis": 3, "gamma_initializer": {"class_name": "Ones", "config": {}}, "moving_variance_initializer": {"class_name": "Ones", "config": {}}, "scale": false, "beta_constraint": null, "gamma_constraint": null, "moving_mean_initializer": {"class_name": "Zeros", "config": {}}, "epsilon": 0.001, "center": true, "beta_initializer": {"class_name": "Zeros", "config": {}}, "trainable": true, "momentum": 0.99}}, {"class_name": "Activation", "name": "activation_31", "inbound_nodes": [[["batch_normalization_31", 0, 0, {}]]], "config": {"activation": "relu", "name": "activation_31", "trainable": true}}, {"class_name": "Activation", "name": "activation_34", "inbound_nodes": [[["batch_normalization_34", 0, 0, {}]]], "config": {"activation": "relu", "name": "activation_34", "trainable": true}}, {"class_name": "Activation", "name": "activation_39", "inbound_nodes": [[["batch_normalization_39", 0, 0, {}]]], "config": {"activation": "relu", "name": "activation_39", "trainable": true}}, {"class_name": "Activation", "name": "activation_40", "inbound_nodes": [[["batch_normalization_40", 0, 0, {}]]], "config": {"activation": "relu", "name": "activation_40", "trainable": true}}, {"class_name": "Concatenate", "name": "mixed4", "inbound_nodes": [[["activation_31", 0, 0, {}], ["activation_34", 0, 0, {}], ["activation_39", 0, 0, {}], ["activation_40", 0, 0, {}]]], "config": {"name": "mixed4", "axis": 3, "trainable": true}}, {"class_name": "Conv2D", "name": "conv2d_45", "inbound_nodes": [[["mixed4", 0, 0, {}]]], "config": {"kernel_initializer": {"class_name": "VarianceScaling", "config": {"mode": "fan_avg", "seed": null, "scale": 1.0, "distribution": "uniform"}}, "name": "conv2d_45", "bias_constraint": null, "data_format": "channels_last", "kernel_constraint": null, "bias_regularizer": null, "use_bias": false, "activation": "linear", "dilation_rate": [1, 1], "filters": 160, "bias_initializer": {"class_name": "Zeros", "config": {}}, "kernel_size": [1, 1], "kernel_regularizer": null, "activity_regularizer": null, "trainable": true, "padding": "same", "strides": [1, 1]}}, {"class_name": "BatchNormalization", "name": "batch_normalization_45", "inbound_nodes": [[["conv2d_45", 0, 0, {}]]], "config": {"beta_regularizer": null, "gamma_regularizer": null, "name": "batch_normalization_45", "axis": 3, "gamma_initializer": {"class_name": "Ones", "config": {}}, "moving_variance_initializer": {"class_name": "Ones", "config": {}}, "scale": false, "beta_constraint": null, "gamma_constraint": null, "moving_mean_initializer": {"class_name": "Zeros", "config": {}}, "epsilon": 0.001, "center": true, "beta_initializer": {"class_name": "Zeros", "config": {}}, "trainable": true, "momentum": 0.99}}, {"class_name": "Activation", "name": "activation_45", "inbound_nodes": [[["batch_normalization_45", 0, 0, {}]]], "config": {"activation": "relu", "name": "activation_45", "trainable": true}}, {"class_name": "Conv2D", "name": "conv2d_46", "inbound_nodes": [[["activation_45", 0, 0, {}]]], "config": {"kernel_initializer": {"class_name": "VarianceScaling", "config": {"mode": "fan_avg", "seed": null, "scale": 1.0, "distribution": "uniform"}}, "name": "conv2d_46", "bias_constraint": null, "data_format": "channels_last", "kernel_constraint": null, "bias_regularizer": null, "use_bias": false, "activation": "linear", "dilation_rate": [1, 1], "filters": 160, "bias_initializer": {"class_name": "Zeros", "config": {}}, "kernel_size": [7, 1], "kernel_regularizer": null, "activity_regularizer": null, "trainable": true, "padding": "same", "strides": [1, 1]}}, {"class_name": "BatchNormalization", "name": "batch_normalization_46", "inbound_nodes": [[["conv2d_46", 0, 0, {}]]], "config": {"beta_regularizer": null, "gamma_regularizer": null, "name": "batch_normalization_46", "axis": 3, "gamma_initializer": {"class_name": "Ones", "config": {}}, "moving_variance_initializer": {"class_name": "Ones", "config": {}}, "scale": false, "beta_constraint": null, "gamma_constraint": null, "moving_mean_initializer": {"class_name": "Zeros", "config": {}}, "epsilon": 0.001, "center": true, "beta_initializer": {"class_name": "Zeros", "config": {}}, "trainable": true, "momentum": 0.99}}, {"class_name": "Activation", "name": "activation_46", "inbound_nodes": [[["batch_normalization_46", 0, 0, {}]]], "config": {"activation": "relu", "name": "activation_46", "trainable": true}}, {"class_name": "Conv2D", "name": "conv2d_42", "inbound_nodes": [[["mixed4", 0, 0, {}]]], "config": {"kernel_initializer": {"class_name": "VarianceScaling", "config": {"mode": "fan_avg", "seed": null, "scale": 1.0, "distribution": "uniform"}}, "name": "conv2d_42", "bias_constraint": null, "data_format": "channels_last", "kernel_constraint": null, "bias_regularizer": null, "use_bias": false, "activation": "linear", "dilation_rate": [1, 1], "filters": 160, "bias_initializer": {"class_name": "Zeros", "config": {}}, "kernel_size": [1, 1], "kernel_regularizer": null, "activity_regularizer": null, "trainable": true, "padding": "same", "strides": [1, 1]}}, {"class_name": "Conv2D", "name": "conv2d_47", "inbound_nodes": [[["activation_46", 0, 0, {}]]], "config": {"kernel_initializer": {"class_name": "VarianceScaling", "config": {"mode": "fan_avg", "seed": null, "scale": 1.0, "distribution": "uniform"}}, "name": "conv2d_47", "bias_constraint": null, "data_format": "channels_last", "kernel_constraint": null, "bias_regularizer": null, "use_bias": false, "activation": "linear", "dilation_rate": [1, 1], "filters": 160, "bias_initializer": {"class_name": "Zeros", "config": {}}, "kernel_size": [1, 7], "kernel_regularizer": null, "activity_regularizer": null, "trainable": true, "padding": "same", "strides": [1, 1]}}, {"class_name": "BatchNormalization", "name": "batch_normalization_42", "inbound_nodes": [[["conv2d_42", 0, 0, {}]]], "config": {"beta_regularizer": null, "gamma_regularizer": null, "name": "batch_normalization_42", "axis": 3, "gamma_initializer": {"class_name": "Ones", "config": {}}, "moving_variance_initializer": {"class_name": "Ones", "config": {}}, "scale": false, "beta_constraint": null, "gamma_constraint": null, "moving_mean_initializer": {"class_name": "Zeros", "config": {}}, "epsilon": 0.001, "center": true, "beta_initializer": {"class_name": "Zeros", "config": {}}, "trainable": true, "momentum": 0.99}}, {"class_name": "BatchNormalization", "name": "batch_normalization_47", "inbound_nodes": [[["conv2d_47", 0, 0, {}]]], "config": {"beta_regularizer": null, "gamma_regularizer": null, "name": "batch_normalization_47", "axis": 3, "gamma_initializer": {"class_name": "Ones", "config": {}}, "moving_variance_initializer": {"class_name": "Ones", "config": {}}, "scale": false, "beta_constraint": null, "gamma_constraint": null, "moving_mean_initializer": {"class_name": "Zeros", "config": {}}, "epsilon": 0.001, "center": true, "beta_initializer": {"class_name": "Zeros", "config": {}}, "trainable": true, "momentum": 0.99}}, {"class_name": "Activation", "name": "activation_42", "inbound_nodes": [[["batch_normalization_42", 0, 0, {}]]], "config": {"activation": "relu", "name": "activation_42", "trainable": true}}, {"class_name": "Activation", "name": "activation_47", "inbound_nodes": [[["batch_normalization_47", 0, 0, {}]]], "config": {"activation": "relu", "name": "activation_47", "trainable": true}}, {"class_name": "Conv2D", "name": "conv2d_43", "inbound_nodes": [[["activation_42", 0, 0, {}]]], "config": {"kernel_initializer": {"class_name": "VarianceScaling", "config": {"mode": "fan_avg", "seed": null, "scale": 1.0, "distribution": "uniform"}}, "name": "conv2d_43", "bias_constraint": null, "data_format": "channels_last", "kernel_constraint": null, "bias_regularizer": null, "use_bias": false, "activation": "linear", "dilation_rate": [1, 1], "filters": 160, "bias_initializer": {"class_name": "Zeros", "config": {}}, "kernel_size": [1, 7], "kernel_regularizer": null, "activity_regularizer": null, "trainable": true, "padding": "same", "strides": [1, 1]}}, {"class_name": "Conv2D", "name": "conv2d_48", "inbound_nodes": [[["activation_47", 0, 0, {}]]], "config": {"kernel_initializer": {"class_name": "VarianceScaling", "config": {"mode": "fan_avg", "seed": null, "scale": 1.0, "distribution": "uniform"}}, "name": "conv2d_48", "bias_constraint": null, "data_format": "channels_last", "kernel_constraint": null, "bias_regularizer": null, "use_bias": false, "activation": "linear", "dilation_rate": [1, 1], "filters": 160, "bias_initializer": {"class_name": "Zeros", "config": {}}, "kernel_size": [7, 1], "kernel_regularizer": null, "activity_regularizer": null, "trainable": true, "padding": "same", "strides": [1, 1]}}, {"class_name": "BatchNormalization", "name": "batch_normalization_43", "inbound_nodes": [[["conv2d_43", 0, 0, {}]]], "config": {"beta_regularizer": null, "gamma_regularizer": null, "name": "batch_normalization_43", "axis": 3, "gamma_initializer": {"class_name": "Ones", "config": {}}, "moving_variance_initializer": {"class_name": "Ones", "config": {}}, "scale": false, "beta_constraint": null, "gamma_constraint": null, "moving_mean_initializer": {"class_name": "Zeros", "config": {}}, "epsilon": 0.001, "center": true, "beta_initializer": {"class_name": "Zeros", "config": {}}, "trainable": true, "momentum": 0.99}}, {"class_name": "BatchNormalization", "name": "batch_normalization_48", "inbound_nodes": [[["conv2d_48", 0, 0, {}]]], "config": {"beta_regularizer": null, "gamma_regularizer": null, "name": "batch_normalization_48", "axis": 3, "gamma_initializer": {"class_name": "Ones", "config": {}}, "moving_variance_initializer": {"class_name": "Ones", "config": {}}, "scale": false, "beta_constraint": null, "gamma_constraint": null, "moving_mean_initializer": {"class_name": "Zeros", "config": {}}, "epsilon": 0.001, "center": true, "beta_initializer": {"class_name": "Zeros", "config": {}}, "trainable": true, "momentum": 0.99}}, {"class_name": "Activation", "name": "activation_43", "inbound_nodes": [[["batch_normalization_43", 0, 0, {}]]], "config": {"activation": "relu", "name": "activation_43", "trainable": true}}, {"class_name": "Activation", "name": "activation_48", "inbound_nodes": [[["batch_normalization_48", 0, 0, {}]]], "config": {"activation": "relu", "name": "activation_48", "trainable": true}}, {"class_name": "AveragePooling2D", "name": "average_pooling2d_5", "inbound_nodes": [[["mixed4", 0, 0, {}]]], "config": {"pool_size": [3, 3], "name": "average_pooling2d_5", "data_format": "channels_last", "trainable": true, "padding": "same", "strides": [1, 1]}}, {"class_name": "Conv2D", "name": "conv2d_41", "inbound_nodes": [[["mixed4", 0, 0, {}]]], "config": {"kernel_initializer": {"class_name": "VarianceScaling", "config": {"mode": "fan_avg", "seed": null, "scale": 1.0, "distribution": "uniform"}}, "name": "conv2d_41", "bias_constraint": null, "data_format": "channels_last", "kernel_constraint": null, "bias_regularizer": null, "use_bias": false, "activation": "linear", "dilation_rate": [1, 1], "filters": 192, "bias_initializer": {"class_name": "Zeros", "config": {}}, "kernel_size": [1, 1], "kernel_regularizer": null, "activity_regularizer": null, "trainable": true, "padding": "same", "strides": [1, 1]}}, {"class_name": "Conv2D", "name": "conv2d_44", "inbound_nodes": [[["activation_43", 0, 0, {}]]], "config": {"kernel_initializer": {"class_name": "VarianceScaling", "config": {"mode": "fan_avg", "seed": null, "scale": 1.0, "distribution": "uniform"}}, "name": "conv2d_44", "bias_constraint": null, "data_format": "channels_last", "kernel_constraint": null, "bias_regularizer": null, "use_bias": false, "activation": "linear", "dilation_rate": [1, 1], "filters": 192, "bias_initializer": {"class_name": "Zeros", "config": {}}, "kernel_size": [7, 1], "kernel_regularizer": null, "activity_regularizer": null, "trainable": true, "padding": "same", "strides": [1, 1]}}, {"class_name": "Conv2D", "name": "conv2d_49", "inbound_nodes": [[["activation_48", 0, 0, {}]]], "config": {"kernel_initializer": {"class_name": "VarianceScaling", "config": {"mode": "fan_avg", "seed": null, "scale": 1.0, "distribution": "uniform"}}, "name": "conv2d_49", "bias_constraint": null, "data_format": "channels_last", "kernel_constraint": null, "bias_regularizer": null, "use_bias": false, "activation": "linear", "dilation_rate": [1, 1], "filters": 192, "bias_initializer": {"class_name": "Zeros", "config": {}}, "kernel_size": [1, 7], "kernel_regularizer": null, "activity_regularizer": null, "trainable": true, "padding": "same", "strides": [1, 1]}}, {"class_name": "Conv2D", "name": "conv2d_50", "inbound_nodes": [[["average_pooling2d_5", 0, 0, {}]]], "config": {"kernel_initializer": {"class_name": "VarianceScaling", "config": {"mode": "fan_avg", "seed": null, "scale": 1.0, "distribution": "uniform"}}, "name": "conv2d_50", "bias_constraint": null, "data_format": "channels_last", "kernel_constraint": null, "bias_regularizer": null, "use_bias": false, "activation": "linear", "dilation_rate": [1, 1], "filters": 192, "bias_initializer": {"class_name": "Zeros", "config": {}}, "kernel_size": [1, 1], "kernel_regularizer": null, "activity_regularizer": null, "trainable": true, "padding": "same", "strides": [1, 1]}}, {"class_name": "BatchNormalization", "name": "batch_normalization_41", "inbound_nodes": [[["conv2d_41", 0, 0, {}]]], "config": {"beta_regularizer": null, "gamma_regularizer": null, "name": "batch_normalization_41", "axis": 3, "gamma_initializer": {"class_name": "Ones", "config": {}}, "moving_variance_initializer": {"class_name": "Ones", "config": {}}, "scale": false, "beta_constraint": null, "gamma_constraint": null, "moving_mean_initializer": {"class_name": "Zeros", "config": {}}, "epsilon": 0.001, "center": true, "beta_initializer": {"class_name": "Zeros", "config": {}}, "trainable": true, "momentum": 0.99}}, {"class_name": "BatchNormalization", "name": "batch_normalization_44", "inbound_nodes": [[["conv2d_44", 0, 0, {}]]], "config": {"beta_regularizer": null, "gamma_regularizer": null, "name": "batch_normalization_44", "axis": 3, "gamma_initializer": {"class_name": "Ones", "config": {}}, "moving_variance_initializer": {"class_name": "Ones", "config": {}}, "scale": false, "beta_constraint": null, "gamma_constraint": null, "moving_mean_initializer": {"class_name": "Zeros", "config": {}}, "epsilon": 0.001, "center": true, "beta_initializer": {"class_name": "Zeros", "config": {}}, "trainable": true, "momentum": 0.99}}, {"class_name": "BatchNormalization", "name": "batch_normalization_49", "inbound_nodes": [[["conv2d_49", 0, 0, {}]]], "config": {"beta_regularizer": null, "gamma_regularizer": null, "name": "batch_normalization_49", "axis": 3, "gamma_initializer": {"class_name": "Ones", "config": {}}, "moving_variance_initializer": {"class_name": "Ones", "config": {}}, "scale": false, "beta_constraint": null, "gamma_constraint": null, "moving_mean_initializer": {"class_name": "Zeros", "config": {}}, "epsilon": 0.001, "center": true, "beta_initializer": {"class_name": "Zeros", "config": {}}, "trainable": true, "momentum": 0.99}}, {"class_name": "BatchNormalization", "name": "batch_normalization_50", "inbound_nodes": [[["conv2d_50", 0, 0, {}]]], "config": {"beta_regularizer": null, "gamma_regularizer": null, "name": "batch_normalization_50", "axis": 3, "gamma_initializer": {"class_name": "Ones", "config": {}}, "moving_variance_initializer": {"class_name": "Ones", "config": {}}, "scale": false, "beta_constraint": null, "gamma_constraint": null, "moving_mean_initializer": {"class_name": "Zeros", "config": {}}, "epsilon": 0.001, "center": true, "beta_initializer": {"class_name": "Zeros", "config": {}}, "trainable": true, "momentum": 0.99}}, {"class_name": "Activation", "name": "activation_41", "inbound_nodes": [[["batch_normalization_41", 0, 0, {}]]], "config": {"activation": "relu", "name": "activation_41", "trainable": true}}, {"class_name": "Activation", "name": "activation_44", "inbound_nodes": [[["batch_normalization_44", 0, 0, {}]]], "config": {"activation": "relu", "name": "activation_44", "trainable": true}}, {"class_name": "Activation", "name": "activation_49", "inbound_nodes": [[["batch_normalization_49", 0, 0, {}]]], "config": {"activation": "relu", "name": "activation_49", "trainable": true}}, {"class_name": "Activation", "name": "activation_50", "inbound_nodes": [[["batch_normalization_50", 0, 0, {}]]], "config": {"activation": "relu", "name": "activation_50", "trainable": true}}, {"class_name": "Concatenate", "name": "mixed5", "inbound_nodes": [[["activation_41", 0, 0, {}], ["activation_44", 0, 0, {}], ["activation_49", 0, 0, {}], ["activation_50", 0, 0, {}]]], "config": {"name": "mixed5", "axis": 3, "trainable": true}}, {"class_name": "Conv2D", "name": "conv2d_55", "inbound_nodes": [[["mixed5", 0, 0, {}]]], "config": {"kernel_initializer": {"class_name": "VarianceScaling", "config": {"mode": "fan_avg", "seed": null, "scale": 1.0, "distribution": "uniform"}}, "name": "conv2d_55", "bias_constraint": null, "data_format": "channels_last", "kernel_constraint": null, "bias_regularizer": null, "use_bias": false, "activation": "linear", "dilation_rate": [1, 1], "filters": 160, "bias_initializer": {"class_name": "Zeros", "config": {}}, "kernel_size": [1, 1], "kernel_regularizer": null, "activity_regularizer": null, "trainable": true, "padding": "same", "strides": [1, 1]}}, {"class_name": "BatchNormalization", "name": "batch_normalization_55", "inbound_nodes": [[["conv2d_55", 0, 0, {}]]], "config": {"beta_regularizer": null, "gamma_regularizer": null, "name": "batch_normalization_55", "axis": 3, "gamma_initializer": {"class_name": "Ones", "config": {}}, "moving_variance_initializer": {"class_name": "Ones", "config": {}}, "scale": false, "beta_constraint": null, "gamma_constraint": null, "moving_mean_initializer": {"class_name": "Zeros", "config": {}}, "epsilon": 0.001, "center": true, "beta_initializer": {"class_name": "Zeros", "config": {}}, "trainable": true, "momentum": 0.99}}, {"class_name": "Activation", "name": "activation_55", "inbound_nodes": [[["batch_normalization_55", 0, 0, {}]]], "config": {"activation": "relu", "name": "activation_55", "trainable": true}}, {"class_name": "Conv2D", "name": "conv2d_56", "inbound_nodes": [[["activation_55", 0, 0, {}]]], "config": {"kernel_initializer": {"class_name": "VarianceScaling", "config": {"mode": "fan_avg", "seed": null, "scale": 1.0, "distribution": "uniform"}}, "name": "conv2d_56", "bias_constraint": null, "data_format": "channels_last", "kernel_constraint": null, "bias_regularizer": null, "use_bias": false, "activation": "linear", "dilation_rate": [1, 1], "filters": 160, "bias_initializer": {"class_name": "Zeros", "config": {}}, "kernel_size": [7, 1], "kernel_regularizer": null, "activity_regularizer": null, "trainable": true, "padding": "same", "strides": [1, 1]}}, {"class_name": "BatchNormalization", "name": "batch_normalization_56", "inbound_nodes": [[["conv2d_56", 0, 0, {}]]], "config": {"beta_regularizer": null, "gamma_regularizer": null, "name": "batch_normalization_56", "axis": 3, "gamma_initializer": {"class_name": "Ones", "config": {}}, "moving_variance_initializer": {"class_name": "Ones", "config": {}}, "scale": false, "beta_constraint": null, "gamma_constraint": null, "moving_mean_initializer": {"class_name": "Zeros", "config": {}}, "epsilon": 0.001, "center": true, "beta_initializer": {"class_name": "Zeros", "config": {}}, "trainable": true, "momentum": 0.99}}, {"class_name": "Activation", "name": "activation_56", "inbound_nodes": [[["batch_normalization_56", 0, 0, {}]]], "config": {"activation": "relu", "name": "activation_56", "trainable": true}}, {"class_name": "Conv2D", "name": "conv2d_52", "inbound_nodes": [[["mixed5", 0, 0, {}]]], "config": {"kernel_initializer": {"class_name": "VarianceScaling", "config": {"mode": "fan_avg", "seed": null, "scale": 1.0, "distribution": "uniform"}}, "name": "conv2d_52", "bias_constraint": null, "data_format": "channels_last", "kernel_constraint": null, "bias_regularizer": null, "use_bias": false, "activation": "linear", "dilation_rate": [1, 1], "filters": 160, "bias_initializer": {"class_name": "Zeros", "config": {}}, "kernel_size": [1, 1], "kernel_regularizer": null, "activity_regularizer": null, "trainable": true, "padding": "same", "strides": [1, 1]}}, {"class_name": "Conv2D", "name": "conv2d_57", "inbound_nodes": [[["activation_56", 0, 0, {}]]], "config": {"kernel_initializer": {"class_name": "VarianceScaling", "config": {"mode": "fan_avg", "seed": null, "scale": 1.0, "distribution": "uniform"}}, "name": "conv2d_57", "bias_constraint": null, "data_format": "channels_last", "kernel_constraint": null, "bias_regularizer": null, "use_bias": false, "activation": "linear", "dilation_rate": [1, 1], "filters": 160, "bias_initializer": {"class_name": "Zeros", "config": {}}, "kernel_size": [1, 7], "kernel_regularizer": null, "activity_regularizer": null, "trainable": true, "padding": "same", "strides": [1, 1]}}, {"class_name": "BatchNormalization", "name": "batch_normalization_52", "inbound_nodes": [[["conv2d_52", 0, 0, {}]]], "config": {"beta_regularizer": null, "gamma_regularizer": null, "name": "batch_normalization_52", "axis": 3, "gamma_initializer": {"class_name": "Ones", "config": {}}, "moving_variance_initializer": {"class_name": "Ones", "config": {}}, "scale": false, "beta_constraint": null, "gamma_constraint": null, "moving_mean_initializer": {"class_name": "Zeros", "config": {}}, "epsilon": 0.001, "center": true, "beta_initializer": {"class_name": "Zeros", "config": {}}, "trainable": true, "momentum": 0.99}}, {"class_name": "BatchNormalization", "name": "batch_normalization_57", "inbound_nodes": [[["conv2d_57", 0, 0, {}]]], "config": {"beta_regularizer": null, "gamma_regularizer": null, "name": "batch_normalization_57", "axis": 3, "gamma_initializer": {"class_name": "Ones", "config": {}}, "moving_variance_initializer": {"class_name": "Ones", "config": {}}, "scale": false, "beta_constraint": null, "gamma_constraint": null, "moving_mean_initializer": {"class_name": "Zeros", "config": {}}, "epsilon": 0.001, "center": true, "beta_initializer": {"class_name": "Zeros", "config": {}}, "trainable": true, "momentum": 0.99}}, {"class_name": "Activation", "name": "activation_52", "inbound_nodes": [[["batch_normalization_52", 0, 0, {}]]], "config": {"activation": "relu", "name": "activation_52", "trainable": true}}, {"class_name": "Activation", "name": "activation_57", "inbound_nodes": [[["batch_normalization_57", 0, 0, {}]]], "config": {"activation": "relu", "name": "activation_57", "trainable": true}}, {"class_name": "Conv2D", "name": "conv2d_53", "inbound_nodes": [[["activation_52", 0, 0, {}]]], "config": {"kernel_initializer": {"class_name": "VarianceScaling", "config": {"mode": "fan_avg", "seed": null, "scale": 1.0, "distribution": "uniform"}}, "name": "conv2d_53", "bias_constraint": null, "data_format": "channels_last", "kernel_constraint": null, "bias_regularizer": null, "use_bias": false, "activation": "linear", "dilation_rate": [1, 1], "filters": 160, "bias_initializer": {"class_name": "Zeros", "config": {}}, "kernel_size": [1, 7], "kernel_regularizer": null, "activity_regularizer": null, "trainable": true, "padding": "same", "strides": [1, 1]}}, {"class_name": "Conv2D", "name": "conv2d_58", "inbound_nodes": [[["activation_57", 0, 0, {}]]], "config": {"kernel_initializer": {"class_name": "VarianceScaling", "config": {"mode": "fan_avg", "seed": null, "scale": 1.0, "distribution": "uniform"}}, "name": "conv2d_58", "bias_constraint": null, "data_format": "channels_last", "kernel_constraint": null, "bias_regularizer": null, "use_bias": false, "activation": "linear", "dilation_rate": [1, 1], "filters": 160, "bias_initializer": {"class_name": "Zeros", "config": {}}, "kernel_size": [7, 1], "kernel_regularizer": null, "activity_regularizer": null, "trainable": true, "padding": "same", "strides": [1, 1]}}, {"class_name": "BatchNormalization", "name": "batch_normalization_53", "inbound_nodes": [[["conv2d_53", 0, 0, {}]]], "config": {"beta_regularizer": null, "gamma_regularizer": null, "name": "batch_normalization_53", "axis": 3, "gamma_initializer": {"class_name": "Ones", "config": {}}, "moving_variance_initializer": {"class_name": "Ones", "config": {}}, "scale": false, "beta_constraint": null, "gamma_constraint": null, "moving_mean_initializer": {"class_name": "Zeros", "config": {}}, "epsilon": 0.001, "center": true, "beta_initializer": {"class_name": "Zeros", "config": {}}, "trainable": true, "momentum": 0.99}}, {"class_name": "BatchNormalization", "name": "batch_normalization_58", "inbound_nodes": [[["conv2d_58", 0, 0, {}]]], "config": {"beta_regularizer": null, "gamma_regularizer": null, "name": "batch_normalization_58", "axis": 3, "gamma_initializer": {"class_name": "Ones", "config": {}}, "moving_variance_initializer": {"class_name": "Ones", "config": {}}, "scale": false, "beta_constraint": null, "gamma_constraint": null, "moving_mean_initializer": {"class_name": "Zeros", "config": {}}, "epsilon": 0.001, "center": true, "beta_initializer": {"class_name": "Zeros", "config": {}}, "trainable": true, "momentum": 0.99}}, {"class_name": "Activation", "name": "activation_53", "inbound_nodes": [[["batch_normalization_53", 0, 0, {}]]], "config": {"activation": "relu", "name": "activation_53", "trainable": true}}, {"class_name": "Activation", "name": "activation_58", "inbound_nodes": [[["batch_normalization_58", 0, 0, {}]]], "config": {"activation": "relu", "name": "activation_58", "trainable": true}}, {"class_name": "AveragePooling2D", "name": "average_pooling2d_6", "inbound_nodes": [[["mixed5", 0, 0, {}]]], "config": {"pool_size": [3, 3], "name": "average_pooling2d_6", "data_format": "channels_last", "trainable": true, "padding": "same", "strides": [1, 1]}}, {"class_name": "Conv2D", "name": "conv2d_51", "inbound_nodes": [[["mixed5", 0, 0, {}]]], "config": {"kernel_initializer": {"class_name": "VarianceScaling", "config": {"mode": "fan_avg", "seed": null, "scale": 1.0, "distribution": "uniform"}}, "name": "conv2d_51", "bias_constraint": null, "data_format": "channels_last", "kernel_constraint": null, "bias_regularizer": null, "use_bias": false, "activation": "linear", "dilation_rate": [1, 1], "filters": 192, "bias_initializer": {"class_name": "Zeros", "config": {}}, "kernel_size": [1, 1], "kernel_regularizer": null, "activity_regularizer": null, "trainable": true, "padding": "same", "strides": [1, 1]}}, {"class_name": "Conv2D", "name": "conv2d_54", "inbound_nodes": [[["activation_53", 0, 0, {}]]], "config": {"kernel_initializer": {"class_name": "VarianceScaling", "config": {"mode": "fan_avg", "seed": null, "scale": 1.0, "distribution": "uniform"}}, "name": "conv2d_54", "bias_constraint": null, "data_format": "channels_last", "kernel_constraint": null, "bias_regularizer": null, "use_bias": false, "activation": "linear", "dilation_rate": [1, 1], "filters": 192, "bias_initializer": {"class_name": "Zeros", "config": {}}, "kernel_size": [7, 1], "kernel_regularizer": null, "activity_regularizer": null, "trainable": true, "padding": "same", "strides": [1, 1]}}, {"class_name": "Conv2D", "name": "conv2d_59", "inbound_nodes": [[["activation_58", 0, 0, {}]]], "config": {"kernel_initializer": {"class_name": "VarianceScaling", "config": {"mode": "fan_avg", "seed": null, "scale": 1.0, "distribution": "uniform"}}, "name": "conv2d_59", "bias_constraint": null, "data_format": "channels_last", "kernel_constraint": null, "bias_regularizer": null, "use_bias": false, "activation": "linear", "dilation_rate": [1, 1], "filters": 192, "bias_initializer": {"class_name": "Zeros", "config": {}}, "kernel_size": [1, 7], "kernel_regularizer": null, "activity_regularizer": null, "trainable": true, "padding": "same", "strides": [1, 1]}}, {"class_name": "Conv2D", "name": "conv2d_60", "inbound_nodes": [[["average_pooling2d_6", 0, 0, {}]]], "config": {"kernel_initializer": {"class_name": "VarianceScaling", "config": {"mode": "fan_avg", "seed": null, "scale": 1.0, "distribution": "uniform"}}, "name": "conv2d_60", "bias_constraint": null, "data_format": "channels_last", "kernel_constraint": null, "bias_regularizer": null, "use_bias": false, "activation": "linear", "dilation_rate": [1, 1], "filters": 192, "bias_initializer": {"class_name": "Zeros", "config": {}}, "kernel_size": [1, 1], "kernel_regularizer": null, "activity_regularizer": null, "trainable": true, "padding": "same", "strides": [1, 1]}}, {"class_name": "BatchNormalization", "name": "batch_normalization_51", "inbound_nodes": [[["conv2d_51", 0, 0, {}]]], "config": {"beta_regularizer": null, "gamma_regularizer": null, "name": "batch_normalization_51", "axis": 3, "gamma_initializer": {"class_name": "Ones", "config": {}}, "moving_variance_initializer": {"class_name": "Ones", "config": {}}, "scale": false, "beta_constraint": null, "gamma_constraint": null, "moving_mean_initializer": {"class_name": "Zeros", "config": {}}, "epsilon": 0.001, "center": true, "beta_initializer": {"class_name": "Zeros", "config": {}}, "trainable": true, "momentum": 0.99}}, {"class_name": "BatchNormalization", "name": "batch_normalization_54", "inbound_nodes": [[["conv2d_54", 0, 0, {}]]], "config": {"beta_regularizer": null, "gamma_regularizer": null, "name": "batch_normalization_54", "axis": 3, "gamma_initializer": {"class_name": "Ones", "config": {}}, "moving_variance_initializer": {"class_name": "Ones", "config": {}}, "scale": false, "beta_constraint": null, "gamma_constraint": null, "moving_mean_initializer": {"class_name": "Zeros", "config": {}}, "epsilon": 0.001, "center": true, "beta_initializer": {"class_name": "Zeros", "config": {}}, "trainable": true, "momentum": 0.99}}, {"class_name": "BatchNormalization", "name": "batch_normalization_59", "inbound_nodes": [[["conv2d_59", 0, 0, {}]]], "config": {"beta_regularizer": null, "gamma_regularizer": null, "name": "batch_normalization_59", "axis": 3, "gamma_initializer": {"class_name": "Ones", "config": {}}, "moving_variance_initializer": {"class_name": "Ones", "config": {}}, "scale": false, "beta_constraint": null, "gamma_constraint": null, "moving_mean_initializer": {"class_name": "Zeros", "config": {}}, "epsilon": 0.001, "center": true, "beta_initializer": {"class_name": "Zeros", "config": {}}, "trainable": true, "momentum": 0.99}}, {"class_name": "BatchNormalization", "name": "batch_normalization_60", "inbound_nodes": [[["conv2d_60", 0, 0, {}]]], "config": {"beta_regularizer": null, "gamma_regularizer": null, "name": "batch_normalization_60", "axis": 3, "gamma_initializer": {"class_name": "Ones", "config": {}}, "moving_variance_initializer": {"class_name": "Ones", "config": {}}, "scale": false, "beta_constraint": null, "gamma_constraint": null, "moving_mean_initializer": {"class_name": "Zeros", "config": {}}, "epsilon": 0.001, "center": true, "beta_initializer": {"class_name": "Zeros", "config": {}}, "trainable": true, "momentum": 0.99}}, {"class_name": "Activation", "name": "activation_51", "inbound_nodes": [[["batch_normalization_51", 0, 0, {}]]], "config": {"activation": "relu", "name": "activation_51", "trainable": true}}, {"class_name": "Activation", "name": "activation_54", "inbound_nodes": [[["batch_normalization_54", 0, 0, {}]]], "config": {"activation": "relu", "name": "activation_54", "trainable": true}}, {"class_name": "Activation", "name": "activation_59", "inbound_nodes": [[["batch_normalization_59", 0, 0, {}]]], "config": {"activation": "relu", "name": "activation_59", "trainable": true}}, {"class_name": "Activation", "name": "activation_60", "inbound_nodes": [[["batch_normalization_60", 0, 0, {}]]], "config": {"activation": "relu", "name": "activation_60", "trainable": true}}, {"class_name": "Concatenate", "name": "mixed6", "inbound_nodes": [[["activation_51", 0, 0, {}], ["activation_54", 0, 0, {}], ["activation_59", 0, 0, {}], ["activation_60", 0, 0, {}]]], "config": {"name": "mixed6", "axis": 3, "trainable": true}}, {"class_name": "Conv2D", "name": "conv2d_65", "inbound_nodes": [[["mixed6", 0, 0, {}]]], "config": {"kernel_initializer": {"class_name": "VarianceScaling", "config": {"mode": "fan_avg", "seed": null, "scale": 1.0, "distribution": "uniform"}}, "name": "conv2d_65", "bias_constraint": null, "data_format": "channels_last", "kernel_constraint": null, "bias_regularizer": null, "use_bias": false, "activation": "linear", "dilation_rate": [1, 1], "filters": 192, "bias_initializer": {"class_name": "Zeros", "config": {}}, "kernel_size": [1, 1], "kernel_regularizer": null, "activity_regularizer": null, "trainable": true, "padding": "same", "strides": [1, 1]}}, {"class_name": "BatchNormalization", "name": "batch_normalization_65", "inbound_nodes": [[["conv2d_65", 0, 0, {}]]], "config": {"beta_regularizer": null, "gamma_regularizer": null, "name": "batch_normalization_65", "axis": 3, "gamma_initializer": {"class_name": "Ones", "config": {}}, "moving_variance_initializer": {"class_name": "Ones", "config": {}}, "scale": false, "beta_constraint": null, "gamma_constraint": null, "moving_mean_initializer": {"class_name": "Zeros", "config": {}}, "epsilon": 0.001, "center": true, "beta_initializer": {"class_name": "Zeros", "config": {}}, "trainable": true, "momentum": 0.99}}, {"class_name": "Activation", "name": "activation_65", "inbound_nodes": [[["batch_normalization_65", 0, 0, {}]]], "config": {"activation": "relu", "name": "activation_65", "trainable": true}}, {"class_name": "Conv2D", "name": "conv2d_66", "inbound_nodes": [[["activation_65", 0, 0, {}]]], "config": {"kernel_initializer": {"class_name": "VarianceScaling", "config": {"mode": "fan_avg", "seed": null, "scale": 1.0, "distribution": "uniform"}}, "name": "conv2d_66", "bias_constraint": null, "data_format": "channels_last", "kernel_constraint": null, "bias_regularizer": null, "use_bias": false, "activation": "linear", "dilation_rate": [1, 1], "filters": 192, "bias_initializer": {"class_name": "Zeros", "config": {}}, "kernel_size": [7, 1], "kernel_regularizer": null, "activity_regularizer": null, "trainable": true, "padding": "same", "strides": [1, 1]}}, {"class_name": "BatchNormalization", "name": "batch_normalization_66", "inbound_nodes": [[["conv2d_66", 0, 0, {}]]], "config": {"beta_regularizer": null, "gamma_regularizer": null, "name": "batch_normalization_66", "axis": 3, "gamma_initializer": {"class_name": "Ones", "config": {}}, "moving_variance_initializer": {"class_name": "Ones", "config": {}}, "scale": false, "beta_constraint": null, "gamma_constraint": null, "moving_mean_initializer": {"class_name": "Zeros", "config": {}}, "epsilon": 0.001, "center": true, "beta_initializer": {"class_name": "Zeros", "config": {}}, "trainable": true, "momentum": 0.99}}, {"class_name": "Activation", "name": "activation_66", "inbound_nodes": [[["batch_normalization_66", 0, 0, {}]]], "config": {"activation": "relu", "name": "activation_66", "trainable": true}}, {"class_name": "Conv2D", "name": "conv2d_62", "inbound_nodes": [[["mixed6", 0, 0, {}]]], "config": {"kernel_initializer": {"class_name": "VarianceScaling", "config": {"mode": "fan_avg", "seed": null, "scale": 1.0, "distribution": "uniform"}}, "name": "conv2d_62", "bias_constraint": null, "data_format": "channels_last", "kernel_constraint": null, "bias_regularizer": null, "use_bias": false, "activation": "linear", "dilation_rate": [1, 1], "filters": 192, "bias_initializer": {"class_name": "Zeros", "config": {}}, "kernel_size": [1, 1], "kernel_regularizer": null, "activity_regularizer": null, "trainable": true, "padding": "same", "strides": [1, 1]}}, {"class_name": "Conv2D", "name": "conv2d_67", "inbound_nodes": [[["activation_66", 0, 0, {}]]], "config": {"kernel_initializer": {"class_name": "VarianceScaling", "config": {"mode": "fan_avg", "seed": null, "scale": 1.0, "distribution": "uniform"}}, "name": "conv2d_67", "bias_constraint": null, "data_format": "channels_last", "kernel_constraint": null, "bias_regularizer": null, "use_bias": false, "activation": "linear", "dilation_rate": [1, 1], "filters": 192, "bias_initializer": {"class_name": "Zeros", "config": {}}, "kernel_size": [1, 7], "kernel_regularizer": null, "activity_regularizer": null, "trainable": true, "padding": "same", "strides": [1, 1]}}, {"class_name": "BatchNormalization", "name": "batch_normalization_62", "inbound_nodes": [[["conv2d_62", 0, 0, {}]]], "config": {"beta_regularizer": null, "gamma_regularizer": null, "name": "batch_normalization_62", "axis": 3, "gamma_initializer": {"class_name": "Ones", "config": {}}, "moving_variance_initializer": {"class_name": "Ones", "config": {}}, "scale": false, "beta_constraint": null, "gamma_constraint": null, "moving_mean_initializer": {"class_name": "Zeros", "config": {}}, "epsilon": 0.001, "center": true, "beta_initializer": {"class_name": "Zeros", "config": {}}, "trainable": true, "momentum": 0.99}}, {"class_name": "BatchNormalization", "name": "batch_normalization_67", "inbound_nodes": [[["conv2d_67", 0, 0, {}]]], "config": {"beta_regularizer": null, "gamma_regularizer": null, "name": "batch_normalization_67", "axis": 3, "gamma_initializer": {"class_name": "Ones", "config": {}}, "moving_variance_initializer": {"class_name": "Ones", "config": {}}, "scale": false, "beta_constraint": null, "gamma_constraint": null, "moving_mean_initializer": {"class_name": "Zeros", "config": {}}, "epsilon": 0.001, "center": true, "beta_initializer": {"class_name": "Zeros", "config": {}}, "trainable": true, "momentum": 0.99}}, {"class_name": "Activation", "name": "activation_62", "inbound_nodes": [[["batch_normalization_62", 0, 0, {}]]], "config": {"activation": "relu", "name": "activation_62", "trainable": true}}, {"class_name": "Activation", "name": "activation_67", "inbound_nodes": [[["batch_normalization_67", 0, 0, {}]]], "config": {"activation": "relu", "name": "activation_67", "trainable": true}}, {"class_name": "Conv2D", "name": "conv2d_63", "inbound_nodes": [[["activation_62", 0, 0, {}]]], "config": {"kernel_initializer": {"class_name": "VarianceScaling", "config": {"mode": "fan_avg", "seed": null, "scale": 1.0, "distribution": "uniform"}}, "name": "conv2d_63", "bias_constraint": null, "data_format": "channels_last", "kernel_constraint": null, "bias_regularizer": null, "use_bias": false, "activation": "linear", "dilation_rate": [1, 1], "filters": 192, "bias_initializer": {"class_name": "Zeros", "config": {}}, "kernel_size": [1, 7], "kernel_regularizer": null, "activity_regularizer": null, "trainable": true, "padding": "same", "strides": [1, 1]}}, {"class_name": "Conv2D", "name": "conv2d_68", "inbound_nodes": [[["activation_67", 0, 0, {}]]], "config": {"kernel_initializer": {"class_name": "VarianceScaling", "config": {"mode": "fan_avg", "seed": null, "scale": 1.0, "distribution": "uniform"}}, "name": "conv2d_68", "bias_constraint": null, "data_format": "channels_last", "kernel_constraint": null, "bias_regularizer": null, "use_bias": false, "activation": "linear", "dilation_rate": [1, 1], "filters": 192, "bias_initializer": {"class_name": "Zeros", "config": {}}, "kernel_size": [7, 1], "kernel_regularizer": null, "activity_regularizer": null, "trainable": true, "padding": "same", "strides": [1, 1]}}, {"class_name": "BatchNormalization", "name": "batch_normalization_63", "inbound_nodes": [[["conv2d_63", 0, 0, {}]]], "config": {"beta_regularizer": null, "gamma_regularizer": null, "name": "batch_normalization_63", "axis": 3, "gamma_initializer": {"class_name": "Ones", "config": {}}, "moving_variance_initializer": {"class_name": "Ones", "config": {}}, "scale": false, "beta_constraint": null, "gamma_constraint": null, "moving_mean_initializer": {"class_name": "Zeros", "config": {}}, "epsilon": 0.001, "center": true, "beta_initializer": {"class_name": "Zeros", "config": {}}, "trainable": true, "momentum": 0.99}}, {"class_name": "BatchNormalization", "name": "batch_normalization_68", "inbound_nodes": [[["conv2d_68", 0, 0, {}]]], "config": {"beta_regularizer": null, "gamma_regularizer": null, "name": "batch_normalization_68", "axis": 3, "gamma_initializer": {"class_name": "Ones", "config": {}}, "moving_variance_initializer": {"class_name": "Ones", "config": {}}, "scale": false, "beta_constraint": null, "gamma_constraint": null, "moving_mean_initializer": {"class_name": "Zeros", "config": {}}, "epsilon": 0.001, "center": true, "beta_initializer": {"class_name": "Zeros", "config": {}}, "trainable": true, "momentum": 0.99}}, {"class_name": "Activation", "name": "activation_63", "inbound_nodes": [[["batch_normalization_63", 0, 0, {}]]], "config": {"activation": "relu", "name": "activation_63", "trainable": true}}, {"class_name": "Activation", "name": "activation_68", "inbound_nodes": [[["batch_normalization_68", 0, 0, {}]]], "config": {"activation": "relu", "name": "activation_68", "trainable": true}}, {"class_name": "AveragePooling2D", "name": "average_pooling2d_7", "inbound_nodes": [[["mixed6", 0, 0, {}]]], "config": {"pool_size": [3, 3], "name": "average_pooling2d_7", "data_format": "channels_last", "trainable": true, "padding": "same", "strides": [1, 1]}}, {"class_name": "Conv2D", "name": "conv2d_61", "inbound_nodes": [[["mixed6", 0, 0, {}]]], "config": {"kernel_initializer": {"class_name": "VarianceScaling", "config": {"mode": "fan_avg", "seed": null, "scale": 1.0, "distribution": "uniform"}}, "name": "conv2d_61", "bias_constraint": null, "data_format": "channels_last", "kernel_constraint": null, "bias_regularizer": null, "use_bias": false, "activation": "linear", "dilation_rate": [1, 1], "filters": 192, "bias_initializer": {"class_name": "Zeros", "config": {}}, "kernel_size": [1, 1], "kernel_regularizer": null, "activity_regularizer": null, "trainable": true, "padding": "same", "strides": [1, 1]}}, {"class_name": "Conv2D", "name": "conv2d_64", "inbound_nodes": [[["activation_63", 0, 0, {}]]], "config": {"kernel_initializer": {"class_name": "VarianceScaling", "config": {"mode": "fan_avg", "seed": null, "scale": 1.0, "distribution": "uniform"}}, "name": "conv2d_64", "bias_constraint": null, "data_format": "channels_last", "kernel_constraint": null, "bias_regularizer": null, "use_bias": false, "activation": "linear", "dilation_rate": [1, 1], "filters": 192, "bias_initializer": {"class_name": "Zeros", "config": {}}, "kernel_size": [7, 1], "kernel_regularizer": null, "activity_regularizer": null, "trainable": true, "padding": "same", "strides": [1, 1]}}, {"class_name": "Conv2D", "name": "conv2d_69", "inbound_nodes": [[["activation_68", 0, 0, {}]]], "config": {"kernel_initializer": {"class_name": "VarianceScaling", "config": {"mode": "fan_avg", "seed": null, "scale": 1.0, "distribution": "uniform"}}, "name": "conv2d_69", "bias_constraint": null, "data_format": "channels_last", "kernel_constraint": null, "bias_regularizer": null, "use_bias": false, "activation": "linear", "dilation_rate": [1, 1], "filters": 192, "bias_initializer": {"class_name": "Zeros", "config": {}}, "kernel_size": [1, 7], "kernel_regularizer": null, "activity_regularizer": null, "trainable": true, "padding": "same", "strides": [1, 1]}}, {"class_name": "Conv2D", "name": "conv2d_70", "inbound_nodes": [[["average_pooling2d_7", 0, 0, {}]]], "config": {"kernel_initializer": {"class_name": "VarianceScaling", "config": {"mode": "fan_avg", "seed": null, "scale": 1.0, "distribution": "uniform"}}, "name": "conv2d_70", "bias_constraint": null, "data_format": "channels_last", "kernel_constraint": null, "bias_regularizer": null, "use_bias": false, "activation": "linear", "dilation_rate": [1, 1], "filters": 192, "bias_initializer": {"class_name": "Zeros", "config": {}}, "kernel_size": [1, 1], "kernel_regularizer": null, "activity_regularizer": null, "trainable": true, "padding": "same", "strides": [1, 1]}}, {"class_name": "BatchNormalization", "name": "batch_normalization_61", "inbound_nodes": [[["conv2d_61", 0, 0, {}]]], "config": {"beta_regularizer": null, "gamma_regularizer": null, "name": "batch_normalization_61", "axis": 3, "gamma_initializer": {"class_name": "Ones", "config": {}}, "moving_variance_initializer": {"class_name": "Ones", "config": {}}, "scale": false, "beta_constraint": null, "gamma_constraint": null, "moving_mean_initializer": {"class_name": "Zeros", "config": {}}, "epsilon": 0.001, "center": true, "beta_initializer": {"class_name": "Zeros", "config": {}}, "trainable": true, "momentum": 0.99}}, {"class_name": "BatchNormalization", "name": "batch_normalization_64", "inbound_nodes": [[["conv2d_64", 0, 0, {}]]], "config": {"beta_regularizer": null, "gamma_regularizer": null, "name": "batch_normalization_64", "axis": 3, "gamma_initializer": {"class_name": "Ones", "config": {}}, "moving_variance_initializer": {"class_name": "Ones", "config": {}}, "scale": false, "beta_constraint": null, "gamma_constraint": null, "moving_mean_initializer": {"class_name": "Zeros", "config": {}}, "epsilon": 0.001, "center": true, "beta_initializer": {"class_name": "Zeros", "config": {}}, "trainable": true, "momentum": 0.99}}, {"class_name": "BatchNormalization", "name": "batch_normalization_69", "inbound_nodes": [[["conv2d_69", 0, 0, {}]]], "config": {"beta_regularizer": null, "gamma_regularizer": null, "name": "batch_normalization_69", "axis": 3, "gamma_initializer": {"class_name": "Ones", "config": {}}, "moving_variance_initializer": {"class_name": "Ones", "config": {}}, "scale": false, "beta_constraint": null, "gamma_constraint": null, "moving_mean_initializer": {"class_name": "Zeros", "config": {}}, "epsilon": 0.001, "center": true, "beta_initializer": {"class_name": "Zeros", "config": {}}, "trainable": true, "momentum": 0.99}}, {"class_name": "BatchNormalization", "name": "batch_normalization_70", "inbound_nodes": [[["conv2d_70", 0, 0, {}]]], "config": {"beta_regularizer": null, "gamma_regularizer": null, "name": "batch_normalization_70", "axis": 3, "gamma_initializer": {"class_name": "Ones", "config": {}}, "moving_variance_initializer": {"class_name": "Ones", "config": {}}, "scale": false, "beta_constraint": null, "gamma_constraint": null, "moving_mean_initializer": {"class_name": "Zeros", "config": {}}, "epsilon": 0.001, "center": true, "beta_initializer": {"class_name": "Zeros", "config": {}}, "trainable": true, "momentum": 0.99}}, {"class_name": "Activation", "name": "activation_61", "inbound_nodes": [[["batch_normalization_61", 0, 0, {}]]], "config": {"activation": "relu", "name": "activation_61", "trainable": true}}, {"class_name": "Activation", "name": "activation_64", "inbound_nodes": [[["batch_normalization_64", 0, 0, {}]]], "config": {"activation": "relu", "name": "activation_64", "trainable": true}}, {"class_name": "Activation", "name": "activation_69", "inbound_nodes": [[["batch_normalization_69", 0, 0, {}]]], "config": {"activation": "relu", "name": "activation_69", "trainable": true}}, {"class_name": "Activation", "name": "activation_70", "inbound_nodes": [[["batch_normalization_70", 0, 0, {}]]], "config": {"activation": "relu", "name": "activation_70", "trainable": true}}, {"class_name": "Concatenate", "name": "mixed7", "inbound_nodes": [[["activation_61", 0, 0, {}], ["activation_64", 0, 0, {}], ["activation_69", 0, 0, {}], ["activation_70", 0, 0, {}]]], "config": {"name": "mixed7", "axis": 3, "trainable": true}}, {"class_name": "Conv2D", "name": "conv2d_73", "inbound_nodes": [[["mixed7", 0, 0, {}]]], "config": {"kernel_initializer": {"class_name": "VarianceScaling", "config": {"mode": "fan_avg", "seed": null, "scale": 1.0, "distribution": "uniform"}}, "name": "conv2d_73", "bias_constraint": null, "data_format": "channels_last", "kernel_constraint": null, "bias_regularizer": null, "use_bias": false, "activation": "linear", "dilation_rate": [1, 1], "filters": 192, "bias_initializer": {"class_name": "Zeros", "config": {}}, "kernel_size": [1, 1], "kernel_regularizer": null, "activity_regularizer": null, "trainable": true, "padding": "same", "strides": [1, 1]}}, {"class_name": "BatchNormalization", "name": "batch_normalization_73", "inbound_nodes": [[["conv2d_73", 0, 0, {}]]], "config": {"beta_regularizer": null, "gamma_regularizer": null, "name": "batch_normalization_73", "axis": 3, "gamma_initializer": {"class_name": "Ones", "config": {}}, "moving_variance_initializer": {"class_name": "Ones", "config": {}}, "scale": false, "beta_constraint": null, "gamma_constraint": null, "moving_mean_initializer": {"class_name": "Zeros", "config": {}}, "epsilon": 0.001, "center": true, "beta_initializer": {"class_name": "Zeros", "config": {}}, "trainable": true, "momentum": 0.99}}, {"class_name": "Activation", "name": "activation_73", "inbound_nodes": [[["batch_normalization_73", 0, 0, {}]]], "config": {"activation": "relu", "name": "activation_73", "trainable": true}}, {"class_name": "Conv2D", "name": "conv2d_74", "inbound_nodes": [[["activation_73", 0, 0, {}]]], "config": {"kernel_initializer": {"class_name": "VarianceScaling", "config": {"mode": "fan_avg", "seed": null, "scale": 1.0, "distribution": "uniform"}}, "name": "conv2d_74", "bias_constraint": null, "data_format": "channels_last", "kernel_constraint": null, "bias_regularizer": null, "use_bias": false, "activation": "linear", "dilation_rate": [1, 1], "filters": 192, "bias_initializer": {"class_name": "Zeros", "config": {}}, "kernel_size": [1, 7], "kernel_regularizer": null, "activity_regularizer": null, "trainable": true, "padding": "same", "strides": [1, 1]}}, {"class_name": "BatchNormalization", "name": "batch_normalization_74", "inbound_nodes": [[["conv2d_74", 0, 0, {}]]], "config": {"beta_regularizer": null, "gamma_regularizer": null, "name": "batch_normalization_74", "axis": 3, "gamma_initializer": {"class_name": "Ones", "config": {}}, "moving_variance_initializer": {"class_name": "Ones", "config": {}}, "scale": false, "beta_constraint": null, "gamma_constraint": null, "moving_mean_initializer": {"class_name": "Zeros", "config": {}}, "epsilon": 0.001, "center": true, "beta_initializer": {"class_name": "Zeros", "config": {}}, "trainable": true, "momentum": 0.99}}, {"class_name": "Activation", "name": "activation_74", "inbound_nodes": [[["batch_normalization_74", 0, 0, {}]]], "config": {"activation": "relu", "name": "activation_74", "trainable": true}}, {"class_name": "Conv2D", "name": "conv2d_71", "inbound_nodes": [[["mixed7", 0, 0, {}]]], "config": {"kernel_initializer": {"class_name": "VarianceScaling", "config": {"mode": "fan_avg", "seed": null, "scale": 1.0, "distribution": "uniform"}}, "name": "conv2d_71", "bias_constraint": null, "data_format": "channels_last", "kernel_constraint": null, "bias_regularizer": null, "use_bias": false, "activation": "linear", "dilation_rate": [1, 1], "filters": 192, "bias_initializer": {"class_name": "Zeros", "config": {}}, "kernel_size": [1, 1], "kernel_regularizer": null, "activity_regularizer": null, "trainable": true, "padding": "same", "strides": [1, 1]}}, {"class_name": "Conv2D", "name": "conv2d_75", "inbound_nodes": [[["activation_74", 0, 0, {}]]], "config": {"kernel_initializer": {"class_name": "VarianceScaling", "config": {"mode": "fan_avg", "seed": null, "scale": 1.0, "distribution": "uniform"}}, "name": "conv2d_75", "bias_constraint": null, "data_format": "channels_last", "kernel_constraint": null, "bias_regularizer": null, "use_bias": false, "activation": "linear", "dilation_rate": [1, 1], "filters": 192, "bias_initializer": {"class_name": "Zeros", "config": {}}, "kernel_size": [7, 1], "kernel_regularizer": null, "activity_regularizer": null, "trainable": true, "padding": "same", "strides": [1, 1]}}, {"class_name": "BatchNormalization", "name": "batch_normalization_71", "inbound_nodes": [[["conv2d_71", 0, 0, {}]]], "config": {"beta_regularizer": null, "gamma_regularizer": null, "name": "batch_normalization_71", "axis": 3, "gamma_initializer": {"class_name": "Ones", "config": {}}, "moving_variance_initializer": {"class_name": "Ones", "config": {}}, "scale": false, "beta_constraint": null, "gamma_constraint": null, "moving_mean_initializer": {"class_name": "Zeros", "config": {}}, "epsilon": 0.001, "center": true, "beta_initializer": {"class_name": "Zeros", "config": {}}, "trainable": true, "momentum": 0.99}}, {"class_name": "BatchNormalization", "name": "batch_normalization_75", "inbound_nodes": [[["conv2d_75", 0, 0, {}]]], "config": {"beta_regularizer": null, "gamma_regularizer": null, "name": "batch_normalization_75", "axis": 3, "gamma_initializer": {"class_name": "Ones", "config": {}}, "moving_variance_initializer": {"class_name": "Ones", "config": {}}, "scale": false, "beta_constraint": null, "gamma_constraint": null, "moving_mean_initializer": {"class_name": "Zeros", "config": {}}, "epsilon": 0.001, "center": true, "beta_initializer": {"class_name": "Zeros", "config": {}}, "trainable": true, "momentum": 0.99}}, {"class_name": "Activation", "name": "activation_71", "inbound_nodes": [[["batch_normalization_71", 0, 0, {}]]], "config": {"activation": "relu", "name": "activation_71", "trainable": true}}, {"class_name": "Activation", "name": "activation_75", "inbound_nodes": [[["batch_normalization_75", 0, 0, {}]]], "config": {"activation": "relu", "name": "activation_75", "trainable": true}}, {"class_name": "Conv2D", "name": "conv2d_72", "inbound_nodes": [[["activation_71", 0, 0, {}]]], "config": {"kernel_initializer": {"class_name": "VarianceScaling", "config": {"mode": "fan_avg", "seed": null, "scale": 1.0, "distribution": "uniform"}}, "name": "conv2d_72", "bias_constraint": null, "data_format": "channels_last", "kernel_constraint": null, "bias_regularizer": null, "use_bias": false, "activation": "linear", "dilation_rate": [1, 1], "filters": 320, "bias_initializer": {"class_name": "Zeros", "config": {}}, "kernel_size": [3, 3], "kernel_regularizer": null, "activity_regularizer": null, "trainable": true, "padding": "valid", "strides": [2, 2]}}, {"class_name": "Conv2D", "name": "conv2d_76", "inbound_nodes": [[["activation_75", 0, 0, {}]]], "config": {"kernel_initializer": {"class_name": "VarianceScaling", "config": {"mode": "fan_avg", "seed": null, "scale": 1.0, "distribution": "uniform"}}, "name": "conv2d_76", "bias_constraint": null, "data_format": "channels_last", "kernel_constraint": null, "bias_regularizer": null, "use_bias": false, "activation": "linear", "dilation_rate": [1, 1], "filters": 192, "bias_initializer": {"class_name": "Zeros", "config": {}}, "kernel_size": [3, 3], "kernel_regularizer": null, "activity_regularizer": null, "trainable": true, "padding": "valid", "strides": [2, 2]}}, {"class_name": "BatchNormalization", "name": "batch_normalization_72", "inbound_nodes": [[["conv2d_72", 0, 0, {}]]], "config": {"beta_regularizer": null, "gamma_regularizer": null, "name": "batch_normalization_72", "axis": 3, "gamma_initializer": {"class_name": "Ones", "config": {}}, "moving_variance_initializer": {"class_name": "Ones", "config": {}}, "scale": false, "beta_constraint": null, "gamma_constraint": null, "moving_mean_initializer": {"class_name": "Zeros", "config": {}}, "epsilon": 0.001, "center": true, "beta_initializer": {"class_name": "Zeros", "config": {}}, "trainable": true, "momentum": 0.99}}, {"class_name": "BatchNormalization", "name": "batch_normalization_76", "inbound_nodes": [[["conv2d_76", 0, 0, {}]]], "config": {"beta_regularizer": null, "gamma_regularizer": null, "name": "batch_normalization_76", "axis": 3, "gamma_initializer": {"class_name": "Ones", "config": {}}, "moving_variance_initializer": {"class_name": "Ones", "config": {}}, "scale": false, "beta_constraint": null, "gamma_constraint": null, "moving_mean_initializer": {"class_name": "Zeros", "config": {}}, "epsilon": 0.001, "center": true, "beta_initializer": {"class_name": "Zeros", "config": {}}, "trainable": true, "momentum": 0.99}}, {"class_name": "Activation", "name": "activation_72", "inbound_nodes": [[["batch_normalization_72", 0, 0, {}]]], "config": {"activation": "relu", "name": "activation_72", "trainable": true}}, {"class_name": "Activation", "name": "activation_76", "inbound_nodes": [[["batch_normalization_76", 0, 0, {}]]], "config": {"activation": "relu", "name": "activation_76", "trainable": true}}, {"class_name": "MaxPooling2D", "name": "max_pooling2d_4", "inbound_nodes": [[["mixed7", 0, 0, {}]]], "config": {"pool_size": [3, 3], "name": "max_pooling2d_4", "data_format": "channels_last", "trainable": true, "padding": "valid", "strides": [2, 2]}}, {"class_name": "Concatenate", "name": "mixed8", "inbound_nodes": [[["activation_72", 0, 0, {}], ["activation_76", 0, 0, {}], ["max_pooling2d_4", 0, 0, {}]]], "config": {"name": "mixed8", "axis": 3, "trainable": true}}, {"class_name": "Conv2D", "name": "conv2d_81", "inbound_nodes": [[["mixed8", 0, 0, {}]]], "config": {"kernel_initializer": {"class_name": "VarianceScaling", "config": {"mode": "fan_avg", "seed": null, "scale": 1.0, "distribution": "uniform"}}, "name": "conv2d_81", "bias_constraint": null, "data_format": "channels_last", "kernel_constraint": null, "bias_regularizer": null, "use_bias": false, "activation": "linear", "dilation_rate": [1, 1], "filters": 448, "bias_initializer": {"class_name": "Zeros", "config": {}}, "kernel_size": [1, 1], "kernel_regularizer": null, "activity_regularizer": null, "trainable": true, "padding": "same", "strides": [1, 1]}}, {"class_name": "BatchNormalization", "name": "batch_normalization_81", "inbound_nodes": [[["conv2d_81", 0, 0, {}]]], "config": {"beta_regularizer": null, "gamma_regularizer": null, "name": "batch_normalization_81", "axis": 3, "gamma_initializer": {"class_name": "Ones", "config": {}}, "moving_variance_initializer": {"class_name": "Ones", "config": {}}, "scale": false, "beta_constraint": null, "gamma_constraint": null, "moving_mean_initializer": {"class_name": "Zeros", "config": {}}, "epsilon": 0.001, "center": true, "beta_initializer": {"class_name": "Zeros", "config": {}}, "trainable": true, "momentum": 0.99}}, {"class_name": "Activation", "name": "activation_81", "inbound_nodes": [[["batch_normalization_81", 0, 0, {}]]], "config": {"activation": "relu", "name": "activation_81", "trainable": true}}, {"class_name": "Conv2D", "name": "conv2d_78", "inbound_nodes": [[["mixed8", 0, 0, {}]]], "config": {"kernel_initializer": {"class_name": "VarianceScaling", "config": {"mode": "fan_avg", "seed": null, "scale": 1.0, "distribution": "uniform"}}, "name": "conv2d_78", "bias_constraint": null, "data_format": "channels_last", "kernel_constraint": null, "bias_regularizer": null, "use_bias": false, "activation": "linear", "dilation_rate": [1, 1], "filters": 384, "bias_initializer": {"class_name": "Zeros", "config": {}}, "kernel_size": [1, 1], "kernel_regularizer": null, "activity_regularizer": null, "trainable": true, "padding": "same", "strides": [1, 1]}}, {"class_name": "Conv2D", "name": "conv2d_82", "inbound_nodes": [[["activation_81", 0, 0, {}]]], "config": {"kernel_initializer": {"class_name": "VarianceScaling", "config": {"mode": "fan_avg", "seed": null, "scale": 1.0, "distribution": "uniform"}}, "name": "conv2d_82", "bias_constraint": null, "data_format": "channels_last", "kernel_constraint": null, "bias_regularizer": null, "use_bias": false, "activation": "linear", "dilation_rate": [1, 1], "filters": 384, "bias_initializer": {"class_name": "Zeros", "config": {}}, "kernel_size": [3, 3], "kernel_regularizer": null, "activity_regularizer": null, "trainable": true, "padding": "same", "strides": [1, 1]}}, {"class_name": "BatchNormalization", "name": "batch_normalization_78", "inbound_nodes": [[["conv2d_78", 0, 0, {}]]], "config": {"beta_regularizer": null, "gamma_regularizer": null, "name": "batch_normalization_78", "axis": 3, "gamma_initializer": {"class_name": "Ones", "config": {}}, "moving_variance_initializer": {"class_name": "Ones", "config": {}}, "scale": false, "beta_constraint": null, "gamma_constraint": null, "moving_mean_initializer": {"class_name": "Zeros", "config": {}}, "epsilon": 0.001, "center": true, "beta_initializer": {"class_name": "Zeros", "config": {}}, "trainable": true, "momentum": 0.99}}, {"class_name": "BatchNormalization", "name": "batch_normalization_82", "inbound_nodes": [[["conv2d_82", 0, 0, {}]]], "config": {"beta_regularizer": null, "gamma_regularizer": null, "name": "batch_normalization_82", "axis": 3, "gamma_initializer": {"class_name": "Ones", "config": {}}, "moving_variance_initializer": {"class_name": "Ones", "config": {}}, "scale": false, "beta_constraint": null, "gamma_constraint": null, "moving_mean_initializer": {"class_name": "Zeros", "config": {}}, "epsilon": 0.001, "center": true, "beta_initializer": {"class_name": "Zeros", "config": {}}, "trainable": true, "momentum": 0.99}}, {"class_name": "Activation", "name": "activation_78", "inbound_nodes": [[["batch_normalization_78", 0, 0, {}]]], "config": {"activation": "relu", "name": "activation_78", "trainable": true}}, {"class_name": "Activation", "name": "activation_82", "inbound_nodes": [[["batch_normalization_82", 0, 0, {}]]], "config": {"activation": "relu", "name": "activation_82", "trainable": true}}, {"class_name": "Conv2D", "name": "conv2d_79", "inbound_nodes": [[["activation_78", 0, 0, {}]]], "config": {"kernel_initializer": {"class_name": "VarianceScaling", "config": {"mode": "fan_avg", "seed": null, "scale": 1.0, "distribution": "uniform"}}, "name": "conv2d_79", "bias_constraint": null, "data_format": "channels_last", "kernel_constraint": null, "bias_regularizer": null, "use_bias": false, "activation": "linear", "dilation_rate": [1, 1], "filters": 384, "bias_initializer": {"class_name": "Zeros", "config": {}}, "kernel_size": [1, 3], "kernel_regularizer": null, "activity_regularizer": null, "trainable": true, "padding": "same", "strides": [1, 1]}}, {"class_name": "Conv2D", "name": "conv2d_80", "inbound_nodes": [[["activation_78", 0, 0, {}]]], "config": {"kernel_initializer": {"class_name": "VarianceScaling", "config": {"mode": "fan_avg", "seed": null, "scale": 1.0, "distribution": "uniform"}}, "name": "conv2d_80", "bias_constraint": null, "data_format": "channels_last", "kernel_constraint": null, "bias_regularizer": null, "use_bias": false, "activation": "linear", "dilation_rate": [1, 1], "filters": 384, "bias_initializer": {"class_name": "Zeros", "config": {}}, "kernel_size": [3, 1], "kernel_regularizer": null, "activity_regularizer": null, "trainable": true, "padding": "same", "strides": [1, 1]}}, {"class_name": "Conv2D", "name": "conv2d_83", "inbound_nodes": [[["activation_82", 0, 0, {}]]], "config": {"kernel_initializer": {"class_name": "VarianceScaling", "config": {"mode": "fan_avg", "seed": null, "scale": 1.0, "distribution": "uniform"}}, "name": "conv2d_83", "bias_constraint": null, "data_format": "channels_last", "kernel_constraint": null, "bias_regularizer": null, "use_bias": false, "activation": "linear", "dilation_rate": [1, 1], "filters": 384, "bias_initializer": {"class_name": "Zeros", "config": {}}, "kernel_size": [1, 3], "kernel_regularizer": null, "activity_regularizer": null, "trainable": true, "padding": "same", "strides": [1, 1]}}, {"class_name": "Conv2D", "name": "conv2d_84", "inbound_nodes": [[["activation_82", 0, 0, {}]]], "config": {"kernel_initializer": {"class_name": "VarianceScaling", "config": {"mode": "fan_avg", "seed": null, "scale": 1.0, "distribution": "uniform"}}, "name": "conv2d_84", "bias_constraint": null, "data_format": "channels_last", "kernel_constraint": null, "bias_regularizer": null, "use_bias": false, "activation": "linear", "dilation_rate": [1, 1], "filters": 384, "bias_initializer": {"class_name": "Zeros", "config": {}}, "kernel_size": [3, 1], "kernel_regularizer": null, "activity_regularizer": null, "trainable": true, "padding": "same", "strides": [1, 1]}}, {"class_name": "AveragePooling2D", "name": "average_pooling2d_8", "inbound_nodes": [[["mixed8", 0, 0, {}]]], "config": {"pool_size": [3, 3], "name": "average_pooling2d_8", "data_format": "channels_last", "trainable": true, "padding": "same", "strides": [1, 1]}}, {"class_name": "Conv2D", "name": "conv2d_77", "inbound_nodes": [[["mixed8", 0, 0, {}]]], "config": {"kernel_initializer": {"class_name": "VarianceScaling", "config": {"mode": "fan_avg", "seed": null, "scale": 1.0, "distribution": "uniform"}}, "name": "conv2d_77", "bias_constraint": null, "data_format": "channels_last", "kernel_constraint": null, "bias_regularizer": null, "use_bias": false, "activation": "linear", "dilation_rate": [1, 1], "filters": 320, "bias_initializer": {"class_name": "Zeros", "config": {}}, "kernel_size": [1, 1], "kernel_regularizer": null, "activity_regularizer": null, "trainable": true, "padding": "same", "strides": [1, 1]}}, {"class_name": "BatchNormalization", "name": "batch_normalization_79", "inbound_nodes": [[["conv2d_79", 0, 0, {}]]], "config": {"beta_regularizer": null, "gamma_regularizer": null, "name": "batch_normalization_79", "axis": 3, "gamma_initializer": {"class_name": "Ones", "config": {}}, "moving_variance_initializer": {"class_name": "Ones", "config": {}}, "scale": false, "beta_constraint": null, "gamma_constraint": null, "moving_mean_initializer": {"class_name": "Zeros", "config": {}}, "epsilon": 0.001, "center": true, "beta_initializer": {"class_name": "Zeros", "config": {}}, "trainable": true, "momentum": 0.99}}, {"class_name": "BatchNormalization", "name": "batch_normalization_80", "inbound_nodes": [[["conv2d_80", 0, 0, {}]]], "config": {"beta_regularizer": null, "gamma_regularizer": null, "name": "batch_normalization_80", "axis": 3, "gamma_initializer": {"class_name": "Ones", "config": {}}, "moving_variance_initializer": {"class_name": "Ones", "config": {}}, "scale": false, "beta_constraint": null, "gamma_constraint": null, "moving_mean_initializer": {"class_name": "Zeros", "config": {}}, "epsilon": 0.001, "center": true, "beta_initializer": {"class_name": "Zeros", "config": {}}, "trainable": true, "momentum": 0.99}}, {"class_name": "BatchNormalization", "name": "batch_normalization_83", "inbound_nodes": [[["conv2d_83", 0, 0, {}]]], "config": {"beta_regularizer": null, "gamma_regularizer": null, "name": "batch_normalization_83", "axis": 3, "gamma_initializer": {"class_name": "Ones", "config": {}}, "moving_variance_initializer": {"class_name": "Ones", "config": {}}, "scale": false, "beta_constraint": null, "gamma_constraint": null, "moving_mean_initializer": {"class_name": "Zeros", "config": {}}, "epsilon": 0.001, "center": true, "beta_initializer": {"class_name": "Zeros", "config": {}}, "trainable": true, "momentum": 0.99}}, {"class_name": "BatchNormalization", "name": "batch_normalization_84", "inbound_nodes": [[["conv2d_84", 0, 0, {}]]], "config": {"beta_regularizer": null, "gamma_regularizer": null, "name": "batch_normalization_84", "axis": 3, "gamma_initializer": {"class_name": "Ones", "config": {}}, "moving_variance_initializer": {"class_name": "Ones", "config": {}}, "scale": false, "beta_constraint": null, "gamma_constraint": null, "moving_mean_initializer": {"class_name": "Zeros", "config": {}}, "epsilon": 0.001, "center": true, "beta_initializer": {"class_name": "Zeros", "config": {}}, "trainable": true, "momentum": 0.99}}, {"class_name": "Conv2D", "name": "conv2d_85", "inbound_nodes": [[["average_pooling2d_8", 0, 0, {}]]], "config": {"kernel_initializer": {"class_name": "VarianceScaling", "config": {"mode": "fan_avg", "seed": null, "scale": 1.0, "distribution": "uniform"}}, "name": "conv2d_85", "bias_constraint": null, "data_format": "channels_last", "kernel_constraint": null, "bias_regularizer": null, "use_bias": false, "activation": "linear", "dilation_rate": [1, 1], "filters": 192, "bias_initializer": {"class_name": "Zeros", "config": {}}, "kernel_size": [1, 1], "kernel_regularizer": null, "activity_regularizer": null, "trainable": true, "padding": "same", "strides": [1, 1]}}, {"class_name": "BatchNormalization", "name": "batch_normalization_77", "inbound_nodes": [[["conv2d_77", 0, 0, {}]]], "config": {"beta_regularizer": null, "gamma_regularizer": null, "name": "batch_normalization_77", "axis": 3, "gamma_initializer": {"class_name": "Ones", "config": {}}, "moving_variance_initializer": {"class_name": "Ones", "config": {}}, "scale": false, "beta_constraint": null, "gamma_constraint": null, "moving_mean_initializer": {"class_name": "Zeros", "config": {}}, "epsilon": 0.001, "center": true, "beta_initializer": {"class_name": "Zeros", "config": {}}, "trainable": true, "momentum": 0.99}}, {"class_name": "Activation", "name": "activation_79", "inbound_nodes": [[["batch_normalization_79", 0, 0, {}]]], "config": {"activation": "relu", "name": "activation_79", "trainable": true}}, {"class_name": "Activation", "name": "activation_80", "inbound_nodes": [[["batch_normalization_80", 0, 0, {}]]], "config": {"activation": "relu", "name": "activation_80", "trainable": true}}, {"class_name": "Activation", "name": "activation_83", "inbound_nodes": [[["batch_normalization_83", 0, 0, {}]]], "config": {"activation": "relu", "name": "activation_83", "trainable": true}}, {"class_name": "Activation", "name": "activation_84", "inbound_nodes": [[["batch_normalization_84", 0, 0, {}]]], "config": {"activation": "relu", "name": "activation_84", "trainable": true}}, {"class_name": "BatchNormalization", "name": "batch_normalization_85", "inbound_nodes": [[["conv2d_85", 0, 0, {}]]], "config": {"beta_regularizer": null, "gamma_regularizer": null, "name": "batch_normalization_85", "axis": 3, "gamma_initializer": {"class_name": "Ones", "config": {}}, "moving_variance_initializer": {"class_name": "Ones", "config": {}}, "scale": false, "beta_constraint": null, "gamma_constraint": null, "moving_mean_initializer": {"class_name": "Zeros", "config": {}}, "epsilon": 0.001, "center": true, "beta_initializer": {"class_name": "Zeros", "config": {}}, "trainable": true, "momentum": 0.99}}, {"class_name": "Activation", "name": "activation_77", "inbound_nodes": [[["batch_normalization_77", 0, 0, {}]]], "config": {"activation": "relu", "name": "activation_77", "trainable": true}}, {"class_name": "Concatenate", "name": "mixed9_0", "inbound_nodes": [[["activation_79", 0, 0, {}], ["activation_80", 0, 0, {}]]], "config": {"name": "mixed9_0", "axis": 3, "trainable": true}}, {"class_name": "Concatenate", "name": "concatenate_1", "inbound_nodes": [[["activation_83", 0, 0, {}], ["activation_84", 0, 0, {}]]], "config": {"name": "concatenate_1", "axis": 3, "trainable": true}}, {"class_name": "Activation", "name": "activation_85", "inbound_nodes": [[["batch_normalization_85", 0, 0, {}]]], "config": {"activation": "relu", "name": "activation_85", "trainable": true}}, {"class_name": "Concatenate", "name": "mixed9", "inbound_nodes": [[["activation_77", 0, 0, {}], ["mixed9_0", 0, 0, {}], ["concatenate_1", 0, 0, {}], ["activation_85", 0, 0, {}]]], "config": {"name": "mixed9", "axis": 3, "trainable": true}}, {"class_name": "GlobalAveragePooling2D", "name": "global_average_pooling2d_1", "inbound_nodes": [[["mixed9", 0, 0, {}]]], "config": {"data_format": "channels_last", "name": "global_average_pooling2d_1", "trainable": true}}, {"class_name": "Dense", "name": "dense_1", "inbound_nodes": [[["global_average_pooling2d_1", 0, 0, {}]]], "config": {"kernel_initializer": {"class_name": "VarianceScaling", "config": {"mode": "fan_avg", "seed": null, "scale": 1.0, "distribution": "uniform"}}, "name": "dense_1", "bias_constraint": null, "units": 1024, "bias_regularizer": null, "use_bias": true, "activation": "relu", "kernel_constraint": null, "activity_regularizer": null, "bias_initializer": {"class_name": "Zeros", "config": {}}, "kernel_regularizer": null, "trainable": true}}, {"class_name": "Dense", "name": "dense_2", "inbound_nodes": [[["dense_1", 0, 0, {}]]], "config": {"kernel_initializer": {"class_name": "VarianceScaling", "config": {"mode": "fan_avg", "seed": null, "scale": 1.0, "distribution": "uniform"}}, "name": "dense_2", "bias_constraint": null, "units": 128, "bias_regularizer": null, "use_bias": true, "activation": "linear", "kernel_constraint": null, "activity_regularizer": null, "bias_initializer": {"class_name": "Zeros", "config": {}}, "kernel_regularizer": null, "trainable": true}}], "name": "model_1", "output_layers": [["dense_2", 0, 0]], "input_layers": [["input_1", 0, 0]]}}, {"class_name": "Lambda", "name": "triplet_loss", "inbound_nodes": [[["model_1", 1, 0, {}], ["model_1", 2, 0, {}], ["model_1", 3, 0, {}]]], "config": {"name": "triplet_loss", "function_type": "lambda", "output_shape": ["4wEAAAAAAAAABAAAAAMAAABDAAAAcx0AAAB8AABcAwB9AQB9AgB9AwB8AQBkAQAZZAIAZgIAUykD\nTukAAAAA6QEAAACpACkE2gZzaGFwZXPaBnNoYXBlMdoGc2hhcGUy2gZzaGFwZTNyAwAAAHIDAAAA\n+hx0Y25fdHJpcGxldGxvc3NfZ2VuZXJhdG9yLnB52hR0cmlwbGV0X291dHB1dF9zaGFwZTQAAABz\nBAAAAAABDwE=\n", null, null], "output_shape_type": "lambda", "function": ["4wIAAAAAAAAACAAAAAUAAABDAAAAc3oAAAB8AABcAwB9AgB9AwB9BAB0AABqAQB0AABqAgB8AgB8\nAwAYgwEAZAEAZAQAgwEBfQUAdAAAagEAdAAAagIAfAIAfAQAGIMBAGQBAGQFAIMBAX0GAHQAAGoD\nAHQAAGoEAGQDAHwFAHwGABh8AQAXgwIAgwEAfQcAfAcAUykGTtoEYXhpc+kBAAAA5wAAAAAAAAAA\n6f////9yBAAAACkF2gFL2gNzdW3aBnNxdWFyZdoEbWVhbtoHbWF4aW11bSkI2gN2ZWPaBWFscGhh\n2gZhbmNob3LaCHBvc2l0aXZl2ghuZWdhdGl2ZdoDZF9w2gNkX27aBGxvc3OpAHISAAAA+hx0Y25f\ndHJpcGxldGxvc3NfZ2VuZXJhdG9yLnB52gx0cmlwbGV0X2xvc3MfAAAAcwoAAAAAAQ8BIgEiASMB\n", [0.2], null], "trainable": true, "arguments": {}}}], "name": "model_2", "output_layers": [["triplet_loss", 0, 0]], "input_layers": [["input_anchor", 0, 0], ["input_positive", 0, 0], ["input_negative", 0, 0]]}}