{"class_name": "Model", "keras_version": "2.1.2", "config": {"output_layers": [["triplet_loss", 0, 0]], "name": "model_2", "layers": [{"name": "input_anchor", "class_name": "InputLayer", "inbound_nodes": [], "config": {"sparse": false, "name": "input_anchor", "batch_input_shape": [null, 224, 224, 3], "dtype": "float32"}}, {"name": "input_positive", "class_name": "InputLayer", "inbound_nodes": [], "config": {"sparse": false, "name": "input_positive", "batch_input_shape": [null, 224, 224, 3], "dtype": "float32"}}, {"name": "input_negative", "class_name": "InputLayer", "inbound_nodes": [], "config": {"sparse": false, "name": "input_negative", "batch_input_shape": [null, 224, 224, 3], "dtype": "float32"}}, {"name": "model_1", "class_name": "Model", "inbound_nodes": [[["input_anchor", 0, 0, {}]], [["input_positive", 0, 0, {}]], [["input_negative", 0, 0, {}]]], "config": {"output_layers": [["dense_2", 0, 0]], "name": "model_1", "layers": [{"name": "input_1", "class_name": "InputLayer", "inbound_nodes": [], "config": {"sparse": false, "name": "input_1", "batch_input_shape": [null, null, null, 3], "dtype": "float32"}}, {"name": "conv2d_1", "class_name": "Conv2D", "inbound_nodes": [[["input_1", 0, 0, {}]]], "config": {"bias_initializer": {"class_name": "Zeros", "config": {}}, "use_bias": false, "kernel_constraint": null, "activation": "linear", "padding": "valid", "name": "conv2d_1", "bias_regularizer": null, "filters": 32, "activity_regularizer": null, "kernel_size": [3, 3], "kernel_regularizer": null, "strides": [2, 2], "data_format": "channels_last", "bias_constraint": null, "trainable": true, "dilation_rate": [1, 1], "kernel_initializer": {"class_name": "VarianceScaling", "config": {"distribution": "uniform", "seed": null, "mode": "fan_avg", "scale": 1.0}}}}, {"name": "batch_normalization_1", "class_name": "BatchNormalization", "inbound_nodes": [[["conv2d_1", 0, 0, {}]]], "config": {"beta_constraint": null, "epsilon": 0.001, "moving_variance_initializer": {"class_name": "Ones", "config": {}}, "momentum": 0.99, "moving_mean_initializer": {"class_name": "Zeros", "config": {}}, "gamma_regularizer": null, "beta_regularizer": null, "beta_initializer": {"class_name": "Zeros", "config": {}}, "name": "batch_normalization_1", "axis": 3, "trainable": true, "center": true, "scale": false, "gamma_initializer": {"class_name": "Ones", "config": {}}, "gamma_constraint": null}}, {"name": "activation_1", "class_name": "Activation", "inbound_nodes": [[["batch_normalization_1", 0, 0, {}]]], "config": {"name": "activation_1", "activation": "relu", "trainable": true}}, {"name": "conv2d_2", "class_name": "Conv2D", "inbound_nodes": [[["activation_1", 0, 0, {}]]], "config": {"bias_initializer": {"class_name": "Zeros", "config": {}}, "use_bias": false, "kernel_constraint": null, "activation": "linear", "padding": "valid", "name": "conv2d_2", "bias_regularizer": null, "filters": 32, "activity_regularizer": null, "kernel_size": [3, 3], "kernel_regularizer": null, "strides": [1, 1], "data_format": "channels_last", "bias_constraint": null, "trainable": true, "dilation_rate": [1, 1], "kernel_initializer": {"class_name": "VarianceScaling", "config": {"distribution": "uniform", "seed": null, "mode": "fan_avg", "scale": 1.0}}}}, {"name": "batch_normalization_2", "class_name": "BatchNormalization", "inbound_nodes": [[["conv2d_2", 0, 0, {}]]], "config": {"beta_constraint": null, "epsilon": 0.001, "moving_variance_initializer": {"class_name": "Ones", "config": {}}, "momentum": 0.99, "moving_mean_initializer": {"class_name": "Zeros", "config": {}}, "gamma_regularizer": null, "beta_regularizer": null, "beta_initializer": {"class_name": "Zeros", "config": {}}, "name": "batch_normalization_2", "axis": 3, "trainable": true, "center": true, "scale": false, "gamma_initializer": {"class_name": "Ones", "config": {}}, "gamma_constraint": null}}, {"name": "activation_2", "class_name": "Activation", "inbound_nodes": [[["batch_normalization_2", 0, 0, {}]]], "config": {"name": "activation_2", "activation": "relu", "trainable": true}}, {"name": "conv2d_3", "class_name": "Conv2D", "inbound_nodes": [[["activation_2", 0, 0, {}]]], "config": {"bias_initializer": {"class_name": "Zeros", "config": {}}, "use_bias": false, "kernel_constraint": null, "activation": "linear", "padding": "same", "name": "conv2d_3", "bias_regularizer": null, "filters": 64, "activity_regularizer": null, "kernel_size": [3, 3], "kernel_regularizer": null, "strides": [1, 1], "data_format": "channels_last", "bias_constraint": null, "trainable": true, "dilation_rate": [1, 1], "kernel_initializer": {"class_name": "VarianceScaling", "config": {"distribution": "uniform", "seed": null, "mode": "fan_avg", "scale": 1.0}}}}, {"name": "batch_normalization_3", "class_name": "BatchNormalization", "inbound_nodes": [[["conv2d_3", 0, 0, {}]]], "config": {"beta_constraint": null, "epsilon": 0.001, "moving_variance_initializer": {"class_name": "Ones", "config": {}}, "momentum": 0.99, "moving_mean_initializer": {"class_name": "Zeros", "config": {}}, "gamma_regularizer": null, "beta_regularizer": null, "beta_initializer": {"class_name": "Zeros", "config": {}}, "name": "batch_normalization_3", "axis": 3, "trainable": true, "center": true, "scale": false, "gamma_initializer": {"class_name": "Ones", "config": {}}, "gamma_constraint": null}}, {"name": "activation_3", "class_name": "Activation", "inbound_nodes": [[["batch_normalization_3", 0, 0, {}]]], "config": {"name": "activation_3", "activation": "relu", "trainable": true}}, {"name": "max_pooling2d_1", "class_name": "MaxPooling2D", "inbound_nodes": [[["activation_3", 0, 0, {}]]], "config": {"pool_size": [3, 3], "strides": [2, 2], "data_format": "channels_last", "name": "max_pooling2d_1", "padding": "valid", "trainable": true}}, {"name": "conv2d_4", "class_name": "Conv2D", "inbound_nodes": [[["max_pooling2d_1", 0, 0, {}]]], "config": {"bias_initializer": {"class_name": "Zeros", "config": {}}, "use_bias": false, "kernel_constraint": null, "activation": "linear", "padding": "valid", "name": "conv2d_4", "bias_regularizer": null, "filters": 80, "activity_regularizer": null, "kernel_size": [1, 1], "kernel_regularizer": null, "strides": [1, 1], "data_format": "channels_last", "bias_constraint": null, "trainable": true, "dilation_rate": [1, 1], "kernel_initializer": {"class_name": "VarianceScaling", "config": {"distribution": "uniform", "seed": null, "mode": "fan_avg", "scale": 1.0}}}}, {"name": "batch_normalization_4", "class_name": "BatchNormalization", "inbound_nodes": [[["conv2d_4", 0, 0, {}]]], "config": {"beta_constraint": null, "epsilon": 0.001, "moving_variance_initializer": {"class_name": "Ones", "config": {}}, "momentum": 0.99, "moving_mean_initializer": {"class_name": "Zeros", "config": {}}, "gamma_regularizer": null, "beta_regularizer": null, "beta_initializer": {"class_name": "Zeros", "config": {}}, "name": "batch_normalization_4", "axis": 3, "trainable": true, "center": true, "scale": false, "gamma_initializer": {"class_name": "Ones", "config": {}}, "gamma_constraint": null}}, {"name": "activation_4", "class_name": "Activation", "inbound_nodes": [[["batch_normalization_4", 0, 0, {}]]], "config": {"name": "activation_4", "activation": "relu", "trainable": true}}, {"name": "conv2d_5", "class_name": "Conv2D", "inbound_nodes": [[["activation_4", 0, 0, {}]]], "config": {"bias_initializer": {"class_name": "Zeros", "config": {}}, "use_bias": false, "kernel_constraint": null, "activation": "linear", "padding": "valid", "name": "conv2d_5", "bias_regularizer": null, "filters": 192, "activity_regularizer": null, "kernel_size": [3, 3], "kernel_regularizer": null, "strides": [1, 1], "data_format": "channels_last", "bias_constraint": null, "trainable": true, "dilation_rate": [1, 1], "kernel_initializer": {"class_name": "VarianceScaling", "config": {"distribution": "uniform", "seed": null, "mode": "fan_avg", "scale": 1.0}}}}, {"name": "batch_normalization_5", "class_name": "BatchNormalization", "inbound_nodes": [[["conv2d_5", 0, 0, {}]]], "config": {"beta_constraint": null, "epsilon": 0.001, "moving_variance_initializer": {"class_name": "Ones", "config": {}}, "momentum": 0.99, "moving_mean_initializer": {"class_name": "Zeros", "config": {}}, "gamma_regularizer": null, "beta_regularizer": null, "beta_initializer": {"class_name": "Zeros", "config": {}}, "name": "batch_normalization_5", "axis": 3, "trainable": true, "center": true, "scale": false, "gamma_initializer": {"class_name": "Ones", "config": {}}, "gamma_constraint": null}}, {"name": "activation_5", "class_name": "Activation", "inbound_nodes": [[["batch_normalization_5", 0, 0, {}]]], "config": {"name": "activation_5", "activation": "relu", "trainable": true}}, {"name": "max_pooling2d_2", "class_name": "MaxPooling2D", "inbound_nodes": [[["activation_5", 0, 0, {}]]], "config": {"pool_size": [3, 3], "strides": [2, 2], "data_format": "channels_last", "name": "max_pooling2d_2", "padding": "valid", "trainable": true}}, {"name": "conv2d_9", "class_name": "Conv2D", "inbound_nodes": [[["max_pooling2d_2", 0, 0, {}]]], "config": {"bias_initializer": {"class_name": "Zeros", "config": {}}, "use_bias": false, "kernel_constraint": null, "activation": "linear", "padding": "same", "name": "conv2d_9", "bias_regularizer": null, "filters": 64, "activity_regularizer": null, "kernel_size": [1, 1], "kernel_regularizer": null, "strides": [1, 1], "data_format": "channels_last", "bias_constraint": null, "trainable": true, "dilation_rate": [1, 1], "kernel_initializer": {"class_name": "VarianceScaling", "config": {"distribution": "uniform", "seed": null, "mode": "fan_avg", "scale": 1.0}}}}, {"name": "batch_normalization_9", "class_name": "BatchNormalization", "inbound_nodes": [[["conv2d_9", 0, 0, {}]]], "config": {"beta_constraint": null, "epsilon": 0.001, "moving_variance_initializer": {"class_name": "Ones", "config": {}}, "momentum": 0.99, "moving_mean_initializer": {"class_name": "Zeros", "config": {}}, "gamma_regularizer": null, "beta_regularizer": null, "beta_initializer": {"class_name": "Zeros", "config": {}}, "name": "batch_normalization_9", "axis": 3, "trainable": true, "center": true, "scale": false, "gamma_initializer": {"class_name": "Ones", "config": {}}, "gamma_constraint": null}}, {"name": "activation_9", "class_name": "Activation", "inbound_nodes": [[["batch_normalization_9", 0, 0, {}]]], "config": {"name": "activation_9", "activation": "relu", "trainable": true}}, {"name": "conv2d_7", "class_name": "Conv2D", "inbound_nodes": [[["max_pooling2d_2", 0, 0, {}]]], "config": {"bias_initializer": {"class_name": "Zeros", "config": {}}, "use_bias": false, "kernel_constraint": null, "activation": "linear", "padding": "same", "name": "conv2d_7", "bias_regularizer": null, "filters": 48, "activity_regularizer": null, "kernel_size": [1, 1], "kernel_regularizer": null, "strides": [1, 1], "data_format": "channels_last", "bias_constraint": null, "trainable": true, "dilation_rate": [1, 1], "kernel_initializer": {"class_name": "VarianceScaling", "config": {"distribution": "uniform", "seed": null, "mode": "fan_avg", "scale": 1.0}}}}, {"name": "conv2d_10", "class_name": "Conv2D", "inbound_nodes": [[["activation_9", 0, 0, {}]]], "config": {"bias_initializer": {"class_name": "Zeros", "config": {}}, "use_bias": false, "kernel_constraint": null, "activation": "linear", "padding": "same", "name": "conv2d_10", "bias_regularizer": null, "filters": 96, "activity_regularizer": null, "kernel_size": [3, 3], "kernel_regularizer": null, "strides": [1, 1], "data_format": "channels_last", "bias_constraint": null, "trainable": true, "dilation_rate": [1, 1], "kernel_initializer": {"class_name": "VarianceScaling", "config": {"distribution": "uniform", "seed": null, "mode": "fan_avg", "scale": 1.0}}}}, {"name": "batch_normalization_7", "class_name": "BatchNormalization", "inbound_nodes": [[["conv2d_7", 0, 0, {}]]], "config": {"beta_constraint": null, "epsilon": 0.001, "moving_variance_initializer": {"class_name": "Ones", "config": {}}, "momentum": 0.99, "moving_mean_initializer": {"class_name": "Zeros", "config": {}}, "gamma_regularizer": null, "beta_regularizer": null, "beta_initializer": {"class_name": "Zeros", "config": {}}, "name": "batch_normalization_7", "axis": 3, "trainable": true, "center": true, "scale": false, "gamma_initializer": {"class_name": "Ones", "config": {}}, "gamma_constraint": null}}, {"name": "batch_normalization_10", "class_name": "BatchNormalization", "inbound_nodes": [[["conv2d_10", 0, 0, {}]]], "config": {"beta_constraint": null, "epsilon": 0.001, "moving_variance_initializer": {"class_name": "Ones", "config": {}}, "momentum": 0.99, "moving_mean_initializer": {"class_name": "Zeros", "config": {}}, "gamma_regularizer": null, "beta_regularizer": null, "beta_initializer": {"class_name": "Zeros", "config": {}}, "name": "batch_normalization_10", "axis": 3, "trainable": true, "center": true, "scale": false, "gamma_initializer": {"class_name": "Ones", "config": {}}, "gamma_constraint": null}}, {"name": "activation_7", "class_name": "Activation", "inbound_nodes": [[["batch_normalization_7", 0, 0, {}]]], "config": {"name": "activation_7", "activation": "relu", "trainable": true}}, {"name": "activation_10", "class_name": "Activation", "inbound_nodes": [[["batch_normalization_10", 0, 0, {}]]], "config": {"name": "activation_10", "activation": "relu", "trainable": true}}, {"name": "average_pooling2d_1", "class_name": "AveragePooling2D", "inbound_nodes": [[["max_pooling2d_2", 0, 0, {}]]], "config": {"pool_size": [3, 3], "strides": [1, 1], "data_format": "channels_last", "name": "average_pooling2d_1", "padding": "same", "trainable": true}}, {"name": "conv2d_6", "class_name": "Conv2D", "inbound_nodes": [[["max_pooling2d_2", 0, 0, {}]]], "config": {"bias_initializer": {"class_name": "Zeros", "config": {}}, "use_bias": false, "kernel_constraint": null, "activation": "linear", "padding": "same", "name": "conv2d_6", "bias_regularizer": null, "filters": 64, "activity_regularizer": null, "kernel_size": [1, 1], "kernel_regularizer": null, "strides": [1, 1], "data_format": "channels_last", "bias_constraint": null, "trainable": true, "dilation_rate": [1, 1], "kernel_initializer": {"class_name": "VarianceScaling", "config": {"distribution": "uniform", "seed": null, "mode": "fan_avg", "scale": 1.0}}}}, {"name": "conv2d_8", "class_name": "Conv2D", "inbound_nodes": [[["activation_7", 0, 0, {}]]], "config": {"bias_initializer": {"class_name": "Zeros", "config": {}}, "use_bias": false, "kernel_constraint": null, "activation": "linear", "padding": "same", "name": "conv2d_8", "bias_regularizer": null, "filters": 64, "activity_regularizer": null, "kernel_size": [5, 5], "kernel_regularizer": null, "strides": [1, 1], "data_format": "channels_last", "bias_constraint": null, "trainable": true, "dilation_rate": [1, 1], "kernel_initializer": {"class_name": "VarianceScaling", "config": {"distribution": "uniform", "seed": null, "mode": "fan_avg", "scale": 1.0}}}}, {"name": "conv2d_11", "class_name": "Conv2D", "inbound_nodes": [[["activation_10", 0, 0, {}]]], "config": {"bias_initializer": {"class_name": "Zeros", "config": {}}, "use_bias": false, "kernel_constraint": null, "activation": "linear", "padding": "same", "name": "conv2d_11", "bias_regularizer": null, "filters": 96, "activity_regularizer": null, "kernel_size": [3, 3], "kernel_regularizer": null, "strides": [1, 1], "data_format": "channels_last", "bias_constraint": null, "trainable": true, "dilation_rate": [1, 1], "kernel_initializer": {"class_name": "VarianceScaling", "config": {"distribution": "uniform", "seed": null, "mode": "fan_avg", "scale": 1.0}}}}, {"name": "conv2d_12", "class_name": "Conv2D", "inbound_nodes": [[["average_pooling2d_1", 0, 0, {}]]], "config": {"bias_initializer": {"class_name": "Zeros", "config": {}}, "use_bias": false, "kernel_constraint": null, "activation": "linear", "padding": "same", "name": "conv2d_12", "bias_regularizer": null, "filters": 32, "activity_regularizer": null, "kernel_size": [1, 1], "kernel_regularizer": null, "strides": [1, 1], "data_format": "channels_last", "bias_constraint": null, "trainable": true, "dilation_rate": [1, 1], "kernel_initializer": {"class_name": "VarianceScaling", "config": {"distribution": "uniform", "seed": null, "mode": "fan_avg", "scale": 1.0}}}}, {"name": "batch_normalization_6", "class_name": "BatchNormalization", "inbound_nodes": [[["conv2d_6", 0, 0, {}]]], "config": {"beta_constraint": null, "epsilon": 0.001, "moving_variance_initializer": {"class_name": "Ones", "config": {}}, "momentum": 0.99, "moving_mean_initializer": {"class_name": "Zeros", "config": {}}, "gamma_regularizer": null, "beta_regularizer": null, "beta_initializer": {"class_name": "Zeros", "config": {}}, "name": "batch_normalization_6", "axis": 3, "trainable": true, "center": true, "scale": false, "gamma_initializer": {"class_name": "Ones", "config": {}}, "gamma_constraint": null}}, {"name": "batch_normalization_8", "class_name": "BatchNormalization", "inbound_nodes": [[["conv2d_8", 0, 0, {}]]], "config": {"beta_constraint": null, "epsilon": 0.001, "moving_variance_initializer": {"class_name": "Ones", "config": {}}, "momentum": 0.99, "moving_mean_initializer": {"class_name": "Zeros", "config": {}}, "gamma_regularizer": null, "beta_regularizer": null, "beta_initializer": {"class_name": "Zeros", "config": {}}, "name": "batch_normalization_8", "axis": 3, "trainable": true, "center": true, "scale": false, "gamma_initializer": {"class_name": "Ones", "config": {}}, "gamma_constraint": null}}, {"name": "batch_normalization_11", "class_name": "BatchNormalization", "inbound_nodes": [[["conv2d_11", 0, 0, {}]]], "config": {"beta_constraint": null, "epsilon": 0.001, "moving_variance_initializer": {"class_name": "Ones", "config": {}}, "momentum": 0.99, "moving_mean_initializer": {"class_name": "Zeros", "config": {}}, "gamma_regularizer": null, "beta_regularizer": null, "beta_initializer": {"class_name": "Zeros", "config": {}}, "name": "batch_normalization_11", "axis": 3, "trainable": true, "center": true, "scale": false, "gamma_initializer": {"class_name": "Ones", "config": {}}, "gamma_constraint": null}}, {"name": "batch_normalization_12", "class_name": "BatchNormalization", "inbound_nodes": [[["conv2d_12", 0, 0, {}]]], "config": {"beta_constraint": null, "epsilon": 0.001, "moving_variance_initializer": {"class_name": "Ones", "config": {}}, "momentum": 0.99, "moving_mean_initializer": {"class_name": "Zeros", "config": {}}, "gamma_regularizer": null, "beta_regularizer": null, "beta_initializer": {"class_name": "Zeros", "config": {}}, "name": "batch_normalization_12", "axis": 3, "trainable": true, "center": true, "scale": false, "gamma_initializer": {"class_name": "Ones", "config": {}}, "gamma_constraint": null}}, {"name": "activation_6", "class_name": "Activation", "inbound_nodes": [[["batch_normalization_6", 0, 0, {}]]], "config": {"name": "activation_6", "activation": "relu", "trainable": true}}, {"name": "activation_8", "class_name": "Activation", "inbound_nodes": [[["batch_normalization_8", 0, 0, {}]]], "config": {"name": "activation_8", "activation": "relu", "trainable": true}}, {"name": "activation_11", "class_name": "Activation", "inbound_nodes": [[["batch_normalization_11", 0, 0, {}]]], "config": {"name": "activation_11", "activation": "relu", "trainable": true}}, {"name": "activation_12", "class_name": "Activation", "inbound_nodes": [[["batch_normalization_12", 0, 0, {}]]], "config": {"name": "activation_12", "activation": "relu", "trainable": true}}, {"name": "mixed0", "class_name": "Concatenate", "inbound_nodes": [[["activation_6", 0, 0, {}], ["activation_8", 0, 0, {}], ["activation_11", 0, 0, {}], ["activation_12", 0, 0, {}]]], "config": {"axis": 3, "name": "mixed0", "trainable": true}}, {"name": "conv2d_16", "class_name": "Conv2D", "inbound_nodes": [[["mixed0", 0, 0, {}]]], "config": {"bias_initializer": {"class_name": "Zeros", "config": {}}, "use_bias": false, "kernel_constraint": null, "activation": "linear", "padding": "same", "name": "conv2d_16", "bias_regularizer": null, "filters": 64, "activity_regularizer": null, "kernel_size": [1, 1], "kernel_regularizer": null, "strides": [1, 1], "data_format": "channels_last", "bias_constraint": null, "trainable": true, "dilation_rate": [1, 1], "kernel_initializer": {"class_name": "VarianceScaling", "config": {"distribution": "uniform", "seed": null, "mode": "fan_avg", "scale": 1.0}}}}, {"name": "batch_normalization_16", "class_name": "BatchNormalization", "inbound_nodes": [[["conv2d_16", 0, 0, {}]]], "config": {"beta_constraint": null, "epsilon": 0.001, "moving_variance_initializer": {"class_name": "Ones", "config": {}}, "momentum": 0.99, "moving_mean_initializer": {"class_name": "Zeros", "config": {}}, "gamma_regularizer": null, "beta_regularizer": null, "beta_initializer": {"class_name": "Zeros", "config": {}}, "name": "batch_normalization_16", "axis": 3, "trainable": true, "center": true, "scale": false, "gamma_initializer": {"class_name": "Ones", "config": {}}, "gamma_constraint": null}}, {"name": "activation_16", "class_name": "Activation", "inbound_nodes": [[["batch_normalization_16", 0, 0, {}]]], "config": {"name": "activation_16", "activation": "relu", "trainable": true}}, {"name": "conv2d_14", "class_name": "Conv2D", "inbound_nodes": [[["mixed0", 0, 0, {}]]], "config": {"bias_initializer": {"class_name": "Zeros", "config": {}}, "use_bias": false, "kernel_constraint": null, "activation": "linear", "padding": "same", "name": "conv2d_14", "bias_regularizer": null, "filters": 48, "activity_regularizer": null, "kernel_size": [1, 1], "kernel_regularizer": null, "strides": [1, 1], "data_format": "channels_last", "bias_constraint": null, "trainable": true, "dilation_rate": [1, 1], "kernel_initializer": {"class_name": "VarianceScaling", "config": {"distribution": "uniform", "seed": null, "mode": "fan_avg", "scale": 1.0}}}}, {"name": "conv2d_17", "class_name": "Conv2D", "inbound_nodes": [[["activation_16", 0, 0, {}]]], "config": {"bias_initializer": {"class_name": "Zeros", "config": {}}, "use_bias": false, "kernel_constraint": null, "activation": "linear", "padding": "same", "name": "conv2d_17", "bias_regularizer": null, "filters": 96, "activity_regularizer": null, "kernel_size": [3, 3], "kernel_regularizer": null, "strides": [1, 1], "data_format": "channels_last", "bias_constraint": null, "trainable": true, "dilation_rate": [1, 1], "kernel_initializer": {"class_name": "VarianceScaling", "config": {"distribution": "uniform", "seed": null, "mode": "fan_avg", "scale": 1.0}}}}, {"name": "batch_normalization_14", "class_name": "BatchNormalization", "inbound_nodes": [[["conv2d_14", 0, 0, {}]]], "config": {"beta_constraint": null, "epsilon": 0.001, "moving_variance_initializer": {"class_name": "Ones", "config": {}}, "momentum": 0.99, "moving_mean_initializer": {"class_name": "Zeros", "config": {}}, "gamma_regularizer": null, "beta_regularizer": null, "beta_initializer": {"class_name": "Zeros", "config": {}}, "name": "batch_normalization_14", "axis": 3, "trainable": true, "center": true, "scale": false, "gamma_initializer": {"class_name": "Ones", "config": {}}, "gamma_constraint": null}}, {"name": "batch_normalization_17", "class_name": "BatchNormalization", "inbound_nodes": [[["conv2d_17", 0, 0, {}]]], "config": {"beta_constraint": null, "epsilon": 0.001, "moving_variance_initializer": {"class_name": "Ones", "config": {}}, "momentum": 0.99, "moving_mean_initializer": {"class_name": "Zeros", "config": {}}, "gamma_regularizer": null, "beta_regularizer": null, "beta_initializer": {"class_name": "Zeros", "config": {}}, "name": "batch_normalization_17", "axis": 3, "trainable": true, "center": true, "scale": false, "gamma_initializer": {"class_name": "Ones", "config": {}}, "gamma_constraint": null}}, {"name": "activation_14", "class_name": "Activation", "inbound_nodes": [[["batch_normalization_14", 0, 0, {}]]], "config": {"name": "activation_14", "activation": "relu", "trainable": true}}, {"name": "activation_17", "class_name": "Activation", "inbound_nodes": [[["batch_normalization_17", 0, 0, {}]]], "config": {"name": "activation_17", "activation": "relu", "trainable": true}}, {"name": "average_pooling2d_2", "class_name": "AveragePooling2D", "inbound_nodes": [[["mixed0", 0, 0, {}]]], "config": {"pool_size": [3, 3], "strides": [1, 1], "data_format": "channels_last", "name": "average_pooling2d_2", "padding": "same", "trainable": true}}, {"name": "conv2d_13", "class_name": "Conv2D", "inbound_nodes": [[["mixed0", 0, 0, {}]]], "config": {"bias_initializer": {"class_name": "Zeros", "config": {}}, "use_bias": false, "kernel_constraint": null, "activation": "linear", "padding": "same", "name": "conv2d_13", "bias_regularizer": null, "filters": 64, "activity_regularizer": null, "kernel_size": [1, 1], "kernel_regularizer": null, "strides": [1, 1], "data_format": "channels_last", "bias_constraint": null, "trainable": true, "dilation_rate": [1, 1], "kernel_initializer": {"class_name": "VarianceScaling", "config": {"distribution": "uniform", "seed": null, "mode": "fan_avg", "scale": 1.0}}}}, {"name": "conv2d_15", "class_name": "Conv2D", "inbound_nodes": [[["activation_14", 0, 0, {}]]], "config": {"bias_initializer": {"class_name": "Zeros", "config": {}}, "use_bias": false, "kernel_constraint": null, "activation": "linear", "padding": "same", "name": "conv2d_15", "bias_regularizer": null, "filters": 64, "activity_regularizer": null, "kernel_size": [5, 5], "kernel_regularizer": null, "strides": [1, 1], "data_format": "channels_last", "bias_constraint": null, "trainable": true, "dilation_rate": [1, 1], "kernel_initializer": {"class_name": "VarianceScaling", "config": {"distribution": "uniform", "seed": null, "mode": "fan_avg", "scale": 1.0}}}}, {"name": "conv2d_18", "class_name": "Conv2D", "inbound_nodes": [[["activation_17", 0, 0, {}]]], "config": {"bias_initializer": {"class_name": "Zeros", "config": {}}, "use_bias": false, "kernel_constraint": null, "activation": "linear", "padding": "same", "name": "conv2d_18", "bias_regularizer": null, "filters": 96, "activity_regularizer": null, "kernel_size": [3, 3], "kernel_regularizer": null, "strides": [1, 1], "data_format": "channels_last", "bias_constraint": null, "trainable": true, "dilation_rate": [1, 1], "kernel_initializer": {"class_name": "VarianceScaling", "config": {"distribution": "uniform", "seed": null, "mode": "fan_avg", "scale": 1.0}}}}, {"name": "conv2d_19", "class_name": "Conv2D", "inbound_nodes": [[["average_pooling2d_2", 0, 0, {}]]], "config": {"bias_initializer": {"class_name": "Zeros", "config": {}}, "use_bias": false, "kernel_constraint": null, "activation": "linear", "padding": "same", "name": "conv2d_19", "bias_regularizer": null, "filters": 64, "activity_regularizer": null, "kernel_size": [1, 1], "kernel_regularizer": null, "strides": [1, 1], "data_format": "channels_last", "bias_constraint": null, "trainable": true, "dilation_rate": [1, 1], "kernel_initializer": {"class_name": "VarianceScaling", "config": {"distribution": "uniform", "seed": null, "mode": "fan_avg", "scale": 1.0}}}}, {"name": "batch_normalization_13", "class_name": "BatchNormalization", "inbound_nodes": [[["conv2d_13", 0, 0, {}]]], "config": {"beta_constraint": null, "epsilon": 0.001, "moving_variance_initializer": {"class_name": "Ones", "config": {}}, "momentum": 0.99, "moving_mean_initializer": {"class_name": "Zeros", "config": {}}, "gamma_regularizer": null, "beta_regularizer": null, "beta_initializer": {"class_name": "Zeros", "config": {}}, "name": "batch_normalization_13", "axis": 3, "trainable": true, "center": true, "scale": false, "gamma_initializer": {"class_name": "Ones", "config": {}}, "gamma_constraint": null}}, {"name": "batch_normalization_15", "class_name": "BatchNormalization", "inbound_nodes": [[["conv2d_15", 0, 0, {}]]], "config": {"beta_constraint": null, "epsilon": 0.001, "moving_variance_initializer": {"class_name": "Ones", "config": {}}, "momentum": 0.99, "moving_mean_initializer": {"class_name": "Zeros", "config": {}}, "gamma_regularizer": null, "beta_regularizer": null, "beta_initializer": {"class_name": "Zeros", "config": {}}, "name": "batch_normalization_15", "axis": 3, "trainable": true, "center": true, "scale": false, "gamma_initializer": {"class_name": "Ones", "config": {}}, "gamma_constraint": null}}, {"name": "batch_normalization_18", "class_name": "BatchNormalization", "inbound_nodes": [[["conv2d_18", 0, 0, {}]]], "config": {"beta_constraint": null, "epsilon": 0.001, "moving_variance_initializer": {"class_name": "Ones", "config": {}}, "momentum": 0.99, "moving_mean_initializer": {"class_name": "Zeros", "config": {}}, "gamma_regularizer": null, "beta_regularizer": null, "beta_initializer": {"class_name": "Zeros", "config": {}}, "name": "batch_normalization_18", "axis": 3, "trainable": true, "center": true, "scale": false, "gamma_initializer": {"class_name": "Ones", "config": {}}, "gamma_constraint": null}}, {"name": "batch_normalization_19", "class_name": "BatchNormalization", "inbound_nodes": [[["conv2d_19", 0, 0, {}]]], "config": {"beta_constraint": null, "epsilon": 0.001, "moving_variance_initializer": {"class_name": "Ones", "config": {}}, "momentum": 0.99, "moving_mean_initializer": {"class_name": "Zeros", "config": {}}, "gamma_regularizer": null, "beta_regularizer": null, "beta_initializer": {"class_name": "Zeros", "config": {}}, "name": "batch_normalization_19", "axis": 3, "trainable": true, "center": true, "scale": false, "gamma_initializer": {"class_name": "Ones", "config": {}}, "gamma_constraint": null}}, {"name": "activation_13", "class_name": "Activation", "inbound_nodes": [[["batch_normalization_13", 0, 0, {}]]], "config": {"name": "activation_13", "activation": "relu", "trainable": true}}, {"name": "activation_15", "class_name": "Activation", "inbound_nodes": [[["batch_normalization_15", 0, 0, {}]]], "config": {"name": "activation_15", "activation": "relu", "trainable": true}}, {"name": "activation_18", "class_name": "Activation", "inbound_nodes": [[["batch_normalization_18", 0, 0, {}]]], "config": {"name": "activation_18", "activation": "relu", "trainable": true}}, {"name": "activation_19", "class_name": "Activation", "inbound_nodes": [[["batch_normalization_19", 0, 0, {}]]], "config": {"name": "activation_19", "activation": "relu", "trainable": true}}, {"name": "mixed1", "class_name": "Concatenate", "inbound_nodes": [[["activation_13", 0, 0, {}], ["activation_15", 0, 0, {}], ["activation_18", 0, 0, {}], ["activation_19", 0, 0, {}]]], "config": {"axis": 3, "name": "mixed1", "trainable": true}}, {"name": "conv2d_23", "class_name": "Conv2D", "inbound_nodes": [[["mixed1", 0, 0, {}]]], "config": {"bias_initializer": {"class_name": "Zeros", "config": {}}, "use_bias": false, "kernel_constraint": null, "activation": "linear", "padding": "same", "name": "conv2d_23", "bias_regularizer": null, "filters": 64, "activity_regularizer": null, "kernel_size": [1, 1], "kernel_regularizer": null, "strides": [1, 1], "data_format": "channels_last", "bias_constraint": null, "trainable": true, "dilation_rate": [1, 1], "kernel_initializer": {"class_name": "VarianceScaling", "config": {"distribution": "uniform", "seed": null, "mode": "fan_avg", "scale": 1.0}}}}, {"name": "batch_normalization_23", "class_name": "BatchNormalization", "inbound_nodes": [[["conv2d_23", 0, 0, {}]]], "config": {"beta_constraint": null, "epsilon": 0.001, "moving_variance_initializer": {"class_name": "Ones", "config": {}}, "momentum": 0.99, "moving_mean_initializer": {"class_name": "Zeros", "config": {}}, "gamma_regularizer": null, "beta_regularizer": null, "beta_initializer": {"class_name": "Zeros", "config": {}}, "name": "batch_normalization_23", "axis": 3, "trainable": true, "center": true, "scale": false, "gamma_initializer": {"class_name": "Ones", "config": {}}, "gamma_constraint": null}}, {"name": "activation_23", "class_name": "Activation", "inbound_nodes": [[["batch_normalization_23", 0, 0, {}]]], "config": {"name": "activation_23", "activation": "relu", "trainable": true}}, {"name": "conv2d_21", "class_name": "Conv2D", "inbound_nodes": [[["mixed1", 0, 0, {}]]], "config": {"bias_initializer": {"class_name": "Zeros", "config": {}}, "use_bias": false, "kernel_constraint": null, "activation": "linear", "padding": "same", "name": "conv2d_21", "bias_regularizer": null, "filters": 48, "activity_regularizer": null, "kernel_size": [1, 1], "kernel_regularizer": null, "strides": [1, 1], "data_format": "channels_last", "bias_constraint": null, "trainable": true, "dilation_rate": [1, 1], "kernel_initializer": {"class_name": "VarianceScaling", "config": {"distribution": "uniform", "seed": null, "mode": "fan_avg", "scale": 1.0}}}}, {"name": "conv2d_24", "class_name": "Conv2D", "inbound_nodes": [[["activation_23", 0, 0, {}]]], "config": {"bias_initializer": {"class_name": "Zeros", "config": {}}, "use_bias": false, "kernel_constraint": null, "activation": "linear", "padding": "same", "name": "conv2d_24", "bias_regularizer": null, "filters": 96, "activity_regularizer": null, "kernel_size": [3, 3], "kernel_regularizer": null, "strides": [1, 1], "data_format": "channels_last", "bias_constraint": null, "trainable": true, "dilation_rate": [1, 1], "kernel_initializer": {"class_name": "VarianceScaling", "config": {"distribution": "uniform", "seed": null, "mode": "fan_avg", "scale": 1.0}}}}, {"name": "batch_normalization_21", "class_name": "BatchNormalization", "inbound_nodes": [[["conv2d_21", 0, 0, {}]]], "config": {"beta_constraint": null, "epsilon": 0.001, "moving_variance_initializer": {"class_name": "Ones", "config": {}}, "momentum": 0.99, "moving_mean_initializer": {"class_name": "Zeros", "config": {}}, "gamma_regularizer": null, "beta_regularizer": null, "beta_initializer": {"class_name": "Zeros", "config": {}}, "name": "batch_normalization_21", "axis": 3, "trainable": true, "center": true, "scale": false, "gamma_initializer": {"class_name": "Ones", "config": {}}, "gamma_constraint": null}}, {"name": "batch_normalization_24", "class_name": "BatchNormalization", "inbound_nodes": [[["conv2d_24", 0, 0, {}]]], "config": {"beta_constraint": null, "epsilon": 0.001, "moving_variance_initializer": {"class_name": "Ones", "config": {}}, "momentum": 0.99, "moving_mean_initializer": {"class_name": "Zeros", "config": {}}, "gamma_regularizer": null, "beta_regularizer": null, "beta_initializer": {"class_name": "Zeros", "config": {}}, "name": "batch_normalization_24", "axis": 3, "trainable": true, "center": true, "scale": false, "gamma_initializer": {"class_name": "Ones", "config": {}}, "gamma_constraint": null}}, {"name": "activation_21", "class_name": "Activation", "inbound_nodes": [[["batch_normalization_21", 0, 0, {}]]], "config": {"name": "activation_21", "activation": "relu", "trainable": true}}, {"name": "activation_24", "class_name": "Activation", "inbound_nodes": [[["batch_normalization_24", 0, 0, {}]]], "config": {"name": "activation_24", "activation": "relu", "trainable": true}}, {"name": "average_pooling2d_3", "class_name": "AveragePooling2D", "inbound_nodes": [[["mixed1", 0, 0, {}]]], "config": {"pool_size": [3, 3], "strides": [1, 1], "data_format": "channels_last", "name": "average_pooling2d_3", "padding": "same", "trainable": true}}, {"name": "conv2d_20", "class_name": "Conv2D", "inbound_nodes": [[["mixed1", 0, 0, {}]]], "config": {"bias_initializer": {"class_name": "Zeros", "config": {}}, "use_bias": false, "kernel_constraint": null, "activation": "linear", "padding": "same", "name": "conv2d_20", "bias_regularizer": null, "filters": 64, "activity_regularizer": null, "kernel_size": [1, 1], "kernel_regularizer": null, "strides": [1, 1], "data_format": "channels_last", "bias_constraint": null, "trainable": true, "dilation_rate": [1, 1], "kernel_initializer": {"class_name": "VarianceScaling", "config": {"distribution": "uniform", "seed": null, "mode": "fan_avg", "scale": 1.0}}}}, {"name": "conv2d_22", "class_name": "Conv2D", "inbound_nodes": [[["activation_21", 0, 0, {}]]], "config": {"bias_initializer": {"class_name": "Zeros", "config": {}}, "use_bias": false, "kernel_constraint": null, "activation": "linear", "padding": "same", "name": "conv2d_22", "bias_regularizer": null, "filters": 64, "activity_regularizer": null, "kernel_size": [5, 5], "kernel_regularizer": null, "strides": [1, 1], "data_format": "channels_last", "bias_constraint": null, "trainable": true, "dilation_rate": [1, 1], "kernel_initializer": {"class_name": "VarianceScaling", "config": {"distribution": "uniform", "seed": null, "mode": "fan_avg", "scale": 1.0}}}}, {"name": "conv2d_25", "class_name": "Conv2D", "inbound_nodes": [[["activation_24", 0, 0, {}]]], "config": {"bias_initializer": {"class_name": "Zeros", "config": {}}, "use_bias": false, "kernel_constraint": null, "activation": "linear", "padding": "same", "name": "conv2d_25", "bias_regularizer": null, "filters": 96, "activity_regularizer": null, "kernel_size": [3, 3], "kernel_regularizer": null, "strides": [1, 1], "data_format": "channels_last", "bias_constraint": null, "trainable": true, "dilation_rate": [1, 1], "kernel_initializer": {"class_name": "VarianceScaling", "config": {"distribution": "uniform", "seed": null, "mode": "fan_avg", "scale": 1.0}}}}, {"name": "conv2d_26", "class_name": "Conv2D", "inbound_nodes": [[["average_pooling2d_3", 0, 0, {}]]], "config": {"bias_initializer": {"class_name": "Zeros", "config": {}}, "use_bias": false, "kernel_constraint": null, "activation": "linear", "padding": "same", "name": "conv2d_26", "bias_regularizer": null, "filters": 64, "activity_regularizer": null, "kernel_size": [1, 1], "kernel_regularizer": null, "strides": [1, 1], "data_format": "channels_last", "bias_constraint": null, "trainable": true, "dilation_rate": [1, 1], "kernel_initializer": {"class_name": "VarianceScaling", "config": {"distribution": "uniform", "seed": null, "mode": "fan_avg", "scale": 1.0}}}}, {"name": "batch_normalization_20", "class_name": "BatchNormalization", "inbound_nodes": [[["conv2d_20", 0, 0, {}]]], "config": {"beta_constraint": null, "epsilon": 0.001, "moving_variance_initializer": {"class_name": "Ones", "config": {}}, "momentum": 0.99, "moving_mean_initializer": {"class_name": "Zeros", "config": {}}, "gamma_regularizer": null, "beta_regularizer": null, "beta_initializer": {"class_name": "Zeros", "config": {}}, "name": "batch_normalization_20", "axis": 3, "trainable": true, "center": true, "scale": false, "gamma_initializer": {"class_name": "Ones", "config": {}}, "gamma_constraint": null}}, {"name": "batch_normalization_22", "class_name": "BatchNormalization", "inbound_nodes": [[["conv2d_22", 0, 0, {}]]], "config": {"beta_constraint": null, "epsilon": 0.001, "moving_variance_initializer": {"class_name": "Ones", "config": {}}, "momentum": 0.99, "moving_mean_initializer": {"class_name": "Zeros", "config": {}}, "gamma_regularizer": null, "beta_regularizer": null, "beta_initializer": {"class_name": "Zeros", "config": {}}, "name": "batch_normalization_22", "axis": 3, "trainable": true, "center": true, "scale": false, "gamma_initializer": {"class_name": "Ones", "config": {}}, "gamma_constraint": null}}, {"name": "batch_normalization_25", "class_name": "BatchNormalization", "inbound_nodes": [[["conv2d_25", 0, 0, {}]]], "config": {"beta_constraint": null, "epsilon": 0.001, "moving_variance_initializer": {"class_name": "Ones", "config": {}}, "momentum": 0.99, "moving_mean_initializer": {"class_name": "Zeros", "config": {}}, "gamma_regularizer": null, "beta_regularizer": null, "beta_initializer": {"class_name": "Zeros", "config": {}}, "name": "batch_normalization_25", "axis": 3, "trainable": true, "center": true, "scale": false, "gamma_initializer": {"class_name": "Ones", "config": {}}, "gamma_constraint": null}}, {"name": "batch_normalization_26", "class_name": "BatchNormalization", "inbound_nodes": [[["conv2d_26", 0, 0, {}]]], "config": {"beta_constraint": null, "epsilon": 0.001, "moving_variance_initializer": {"class_name": "Ones", "config": {}}, "momentum": 0.99, "moving_mean_initializer": {"class_name": "Zeros", "config": {}}, "gamma_regularizer": null, "beta_regularizer": null, "beta_initializer": {"class_name": "Zeros", "config": {}}, "name": "batch_normalization_26", "axis": 3, "trainable": true, "center": true, "scale": false, "gamma_initializer": {"class_name": "Ones", "config": {}}, "gamma_constraint": null}}, {"name": "activation_20", "class_name": "Activation", "inbound_nodes": [[["batch_normalization_20", 0, 0, {}]]], "config": {"name": "activation_20", "activation": "relu", "trainable": true}}, {"name": "activation_22", "class_name": "Activation", "inbound_nodes": [[["batch_normalization_22", 0, 0, {}]]], "config": {"name": "activation_22", "activation": "relu", "trainable": true}}, {"name": "activation_25", "class_name": "Activation", "inbound_nodes": [[["batch_normalization_25", 0, 0, {}]]], "config": {"name": "activation_25", "activation": "relu", "trainable": true}}, {"name": "activation_26", "class_name": "Activation", "inbound_nodes": [[["batch_normalization_26", 0, 0, {}]]], "config": {"name": "activation_26", "activation": "relu", "trainable": true}}, {"name": "mixed2", "class_name": "Concatenate", "inbound_nodes": [[["activation_20", 0, 0, {}], ["activation_22", 0, 0, {}], ["activation_25", 0, 0, {}], ["activation_26", 0, 0, {}]]], "config": {"axis": 3, "name": "mixed2", "trainable": true}}, {"name": "conv2d_28", "class_name": "Conv2D", "inbound_nodes": [[["mixed2", 0, 0, {}]]], "config": {"bias_initializer": {"class_name": "Zeros", "config": {}}, "use_bias": false, "kernel_constraint": null, "activation": "linear", "padding": "same", "name": "conv2d_28", "bias_regularizer": null, "filters": 64, "activity_regularizer": null, "kernel_size": [1, 1], "kernel_regularizer": null, "strides": [1, 1], "data_format": "channels_last", "bias_constraint": null, "trainable": true, "dilation_rate": [1, 1], "kernel_initializer": {"class_name": "VarianceScaling", "config": {"distribution": "uniform", "seed": null, "mode": "fan_avg", "scale": 1.0}}}}, {"name": "batch_normalization_28", "class_name": "BatchNormalization", "inbound_nodes": [[["conv2d_28", 0, 0, {}]]], "config": {"beta_constraint": null, "epsilon": 0.001, "moving_variance_initializer": {"class_name": "Ones", "config": {}}, "momentum": 0.99, "moving_mean_initializer": {"class_name": "Zeros", "config": {}}, "gamma_regularizer": null, "beta_regularizer": null, "beta_initializer": {"class_name": "Zeros", "config": {}}, "name": "batch_normalization_28", "axis": 3, "trainable": true, "center": true, "scale": false, "gamma_initializer": {"class_name": "Ones", "config": {}}, "gamma_constraint": null}}, {"name": "activation_28", "class_name": "Activation", "inbound_nodes": [[["batch_normalization_28", 0, 0, {}]]], "config": {"name": "activation_28", "activation": "relu", "trainable": true}}, {"name": "conv2d_29", "class_name": "Conv2D", "inbound_nodes": [[["activation_28", 0, 0, {}]]], "config": {"bias_initializer": {"class_name": "Zeros", "config": {}}, "use_bias": false, "kernel_constraint": null, "activation": "linear", "padding": "same", "name": "conv2d_29", "bias_regularizer": null, "filters": 96, "activity_regularizer": null, "kernel_size": [3, 3], "kernel_regularizer": null, "strides": [1, 1], "data_format": "channels_last", "bias_constraint": null, "trainable": true, "dilation_rate": [1, 1], "kernel_initializer": {"class_name": "VarianceScaling", "config": {"distribution": "uniform", "seed": null, "mode": "fan_avg", "scale": 1.0}}}}, {"name": "batch_normalization_29", "class_name": "BatchNormalization", "inbound_nodes": [[["conv2d_29", 0, 0, {}]]], "config": {"beta_constraint": null, "epsilon": 0.001, "moving_variance_initializer": {"class_name": "Ones", "config": {}}, "momentum": 0.99, "moving_mean_initializer": {"class_name": "Zeros", "config": {}}, "gamma_regularizer": null, "beta_regularizer": null, "beta_initializer": {"class_name": "Zeros", "config": {}}, "name": "batch_normalization_29", "axis": 3, "trainable": true, "center": true, "scale": false, "gamma_initializer": {"class_name": "Ones", "config": {}}, "gamma_constraint": null}}, {"name": "activation_29", "class_name": "Activation", "inbound_nodes": [[["batch_normalization_29", 0, 0, {}]]], "config": {"name": "activation_29", "activation": "relu", "trainable": true}}, {"name": "conv2d_27", "class_name": "Conv2D", "inbound_nodes": [[["mixed2", 0, 0, {}]]], "config": {"bias_initializer": {"class_name": "Zeros", "config": {}}, "use_bias": false, "kernel_constraint": null, "activation": "linear", "padding": "valid", "name": "conv2d_27", "bias_regularizer": null, "filters": 384, "activity_regularizer": null, "kernel_size": [3, 3], "kernel_regularizer": null, "strides": [2, 2], "data_format": "channels_last", "bias_constraint": null, "trainable": true, "dilation_rate": [1, 1], "kernel_initializer": {"class_name": "VarianceScaling", "config": {"distribution": "uniform", "seed": null, "mode": "fan_avg", "scale": 1.0}}}}, {"name": "conv2d_30", "class_name": "Conv2D", "inbound_nodes": [[["activation_29", 0, 0, {}]]], "config": {"bias_initializer": {"class_name": "Zeros", "config": {}}, "use_bias": false, "kernel_constraint": null, "activation": "linear", "padding": "valid", "name": "conv2d_30", "bias_regularizer": null, "filters": 96, "activity_regularizer": null, "kernel_size": [3, 3], "kernel_regularizer": null, "strides": [2, 2], "data_format": "channels_last", "bias_constraint": null, "trainable": true, "dilation_rate": [1, 1], "kernel_initializer": {"class_name": "VarianceScaling", "config": {"distribution": "uniform", "seed": null, "mode": "fan_avg", "scale": 1.0}}}}, {"name": "batch_normalization_27", "class_name": "BatchNormalization", "inbound_nodes": [[["conv2d_27", 0, 0, {}]]], "config": {"beta_constraint": null, "epsilon": 0.001, "moving_variance_initializer": {"class_name": "Ones", "config": {}}, "momentum": 0.99, "moving_mean_initializer": {"class_name": "Zeros", "config": {}}, "gamma_regularizer": null, "beta_regularizer": null, "beta_initializer": {"class_name": "Zeros", "config": {}}, "name": "batch_normalization_27", "axis": 3, "trainable": true, "center": true, "scale": false, "gamma_initializer": {"class_name": "Ones", "config": {}}, "gamma_constraint": null}}, {"name": "batch_normalization_30", "class_name": "BatchNormalization", "inbound_nodes": [[["conv2d_30", 0, 0, {}]]], "config": {"beta_constraint": null, "epsilon": 0.001, "moving_variance_initializer": {"class_name": "Ones", "config": {}}, "momentum": 0.99, "moving_mean_initializer": {"class_name": "Zeros", "config": {}}, "gamma_regularizer": null, "beta_regularizer": null, "beta_initializer": {"class_name": "Zeros", "config": {}}, "name": "batch_normalization_30", "axis": 3, "trainable": true, "center": true, "scale": false, "gamma_initializer": {"class_name": "Ones", "config": {}}, "gamma_constraint": null}}, {"name": "activation_27", "class_name": "Activation", "inbound_nodes": [[["batch_normalization_27", 0, 0, {}]]], "config": {"name": "activation_27", "activation": "relu", "trainable": true}}, {"name": "activation_30", "class_name": "Activation", "inbound_nodes": [[["batch_normalization_30", 0, 0, {}]]], "config": {"name": "activation_30", "activation": "relu", "trainable": true}}, {"name": "max_pooling2d_3", "class_name": "MaxPooling2D", "inbound_nodes": [[["mixed2", 0, 0, {}]]], "config": {"pool_size": [3, 3], "strides": [2, 2], "data_format": "channels_last", "name": "max_pooling2d_3", "padding": "valid", "trainable": true}}, {"name": "mixed3", "class_name": "Concatenate", "inbound_nodes": [[["activation_27", 0, 0, {}], ["activation_30", 0, 0, {}], ["max_pooling2d_3", 0, 0, {}]]], "config": {"axis": 3, "name": "mixed3", "trainable": true}}, {"name": "conv2d_35", "class_name": "Conv2D", "inbound_nodes": [[["mixed3", 0, 0, {}]]], "config": {"bias_initializer": {"class_name": "Zeros", "config": {}}, "use_bias": false, "kernel_constraint": null, "activation": "linear", "padding": "same", "name": "conv2d_35", "bias_regularizer": null, "filters": 128, "activity_regularizer": null, "kernel_size": [1, 1], "kernel_regularizer": null, "strides": [1, 1], "data_format": "channels_last", "bias_constraint": null, "trainable": true, "dilation_rate": [1, 1], "kernel_initializer": {"class_name": "VarianceScaling", "config": {"distribution": "uniform", "seed": null, "mode": "fan_avg", "scale": 1.0}}}}, {"name": "batch_normalization_35", "class_name": "BatchNormalization", "inbound_nodes": [[["conv2d_35", 0, 0, {}]]], "config": {"beta_constraint": null, "epsilon": 0.001, "moving_variance_initializer": {"class_name": "Ones", "config": {}}, "momentum": 0.99, "moving_mean_initializer": {"class_name": "Zeros", "config": {}}, "gamma_regularizer": null, "beta_regularizer": null, "beta_initializer": {"class_name": "Zeros", "config": {}}, "name": "batch_normalization_35", "axis": 3, "trainable": true, "center": true, "scale": false, "gamma_initializer": {"class_name": "Ones", "config": {}}, "gamma_constraint": null}}, {"name": "activation_35", "class_name": "Activation", "inbound_nodes": [[["batch_normalization_35", 0, 0, {}]]], "config": {"name": "activation_35", "activation": "relu", "trainable": true}}, {"name": "conv2d_36", "class_name": "Conv2D", "inbound_nodes": [[["activation_35", 0, 0, {}]]], "config": {"bias_initializer": {"class_name": "Zeros", "config": {}}, "use_bias": false, "kernel_constraint": null, "activation": "linear", "padding": "same", "name": "conv2d_36", "bias_regularizer": null, "filters": 128, "activity_regularizer": null, "kernel_size": [7, 1], "kernel_regularizer": null, "strides": [1, 1], "data_format": "channels_last", "bias_constraint": null, "trainable": true, "dilation_rate": [1, 1], "kernel_initializer": {"class_name": "VarianceScaling", "config": {"distribution": "uniform", "seed": null, "mode": "fan_avg", "scale": 1.0}}}}, {"name": "batch_normalization_36", "class_name": "BatchNormalization", "inbound_nodes": [[["conv2d_36", 0, 0, {}]]], "config": {"beta_constraint": null, "epsilon": 0.001, "moving_variance_initializer": {"class_name": "Ones", "config": {}}, "momentum": 0.99, "moving_mean_initializer": {"class_name": "Zeros", "config": {}}, "gamma_regularizer": null, "beta_regularizer": null, "beta_initializer": {"class_name": "Zeros", "config": {}}, "name": "batch_normalization_36", "axis": 3, "trainable": true, "center": true, "scale": false, "gamma_initializer": {"class_name": "Ones", "config": {}}, "gamma_constraint": null}}, {"name": "activation_36", "class_name": "Activation", "inbound_nodes": [[["batch_normalization_36", 0, 0, {}]]], "config": {"name": "activation_36", "activation": "relu", "trainable": true}}, {"name": "conv2d_32", "class_name": "Conv2D", "inbound_nodes": [[["mixed3", 0, 0, {}]]], "config": {"bias_initializer": {"class_name": "Zeros", "config": {}}, "use_bias": false, "kernel_constraint": null, "activation": "linear", "padding": "same", "name": "conv2d_32", "bias_regularizer": null, "filters": 128, "activity_regularizer": null, "kernel_size": [1, 1], "kernel_regularizer": null, "strides": [1, 1], "data_format": "channels_last", "bias_constraint": null, "trainable": true, "dilation_rate": [1, 1], "kernel_initializer": {"class_name": "VarianceScaling", "config": {"distribution": "uniform", "seed": null, "mode": "fan_avg", "scale": 1.0}}}}, {"name": "conv2d_37", "class_name": "Conv2D", "inbound_nodes": [[["activation_36", 0, 0, {}]]], "config": {"bias_initializer": {"class_name": "Zeros", "config": {}}, "use_bias": false, "kernel_constraint": null, "activation": "linear", "padding": "same", "name": "conv2d_37", "bias_regularizer": null, "filters": 128, "activity_regularizer": null, "kernel_size": [1, 7], "kernel_regularizer": null, "strides": [1, 1], "data_format": "channels_last", "bias_constraint": null, "trainable": true, "dilation_rate": [1, 1], "kernel_initializer": {"class_name": "VarianceScaling", "config": {"distribution": "uniform", "seed": null, "mode": "fan_avg", "scale": 1.0}}}}, {"name": "batch_normalization_32", "class_name": "BatchNormalization", "inbound_nodes": [[["conv2d_32", 0, 0, {}]]], "config": {"beta_constraint": null, "epsilon": 0.001, "moving_variance_initializer": {"class_name": "Ones", "config": {}}, "momentum": 0.99, "moving_mean_initializer": {"class_name": "Zeros", "config": {}}, "gamma_regularizer": null, "beta_regularizer": null, "beta_initializer": {"class_name": "Zeros", "config": {}}, "name": "batch_normalization_32", "axis": 3, "trainable": true, "center": true, "scale": false, "gamma_initializer": {"class_name": "Ones", "config": {}}, "gamma_constraint": null}}, {"name": "batch_normalization_37", "class_name": "BatchNormalization", "inbound_nodes": [[["conv2d_37", 0, 0, {}]]], "config": {"beta_constraint": null, "epsilon": 0.001, "moving_variance_initializer": {"class_name": "Ones", "config": {}}, "momentum": 0.99, "moving_mean_initializer": {"class_name": "Zeros", "config": {}}, "gamma_regularizer": null, "beta_regularizer": null, "beta_initializer": {"class_name": "Zeros", "config": {}}, "name": "batch_normalization_37", "axis": 3, "trainable": true, "center": true, "scale": false, "gamma_initializer": {"class_name": "Ones", "config": {}}, "gamma_constraint": null}}, {"name": "activation_32", "class_name": "Activation", "inbound_nodes": [[["batch_normalization_32", 0, 0, {}]]], "config": {"name": "activation_32", "activation": "relu", "trainable": true}}, {"name": "activation_37", "class_name": "Activation", "inbound_nodes": [[["batch_normalization_37", 0, 0, {}]]], "config": {"name": "activation_37", "activation": "relu", "trainable": true}}, {"name": "conv2d_33", "class_name": "Conv2D", "inbound_nodes": [[["activation_32", 0, 0, {}]]], "config": {"bias_initializer": {"class_name": "Zeros", "config": {}}, "use_bias": false, "kernel_constraint": null, "activation": "linear", "padding": "same", "name": "conv2d_33", "bias_regularizer": null, "filters": 128, "activity_regularizer": null, "kernel_size": [1, 7], "kernel_regularizer": null, "strides": [1, 1], "data_format": "channels_last", "bias_constraint": null, "trainable": true, "dilation_rate": [1, 1], "kernel_initializer": {"class_name": "VarianceScaling", "config": {"distribution": "uniform", "seed": null, "mode": "fan_avg", "scale": 1.0}}}}, {"name": "conv2d_38", "class_name": "Conv2D", "inbound_nodes": [[["activation_37", 0, 0, {}]]], "config": {"bias_initializer": {"class_name": "Zeros", "config": {}}, "use_bias": false, "kernel_constraint": null, "activation": "linear", "padding": "same", "name": "conv2d_38", "bias_regularizer": null, "filters": 128, "activity_regularizer": null, "kernel_size": [7, 1], "kernel_regularizer": null, "strides": [1, 1], "data_format": "channels_last", "bias_constraint": null, "trainable": true, "dilation_rate": [1, 1], "kernel_initializer": {"class_name": "VarianceScaling", "config": {"distribution": "uniform", "seed": null, "mode": "fan_avg", "scale": 1.0}}}}, {"name": "batch_normalization_33", "class_name": "BatchNormalization", "inbound_nodes": [[["conv2d_33", 0, 0, {}]]], "config": {"beta_constraint": null, "epsilon": 0.001, "moving_variance_initializer": {"class_name": "Ones", "config": {}}, "momentum": 0.99, "moving_mean_initializer": {"class_name": "Zeros", "config": {}}, "gamma_regularizer": null, "beta_regularizer": null, "beta_initializer": {"class_name": "Zeros", "config": {}}, "name": "batch_normalization_33", "axis": 3, "trainable": true, "center": true, "scale": false, "gamma_initializer": {"class_name": "Ones", "config": {}}, "gamma_constraint": null}}, {"name": "batch_normalization_38", "class_name": "BatchNormalization", "inbound_nodes": [[["conv2d_38", 0, 0, {}]]], "config": {"beta_constraint": null, "epsilon": 0.001, "moving_variance_initializer": {"class_name": "Ones", "config": {}}, "momentum": 0.99, "moving_mean_initializer": {"class_name": "Zeros", "config": {}}, "gamma_regularizer": null, "beta_regularizer": null, "beta_initializer": {"class_name": "Zeros", "config": {}}, "name": "batch_normalization_38", "axis": 3, "trainable": true, "center": true, "scale": false, "gamma_initializer": {"class_name": "Ones", "config": {}}, "gamma_constraint": null}}, {"name": "activation_33", "class_name": "Activation", "inbound_nodes": [[["batch_normalization_33", 0, 0, {}]]], "config": {"name": "activation_33", "activation": "relu", "trainable": true}}, {"name": "activation_38", "class_name": "Activation", "inbound_nodes": [[["batch_normalization_38", 0, 0, {}]]], "config": {"name": "activation_38", "activation": "relu", "trainable": true}}, {"name": "average_pooling2d_4", "class_name": "AveragePooling2D", "inbound_nodes": [[["mixed3", 0, 0, {}]]], "config": {"pool_size": [3, 3], "strides": [1, 1], "data_format": "channels_last", "name": "average_pooling2d_4", "padding": "same", "trainable": true}}, {"name": "conv2d_31", "class_name": "Conv2D", "inbound_nodes": [[["mixed3", 0, 0, {}]]], "config": {"bias_initializer": {"class_name": "Zeros", "config": {}}, "use_bias": false, "kernel_constraint": null, "activation": "linear", "padding": "same", "name": "conv2d_31", "bias_regularizer": null, "filters": 192, "activity_regularizer": null, "kernel_size": [1, 1], "kernel_regularizer": null, "strides": [1, 1], "data_format": "channels_last", "bias_constraint": null, "trainable": true, "dilation_rate": [1, 1], "kernel_initializer": {"class_name": "VarianceScaling", "config": {"distribution": "uniform", "seed": null, "mode": "fan_avg", "scale": 1.0}}}}, {"name": "conv2d_34", "class_name": "Conv2D", "inbound_nodes": [[["activation_33", 0, 0, {}]]], "config": {"bias_initializer": {"class_name": "Zeros", "config": {}}, "use_bias": false, "kernel_constraint": null, "activation": "linear", "padding": "same", "name": "conv2d_34", "bias_regularizer": null, "filters": 192, "activity_regularizer": null, "kernel_size": [7, 1], "kernel_regularizer": null, "strides": [1, 1], "data_format": "channels_last", "bias_constraint": null, "trainable": true, "dilation_rate": [1, 1], "kernel_initializer": {"class_name": "VarianceScaling", "config": {"distribution": "uniform", "seed": null, "mode": "fan_avg", "scale": 1.0}}}}, {"name": "conv2d_39", "class_name": "Conv2D", "inbound_nodes": [[["activation_38", 0, 0, {}]]], "config": {"bias_initializer": {"class_name": "Zeros", "config": {}}, "use_bias": false, "kernel_constraint": null, "activation": "linear", "padding": "same", "name": "conv2d_39", "bias_regularizer": null, "filters": 192, "activity_regularizer": null, "kernel_size": [1, 7], "kernel_regularizer": null, "strides": [1, 1], "data_format": "channels_last", "bias_constraint": null, "trainable": true, "dilation_rate": [1, 1], "kernel_initializer": {"class_name": "VarianceScaling", "config": {"distribution": "uniform", "seed": null, "mode": "fan_avg", "scale": 1.0}}}}, {"name": "conv2d_40", "class_name": "Conv2D", "inbound_nodes": [[["average_pooling2d_4", 0, 0, {}]]], "config": {"bias_initializer": {"class_name": "Zeros", "config": {}}, "use_bias": false, "kernel_constraint": null, "activation": "linear", "padding": "same", "name": "conv2d_40", "bias_regularizer": null, "filters": 192, "activity_regularizer": null, "kernel_size": [1, 1], "kernel_regularizer": null, "strides": [1, 1], "data_format": "channels_last", "bias_constraint": null, "trainable": true, "dilation_rate": [1, 1], "kernel_initializer": {"class_name": "VarianceScaling", "config": {"distribution": "uniform", "seed": null, "mode": "fan_avg", "scale": 1.0}}}}, {"name": "batch_normalization_31", "class_name": "BatchNormalization", "inbound_nodes": [[["conv2d_31", 0, 0, {}]]], "config": {"beta_constraint": null, "epsilon": 0.001, "moving_variance_initializer": {"class_name": "Ones", "config": {}}, "momentum": 0.99, "moving_mean_initializer": {"class_name": "Zeros", "config": {}}, "gamma_regularizer": null, "beta_regularizer": null, "beta_initializer": {"class_name": "Zeros", "config": {}}, "name": "batch_normalization_31", "axis": 3, "trainable": true, "center": true, "scale": false, "gamma_initializer": {"class_name": "Ones", "config": {}}, "gamma_constraint": null}}, {"name": "batch_normalization_34", "class_name": "BatchNormalization", "inbound_nodes": [[["conv2d_34", 0, 0, {}]]], "config": {"beta_constraint": null, "epsilon": 0.001, "moving_variance_initializer": {"class_name": "Ones", "config": {}}, "momentum": 0.99, "moving_mean_initializer": {"class_name": "Zeros", "config": {}}, "gamma_regularizer": null, "beta_regularizer": null, "beta_initializer": {"class_name": "Zeros", "config": {}}, "name": "batch_normalization_34", "axis": 3, "trainable": true, "center": true, "scale": false, "gamma_initializer": {"class_name": "Ones", "config": {}}, "gamma_constraint": null}}, {"name": "batch_normalization_39", "class_name": "BatchNormalization", "inbound_nodes": [[["conv2d_39", 0, 0, {}]]], "config": {"beta_constraint": null, "epsilon": 0.001, "moving_variance_initializer": {"class_name": "Ones", "config": {}}, "momentum": 0.99, "moving_mean_initializer": {"class_name": "Zeros", "config": {}}, "gamma_regularizer": null, "beta_regularizer": null, "beta_initializer": {"class_name": "Zeros", "config": {}}, "name": "batch_normalization_39", "axis": 3, "trainable": true, "center": true, "scale": false, "gamma_initializer": {"class_name": "Ones", "config": {}}, "gamma_constraint": null}}, {"name": "batch_normalization_40", "class_name": "BatchNormalization", "inbound_nodes": [[["conv2d_40", 0, 0, {}]]], "config": {"beta_constraint": null, "epsilon": 0.001, "moving_variance_initializer": {"class_name": "Ones", "config": {}}, "momentum": 0.99, "moving_mean_initializer": {"class_name": "Zeros", "config": {}}, "gamma_regularizer": null, "beta_regularizer": null, "beta_initializer": {"class_name": "Zeros", "config": {}}, "name": "batch_normalization_40", "axis": 3, "trainable": true, "center": true, "scale": false, "gamma_initializer": {"class_name": "Ones", "config": {}}, "gamma_constraint": null}}, {"name": "activation_31", "class_name": "Activation", "inbound_nodes": [[["batch_normalization_31", 0, 0, {}]]], "config": {"name": "activation_31", "activation": "relu", "trainable": true}}, {"name": "activation_34", "class_name": "Activation", "inbound_nodes": [[["batch_normalization_34", 0, 0, {}]]], "config": {"name": "activation_34", "activation": "relu", "trainable": true}}, {"name": "activation_39", "class_name": "Activation", "inbound_nodes": [[["batch_normalization_39", 0, 0, {}]]], "config": {"name": "activation_39", "activation": "relu", "trainable": true}}, {"name": "activation_40", "class_name": "Activation", "inbound_nodes": [[["batch_normalization_40", 0, 0, {}]]], "config": {"name": "activation_40", "activation": "relu", "trainable": true}}, {"name": "mixed4", "class_name": "Concatenate", "inbound_nodes": [[["activation_31", 0, 0, {}], ["activation_34", 0, 0, {}], ["activation_39", 0, 0, {}], ["activation_40", 0, 0, {}]]], "config": {"axis": 3, "name": "mixed4", "trainable": true}}, {"name": "conv2d_45", "class_name": "Conv2D", "inbound_nodes": [[["mixed4", 0, 0, {}]]], "config": {"bias_initializer": {"class_name": "Zeros", "config": {}}, "use_bias": false, "kernel_constraint": null, "activation": "linear", "padding": "same", "name": "conv2d_45", "bias_regularizer": null, "filters": 160, "activity_regularizer": null, "kernel_size": [1, 1], "kernel_regularizer": null, "strides": [1, 1], "data_format": "channels_last", "bias_constraint": null, "trainable": true, "dilation_rate": [1, 1], "kernel_initializer": {"class_name": "VarianceScaling", "config": {"distribution": "uniform", "seed": null, "mode": "fan_avg", "scale": 1.0}}}}, {"name": "batch_normalization_45", "class_name": "BatchNormalization", "inbound_nodes": [[["conv2d_45", 0, 0, {}]]], "config": {"beta_constraint": null, "epsilon": 0.001, "moving_variance_initializer": {"class_name": "Ones", "config": {}}, "momentum": 0.99, "moving_mean_initializer": {"class_name": "Zeros", "config": {}}, "gamma_regularizer": null, "beta_regularizer": null, "beta_initializer": {"class_name": "Zeros", "config": {}}, "name": "batch_normalization_45", "axis": 3, "trainable": true, "center": true, "scale": false, "gamma_initializer": {"class_name": "Ones", "config": {}}, "gamma_constraint": null}}, {"name": "activation_45", "class_name": "Activation", "inbound_nodes": [[["batch_normalization_45", 0, 0, {}]]], "config": {"name": "activation_45", "activation": "relu", "trainable": true}}, {"name": "conv2d_46", "class_name": "Conv2D", "inbound_nodes": [[["activation_45", 0, 0, {}]]], "config": {"bias_initializer": {"class_name": "Zeros", "config": {}}, "use_bias": false, "kernel_constraint": null, "activation": "linear", "padding": "same", "name": "conv2d_46", "bias_regularizer": null, "filters": 160, "activity_regularizer": null, "kernel_size": [7, 1], "kernel_regularizer": null, "strides": [1, 1], "data_format": "channels_last", "bias_constraint": null, "trainable": true, "dilation_rate": [1, 1], "kernel_initializer": {"class_name": "VarianceScaling", "config": {"distribution": "uniform", "seed": null, "mode": "fan_avg", "scale": 1.0}}}}, {"name": "batch_normalization_46", "class_name": "BatchNormalization", "inbound_nodes": [[["conv2d_46", 0, 0, {}]]], "config": {"beta_constraint": null, "epsilon": 0.001, "moving_variance_initializer": {"class_name": "Ones", "config": {}}, "momentum": 0.99, "moving_mean_initializer": {"class_name": "Zeros", "config": {}}, "gamma_regularizer": null, "beta_regularizer": null, "beta_initializer": {"class_name": "Zeros", "config": {}}, "name": "batch_normalization_46", "axis": 3, "trainable": true, "center": true, "scale": false, "gamma_initializer": {"class_name": "Ones", "config": {}}, "gamma_constraint": null}}, {"name": "activation_46", "class_name": "Activation", "inbound_nodes": [[["batch_normalization_46", 0, 0, {}]]], "config": {"name": "activation_46", "activation": "relu", "trainable": true}}, {"name": "conv2d_42", "class_name": "Conv2D", "inbound_nodes": [[["mixed4", 0, 0, {}]]], "config": {"bias_initializer": {"class_name": "Zeros", "config": {}}, "use_bias": false, "kernel_constraint": null, "activation": "linear", "padding": "same", "name": "conv2d_42", "bias_regularizer": null, "filters": 160, "activity_regularizer": null, "kernel_size": [1, 1], "kernel_regularizer": null, "strides": [1, 1], "data_format": "channels_last", "bias_constraint": null, "trainable": true, "dilation_rate": [1, 1], "kernel_initializer": {"class_name": "VarianceScaling", "config": {"distribution": "uniform", "seed": null, "mode": "fan_avg", "scale": 1.0}}}}, {"name": "conv2d_47", "class_name": "Conv2D", "inbound_nodes": [[["activation_46", 0, 0, {}]]], "config": {"bias_initializer": {"class_name": "Zeros", "config": {}}, "use_bias": false, "kernel_constraint": null, "activation": "linear", "padding": "same", "name": "conv2d_47", "bias_regularizer": null, "filters": 160, "activity_regularizer": null, "kernel_size": [1, 7], "kernel_regularizer": null, "strides": [1, 1], "data_format": "channels_last", "bias_constraint": null, "trainable": true, "dilation_rate": [1, 1], "kernel_initializer": {"class_name": "VarianceScaling", "config": {"distribution": "uniform", "seed": null, "mode": "fan_avg", "scale": 1.0}}}}, {"name": "batch_normalization_42", "class_name": "BatchNormalization", "inbound_nodes": [[["conv2d_42", 0, 0, {}]]], "config": {"beta_constraint": null, "epsilon": 0.001, "moving_variance_initializer": {"class_name": "Ones", "config": {}}, "momentum": 0.99, "moving_mean_initializer": {"class_name": "Zeros", "config": {}}, "gamma_regularizer": null, "beta_regularizer": null, "beta_initializer": {"class_name": "Zeros", "config": {}}, "name": "batch_normalization_42", "axis": 3, "trainable": true, "center": true, "scale": false, "gamma_initializer": {"class_name": "Ones", "config": {}}, "gamma_constraint": null}}, {"name": "batch_normalization_47", "class_name": "BatchNormalization", "inbound_nodes": [[["conv2d_47", 0, 0, {}]]], "config": {"beta_constraint": null, "epsilon": 0.001, "moving_variance_initializer": {"class_name": "Ones", "config": {}}, "momentum": 0.99, "moving_mean_initializer": {"class_name": "Zeros", "config": {}}, "gamma_regularizer": null, "beta_regularizer": null, "beta_initializer": {"class_name": "Zeros", "config": {}}, "name": "batch_normalization_47", "axis": 3, "trainable": true, "center": true, "scale": false, "gamma_initializer": {"class_name": "Ones", "config": {}}, "gamma_constraint": null}}, {"name": "activation_42", "class_name": "Activation", "inbound_nodes": [[["batch_normalization_42", 0, 0, {}]]], "config": {"name": "activation_42", "activation": "relu", "trainable": true}}, {"name": "activation_47", "class_name": "Activation", "inbound_nodes": [[["batch_normalization_47", 0, 0, {}]]], "config": {"name": "activation_47", "activation": "relu", "trainable": true}}, {"name": "conv2d_43", "class_name": "Conv2D", "inbound_nodes": [[["activation_42", 0, 0, {}]]], "config": {"bias_initializer": {"class_name": "Zeros", "config": {}}, "use_bias": false, "kernel_constraint": null, "activation": "linear", "padding": "same", "name": "conv2d_43", "bias_regularizer": null, "filters": 160, "activity_regularizer": null, "kernel_size": [1, 7], "kernel_regularizer": null, "strides": [1, 1], "data_format": "channels_last", "bias_constraint": null, "trainable": true, "dilation_rate": [1, 1], "kernel_initializer": {"class_name": "VarianceScaling", "config": {"distribution": "uniform", "seed": null, "mode": "fan_avg", "scale": 1.0}}}}, {"name": "conv2d_48", "class_name": "Conv2D", "inbound_nodes": [[["activation_47", 0, 0, {}]]], "config": {"bias_initializer": {"class_name": "Zeros", "config": {}}, "use_bias": false, "kernel_constraint": null, "activation": "linear", "padding": "same", "name": "conv2d_48", "bias_regularizer": null, "filters": 160, "activity_regularizer": null, "kernel_size": [7, 1], "kernel_regularizer": null, "strides": [1, 1], "data_format": "channels_last", "bias_constraint": null, "trainable": true, "dilation_rate": [1, 1], "kernel_initializer": {"class_name": "VarianceScaling", "config": {"distribution": "uniform", "seed": null, "mode": "fan_avg", "scale": 1.0}}}}, {"name": "batch_normalization_43", "class_name": "BatchNormalization", "inbound_nodes": [[["conv2d_43", 0, 0, {}]]], "config": {"beta_constraint": null, "epsilon": 0.001, "moving_variance_initializer": {"class_name": "Ones", "config": {}}, "momentum": 0.99, "moving_mean_initializer": {"class_name": "Zeros", "config": {}}, "gamma_regularizer": null, "beta_regularizer": null, "beta_initializer": {"class_name": "Zeros", "config": {}}, "name": "batch_normalization_43", "axis": 3, "trainable": true, "center": true, "scale": false, "gamma_initializer": {"class_name": "Ones", "config": {}}, "gamma_constraint": null}}, {"name": "batch_normalization_48", "class_name": "BatchNormalization", "inbound_nodes": [[["conv2d_48", 0, 0, {}]]], "config": {"beta_constraint": null, "epsilon": 0.001, "moving_variance_initializer": {"class_name": "Ones", "config": {}}, "momentum": 0.99, "moving_mean_initializer": {"class_name": "Zeros", "config": {}}, "gamma_regularizer": null, "beta_regularizer": null, "beta_initializer": {"class_name": "Zeros", "config": {}}, "name": "batch_normalization_48", "axis": 3, "trainable": true, "center": true, "scale": false, "gamma_initializer": {"class_name": "Ones", "config": {}}, "gamma_constraint": null}}, {"name": "activation_43", "class_name": "Activation", "inbound_nodes": [[["batch_normalization_43", 0, 0, {}]]], "config": {"name": "activation_43", "activation": "relu", "trainable": true}}, {"name": "activation_48", "class_name": "Activation", "inbound_nodes": [[["batch_normalization_48", 0, 0, {}]]], "config": {"name": "activation_48", "activation": "relu", "trainable": true}}, {"name": "average_pooling2d_5", "class_name": "AveragePooling2D", "inbound_nodes": [[["mixed4", 0, 0, {}]]], "config": {"pool_size": [3, 3], "strides": [1, 1], "data_format": "channels_last", "name": "average_pooling2d_5", "padding": "same", "trainable": true}}, {"name": "conv2d_41", "class_name": "Conv2D", "inbound_nodes": [[["mixed4", 0, 0, {}]]], "config": {"bias_initializer": {"class_name": "Zeros", "config": {}}, "use_bias": false, "kernel_constraint": null, "activation": "linear", "padding": "same", "name": "conv2d_41", "bias_regularizer": null, "filters": 192, "activity_regularizer": null, "kernel_size": [1, 1], "kernel_regularizer": null, "strides": [1, 1], "data_format": "channels_last", "bias_constraint": null, "trainable": true, "dilation_rate": [1, 1], "kernel_initializer": {"class_name": "VarianceScaling", "config": {"distribution": "uniform", "seed": null, "mode": "fan_avg", "scale": 1.0}}}}, {"name": "conv2d_44", "class_name": "Conv2D", "inbound_nodes": [[["activation_43", 0, 0, {}]]], "config": {"bias_initializer": {"class_name": "Zeros", "config": {}}, "use_bias": false, "kernel_constraint": null, "activation": "linear", "padding": "same", "name": "conv2d_44", "bias_regularizer": null, "filters": 192, "activity_regularizer": null, "kernel_size": [7, 1], "kernel_regularizer": null, "strides": [1, 1], "data_format": "channels_last", "bias_constraint": null, "trainable": true, "dilation_rate": [1, 1], "kernel_initializer": {"class_name": "VarianceScaling", "config": {"distribution": "uniform", "seed": null, "mode": "fan_avg", "scale": 1.0}}}}, {"name": "conv2d_49", "class_name": "Conv2D", "inbound_nodes": [[["activation_48", 0, 0, {}]]], "config": {"bias_initializer": {"class_name": "Zeros", "config": {}}, "use_bias": false, "kernel_constraint": null, "activation": "linear", "padding": "same", "name": "conv2d_49", "bias_regularizer": null, "filters": 192, "activity_regularizer": null, "kernel_size": [1, 7], "kernel_regularizer": null, "strides": [1, 1], "data_format": "channels_last", "bias_constraint": null, "trainable": true, "dilation_rate": [1, 1], "kernel_initializer": {"class_name": "VarianceScaling", "config": {"distribution": "uniform", "seed": null, "mode": "fan_avg", "scale": 1.0}}}}, {"name": "conv2d_50", "class_name": "Conv2D", "inbound_nodes": [[["average_pooling2d_5", 0, 0, {}]]], "config": {"bias_initializer": {"class_name": "Zeros", "config": {}}, "use_bias": false, "kernel_constraint": null, "activation": "linear", "padding": "same", "name": "conv2d_50", "bias_regularizer": null, "filters": 192, "activity_regularizer": null, "kernel_size": [1, 1], "kernel_regularizer": null, "strides": [1, 1], "data_format": "channels_last", "bias_constraint": null, "trainable": true, "dilation_rate": [1, 1], "kernel_initializer": {"class_name": "VarianceScaling", "config": {"distribution": "uniform", "seed": null, "mode": "fan_avg", "scale": 1.0}}}}, {"name": "batch_normalization_41", "class_name": "BatchNormalization", "inbound_nodes": [[["conv2d_41", 0, 0, {}]]], "config": {"beta_constraint": null, "epsilon": 0.001, "moving_variance_initializer": {"class_name": "Ones", "config": {}}, "momentum": 0.99, "moving_mean_initializer": {"class_name": "Zeros", "config": {}}, "gamma_regularizer": null, "beta_regularizer": null, "beta_initializer": {"class_name": "Zeros", "config": {}}, "name": "batch_normalization_41", "axis": 3, "trainable": true, "center": true, "scale": false, "gamma_initializer": {"class_name": "Ones", "config": {}}, "gamma_constraint": null}}, {"name": "batch_normalization_44", "class_name": "BatchNormalization", "inbound_nodes": [[["conv2d_44", 0, 0, {}]]], "config": {"beta_constraint": null, "epsilon": 0.001, "moving_variance_initializer": {"class_name": "Ones", "config": {}}, "momentum": 0.99, "moving_mean_initializer": {"class_name": "Zeros", "config": {}}, "gamma_regularizer": null, "beta_regularizer": null, "beta_initializer": {"class_name": "Zeros", "config": {}}, "name": "batch_normalization_44", "axis": 3, "trainable": true, "center": true, "scale": false, "gamma_initializer": {"class_name": "Ones", "config": {}}, "gamma_constraint": null}}, {"name": "batch_normalization_49", "class_name": "BatchNormalization", "inbound_nodes": [[["conv2d_49", 0, 0, {}]]], "config": {"beta_constraint": null, "epsilon": 0.001, "moving_variance_initializer": {"class_name": "Ones", "config": {}}, "momentum": 0.99, "moving_mean_initializer": {"class_name": "Zeros", "config": {}}, "gamma_regularizer": null, "beta_regularizer": null, "beta_initializer": {"class_name": "Zeros", "config": {}}, "name": "batch_normalization_49", "axis": 3, "trainable": true, "center": true, "scale": false, "gamma_initializer": {"class_name": "Ones", "config": {}}, "gamma_constraint": null}}, {"name": "batch_normalization_50", "class_name": "BatchNormalization", "inbound_nodes": [[["conv2d_50", 0, 0, {}]]], "config": {"beta_constraint": null, "epsilon": 0.001, "moving_variance_initializer": {"class_name": "Ones", "config": {}}, "momentum": 0.99, "moving_mean_initializer": {"class_name": "Zeros", "config": {}}, "gamma_regularizer": null, "beta_regularizer": null, "beta_initializer": {"class_name": "Zeros", "config": {}}, "name": "batch_normalization_50", "axis": 3, "trainable": true, "center": true, "scale": false, "gamma_initializer": {"class_name": "Ones", "config": {}}, "gamma_constraint": null}}, {"name": "activation_41", "class_name": "Activation", "inbound_nodes": [[["batch_normalization_41", 0, 0, {}]]], "config": {"name": "activation_41", "activation": "relu", "trainable": true}}, {"name": "activation_44", "class_name": "Activation", "inbound_nodes": [[["batch_normalization_44", 0, 0, {}]]], "config": {"name": "activation_44", "activation": "relu", "trainable": true}}, {"name": "activation_49", "class_name": "Activation", "inbound_nodes": [[["batch_normalization_49", 0, 0, {}]]], "config": {"name": "activation_49", "activation": "relu", "trainable": true}}, {"name": "activation_50", "class_name": "Activation", "inbound_nodes": [[["batch_normalization_50", 0, 0, {}]]], "config": {"name": "activation_50", "activation": "relu", "trainable": true}}, {"name": "mixed5", "class_name": "Concatenate", "inbound_nodes": [[["activation_41", 0, 0, {}], ["activation_44", 0, 0, {}], ["activation_49", 0, 0, {}], ["activation_50", 0, 0, {}]]], "config": {"axis": 3, "name": "mixed5", "trainable": true}}, {"name": "conv2d_55", "class_name": "Conv2D", "inbound_nodes": [[["mixed5", 0, 0, {}]]], "config": {"bias_initializer": {"class_name": "Zeros", "config": {}}, "use_bias": false, "kernel_constraint": null, "activation": "linear", "padding": "same", "name": "conv2d_55", "bias_regularizer": null, "filters": 160, "activity_regularizer": null, "kernel_size": [1, 1], "kernel_regularizer": null, "strides": [1, 1], "data_format": "channels_last", "bias_constraint": null, "trainable": true, "dilation_rate": [1, 1], "kernel_initializer": {"class_name": "VarianceScaling", "config": {"distribution": "uniform", "seed": null, "mode": "fan_avg", "scale": 1.0}}}}, {"name": "batch_normalization_55", "class_name": "BatchNormalization", "inbound_nodes": [[["conv2d_55", 0, 0, {}]]], "config": {"beta_constraint": null, "epsilon": 0.001, "moving_variance_initializer": {"class_name": "Ones", "config": {}}, "momentum": 0.99, "moving_mean_initializer": {"class_name": "Zeros", "config": {}}, "gamma_regularizer": null, "beta_regularizer": null, "beta_initializer": {"class_name": "Zeros", "config": {}}, "name": "batch_normalization_55", "axis": 3, "trainable": true, "center": true, "scale": false, "gamma_initializer": {"class_name": "Ones", "config": {}}, "gamma_constraint": null}}, {"name": "activation_55", "class_name": "Activation", "inbound_nodes": [[["batch_normalization_55", 0, 0, {}]]], "config": {"name": "activation_55", "activation": "relu", "trainable": true}}, {"name": "conv2d_56", "class_name": "Conv2D", "inbound_nodes": [[["activation_55", 0, 0, {}]]], "config": {"bias_initializer": {"class_name": "Zeros", "config": {}}, "use_bias": false, "kernel_constraint": null, "activation": "linear", "padding": "same", "name": "conv2d_56", "bias_regularizer": null, "filters": 160, "activity_regularizer": null, "kernel_size": [7, 1], "kernel_regularizer": null, "strides": [1, 1], "data_format": "channels_last", "bias_constraint": null, "trainable": true, "dilation_rate": [1, 1], "kernel_initializer": {"class_name": "VarianceScaling", "config": {"distribution": "uniform", "seed": null, "mode": "fan_avg", "scale": 1.0}}}}, {"name": "batch_normalization_56", "class_name": "BatchNormalization", "inbound_nodes": [[["conv2d_56", 0, 0, {}]]], "config": {"beta_constraint": null, "epsilon": 0.001, "moving_variance_initializer": {"class_name": "Ones", "config": {}}, "momentum": 0.99, "moving_mean_initializer": {"class_name": "Zeros", "config": {}}, "gamma_regularizer": null, "beta_regularizer": null, "beta_initializer": {"class_name": "Zeros", "config": {}}, "name": "batch_normalization_56", "axis": 3, "trainable": true, "center": true, "scale": false, "gamma_initializer": {"class_name": "Ones", "config": {}}, "gamma_constraint": null}}, {"name": "activation_56", "class_name": "Activation", "inbound_nodes": [[["batch_normalization_56", 0, 0, {}]]], "config": {"name": "activation_56", "activation": "relu", "trainable": true}}, {"name": "conv2d_52", "class_name": "Conv2D", "inbound_nodes": [[["mixed5", 0, 0, {}]]], "config": {"bias_initializer": {"class_name": "Zeros", "config": {}}, "use_bias": false, "kernel_constraint": null, "activation": "linear", "padding": "same", "name": "conv2d_52", "bias_regularizer": null, "filters": 160, "activity_regularizer": null, "kernel_size": [1, 1], "kernel_regularizer": null, "strides": [1, 1], "data_format": "channels_last", "bias_constraint": null, "trainable": true, "dilation_rate": [1, 1], "kernel_initializer": {"class_name": "VarianceScaling", "config": {"distribution": "uniform", "seed": null, "mode": "fan_avg", "scale": 1.0}}}}, {"name": "conv2d_57", "class_name": "Conv2D", "inbound_nodes": [[["activation_56", 0, 0, {}]]], "config": {"bias_initializer": {"class_name": "Zeros", "config": {}}, "use_bias": false, "kernel_constraint": null, "activation": "linear", "padding": "same", "name": "conv2d_57", "bias_regularizer": null, "filters": 160, "activity_regularizer": null, "kernel_size": [1, 7], "kernel_regularizer": null, "strides": [1, 1], "data_format": "channels_last", "bias_constraint": null, "trainable": true, "dilation_rate": [1, 1], "kernel_initializer": {"class_name": "VarianceScaling", "config": {"distribution": "uniform", "seed": null, "mode": "fan_avg", "scale": 1.0}}}}, {"name": "batch_normalization_52", "class_name": "BatchNormalization", "inbound_nodes": [[["conv2d_52", 0, 0, {}]]], "config": {"beta_constraint": null, "epsilon": 0.001, "moving_variance_initializer": {"class_name": "Ones", "config": {}}, "momentum": 0.99, "moving_mean_initializer": {"class_name": "Zeros", "config": {}}, "gamma_regularizer": null, "beta_regularizer": null, "beta_initializer": {"class_name": "Zeros", "config": {}}, "name": "batch_normalization_52", "axis": 3, "trainable": true, "center": true, "scale": false, "gamma_initializer": {"class_name": "Ones", "config": {}}, "gamma_constraint": null}}, {"name": "batch_normalization_57", "class_name": "BatchNormalization", "inbound_nodes": [[["conv2d_57", 0, 0, {}]]], "config": {"beta_constraint": null, "epsilon": 0.001, "moving_variance_initializer": {"class_name": "Ones", "config": {}}, "momentum": 0.99, "moving_mean_initializer": {"class_name": "Zeros", "config": {}}, "gamma_regularizer": null, "beta_regularizer": null, "beta_initializer": {"class_name": "Zeros", "config": {}}, "name": "batch_normalization_57", "axis": 3, "trainable": true, "center": true, "scale": false, "gamma_initializer": {"class_name": "Ones", "config": {}}, "gamma_constraint": null}}, {"name": "activation_52", "class_name": "Activation", "inbound_nodes": [[["batch_normalization_52", 0, 0, {}]]], "config": {"name": "activation_52", "activation": "relu", "trainable": true}}, {"name": "activation_57", "class_name": "Activation", "inbound_nodes": [[["batch_normalization_57", 0, 0, {}]]], "config": {"name": "activation_57", "activation": "relu", "trainable": true}}, {"name": "conv2d_53", "class_name": "Conv2D", "inbound_nodes": [[["activation_52", 0, 0, {}]]], "config": {"bias_initializer": {"class_name": "Zeros", "config": {}}, "use_bias": false, "kernel_constraint": null, "activation": "linear", "padding": "same", "name": "conv2d_53", "bias_regularizer": null, "filters": 160, "activity_regularizer": null, "kernel_size": [1, 7], "kernel_regularizer": null, "strides": [1, 1], "data_format": "channels_last", "bias_constraint": null, "trainable": true, "dilation_rate": [1, 1], "kernel_initializer": {"class_name": "VarianceScaling", "config": {"distribution": "uniform", "seed": null, "mode": "fan_avg", "scale": 1.0}}}}, {"name": "conv2d_58", "class_name": "Conv2D", "inbound_nodes": [[["activation_57", 0, 0, {}]]], "config": {"bias_initializer": {"class_name": "Zeros", "config": {}}, "use_bias": false, "kernel_constraint": null, "activation": "linear", "padding": "same", "name": "conv2d_58", "bias_regularizer": null, "filters": 160, "activity_regularizer": null, "kernel_size": [7, 1], "kernel_regularizer": null, "strides": [1, 1], "data_format": "channels_last", "bias_constraint": null, "trainable": true, "dilation_rate": [1, 1], "kernel_initializer": {"class_name": "VarianceScaling", "config": {"distribution": "uniform", "seed": null, "mode": "fan_avg", "scale": 1.0}}}}, {"name": "batch_normalization_53", "class_name": "BatchNormalization", "inbound_nodes": [[["conv2d_53", 0, 0, {}]]], "config": {"beta_constraint": null, "epsilon": 0.001, "moving_variance_initializer": {"class_name": "Ones", "config": {}}, "momentum": 0.99, "moving_mean_initializer": {"class_name": "Zeros", "config": {}}, "gamma_regularizer": null, "beta_regularizer": null, "beta_initializer": {"class_name": "Zeros", "config": {}}, "name": "batch_normalization_53", "axis": 3, "trainable": true, "center": true, "scale": false, "gamma_initializer": {"class_name": "Ones", "config": {}}, "gamma_constraint": null}}, {"name": "batch_normalization_58", "class_name": "BatchNormalization", "inbound_nodes": [[["conv2d_58", 0, 0, {}]]], "config": {"beta_constraint": null, "epsilon": 0.001, "moving_variance_initializer": {"class_name": "Ones", "config": {}}, "momentum": 0.99, "moving_mean_initializer": {"class_name": "Zeros", "config": {}}, "gamma_regularizer": null, "beta_regularizer": null, "beta_initializer": {"class_name": "Zeros", "config": {}}, "name": "batch_normalization_58", "axis": 3, "trainable": true, "center": true, "scale": false, "gamma_initializer": {"class_name": "Ones", "config": {}}, "gamma_constraint": null}}, {"name": "activation_53", "class_name": "Activation", "inbound_nodes": [[["batch_normalization_53", 0, 0, {}]]], "config": {"name": "activation_53", "activation": "relu", "trainable": true}}, {"name": "activation_58", "class_name": "Activation", "inbound_nodes": [[["batch_normalization_58", 0, 0, {}]]], "config": {"name": "activation_58", "activation": "relu", "trainable": true}}, {"name": "average_pooling2d_6", "class_name": "AveragePooling2D", "inbound_nodes": [[["mixed5", 0, 0, {}]]], "config": {"pool_size": [3, 3], "strides": [1, 1], "data_format": "channels_last", "name": "average_pooling2d_6", "padding": "same", "trainable": true}}, {"name": "conv2d_51", "class_name": "Conv2D", "inbound_nodes": [[["mixed5", 0, 0, {}]]], "config": {"bias_initializer": {"class_name": "Zeros", "config": {}}, "use_bias": false, "kernel_constraint": null, "activation": "linear", "padding": "same", "name": "conv2d_51", "bias_regularizer": null, "filters": 192, "activity_regularizer": null, "kernel_size": [1, 1], "kernel_regularizer": null, "strides": [1, 1], "data_format": "channels_last", "bias_constraint": null, "trainable": true, "dilation_rate": [1, 1], "kernel_initializer": {"class_name": "VarianceScaling", "config": {"distribution": "uniform", "seed": null, "mode": "fan_avg", "scale": 1.0}}}}, {"name": "conv2d_54", "class_name": "Conv2D", "inbound_nodes": [[["activation_53", 0, 0, {}]]], "config": {"bias_initializer": {"class_name": "Zeros", "config": {}}, "use_bias": false, "kernel_constraint": null, "activation": "linear", "padding": "same", "name": "conv2d_54", "bias_regularizer": null, "filters": 192, "activity_regularizer": null, "kernel_size": [7, 1], "kernel_regularizer": null, "strides": [1, 1], "data_format": "channels_last", "bias_constraint": null, "trainable": true, "dilation_rate": [1, 1], "kernel_initializer": {"class_name": "VarianceScaling", "config": {"distribution": "uniform", "seed": null, "mode": "fan_avg", "scale": 1.0}}}}, {"name": "conv2d_59", "class_name": "Conv2D", "inbound_nodes": [[["activation_58", 0, 0, {}]]], "config": {"bias_initializer": {"class_name": "Zeros", "config": {}}, "use_bias": false, "kernel_constraint": null, "activation": "linear", "padding": "same", "name": "conv2d_59", "bias_regularizer": null, "filters": 192, "activity_regularizer": null, "kernel_size": [1, 7], "kernel_regularizer": null, "strides": [1, 1], "data_format": "channels_last", "bias_constraint": null, "trainable": true, "dilation_rate": [1, 1], "kernel_initializer": {"class_name": "VarianceScaling", "config": {"distribution": "uniform", "seed": null, "mode": "fan_avg", "scale": 1.0}}}}, {"name": "conv2d_60", "class_name": "Conv2D", "inbound_nodes": [[["average_pooling2d_6", 0, 0, {}]]], "config": {"bias_initializer": {"class_name": "Zeros", "config": {}}, "use_bias": false, "kernel_constraint": null, "activation": "linear", "padding": "same", "name": "conv2d_60", "bias_regularizer": null, "filters": 192, "activity_regularizer": null, "kernel_size": [1, 1], "kernel_regularizer": null, "strides": [1, 1], "data_format": "channels_last", "bias_constraint": null, "trainable": true, "dilation_rate": [1, 1], "kernel_initializer": {"class_name": "VarianceScaling", "config": {"distribution": "uniform", "seed": null, "mode": "fan_avg", "scale": 1.0}}}}, {"name": "batch_normalization_51", "class_name": "BatchNormalization", "inbound_nodes": [[["conv2d_51", 0, 0, {}]]], "config": {"beta_constraint": null, "epsilon": 0.001, "moving_variance_initializer": {"class_name": "Ones", "config": {}}, "momentum": 0.99, "moving_mean_initializer": {"class_name": "Zeros", "config": {}}, "gamma_regularizer": null, "beta_regularizer": null, "beta_initializer": {"class_name": "Zeros", "config": {}}, "name": "batch_normalization_51", "axis": 3, "trainable": true, "center": true, "scale": false, "gamma_initializer": {"class_name": "Ones", "config": {}}, "gamma_constraint": null}}, {"name": "batch_normalization_54", "class_name": "BatchNormalization", "inbound_nodes": [[["conv2d_54", 0, 0, {}]]], "config": {"beta_constraint": null, "epsilon": 0.001, "moving_variance_initializer": {"class_name": "Ones", "config": {}}, "momentum": 0.99, "moving_mean_initializer": {"class_name": "Zeros", "config": {}}, "gamma_regularizer": null, "beta_regularizer": null, "beta_initializer": {"class_name": "Zeros", "config": {}}, "name": "batch_normalization_54", "axis": 3, "trainable": true, "center": true, "scale": false, "gamma_initializer": {"class_name": "Ones", "config": {}}, "gamma_constraint": null}}, {"name": "batch_normalization_59", "class_name": "BatchNormalization", "inbound_nodes": [[["conv2d_59", 0, 0, {}]]], "config": {"beta_constraint": null, "epsilon": 0.001, "moving_variance_initializer": {"class_name": "Ones", "config": {}}, "momentum": 0.99, "moving_mean_initializer": {"class_name": "Zeros", "config": {}}, "gamma_regularizer": null, "beta_regularizer": null, "beta_initializer": {"class_name": "Zeros", "config": {}}, "name": "batch_normalization_59", "axis": 3, "trainable": true, "center": true, "scale": false, "gamma_initializer": {"class_name": "Ones", "config": {}}, "gamma_constraint": null}}, {"name": "batch_normalization_60", "class_name": "BatchNormalization", "inbound_nodes": [[["conv2d_60", 0, 0, {}]]], "config": {"beta_constraint": null, "epsilon": 0.001, "moving_variance_initializer": {"class_name": "Ones", "config": {}}, "momentum": 0.99, "moving_mean_initializer": {"class_name": "Zeros", "config": {}}, "gamma_regularizer": null, "beta_regularizer": null, "beta_initializer": {"class_name": "Zeros", "config": {}}, "name": "batch_normalization_60", "axis": 3, "trainable": true, "center": true, "scale": false, "gamma_initializer": {"class_name": "Ones", "config": {}}, "gamma_constraint": null}}, {"name": "activation_51", "class_name": "Activation", "inbound_nodes": [[["batch_normalization_51", 0, 0, {}]]], "config": {"name": "activation_51", "activation": "relu", "trainable": true}}, {"name": "activation_54", "class_name": "Activation", "inbound_nodes": [[["batch_normalization_54", 0, 0, {}]]], "config": {"name": "activation_54", "activation": "relu", "trainable": true}}, {"name": "activation_59", "class_name": "Activation", "inbound_nodes": [[["batch_normalization_59", 0, 0, {}]]], "config": {"name": "activation_59", "activation": "relu", "trainable": true}}, {"name": "activation_60", "class_name": "Activation", "inbound_nodes": [[["batch_normalization_60", 0, 0, {}]]], "config": {"name": "activation_60", "activation": "relu", "trainable": true}}, {"name": "mixed6", "class_name": "Concatenate", "inbound_nodes": [[["activation_51", 0, 0, {}], ["activation_54", 0, 0, {}], ["activation_59", 0, 0, {}], ["activation_60", 0, 0, {}]]], "config": {"axis": 3, "name": "mixed6", "trainable": true}}, {"name": "conv2d_65", "class_name": "Conv2D", "inbound_nodes": [[["mixed6", 0, 0, {}]]], "config": {"bias_initializer": {"class_name": "Zeros", "config": {}}, "use_bias": false, "kernel_constraint": null, "activation": "linear", "padding": "same", "name": "conv2d_65", "bias_regularizer": null, "filters": 192, "activity_regularizer": null, "kernel_size": [1, 1], "kernel_regularizer": null, "strides": [1, 1], "data_format": "channels_last", "bias_constraint": null, "trainable": true, "dilation_rate": [1, 1], "kernel_initializer": {"class_name": "VarianceScaling", "config": {"distribution": "uniform", "seed": null, "mode": "fan_avg", "scale": 1.0}}}}, {"name": "batch_normalization_65", "class_name": "BatchNormalization", "inbound_nodes": [[["conv2d_65", 0, 0, {}]]], "config": {"beta_constraint": null, "epsilon": 0.001, "moving_variance_initializer": {"class_name": "Ones", "config": {}}, "momentum": 0.99, "moving_mean_initializer": {"class_name": "Zeros", "config": {}}, "gamma_regularizer": null, "beta_regularizer": null, "beta_initializer": {"class_name": "Zeros", "config": {}}, "name": "batch_normalization_65", "axis": 3, "trainable": true, "center": true, "scale": false, "gamma_initializer": {"class_name": "Ones", "config": {}}, "gamma_constraint": null}}, {"name": "activation_65", "class_name": "Activation", "inbound_nodes": [[["batch_normalization_65", 0, 0, {}]]], "config": {"name": "activation_65", "activation": "relu", "trainable": true}}, {"name": "conv2d_66", "class_name": "Conv2D", "inbound_nodes": [[["activation_65", 0, 0, {}]]], "config": {"bias_initializer": {"class_name": "Zeros", "config": {}}, "use_bias": false, "kernel_constraint": null, "activation": "linear", "padding": "same", "name": "conv2d_66", "bias_regularizer": null, "filters": 192, "activity_regularizer": null, "kernel_size": [7, 1], "kernel_regularizer": null, "strides": [1, 1], "data_format": "channels_last", "bias_constraint": null, "trainable": true, "dilation_rate": [1, 1], "kernel_initializer": {"class_name": "VarianceScaling", "config": {"distribution": "uniform", "seed": null, "mode": "fan_avg", "scale": 1.0}}}}, {"name": "batch_normalization_66", "class_name": "BatchNormalization", "inbound_nodes": [[["conv2d_66", 0, 0, {}]]], "config": {"beta_constraint": null, "epsilon": 0.001, "moving_variance_initializer": {"class_name": "Ones", "config": {}}, "momentum": 0.99, "moving_mean_initializer": {"class_name": "Zeros", "config": {}}, "gamma_regularizer": null, "beta_regularizer": null, "beta_initializer": {"class_name": "Zeros", "config": {}}, "name": "batch_normalization_66", "axis": 3, "trainable": true, "center": true, "scale": false, "gamma_initializer": {"class_name": "Ones", "config": {}}, "gamma_constraint": null}}, {"name": "activation_66", "class_name": "Activation", "inbound_nodes": [[["batch_normalization_66", 0, 0, {}]]], "config": {"name": "activation_66", "activation": "relu", "trainable": true}}, {"name": "conv2d_62", "class_name": "Conv2D", "inbound_nodes": [[["mixed6", 0, 0, {}]]], "config": {"bias_initializer": {"class_name": "Zeros", "config": {}}, "use_bias": false, "kernel_constraint": null, "activation": "linear", "padding": "same", "name": "conv2d_62", "bias_regularizer": null, "filters": 192, "activity_regularizer": null, "kernel_size": [1, 1], "kernel_regularizer": null, "strides": [1, 1], "data_format": "channels_last", "bias_constraint": null, "trainable": true, "dilation_rate": [1, 1], "kernel_initializer": {"class_name": "VarianceScaling", "config": {"distribution": "uniform", "seed": null, "mode": "fan_avg", "scale": 1.0}}}}, {"name": "conv2d_67", "class_name": "Conv2D", "inbound_nodes": [[["activation_66", 0, 0, {}]]], "config": {"bias_initializer": {"class_name": "Zeros", "config": {}}, "use_bias": false, "kernel_constraint": null, "activation": "linear", "padding": "same", "name": "conv2d_67", "bias_regularizer": null, "filters": 192, "activity_regularizer": null, "kernel_size": [1, 7], "kernel_regularizer": null, "strides": [1, 1], "data_format": "channels_last", "bias_constraint": null, "trainable": true, "dilation_rate": [1, 1], "kernel_initializer": {"class_name": "VarianceScaling", "config": {"distribution": "uniform", "seed": null, "mode": "fan_avg", "scale": 1.0}}}}, {"name": "batch_normalization_62", "class_name": "BatchNormalization", "inbound_nodes": [[["conv2d_62", 0, 0, {}]]], "config": {"beta_constraint": null, "epsilon": 0.001, "moving_variance_initializer": {"class_name": "Ones", "config": {}}, "momentum": 0.99, "moving_mean_initializer": {"class_name": "Zeros", "config": {}}, "gamma_regularizer": null, "beta_regularizer": null, "beta_initializer": {"class_name": "Zeros", "config": {}}, "name": "batch_normalization_62", "axis": 3, "trainable": true, "center": true, "scale": false, "gamma_initializer": {"class_name": "Ones", "config": {}}, "gamma_constraint": null}}, {"name": "batch_normalization_67", "class_name": "BatchNormalization", "inbound_nodes": [[["conv2d_67", 0, 0, {}]]], "config": {"beta_constraint": null, "epsilon": 0.001, "moving_variance_initializer": {"class_name": "Ones", "config": {}}, "momentum": 0.99, "moving_mean_initializer": {"class_name": "Zeros", "config": {}}, "gamma_regularizer": null, "beta_regularizer": null, "beta_initializer": {"class_name": "Zeros", "config": {}}, "name": "batch_normalization_67", "axis": 3, "trainable": true, "center": true, "scale": false, "gamma_initializer": {"class_name": "Ones", "config": {}}, "gamma_constraint": null}}, {"name": "activation_62", "class_name": "Activation", "inbound_nodes": [[["batch_normalization_62", 0, 0, {}]]], "config": {"name": "activation_62", "activation": "relu", "trainable": true}}, {"name": "activation_67", "class_name": "Activation", "inbound_nodes": [[["batch_normalization_67", 0, 0, {}]]], "config": {"name": "activation_67", "activation": "relu", "trainable": true}}, {"name": "conv2d_63", "class_name": "Conv2D", "inbound_nodes": [[["activation_62", 0, 0, {}]]], "config": {"bias_initializer": {"class_name": "Zeros", "config": {}}, "use_bias": false, "kernel_constraint": null, "activation": "linear", "padding": "same", "name": "conv2d_63", "bias_regularizer": null, "filters": 192, "activity_regularizer": null, "kernel_size": [1, 7], "kernel_regularizer": null, "strides": [1, 1], "data_format": "channels_last", "bias_constraint": null, "trainable": true, "dilation_rate": [1, 1], "kernel_initializer": {"class_name": "VarianceScaling", "config": {"distribution": "uniform", "seed": null, "mode": "fan_avg", "scale": 1.0}}}}, {"name": "conv2d_68", "class_name": "Conv2D", "inbound_nodes": [[["activation_67", 0, 0, {}]]], "config": {"bias_initializer": {"class_name": "Zeros", "config": {}}, "use_bias": false, "kernel_constraint": null, "activation": "linear", "padding": "same", "name": "conv2d_68", "bias_regularizer": null, "filters": 192, "activity_regularizer": null, "kernel_size": [7, 1], "kernel_regularizer": null, "strides": [1, 1], "data_format": "channels_last", "bias_constraint": null, "trainable": true, "dilation_rate": [1, 1], "kernel_initializer": {"class_name": "VarianceScaling", "config": {"distribution": "uniform", "seed": null, "mode": "fan_avg", "scale": 1.0}}}}, {"name": "batch_normalization_63", "class_name": "BatchNormalization", "inbound_nodes": [[["conv2d_63", 0, 0, {}]]], "config": {"beta_constraint": null, "epsilon": 0.001, "moving_variance_initializer": {"class_name": "Ones", "config": {}}, "momentum": 0.99, "moving_mean_initializer": {"class_name": "Zeros", "config": {}}, "gamma_regularizer": null, "beta_regularizer": null, "beta_initializer": {"class_name": "Zeros", "config": {}}, "name": "batch_normalization_63", "axis": 3, "trainable": true, "center": true, "scale": false, "gamma_initializer": {"class_name": "Ones", "config": {}}, "gamma_constraint": null}}, {"name": "batch_normalization_68", "class_name": "BatchNormalization", "inbound_nodes": [[["conv2d_68", 0, 0, {}]]], "config": {"beta_constraint": null, "epsilon": 0.001, "moving_variance_initializer": {"class_name": "Ones", "config": {}}, "momentum": 0.99, "moving_mean_initializer": {"class_name": "Zeros", "config": {}}, "gamma_regularizer": null, "beta_regularizer": null, "beta_initializer": {"class_name": "Zeros", "config": {}}, "name": "batch_normalization_68", "axis": 3, "trainable": true, "center": true, "scale": false, "gamma_initializer": {"class_name": "Ones", "config": {}}, "gamma_constraint": null}}, {"name": "activation_63", "class_name": "Activation", "inbound_nodes": [[["batch_normalization_63", 0, 0, {}]]], "config": {"name": "activation_63", "activation": "relu", "trainable": true}}, {"name": "activation_68", "class_name": "Activation", "inbound_nodes": [[["batch_normalization_68", 0, 0, {}]]], "config": {"name": "activation_68", "activation": "relu", "trainable": true}}, {"name": "average_pooling2d_7", "class_name": "AveragePooling2D", "inbound_nodes": [[["mixed6", 0, 0, {}]]], "config": {"pool_size": [3, 3], "strides": [1, 1], "data_format": "channels_last", "name": "average_pooling2d_7", "padding": "same", "trainable": true}}, {"name": "conv2d_61", "class_name": "Conv2D", "inbound_nodes": [[["mixed6", 0, 0, {}]]], "config": {"bias_initializer": {"class_name": "Zeros", "config": {}}, "use_bias": false, "kernel_constraint": null, "activation": "linear", "padding": "same", "name": "conv2d_61", "bias_regularizer": null, "filters": 192, "activity_regularizer": null, "kernel_size": [1, 1], "kernel_regularizer": null, "strides": [1, 1], "data_format": "channels_last", "bias_constraint": null, "trainable": true, "dilation_rate": [1, 1], "kernel_initializer": {"class_name": "VarianceScaling", "config": {"distribution": "uniform", "seed": null, "mode": "fan_avg", "scale": 1.0}}}}, {"name": "conv2d_64", "class_name": "Conv2D", "inbound_nodes": [[["activation_63", 0, 0, {}]]], "config": {"bias_initializer": {"class_name": "Zeros", "config": {}}, "use_bias": false, "kernel_constraint": null, "activation": "linear", "padding": "same", "name": "conv2d_64", "bias_regularizer": null, "filters": 192, "activity_regularizer": null, "kernel_size": [7, 1], "kernel_regularizer": null, "strides": [1, 1], "data_format": "channels_last", "bias_constraint": null, "trainable": true, "dilation_rate": [1, 1], "kernel_initializer": {"class_name": "VarianceScaling", "config": {"distribution": "uniform", "seed": null, "mode": "fan_avg", "scale": 1.0}}}}, {"name": "conv2d_69", "class_name": "Conv2D", "inbound_nodes": [[["activation_68", 0, 0, {}]]], "config": {"bias_initializer": {"class_name": "Zeros", "config": {}}, "use_bias": false, "kernel_constraint": null, "activation": "linear", "padding": "same", "name": "conv2d_69", "bias_regularizer": null, "filters": 192, "activity_regularizer": null, "kernel_size": [1, 7], "kernel_regularizer": null, "strides": [1, 1], "data_format": "channels_last", "bias_constraint": null, "trainable": true, "dilation_rate": [1, 1], "kernel_initializer": {"class_name": "VarianceScaling", "config": {"distribution": "uniform", "seed": null, "mode": "fan_avg", "scale": 1.0}}}}, {"name": "conv2d_70", "class_name": "Conv2D", "inbound_nodes": [[["average_pooling2d_7", 0, 0, {}]]], "config": {"bias_initializer": {"class_name": "Zeros", "config": {}}, "use_bias": false, "kernel_constraint": null, "activation": "linear", "padding": "same", "name": "conv2d_70", "bias_regularizer": null, "filters": 192, "activity_regularizer": null, "kernel_size": [1, 1], "kernel_regularizer": null, "strides": [1, 1], "data_format": "channels_last", "bias_constraint": null, "trainable": true, "dilation_rate": [1, 1], "kernel_initializer": {"class_name": "VarianceScaling", "config": {"distribution": "uniform", "seed": null, "mode": "fan_avg", "scale": 1.0}}}}, {"name": "batch_normalization_61", "class_name": "BatchNormalization", "inbound_nodes": [[["conv2d_61", 0, 0, {}]]], "config": {"beta_constraint": null, "epsilon": 0.001, "moving_variance_initializer": {"class_name": "Ones", "config": {}}, "momentum": 0.99, "moving_mean_initializer": {"class_name": "Zeros", "config": {}}, "gamma_regularizer": null, "beta_regularizer": null, "beta_initializer": {"class_name": "Zeros", "config": {}}, "name": "batch_normalization_61", "axis": 3, "trainable": true, "center": true, "scale": false, "gamma_initializer": {"class_name": "Ones", "config": {}}, "gamma_constraint": null}}, {"name": "batch_normalization_64", "class_name": "BatchNormalization", "inbound_nodes": [[["conv2d_64", 0, 0, {}]]], "config": {"beta_constraint": null, "epsilon": 0.001, "moving_variance_initializer": {"class_name": "Ones", "config": {}}, "momentum": 0.99, "moving_mean_initializer": {"class_name": "Zeros", "config": {}}, "gamma_regularizer": null, "beta_regularizer": null, "beta_initializer": {"class_name": "Zeros", "config": {}}, "name": "batch_normalization_64", "axis": 3, "trainable": true, "center": true, "scale": false, "gamma_initializer": {"class_name": "Ones", "config": {}}, "gamma_constraint": null}}, {"name": "batch_normalization_69", "class_name": "BatchNormalization", "inbound_nodes": [[["conv2d_69", 0, 0, {}]]], "config": {"beta_constraint": null, "epsilon": 0.001, "moving_variance_initializer": {"class_name": "Ones", "config": {}}, "momentum": 0.99, "moving_mean_initializer": {"class_name": "Zeros", "config": {}}, "gamma_regularizer": null, "beta_regularizer": null, "beta_initializer": {"class_name": "Zeros", "config": {}}, "name": "batch_normalization_69", "axis": 3, "trainable": true, "center": true, "scale": false, "gamma_initializer": {"class_name": "Ones", "config": {}}, "gamma_constraint": null}}, {"name": "batch_normalization_70", "class_name": "BatchNormalization", "inbound_nodes": [[["conv2d_70", 0, 0, {}]]], "config": {"beta_constraint": null, "epsilon": 0.001, "moving_variance_initializer": {"class_name": "Ones", "config": {}}, "momentum": 0.99, "moving_mean_initializer": {"class_name": "Zeros", "config": {}}, "gamma_regularizer": null, "beta_regularizer": null, "beta_initializer": {"class_name": "Zeros", "config": {}}, "name": "batch_normalization_70", "axis": 3, "trainable": true, "center": true, "scale": false, "gamma_initializer": {"class_name": "Ones", "config": {}}, "gamma_constraint": null}}, {"name": "activation_61", "class_name": "Activation", "inbound_nodes": [[["batch_normalization_61", 0, 0, {}]]], "config": {"name": "activation_61", "activation": "relu", "trainable": true}}, {"name": "activation_64", "class_name": "Activation", "inbound_nodes": [[["batch_normalization_64", 0, 0, {}]]], "config": {"name": "activation_64", "activation": "relu", "trainable": true}}, {"name": "activation_69", "class_name": "Activation", "inbound_nodes": [[["batch_normalization_69", 0, 0, {}]]], "config": {"name": "activation_69", "activation": "relu", "trainable": true}}, {"name": "activation_70", "class_name": "Activation", "inbound_nodes": [[["batch_normalization_70", 0, 0, {}]]], "config": {"name": "activation_70", "activation": "relu", "trainable": true}}, {"name": "mixed7", "class_name": "Concatenate", "inbound_nodes": [[["activation_61", 0, 0, {}], ["activation_64", 0, 0, {}], ["activation_69", 0, 0, {}], ["activation_70", 0, 0, {}]]], "config": {"axis": 3, "name": "mixed7", "trainable": true}}, {"name": "conv2d_73", "class_name": "Conv2D", "inbound_nodes": [[["mixed7", 0, 0, {}]]], "config": {"bias_initializer": {"class_name": "Zeros", "config": {}}, "use_bias": false, "kernel_constraint": null, "activation": "linear", "padding": "same", "name": "conv2d_73", "bias_regularizer": null, "filters": 192, "activity_regularizer": null, "kernel_size": [1, 1], "kernel_regularizer": null, "strides": [1, 1], "data_format": "channels_last", "bias_constraint": null, "trainable": true, "dilation_rate": [1, 1], "kernel_initializer": {"class_name": "VarianceScaling", "config": {"distribution": "uniform", "seed": null, "mode": "fan_avg", "scale": 1.0}}}}, {"name": "batch_normalization_73", "class_name": "BatchNormalization", "inbound_nodes": [[["conv2d_73", 0, 0, {}]]], "config": {"beta_constraint": null, "epsilon": 0.001, "moving_variance_initializer": {"class_name": "Ones", "config": {}}, "momentum": 0.99, "moving_mean_initializer": {"class_name": "Zeros", "config": {}}, "gamma_regularizer": null, "beta_regularizer": null, "beta_initializer": {"class_name": "Zeros", "config": {}}, "name": "batch_normalization_73", "axis": 3, "trainable": true, "center": true, "scale": false, "gamma_initializer": {"class_name": "Ones", "config": {}}, "gamma_constraint": null}}, {"name": "activation_73", "class_name": "Activation", "inbound_nodes": [[["batch_normalization_73", 0, 0, {}]]], "config": {"name": "activation_73", "activation": "relu", "trainable": true}}, {"name": "conv2d_74", "class_name": "Conv2D", "inbound_nodes": [[["activation_73", 0, 0, {}]]], "config": {"bias_initializer": {"class_name": "Zeros", "config": {}}, "use_bias": false, "kernel_constraint": null, "activation": "linear", "padding": "same", "name": "conv2d_74", "bias_regularizer": null, "filters": 192, "activity_regularizer": null, "kernel_size": [1, 7], "kernel_regularizer": null, "strides": [1, 1], "data_format": "channels_last", "bias_constraint": null, "trainable": true, "dilation_rate": [1, 1], "kernel_initializer": {"class_name": "VarianceScaling", "config": {"distribution": "uniform", "seed": null, "mode": "fan_avg", "scale": 1.0}}}}, {"name": "batch_normalization_74", "class_name": "BatchNormalization", "inbound_nodes": [[["conv2d_74", 0, 0, {}]]], "config": {"beta_constraint": null, "epsilon": 0.001, "moving_variance_initializer": {"class_name": "Ones", "config": {}}, "momentum": 0.99, "moving_mean_initializer": {"class_name": "Zeros", "config": {}}, "gamma_regularizer": null, "beta_regularizer": null, "beta_initializer": {"class_name": "Zeros", "config": {}}, "name": "batch_normalization_74", "axis": 3, "trainable": true, "center": true, "scale": false, "gamma_initializer": {"class_name": "Ones", "config": {}}, "gamma_constraint": null}}, {"name": "activation_74", "class_name": "Activation", "inbound_nodes": [[["batch_normalization_74", 0, 0, {}]]], "config": {"name": "activation_74", "activation": "relu", "trainable": true}}, {"name": "conv2d_71", "class_name": "Conv2D", "inbound_nodes": [[["mixed7", 0, 0, {}]]], "config": {"bias_initializer": {"class_name": "Zeros", "config": {}}, "use_bias": false, "kernel_constraint": null, "activation": "linear", "padding": "same", "name": "conv2d_71", "bias_regularizer": null, "filters": 192, "activity_regularizer": null, "kernel_size": [1, 1], "kernel_regularizer": null, "strides": [1, 1], "data_format": "channels_last", "bias_constraint": null, "trainable": true, "dilation_rate": [1, 1], "kernel_initializer": {"class_name": "VarianceScaling", "config": {"distribution": "uniform", "seed": null, "mode": "fan_avg", "scale": 1.0}}}}, {"name": "conv2d_75", "class_name": "Conv2D", "inbound_nodes": [[["activation_74", 0, 0, {}]]], "config": {"bias_initializer": {"class_name": "Zeros", "config": {}}, "use_bias": false, "kernel_constraint": null, "activation": "linear", "padding": "same", "name": "conv2d_75", "bias_regularizer": null, "filters": 192, "activity_regularizer": null, "kernel_size": [7, 1], "kernel_regularizer": null, "strides": [1, 1], "data_format": "channels_last", "bias_constraint": null, "trainable": true, "dilation_rate": [1, 1], "kernel_initializer": {"class_name": "VarianceScaling", "config": {"distribution": "uniform", "seed": null, "mode": "fan_avg", "scale": 1.0}}}}, {"name": "batch_normalization_71", "class_name": "BatchNormalization", "inbound_nodes": [[["conv2d_71", 0, 0, {}]]], "config": {"beta_constraint": null, "epsilon": 0.001, "moving_variance_initializer": {"class_name": "Ones", "config": {}}, "momentum": 0.99, "moving_mean_initializer": {"class_name": "Zeros", "config": {}}, "gamma_regularizer": null, "beta_regularizer": null, "beta_initializer": {"class_name": "Zeros", "config": {}}, "name": "batch_normalization_71", "axis": 3, "trainable": true, "center": true, "scale": false, "gamma_initializer": {"class_name": "Ones", "config": {}}, "gamma_constraint": null}}, {"name": "batch_normalization_75", "class_name": "BatchNormalization", "inbound_nodes": [[["conv2d_75", 0, 0, {}]]], "config": {"beta_constraint": null, "epsilon": 0.001, "moving_variance_initializer": {"class_name": "Ones", "config": {}}, "momentum": 0.99, "moving_mean_initializer": {"class_name": "Zeros", "config": {}}, "gamma_regularizer": null, "beta_regularizer": null, "beta_initializer": {"class_name": "Zeros", "config": {}}, "name": "batch_normalization_75", "axis": 3, "trainable": true, "center": true, "scale": false, "gamma_initializer": {"class_name": "Ones", "config": {}}, "gamma_constraint": null}}, {"name": "activation_71", "class_name": "Activation", "inbound_nodes": [[["batch_normalization_71", 0, 0, {}]]], "config": {"name": "activation_71", "activation": "relu", "trainable": true}}, {"name": "activation_75", "class_name": "Activation", "inbound_nodes": [[["batch_normalization_75", 0, 0, {}]]], "config": {"name": "activation_75", "activation": "relu", "trainable": true}}, {"name": "conv2d_72", "class_name": "Conv2D", "inbound_nodes": [[["activation_71", 0, 0, {}]]], "config": {"bias_initializer": {"class_name": "Zeros", "config": {}}, "use_bias": false, "kernel_constraint": null, "activation": "linear", "padding": "valid", "name": "conv2d_72", "bias_regularizer": null, "filters": 320, "activity_regularizer": null, "kernel_size": [3, 3], "kernel_regularizer": null, "strides": [2, 2], "data_format": "channels_last", "bias_constraint": null, "trainable": true, "dilation_rate": [1, 1], "kernel_initializer": {"class_name": "VarianceScaling", "config": {"distribution": "uniform", "seed": null, "mode": "fan_avg", "scale": 1.0}}}}, {"name": "conv2d_76", "class_name": "Conv2D", "inbound_nodes": [[["activation_75", 0, 0, {}]]], "config": {"bias_initializer": {"class_name": "Zeros", "config": {}}, "use_bias": false, "kernel_constraint": null, "activation": "linear", "padding": "valid", "name": "conv2d_76", "bias_regularizer": null, "filters": 192, "activity_regularizer": null, "kernel_size": [3, 3], "kernel_regularizer": null, "strides": [2, 2], "data_format": "channels_last", "bias_constraint": null, "trainable": true, "dilation_rate": [1, 1], "kernel_initializer": {"class_name": "VarianceScaling", "config": {"distribution": "uniform", "seed": null, "mode": "fan_avg", "scale": 1.0}}}}, {"name": "batch_normalization_72", "class_name": "BatchNormalization", "inbound_nodes": [[["conv2d_72", 0, 0, {}]]], "config": {"beta_constraint": null, "epsilon": 0.001, "moving_variance_initializer": {"class_name": "Ones", "config": {}}, "momentum": 0.99, "moving_mean_initializer": {"class_name": "Zeros", "config": {}}, "gamma_regularizer": null, "beta_regularizer": null, "beta_initializer": {"class_name": "Zeros", "config": {}}, "name": "batch_normalization_72", "axis": 3, "trainable": true, "center": true, "scale": false, "gamma_initializer": {"class_name": "Ones", "config": {}}, "gamma_constraint": null}}, {"name": "batch_normalization_76", "class_name": "BatchNormalization", "inbound_nodes": [[["conv2d_76", 0, 0, {}]]], "config": {"beta_constraint": null, "epsilon": 0.001, "moving_variance_initializer": {"class_name": "Ones", "config": {}}, "momentum": 0.99, "moving_mean_initializer": {"class_name": "Zeros", "config": {}}, "gamma_regularizer": null, "beta_regularizer": null, "beta_initializer": {"class_name": "Zeros", "config": {}}, "name": "batch_normalization_76", "axis": 3, "trainable": true, "center": true, "scale": false, "gamma_initializer": {"class_name": "Ones", "config": {}}, "gamma_constraint": null}}, {"name": "activation_72", "class_name": "Activation", "inbound_nodes": [[["batch_normalization_72", 0, 0, {}]]], "config": {"name": "activation_72", "activation": "relu", "trainable": true}}, {"name": "activation_76", "class_name": "Activation", "inbound_nodes": [[["batch_normalization_76", 0, 0, {}]]], "config": {"name": "activation_76", "activation": "relu", "trainable": true}}, {"name": "max_pooling2d_4", "class_name": "MaxPooling2D", "inbound_nodes": [[["mixed7", 0, 0, {}]]], "config": {"pool_size": [3, 3], "strides": [2, 2], "data_format": "channels_last", "name": "max_pooling2d_4", "padding": "valid", "trainable": true}}, {"name": "mixed8", "class_name": "Concatenate", "inbound_nodes": [[["activation_72", 0, 0, {}], ["activation_76", 0, 0, {}], ["max_pooling2d_4", 0, 0, {}]]], "config": {"axis": 3, "name": "mixed8", "trainable": true}}, {"name": "conv2d_81", "class_name": "Conv2D", "inbound_nodes": [[["mixed8", 0, 0, {}]]], "config": {"bias_initializer": {"class_name": "Zeros", "config": {}}, "use_bias": false, "kernel_constraint": null, "activation": "linear", "padding": "same", "name": "conv2d_81", "bias_regularizer": null, "filters": 448, "activity_regularizer": null, "kernel_size": [1, 1], "kernel_regularizer": null, "strides": [1, 1], "data_format": "channels_last", "bias_constraint": null, "trainable": true, "dilation_rate": [1, 1], "kernel_initializer": {"class_name": "VarianceScaling", "config": {"distribution": "uniform", "seed": null, "mode": "fan_avg", "scale": 1.0}}}}, {"name": "batch_normalization_81", "class_name": "BatchNormalization", "inbound_nodes": [[["conv2d_81", 0, 0, {}]]], "config": {"beta_constraint": null, "epsilon": 0.001, "moving_variance_initializer": {"class_name": "Ones", "config": {}}, "momentum": 0.99, "moving_mean_initializer": {"class_name": "Zeros", "config": {}}, "gamma_regularizer": null, "beta_regularizer": null, "beta_initializer": {"class_name": "Zeros", "config": {}}, "name": "batch_normalization_81", "axis": 3, "trainable": true, "center": true, "scale": false, "gamma_initializer": {"class_name": "Ones", "config": {}}, "gamma_constraint": null}}, {"name": "activation_81", "class_name": "Activation", "inbound_nodes": [[["batch_normalization_81", 0, 0, {}]]], "config": {"name": "activation_81", "activation": "relu", "trainable": true}}, {"name": "conv2d_78", "class_name": "Conv2D", "inbound_nodes": [[["mixed8", 0, 0, {}]]], "config": {"bias_initializer": {"class_name": "Zeros", "config": {}}, "use_bias": false, "kernel_constraint": null, "activation": "linear", "padding": "same", "name": "conv2d_78", "bias_regularizer": null, "filters": 384, "activity_regularizer": null, "kernel_size": [1, 1], "kernel_regularizer": null, "strides": [1, 1], "data_format": "channels_last", "bias_constraint": null, "trainable": true, "dilation_rate": [1, 1], "kernel_initializer": {"class_name": "VarianceScaling", "config": {"distribution": "uniform", "seed": null, "mode": "fan_avg", "scale": 1.0}}}}, {"name": "conv2d_82", "class_name": "Conv2D", "inbound_nodes": [[["activation_81", 0, 0, {}]]], "config": {"bias_initializer": {"class_name": "Zeros", "config": {}}, "use_bias": false, "kernel_constraint": null, "activation": "linear", "padding": "same", "name": "conv2d_82", "bias_regularizer": null, "filters": 384, "activity_regularizer": null, "kernel_size": [3, 3], "kernel_regularizer": null, "strides": [1, 1], "data_format": "channels_last", "bias_constraint": null, "trainable": true, "dilation_rate": [1, 1], "kernel_initializer": {"class_name": "VarianceScaling", "config": {"distribution": "uniform", "seed": null, "mode": "fan_avg", "scale": 1.0}}}}, {"name": "batch_normalization_78", "class_name": "BatchNormalization", "inbound_nodes": [[["conv2d_78", 0, 0, {}]]], "config": {"beta_constraint": null, "epsilon": 0.001, "moving_variance_initializer": {"class_name": "Ones", "config": {}}, "momentum": 0.99, "moving_mean_initializer": {"class_name": "Zeros", "config": {}}, "gamma_regularizer": null, "beta_regularizer": null, "beta_initializer": {"class_name": "Zeros", "config": {}}, "name": "batch_normalization_78", "axis": 3, "trainable": true, "center": true, "scale": false, "gamma_initializer": {"class_name": "Ones", "config": {}}, "gamma_constraint": null}}, {"name": "batch_normalization_82", "class_name": "BatchNormalization", "inbound_nodes": [[["conv2d_82", 0, 0, {}]]], "config": {"beta_constraint": null, "epsilon": 0.001, "moving_variance_initializer": {"class_name": "Ones", "config": {}}, "momentum": 0.99, "moving_mean_initializer": {"class_name": "Zeros", "config": {}}, "gamma_regularizer": null, "beta_regularizer": null, "beta_initializer": {"class_name": "Zeros", "config": {}}, "name": "batch_normalization_82", "axis": 3, "trainable": true, "center": true, "scale": false, "gamma_initializer": {"class_name": "Ones", "config": {}}, "gamma_constraint": null}}, {"name": "activation_78", "class_name": "Activation", "inbound_nodes": [[["batch_normalization_78", 0, 0, {}]]], "config": {"name": "activation_78", "activation": "relu", "trainable": true}}, {"name": "activation_82", "class_name": "Activation", "inbound_nodes": [[["batch_normalization_82", 0, 0, {}]]], "config": {"name": "activation_82", "activation": "relu", "trainable": true}}, {"name": "conv2d_79", "class_name": "Conv2D", "inbound_nodes": [[["activation_78", 0, 0, {}]]], "config": {"bias_initializer": {"class_name": "Zeros", "config": {}}, "use_bias": false, "kernel_constraint": null, "activation": "linear", "padding": "same", "name": "conv2d_79", "bias_regularizer": null, "filters": 384, "activity_regularizer": null, "kernel_size": [1, 3], "kernel_regularizer": null, "strides": [1, 1], "data_format": "channels_last", "bias_constraint": null, "trainable": true, "dilation_rate": [1, 1], "kernel_initializer": {"class_name": "VarianceScaling", "config": {"distribution": "uniform", "seed": null, "mode": "fan_avg", "scale": 1.0}}}}, {"name": "conv2d_80", "class_name": "Conv2D", "inbound_nodes": [[["activation_78", 0, 0, {}]]], "config": {"bias_initializer": {"class_name": "Zeros", "config": {}}, "use_bias": false, "kernel_constraint": null, "activation": "linear", "padding": "same", "name": "conv2d_80", "bias_regularizer": null, "filters": 384, "activity_regularizer": null, "kernel_size": [3, 1], "kernel_regularizer": null, "strides": [1, 1], "data_format": "channels_last", "bias_constraint": null, "trainable": true, "dilation_rate": [1, 1], "kernel_initializer": {"class_name": "VarianceScaling", "config": {"distribution": "uniform", "seed": null, "mode": "fan_avg", "scale": 1.0}}}}, {"name": "conv2d_83", "class_name": "Conv2D", "inbound_nodes": [[["activation_82", 0, 0, {}]]], "config": {"bias_initializer": {"class_name": "Zeros", "config": {}}, "use_bias": false, "kernel_constraint": null, "activation": "linear", "padding": "same", "name": "conv2d_83", "bias_regularizer": null, "filters": 384, "activity_regularizer": null, "kernel_size": [1, 3], "kernel_regularizer": null, "strides": [1, 1], "data_format": "channels_last", "bias_constraint": null, "trainable": true, "dilation_rate": [1, 1], "kernel_initializer": {"class_name": "VarianceScaling", "config": {"distribution": "uniform", "seed": null, "mode": "fan_avg", "scale": 1.0}}}}, {"name": "conv2d_84", "class_name": "Conv2D", "inbound_nodes": [[["activation_82", 0, 0, {}]]], "config": {"bias_initializer": {"class_name": "Zeros", "config": {}}, "use_bias": false, "kernel_constraint": null, "activation": "linear", "padding": "same", "name": "conv2d_84", "bias_regularizer": null, "filters": 384, "activity_regularizer": null, "kernel_size": [3, 1], "kernel_regularizer": null, "strides": [1, 1], "data_format": "channels_last", "bias_constraint": null, "trainable": true, "dilation_rate": [1, 1], "kernel_initializer": {"class_name": "VarianceScaling", "config": {"distribution": "uniform", "seed": null, "mode": "fan_avg", "scale": 1.0}}}}, {"name": "average_pooling2d_8", "class_name": "AveragePooling2D", "inbound_nodes": [[["mixed8", 0, 0, {}]]], "config": {"pool_size": [3, 3], "strides": [1, 1], "data_format": "channels_last", "name": "average_pooling2d_8", "padding": "same", "trainable": true}}, {"name": "conv2d_77", "class_name": "Conv2D", "inbound_nodes": [[["mixed8", 0, 0, {}]]], "config": {"bias_initializer": {"class_name": "Zeros", "config": {}}, "use_bias": false, "kernel_constraint": null, "activation": "linear", "padding": "same", "name": "conv2d_77", "bias_regularizer": null, "filters": 320, "activity_regularizer": null, "kernel_size": [1, 1], "kernel_regularizer": null, "strides": [1, 1], "data_format": "channels_last", "bias_constraint": null, "trainable": true, "dilation_rate": [1, 1], "kernel_initializer": {"class_name": "VarianceScaling", "config": {"distribution": "uniform", "seed": null, "mode": "fan_avg", "scale": 1.0}}}}, {"name": "batch_normalization_79", "class_name": "BatchNormalization", "inbound_nodes": [[["conv2d_79", 0, 0, {}]]], "config": {"beta_constraint": null, "epsilon": 0.001, "moving_variance_initializer": {"class_name": "Ones", "config": {}}, "momentum": 0.99, "moving_mean_initializer": {"class_name": "Zeros", "config": {}}, "gamma_regularizer": null, "beta_regularizer": null, "beta_initializer": {"class_name": "Zeros", "config": {}}, "name": "batch_normalization_79", "axis": 3, "trainable": true, "center": true, "scale": false, "gamma_initializer": {"class_name": "Ones", "config": {}}, "gamma_constraint": null}}, {"name": "batch_normalization_80", "class_name": "BatchNormalization", "inbound_nodes": [[["conv2d_80", 0, 0, {}]]], "config": {"beta_constraint": null, "epsilon": 0.001, "moving_variance_initializer": {"class_name": "Ones", "config": {}}, "momentum": 0.99, "moving_mean_initializer": {"class_name": "Zeros", "config": {}}, "gamma_regularizer": null, "beta_regularizer": null, "beta_initializer": {"class_name": "Zeros", "config": {}}, "name": "batch_normalization_80", "axis": 3, "trainable": true, "center": true, "scale": false, "gamma_initializer": {"class_name": "Ones", "config": {}}, "gamma_constraint": null}}, {"name": "batch_normalization_83", "class_name": "BatchNormalization", "inbound_nodes": [[["conv2d_83", 0, 0, {}]]], "config": {"beta_constraint": null, "epsilon": 0.001, "moving_variance_initializer": {"class_name": "Ones", "config": {}}, "momentum": 0.99, "moving_mean_initializer": {"class_name": "Zeros", "config": {}}, "gamma_regularizer": null, "beta_regularizer": null, "beta_initializer": {"class_name": "Zeros", "config": {}}, "name": "batch_normalization_83", "axis": 3, "trainable": true, "center": true, "scale": false, "gamma_initializer": {"class_name": "Ones", "config": {}}, "gamma_constraint": null}}, {"name": "batch_normalization_84", "class_name": "BatchNormalization", "inbound_nodes": [[["conv2d_84", 0, 0, {}]]], "config": {"beta_constraint": null, "epsilon": 0.001, "moving_variance_initializer": {"class_name": "Ones", "config": {}}, "momentum": 0.99, "moving_mean_initializer": {"class_name": "Zeros", "config": {}}, "gamma_regularizer": null, "beta_regularizer": null, "beta_initializer": {"class_name": "Zeros", "config": {}}, "name": "batch_normalization_84", "axis": 3, "trainable": true, "center": true, "scale": false, "gamma_initializer": {"class_name": "Ones", "config": {}}, "gamma_constraint": null}}, {"name": "conv2d_85", "class_name": "Conv2D", "inbound_nodes": [[["average_pooling2d_8", 0, 0, {}]]], "config": {"bias_initializer": {"class_name": "Zeros", "config": {}}, "use_bias": false, "kernel_constraint": null, "activation": "linear", "padding": "same", "name": "conv2d_85", "bias_regularizer": null, "filters": 192, "activity_regularizer": null, "kernel_size": [1, 1], "kernel_regularizer": null, "strides": [1, 1], "data_format": "channels_last", "bias_constraint": null, "trainable": true, "dilation_rate": [1, 1], "kernel_initializer": {"class_name": "VarianceScaling", "config": {"distribution": "uniform", "seed": null, "mode": "fan_avg", "scale": 1.0}}}}, {"name": "batch_normalization_77", "class_name": "BatchNormalization", "inbound_nodes": [[["conv2d_77", 0, 0, {}]]], "config": {"beta_constraint": null, "epsilon": 0.001, "moving_variance_initializer": {"class_name": "Ones", "config": {}}, "momentum": 0.99, "moving_mean_initializer": {"class_name": "Zeros", "config": {}}, "gamma_regularizer": null, "beta_regularizer": null, "beta_initializer": {"class_name": "Zeros", "config": {}}, "name": "batch_normalization_77", "axis": 3, "trainable": true, "center": true, "scale": false, "gamma_initializer": {"class_name": "Ones", "config": {}}, "gamma_constraint": null}}, {"name": "activation_79", "class_name": "Activation", "inbound_nodes": [[["batch_normalization_79", 0, 0, {}]]], "config": {"name": "activation_79", "activation": "relu", "trainable": true}}, {"name": "activation_80", "class_name": "Activation", "inbound_nodes": [[["batch_normalization_80", 0, 0, {}]]], "config": {"name": "activation_80", "activation": "relu", "trainable": true}}, {"name": "activation_83", "class_name": "Activation", "inbound_nodes": [[["batch_normalization_83", 0, 0, {}]]], "config": {"name": "activation_83", "activation": "relu", "trainable": true}}, {"name": "activation_84", "class_name": "Activation", "inbound_nodes": [[["batch_normalization_84", 0, 0, {}]]], "config": {"name": "activation_84", "activation": "relu", "trainable": true}}, {"name": "batch_normalization_85", "class_name": "BatchNormalization", "inbound_nodes": [[["conv2d_85", 0, 0, {}]]], "config": {"beta_constraint": null, "epsilon": 0.001, "moving_variance_initializer": {"class_name": "Ones", "config": {}}, "momentum": 0.99, "moving_mean_initializer": {"class_name": "Zeros", "config": {}}, "gamma_regularizer": null, "beta_regularizer": null, "beta_initializer": {"class_name": "Zeros", "config": {}}, "name": "batch_normalization_85", "axis": 3, "trainable": true, "center": true, "scale": false, "gamma_initializer": {"class_name": "Ones", "config": {}}, "gamma_constraint": null}}, {"name": "activation_77", "class_name": "Activation", "inbound_nodes": [[["batch_normalization_77", 0, 0, {}]]], "config": {"name": "activation_77", "activation": "relu", "trainable": true}}, {"name": "mixed9_0", "class_name": "Concatenate", "inbound_nodes": [[["activation_79", 0, 0, {}], ["activation_80", 0, 0, {}]]], "config": {"axis": 3, "name": "mixed9_0", "trainable": true}}, {"name": "concatenate_1", "class_name": "Concatenate", "inbound_nodes": [[["activation_83", 0, 0, {}], ["activation_84", 0, 0, {}]]], "config": {"axis": 3, "name": "concatenate_1", "trainable": true}}, {"name": "activation_85", "class_name": "Activation", "inbound_nodes": [[["batch_normalization_85", 0, 0, {}]]], "config": {"name": "activation_85", "activation": "relu", "trainable": true}}, {"name": "mixed9", "class_name": "Concatenate", "inbound_nodes": [[["activation_77", 0, 0, {}], ["mixed9_0", 0, 0, {}], ["concatenate_1", 0, 0, {}], ["activation_85", 0, 0, {}]]], "config": {"axis": 3, "name": "mixed9", "trainable": true}}, {"name": "global_average_pooling2d_1", "class_name": "GlobalAveragePooling2D", "inbound_nodes": [[["mixed9", 0, 0, {}]]], "config": {"name": "global_average_pooling2d_1", "data_format": "channels_last", "trainable": true}}, {"name": "dense_1", "class_name": "Dense", "inbound_nodes": [[["global_average_pooling2d_1", 0, 0, {}]]], "config": {"bias_initializer": {"class_name": "Zeros", "config": {}}, "use_bias": true, "activation": "relu", "kernel_constraint": null, "name": "dense_1", "bias_regularizer": null, "activity_regularizer": null, "bias_constraint": null, "kernel_regularizer": null, "trainable": true, "units": 1024, "kernel_initializer": {"class_name": "VarianceScaling", "config": {"distribution": "uniform", "seed": null, "mode": "fan_avg", "scale": 1.0}}}}, {"name": "dense_2", "class_name": "Dense", "inbound_nodes": [[["dense_1", 0, 0, {}]]], "config": {"bias_initializer": {"class_name": "Zeros", "config": {}}, "use_bias": true, "activation": "linear", "kernel_constraint": null, "name": "dense_2", "bias_regularizer": null, "activity_regularizer": null, "bias_constraint": null, "kernel_regularizer": null, "trainable": true, "units": 128, "kernel_initializer": {"class_name": "VarianceScaling", "config": {"distribution": "uniform", "seed": null, "mode": "fan_avg", "scale": 1.0}}}}], "input_layers": [["input_1", 0, 0]]}}, {"name": "triplet_loss", "class_name": "Lambda", "inbound_nodes": [[["model_1", 1, 0, {}], ["model_1", 2, 0, {}], ["model_1", 3, 0, {}]]], "config": {"output_shape": ["4wEAAAAAAAAABAAAAAMAAABDAAAAcx0AAAB8AABcAwB9AQB9AgB9AwB8AQBkAQAZZAIAZgIAUykD\nTukAAAAA6QEAAACpACkE2gZzaGFwZXPaBnNoYXBlMdoGc2hhcGUy2gZzaGFwZTNyAwAAAHIDAAAA\n+hx0Y25fdHJpcGxldGxvc3NfZ2VuZXJhdG9yLnB52hR0cmlwbGV0X291dHB1dF9zaGFwZTYAAABz\nBAAAAAABDwE=\n", null, null], "function_type": "lambda", "function": ["4wIAAAAAAAAACAAAAAUAAABDAAAAc3oAAAB8AABcAwB9AgB9AwB9BAB0AABqAQB0AABqAgB8AgB8\nAwAYgwEAZAEAZAQAgwEBfQUAdAAAagEAdAAAagIAfAIAfAQAGIMBAGQBAGQFAIMBAX0GAHQAAGoD\nAHQAAGoEAGQDAHwFAHwGABh8AQAXgwIAgwEAfQcAfAcAUykGTtoEYXhpc+kBAAAA5wAAAAAAAAAA\n6f////9yBAAAACkF2gFL2gNzdW3aBnNxdWFyZdoEbWVhbtoHbWF4aW11bSkI2gN2ZWPaBWFscGhh\n2gZhbmNob3LaCHBvc2l0aXZl2ghuZWdhdGl2ZdoDZF9w2gNkX27aBGxvc3OpAHISAAAA+hx0Y25f\ndHJpcGxldGxvc3NfZ2VuZXJhdG9yLnB52gx0cmlwbGV0X2xvc3MfAAAAcwoAAAAAAQ8BIgEiASMB\n", [0.2], null], "name": "triplet_loss", "trainable": true, "output_shape_type": "lambda", "arguments": {}}}], "input_layers": [["input_anchor", 0, 0], ["input_positive", 0, 0], ["input_negative", 0, 0]]}, "backend": "tensorflow"}