{"keras_version": "2.1.2", "config": {"name": "model_2", "layers": [{"name": "input_anchor", "config": {"name": "input_anchor", "sparse": false, "batch_input_shape": [null, 224, 224, 3], "dtype": "float32"}, "class_name": "InputLayer", "inbound_nodes": []}, {"name": "input_positive", "config": {"name": "input_positive", "sparse": false, "batch_input_shape": [null, 224, 224, 3], "dtype": "float32"}, "class_name": "InputLayer", "inbound_nodes": []}, {"name": "input_negative", "config": {"name": "input_negative", "sparse": false, "batch_input_shape": [null, 224, 224, 3], "dtype": "float32"}, "class_name": "InputLayer", "inbound_nodes": []}, {"name": "model_1", "config": {"name": "model_1", "layers": [{"name": "input_1", "config": {"name": "input_1", "sparse": false, "batch_input_shape": [null, null, null, 3], "dtype": "float32"}, "class_name": "InputLayer", "inbound_nodes": []}, {"name": "conv2d_1", "config": {"name": "conv2d_1", "bias_initializer": {"config": {}, "class_name": "Zeros"}, "trainable": true, "kernel_initializer": {"config": {"seed": null, "mode": "fan_avg", "distribution": "uniform", "scale": 1.0}, "class_name": "VarianceScaling"}, "activation": "linear", "use_bias": false, "activity_regularizer": null, "filters": 32, "strides": [2, 2], "data_format": "channels_last", "bias_regularizer": null, "dilation_rate": [1, 1], "kernel_regularizer": null, "kernel_constraint": null, "bias_constraint": null, "kernel_size": [3, 3], "padding": "valid"}, "class_name": "Conv2D", "inbound_nodes": [[["input_1", 0, 0, {}]]]}, {"name": "batch_normalization_1", "config": {"scale": false, "beta_constraint": null, "moving_mean_initializer": {"config": {}, "class_name": "Zeros"}, "beta_regularizer": null, "trainable": true, "beta_initializer": {"config": {}, "class_name": "Zeros"}, "gamma_initializer": {"config": {}, "class_name": "Ones"}, "gamma_constraint": null, "name": "batch_normalization_1", "epsilon": 0.001, "momentum": 0.99, "moving_variance_initializer": {"config": {}, "class_name": "Ones"}, "axis": 3, "gamma_regularizer": null, "center": true}, "class_name": "BatchNormalization", "inbound_nodes": [[["conv2d_1", 0, 0, {}]]]}, {"name": "activation_1", "config": {"name": "activation_1", "trainable": true, "activation": "relu"}, "class_name": "Activation", "inbound_nodes": [[["batch_normalization_1", 0, 0, {}]]]}, {"name": "conv2d_2", "config": {"name": "conv2d_2", "bias_initializer": {"config": {}, "class_name": "Zeros"}, "trainable": true, "kernel_initializer": {"config": {"seed": null, "mode": "fan_avg", "distribution": "uniform", "scale": 1.0}, "class_name": "VarianceScaling"}, "activation": "linear", "use_bias": false, "activity_regularizer": null, "filters": 32, "strides": [1, 1], "data_format": "channels_last", "bias_regularizer": null, "dilation_rate": [1, 1], "kernel_regularizer": null, "kernel_constraint": null, "bias_constraint": null, "kernel_size": [3, 3], "padding": "valid"}, "class_name": "Conv2D", "inbound_nodes": [[["activation_1", 0, 0, {}]]]}, {"name": "batch_normalization_2", "config": {"scale": false, "beta_constraint": null, "moving_mean_initializer": {"config": {}, "class_name": "Zeros"}, "beta_regularizer": null, "trainable": true, "beta_initializer": {"config": {}, "class_name": "Zeros"}, "gamma_initializer": {"config": {}, "class_name": "Ones"}, "gamma_constraint": null, "name": "batch_normalization_2", "epsilon": 0.001, "momentum": 0.99, "moving_variance_initializer": {"config": {}, "class_name": "Ones"}, "axis": 3, "gamma_regularizer": null, "center": true}, "class_name": "BatchNormalization", "inbound_nodes": [[["conv2d_2", 0, 0, {}]]]}, {"name": "activation_2", "config": {"name": "activation_2", "trainable": true, "activation": "relu"}, "class_name": "Activation", "inbound_nodes": [[["batch_normalization_2", 0, 0, {}]]]}, {"name": "conv2d_3", "config": {"name": "conv2d_3", "bias_initializer": {"config": {}, "class_name": "Zeros"}, "trainable": true, "kernel_initializer": {"config": {"seed": null, "mode": "fan_avg", "distribution": "uniform", "scale": 1.0}, "class_name": "VarianceScaling"}, "activation": "linear", "use_bias": false, "activity_regularizer": null, "filters": 64, "strides": [1, 1], "data_format": "channels_last", "bias_regularizer": null, "dilation_rate": [1, 1], "kernel_regularizer": null, "kernel_constraint": null, "bias_constraint": null, "kernel_size": [3, 3], "padding": "same"}, "class_name": "Conv2D", "inbound_nodes": [[["activation_2", 0, 0, {}]]]}, {"name": "batch_normalization_3", "config": {"scale": false, "beta_constraint": null, "moving_mean_initializer": {"config": {}, "class_name": "Zeros"}, "beta_regularizer": null, "trainable": true, "beta_initializer": {"config": {}, "class_name": "Zeros"}, "gamma_initializer": {"config": {}, "class_name": "Ones"}, "gamma_constraint": null, "name": "batch_normalization_3", "epsilon": 0.001, "momentum": 0.99, "moving_variance_initializer": {"config": {}, "class_name": "Ones"}, "axis": 3, "gamma_regularizer": null, "center": true}, "class_name": "BatchNormalization", "inbound_nodes": [[["conv2d_3", 0, 0, {}]]]}, {"name": "activation_3", "config": {"name": "activation_3", "trainable": true, "activation": "relu"}, "class_name": "Activation", "inbound_nodes": [[["batch_normalization_3", 0, 0, {}]]]}, {"name": "max_pooling2d_1", "config": {"name": "max_pooling2d_1", "data_format": "channels_last", "pool_size": [3, 3], "strides": [2, 2], "padding": "valid", "trainable": true}, "class_name": "MaxPooling2D", "inbound_nodes": [[["activation_3", 0, 0, {}]]]}, {"name": "conv2d_4", "config": {"name": "conv2d_4", "bias_initializer": {"config": {}, "class_name": "Zeros"}, "trainable": true, "kernel_initializer": {"config": {"seed": null, "mode": "fan_avg", "distribution": "uniform", "scale": 1.0}, "class_name": "VarianceScaling"}, "activation": "linear", "use_bias": false, "activity_regularizer": null, "filters": 80, "strides": [1, 1], "data_format": "channels_last", "bias_regularizer": null, "dilation_rate": [1, 1], "kernel_regularizer": null, "kernel_constraint": null, "bias_constraint": null, "kernel_size": [1, 1], "padding": "valid"}, "class_name": "Conv2D", "inbound_nodes": [[["max_pooling2d_1", 0, 0, {}]]]}, {"name": "batch_normalization_4", "config": {"scale": false, "beta_constraint": null, "moving_mean_initializer": {"config": {}, "class_name": "Zeros"}, "beta_regularizer": null, "trainable": true, "beta_initializer": {"config": {}, "class_name": "Zeros"}, "gamma_initializer": {"config": {}, "class_name": "Ones"}, "gamma_constraint": null, "name": "batch_normalization_4", "epsilon": 0.001, "momentum": 0.99, "moving_variance_initializer": {"config": {}, "class_name": "Ones"}, "axis": 3, "gamma_regularizer": null, "center": true}, "class_name": "BatchNormalization", "inbound_nodes": [[["conv2d_4", 0, 0, {}]]]}, {"name": "activation_4", "config": {"name": "activation_4", "trainable": true, "activation": "relu"}, "class_name": "Activation", "inbound_nodes": [[["batch_normalization_4", 0, 0, {}]]]}, {"name": "conv2d_5", "config": {"name": "conv2d_5", "bias_initializer": {"config": {}, "class_name": "Zeros"}, "trainable": true, "kernel_initializer": {"config": {"seed": null, "mode": "fan_avg", "distribution": "uniform", "scale": 1.0}, "class_name": "VarianceScaling"}, "activation": "linear", "use_bias": false, "activity_regularizer": null, "filters": 192, "strides": [1, 1], "data_format": "channels_last", "bias_regularizer": null, "dilation_rate": [1, 1], "kernel_regularizer": null, "kernel_constraint": null, "bias_constraint": null, "kernel_size": [3, 3], "padding": "valid"}, "class_name": "Conv2D", "inbound_nodes": [[["activation_4", 0, 0, {}]]]}, {"name": "batch_normalization_5", "config": {"scale": false, "beta_constraint": null, "moving_mean_initializer": {"config": {}, "class_name": "Zeros"}, "beta_regularizer": null, "trainable": true, "beta_initializer": {"config": {}, "class_name": "Zeros"}, "gamma_initializer": {"config": {}, "class_name": "Ones"}, "gamma_constraint": null, "name": "batch_normalization_5", "epsilon": 0.001, "momentum": 0.99, "moving_variance_initializer": {"config": {}, "class_name": "Ones"}, "axis": 3, "gamma_regularizer": null, "center": true}, "class_name": "BatchNormalization", "inbound_nodes": [[["conv2d_5", 0, 0, {}]]]}, {"name": "activation_5", "config": {"name": "activation_5", "trainable": true, "activation": "relu"}, "class_name": "Activation", "inbound_nodes": [[["batch_normalization_5", 0, 0, {}]]]}, {"name": "max_pooling2d_2", "config": {"name": "max_pooling2d_2", "data_format": "channels_last", "pool_size": [3, 3], "strides": [2, 2], "padding": "valid", "trainable": true}, "class_name": "MaxPooling2D", "inbound_nodes": [[["activation_5", 0, 0, {}]]]}, {"name": "conv2d_9", "config": {"name": "conv2d_9", "bias_initializer": {"config": {}, "class_name": "Zeros"}, "trainable": true, "kernel_initializer": {"config": {"seed": null, "mode": "fan_avg", "distribution": "uniform", "scale": 1.0}, "class_name": "VarianceScaling"}, "activation": "linear", "use_bias": false, "activity_regularizer": null, "filters": 64, "strides": [1, 1], "data_format": "channels_last", "bias_regularizer": null, "dilation_rate": [1, 1], "kernel_regularizer": null, "kernel_constraint": null, "bias_constraint": null, "kernel_size": [1, 1], "padding": "same"}, "class_name": "Conv2D", "inbound_nodes": [[["max_pooling2d_2", 0, 0, {}]]]}, {"name": "batch_normalization_9", "config": {"scale": false, "beta_constraint": null, "moving_mean_initializer": {"config": {}, "class_name": "Zeros"}, "beta_regularizer": null, "trainable": true, "beta_initializer": {"config": {}, "class_name": "Zeros"}, "gamma_initializer": {"config": {}, "class_name": "Ones"}, "gamma_constraint": null, "name": "batch_normalization_9", "epsilon": 0.001, "momentum": 0.99, "moving_variance_initializer": {"config": {}, "class_name": "Ones"}, "axis": 3, "gamma_regularizer": null, "center": true}, "class_name": "BatchNormalization", "inbound_nodes": [[["conv2d_9", 0, 0, {}]]]}, {"name": "activation_9", "config": {"name": "activation_9", "trainable": true, "activation": "relu"}, "class_name": "Activation", "inbound_nodes": [[["batch_normalization_9", 0, 0, {}]]]}, {"name": "conv2d_7", "config": {"name": "conv2d_7", "bias_initializer": {"config": {}, "class_name": "Zeros"}, "trainable": true, "kernel_initializer": {"config": {"seed": null, "mode": "fan_avg", "distribution": "uniform", "scale": 1.0}, "class_name": "VarianceScaling"}, "activation": "linear", "use_bias": false, "activity_regularizer": null, "filters": 48, "strides": [1, 1], "data_format": "channels_last", "bias_regularizer": null, "dilation_rate": [1, 1], "kernel_regularizer": null, "kernel_constraint": null, "bias_constraint": null, "kernel_size": [1, 1], "padding": "same"}, "class_name": "Conv2D", "inbound_nodes": [[["max_pooling2d_2", 0, 0, {}]]]}, {"name": "conv2d_10", "config": {"name": "conv2d_10", "bias_initializer": {"config": {}, "class_name": "Zeros"}, "trainable": true, "kernel_initializer": {"config": {"seed": null, "mode": "fan_avg", "distribution": "uniform", "scale": 1.0}, "class_name": "VarianceScaling"}, "activation": "linear", "use_bias": false, "activity_regularizer": null, "filters": 96, "strides": [1, 1], "data_format": "channels_last", "bias_regularizer": null, "dilation_rate": [1, 1], "kernel_regularizer": null, "kernel_constraint": null, "bias_constraint": null, "kernel_size": [3, 3], "padding": "same"}, "class_name": "Conv2D", "inbound_nodes": [[["activation_9", 0, 0, {}]]]}, {"name": "batch_normalization_7", "config": {"scale": false, "beta_constraint": null, "moving_mean_initializer": {"config": {}, "class_name": "Zeros"}, "beta_regularizer": null, "trainable": true, "beta_initializer": {"config": {}, "class_name": "Zeros"}, "gamma_initializer": {"config": {}, "class_name": "Ones"}, "gamma_constraint": null, "name": "batch_normalization_7", "epsilon": 0.001, "momentum": 0.99, "moving_variance_initializer": {"config": {}, "class_name": "Ones"}, "axis": 3, "gamma_regularizer": null, "center": true}, "class_name": "BatchNormalization", "inbound_nodes": [[["conv2d_7", 0, 0, {}]]]}, {"name": "batch_normalization_10", "config": {"scale": false, "beta_constraint": null, "moving_mean_initializer": {"config": {}, "class_name": "Zeros"}, "beta_regularizer": null, "trainable": true, "beta_initializer": {"config": {}, "class_name": "Zeros"}, "gamma_initializer": {"config": {}, "class_name": "Ones"}, "gamma_constraint": null, "name": "batch_normalization_10", "epsilon": 0.001, "momentum": 0.99, "moving_variance_initializer": {"config": {}, "class_name": "Ones"}, "axis": 3, "gamma_regularizer": null, "center": true}, "class_name": "BatchNormalization", "inbound_nodes": [[["conv2d_10", 0, 0, {}]]]}, {"name": "activation_7", "config": {"name": "activation_7", "trainable": true, "activation": "relu"}, "class_name": "Activation", "inbound_nodes": [[["batch_normalization_7", 0, 0, {}]]]}, {"name": "activation_10", "config": {"name": "activation_10", "trainable": true, "activation": "relu"}, "class_name": "Activation", "inbound_nodes": [[["batch_normalization_10", 0, 0, {}]]]}, {"name": "average_pooling2d_1", "config": {"name": "average_pooling2d_1", "data_format": "channels_last", "pool_size": [3, 3], "strides": [1, 1], "padding": "same", "trainable": true}, "class_name": "AveragePooling2D", "inbound_nodes": [[["max_pooling2d_2", 0, 0, {}]]]}, {"name": "conv2d_6", "config": {"name": "conv2d_6", "bias_initializer": {"config": {}, "class_name": "Zeros"}, "trainable": true, "kernel_initializer": {"config": {"seed": null, "mode": "fan_avg", "distribution": "uniform", "scale": 1.0}, "class_name": "VarianceScaling"}, "activation": "linear", "use_bias": false, "activity_regularizer": null, "filters": 64, "strides": [1, 1], "data_format": "channels_last", "bias_regularizer": null, "dilation_rate": [1, 1], "kernel_regularizer": null, "kernel_constraint": null, "bias_constraint": null, "kernel_size": [1, 1], "padding": "same"}, "class_name": "Conv2D", "inbound_nodes": [[["max_pooling2d_2", 0, 0, {}]]]}, {"name": "conv2d_8", "config": {"name": "conv2d_8", "bias_initializer": {"config": {}, "class_name": "Zeros"}, "trainable": true, "kernel_initializer": {"config": {"seed": null, "mode": "fan_avg", "distribution": "uniform", "scale": 1.0}, "class_name": "VarianceScaling"}, "activation": "linear", "use_bias": false, "activity_regularizer": null, "filters": 64, "strides": [1, 1], "data_format": "channels_last", "bias_regularizer": null, "dilation_rate": [1, 1], "kernel_regularizer": null, "kernel_constraint": null, "bias_constraint": null, "kernel_size": [5, 5], "padding": "same"}, "class_name": "Conv2D", "inbound_nodes": [[["activation_7", 0, 0, {}]]]}, {"name": "conv2d_11", "config": {"name": "conv2d_11", "bias_initializer": {"config": {}, "class_name": "Zeros"}, "trainable": true, "kernel_initializer": {"config": {"seed": null, "mode": "fan_avg", "distribution": "uniform", "scale": 1.0}, "class_name": "VarianceScaling"}, "activation": "linear", "use_bias": false, "activity_regularizer": null, "filters": 96, "strides": [1, 1], "data_format": "channels_last", "bias_regularizer": null, "dilation_rate": [1, 1], "kernel_regularizer": null, "kernel_constraint": null, "bias_constraint": null, "kernel_size": [3, 3], "padding": "same"}, "class_name": "Conv2D", "inbound_nodes": [[["activation_10", 0, 0, {}]]]}, {"name": "conv2d_12", "config": {"name": "conv2d_12", "bias_initializer": {"config": {}, "class_name": "Zeros"}, "trainable": true, "kernel_initializer": {"config": {"seed": null, "mode": "fan_avg", "distribution": "uniform", "scale": 1.0}, "class_name": "VarianceScaling"}, "activation": "linear", "use_bias": false, "activity_regularizer": null, "filters": 32, "strides": [1, 1], "data_format": "channels_last", "bias_regularizer": null, "dilation_rate": [1, 1], "kernel_regularizer": null, "kernel_constraint": null, "bias_constraint": null, "kernel_size": [1, 1], "padding": "same"}, "class_name": "Conv2D", "inbound_nodes": [[["average_pooling2d_1", 0, 0, {}]]]}, {"name": "batch_normalization_6", "config": {"scale": false, "beta_constraint": null, "moving_mean_initializer": {"config": {}, "class_name": "Zeros"}, "beta_regularizer": null, "trainable": true, "beta_initializer": {"config": {}, "class_name": "Zeros"}, "gamma_initializer": {"config": {}, "class_name": "Ones"}, "gamma_constraint": null, "name": "batch_normalization_6", "epsilon": 0.001, "momentum": 0.99, "moving_variance_initializer": {"config": {}, "class_name": "Ones"}, "axis": 3, "gamma_regularizer": null, "center": true}, "class_name": "BatchNormalization", "inbound_nodes": [[["conv2d_6", 0, 0, {}]]]}, {"name": "batch_normalization_8", "config": {"scale": false, "beta_constraint": null, "moving_mean_initializer": {"config": {}, "class_name": "Zeros"}, "beta_regularizer": null, "trainable": true, "beta_initializer": {"config": {}, "class_name": "Zeros"}, "gamma_initializer": {"config": {}, "class_name": "Ones"}, "gamma_constraint": null, "name": "batch_normalization_8", "epsilon": 0.001, "momentum": 0.99, "moving_variance_initializer": {"config": {}, "class_name": "Ones"}, "axis": 3, "gamma_regularizer": null, "center": true}, "class_name": "BatchNormalization", "inbound_nodes": [[["conv2d_8", 0, 0, {}]]]}, {"name": "batch_normalization_11", "config": {"scale": false, "beta_constraint": null, "moving_mean_initializer": {"config": {}, "class_name": "Zeros"}, "beta_regularizer": null, "trainable": true, "beta_initializer": {"config": {}, "class_name": "Zeros"}, "gamma_initializer": {"config": {}, "class_name": "Ones"}, "gamma_constraint": null, "name": "batch_normalization_11", "epsilon": 0.001, "momentum": 0.99, "moving_variance_initializer": {"config": {}, "class_name": "Ones"}, "axis": 3, "gamma_regularizer": null, "center": true}, "class_name": "BatchNormalization", "inbound_nodes": [[["conv2d_11", 0, 0, {}]]]}, {"name": "batch_normalization_12", "config": {"scale": false, "beta_constraint": null, "moving_mean_initializer": {"config": {}, "class_name": "Zeros"}, "beta_regularizer": null, "trainable": true, "beta_initializer": {"config": {}, "class_name": "Zeros"}, "gamma_initializer": {"config": {}, "class_name": "Ones"}, "gamma_constraint": null, "name": "batch_normalization_12", "epsilon": 0.001, "momentum": 0.99, "moving_variance_initializer": {"config": {}, "class_name": "Ones"}, "axis": 3, "gamma_regularizer": null, "center": true}, "class_name": "BatchNormalization", "inbound_nodes": [[["conv2d_12", 0, 0, {}]]]}, {"name": "activation_6", "config": {"name": "activation_6", "trainable": true, "activation": "relu"}, "class_name": "Activation", "inbound_nodes": [[["batch_normalization_6", 0, 0, {}]]]}, {"name": "activation_8", "config": {"name": "activation_8", "trainable": true, "activation": "relu"}, "class_name": "Activation", "inbound_nodes": [[["batch_normalization_8", 0, 0, {}]]]}, {"name": "activation_11", "config": {"name": "activation_11", "trainable": true, "activation": "relu"}, "class_name": "Activation", "inbound_nodes": [[["batch_normalization_11", 0, 0, {}]]]}, {"name": "activation_12", "config": {"name": "activation_12", "trainable": true, "activation": "relu"}, "class_name": "Activation", "inbound_nodes": [[["batch_normalization_12", 0, 0, {}]]]}, {"name": "mixed0", "config": {"name": "mixed0", "trainable": true, "axis": 3}, "class_name": "Concatenate", "inbound_nodes": [[["activation_6", 0, 0, {}], ["activation_8", 0, 0, {}], ["activation_11", 0, 0, {}], ["activation_12", 0, 0, {}]]]}, {"name": "conv2d_16", "config": {"name": "conv2d_16", "bias_initializer": {"config": {}, "class_name": "Zeros"}, "trainable": true, "kernel_initializer": {"config": {"seed": null, "mode": "fan_avg", "distribution": "uniform", "scale": 1.0}, "class_name": "VarianceScaling"}, "activation": "linear", "use_bias": false, "activity_regularizer": null, "filters": 64, "strides": [1, 1], "data_format": "channels_last", "bias_regularizer": null, "dilation_rate": [1, 1], "kernel_regularizer": null, "kernel_constraint": null, "bias_constraint": null, "kernel_size": [1, 1], "padding": "same"}, "class_name": "Conv2D", "inbound_nodes": [[["mixed0", 0, 0, {}]]]}, {"name": "batch_normalization_16", "config": {"scale": false, "beta_constraint": null, "moving_mean_initializer": {"config": {}, "class_name": "Zeros"}, "beta_regularizer": null, "trainable": true, "beta_initializer": {"config": {}, "class_name": "Zeros"}, "gamma_initializer": {"config": {}, "class_name": "Ones"}, "gamma_constraint": null, "name": "batch_normalization_16", "epsilon": 0.001, "momentum": 0.99, "moving_variance_initializer": {"config": {}, "class_name": "Ones"}, "axis": 3, "gamma_regularizer": null, "center": true}, "class_name": "BatchNormalization", "inbound_nodes": [[["conv2d_16", 0, 0, {}]]]}, {"name": "activation_16", "config": {"name": "activation_16", "trainable": true, "activation": "relu"}, "class_name": "Activation", "inbound_nodes": [[["batch_normalization_16", 0, 0, {}]]]}, {"name": "conv2d_14", "config": {"name": "conv2d_14", "bias_initializer": {"config": {}, "class_name": "Zeros"}, "trainable": true, "kernel_initializer": {"config": {"seed": null, "mode": "fan_avg", "distribution": "uniform", "scale": 1.0}, "class_name": "VarianceScaling"}, "activation": "linear", "use_bias": false, "activity_regularizer": null, "filters": 48, "strides": [1, 1], "data_format": "channels_last", "bias_regularizer": null, "dilation_rate": [1, 1], "kernel_regularizer": null, "kernel_constraint": null, "bias_constraint": null, "kernel_size": [1, 1], "padding": "same"}, "class_name": "Conv2D", "inbound_nodes": [[["mixed0", 0, 0, {}]]]}, {"name": "conv2d_17", "config": {"name": "conv2d_17", "bias_initializer": {"config": {}, "class_name": "Zeros"}, "trainable": true, "kernel_initializer": {"config": {"seed": null, "mode": "fan_avg", "distribution": "uniform", "scale": 1.0}, "class_name": "VarianceScaling"}, "activation": "linear", "use_bias": false, "activity_regularizer": null, "filters": 96, "strides": [1, 1], "data_format": "channels_last", "bias_regularizer": null, "dilation_rate": [1, 1], "kernel_regularizer": null, "kernel_constraint": null, "bias_constraint": null, "kernel_size": [3, 3], "padding": "same"}, "class_name": "Conv2D", "inbound_nodes": [[["activation_16", 0, 0, {}]]]}, {"name": "batch_normalization_14", "config": {"scale": false, "beta_constraint": null, "moving_mean_initializer": {"config": {}, "class_name": "Zeros"}, "beta_regularizer": null, "trainable": true, "beta_initializer": {"config": {}, "class_name": "Zeros"}, "gamma_initializer": {"config": {}, "class_name": "Ones"}, "gamma_constraint": null, "name": "batch_normalization_14", "epsilon": 0.001, "momentum": 0.99, "moving_variance_initializer": {"config": {}, "class_name": "Ones"}, "axis": 3, "gamma_regularizer": null, "center": true}, "class_name": "BatchNormalization", "inbound_nodes": [[["conv2d_14", 0, 0, {}]]]}, {"name": "batch_normalization_17", "config": {"scale": false, "beta_constraint": null, "moving_mean_initializer": {"config": {}, "class_name": "Zeros"}, "beta_regularizer": null, "trainable": true, "beta_initializer": {"config": {}, "class_name": "Zeros"}, "gamma_initializer": {"config": {}, "class_name": "Ones"}, "gamma_constraint": null, "name": "batch_normalization_17", "epsilon": 0.001, "momentum": 0.99, "moving_variance_initializer": {"config": {}, "class_name": "Ones"}, "axis": 3, "gamma_regularizer": null, "center": true}, "class_name": "BatchNormalization", "inbound_nodes": [[["conv2d_17", 0, 0, {}]]]}, {"name": "activation_14", "config": {"name": "activation_14", "trainable": true, "activation": "relu"}, "class_name": "Activation", "inbound_nodes": [[["batch_normalization_14", 0, 0, {}]]]}, {"name": "activation_17", "config": {"name": "activation_17", "trainable": true, "activation": "relu"}, "class_name": "Activation", "inbound_nodes": [[["batch_normalization_17", 0, 0, {}]]]}, {"name": "average_pooling2d_2", "config": {"name": "average_pooling2d_2", "data_format": "channels_last", "pool_size": [3, 3], "strides": [1, 1], "padding": "same", "trainable": true}, "class_name": "AveragePooling2D", "inbound_nodes": [[["mixed0", 0, 0, {}]]]}, {"name": "conv2d_13", "config": {"name": "conv2d_13", "bias_initializer": {"config": {}, "class_name": "Zeros"}, "trainable": true, "kernel_initializer": {"config": {"seed": null, "mode": "fan_avg", "distribution": "uniform", "scale": 1.0}, "class_name": "VarianceScaling"}, "activation": "linear", "use_bias": false, "activity_regularizer": null, "filters": 64, "strides": [1, 1], "data_format": "channels_last", "bias_regularizer": null, "dilation_rate": [1, 1], "kernel_regularizer": null, "kernel_constraint": null, "bias_constraint": null, "kernel_size": [1, 1], "padding": "same"}, "class_name": "Conv2D", "inbound_nodes": [[["mixed0", 0, 0, {}]]]}, {"name": "conv2d_15", "config": {"name": "conv2d_15", "bias_initializer": {"config": {}, "class_name": "Zeros"}, "trainable": true, "kernel_initializer": {"config": {"seed": null, "mode": "fan_avg", "distribution": "uniform", "scale": 1.0}, "class_name": "VarianceScaling"}, "activation": "linear", "use_bias": false, "activity_regularizer": null, "filters": 64, "strides": [1, 1], "data_format": "channels_last", "bias_regularizer": null, "dilation_rate": [1, 1], "kernel_regularizer": null, "kernel_constraint": null, "bias_constraint": null, "kernel_size": [5, 5], "padding": "same"}, "class_name": "Conv2D", "inbound_nodes": [[["activation_14", 0, 0, {}]]]}, {"name": "conv2d_18", "config": {"name": "conv2d_18", "bias_initializer": {"config": {}, "class_name": "Zeros"}, "trainable": true, "kernel_initializer": {"config": {"seed": null, "mode": "fan_avg", "distribution": "uniform", "scale": 1.0}, "class_name": "VarianceScaling"}, "activation": "linear", "use_bias": false, "activity_regularizer": null, "filters": 96, "strides": [1, 1], "data_format": "channels_last", "bias_regularizer": null, "dilation_rate": [1, 1], "kernel_regularizer": null, "kernel_constraint": null, "bias_constraint": null, "kernel_size": [3, 3], "padding": "same"}, "class_name": "Conv2D", "inbound_nodes": [[["activation_17", 0, 0, {}]]]}, {"name": "conv2d_19", "config": {"name": "conv2d_19", "bias_initializer": {"config": {}, "class_name": "Zeros"}, "trainable": true, "kernel_initializer": {"config": {"seed": null, "mode": "fan_avg", "distribution": "uniform", "scale": 1.0}, "class_name": "VarianceScaling"}, "activation": "linear", "use_bias": false, "activity_regularizer": null, "filters": 64, "strides": [1, 1], "data_format": "channels_last", "bias_regularizer": null, "dilation_rate": [1, 1], "kernel_regularizer": null, "kernel_constraint": null, "bias_constraint": null, "kernel_size": [1, 1], "padding": "same"}, "class_name": "Conv2D", "inbound_nodes": [[["average_pooling2d_2", 0, 0, {}]]]}, {"name": "batch_normalization_13", "config": {"scale": false, "beta_constraint": null, "moving_mean_initializer": {"config": {}, "class_name": "Zeros"}, "beta_regularizer": null, "trainable": true, "beta_initializer": {"config": {}, "class_name": "Zeros"}, "gamma_initializer": {"config": {}, "class_name": "Ones"}, "gamma_constraint": null, "name": "batch_normalization_13", "epsilon": 0.001, "momentum": 0.99, "moving_variance_initializer": {"config": {}, "class_name": "Ones"}, "axis": 3, "gamma_regularizer": null, "center": true}, "class_name": "BatchNormalization", "inbound_nodes": [[["conv2d_13", 0, 0, {}]]]}, {"name": "batch_normalization_15", "config": {"scale": false, "beta_constraint": null, "moving_mean_initializer": {"config": {}, "class_name": "Zeros"}, "beta_regularizer": null, "trainable": true, "beta_initializer": {"config": {}, "class_name": "Zeros"}, "gamma_initializer": {"config": {}, "class_name": "Ones"}, "gamma_constraint": null, "name": "batch_normalization_15", "epsilon": 0.001, "momentum": 0.99, "moving_variance_initializer": {"config": {}, "class_name": "Ones"}, "axis": 3, "gamma_regularizer": null, "center": true}, "class_name": "BatchNormalization", "inbound_nodes": [[["conv2d_15", 0, 0, {}]]]}, {"name": "batch_normalization_18", "config": {"scale": false, "beta_constraint": null, "moving_mean_initializer": {"config": {}, "class_name": "Zeros"}, "beta_regularizer": null, "trainable": true, "beta_initializer": {"config": {}, "class_name": "Zeros"}, "gamma_initializer": {"config": {}, "class_name": "Ones"}, "gamma_constraint": null, "name": "batch_normalization_18", "epsilon": 0.001, "momentum": 0.99, "moving_variance_initializer": {"config": {}, "class_name": "Ones"}, "axis": 3, "gamma_regularizer": null, "center": true}, "class_name": "BatchNormalization", "inbound_nodes": [[["conv2d_18", 0, 0, {}]]]}, {"name": "batch_normalization_19", "config": {"scale": false, "beta_constraint": null, "moving_mean_initializer": {"config": {}, "class_name": "Zeros"}, "beta_regularizer": null, "trainable": true, "beta_initializer": {"config": {}, "class_name": "Zeros"}, "gamma_initializer": {"config": {}, "class_name": "Ones"}, "gamma_constraint": null, "name": "batch_normalization_19", "epsilon": 0.001, "momentum": 0.99, "moving_variance_initializer": {"config": {}, "class_name": "Ones"}, "axis": 3, "gamma_regularizer": null, "center": true}, "class_name": "BatchNormalization", "inbound_nodes": [[["conv2d_19", 0, 0, {}]]]}, {"name": "activation_13", "config": {"name": "activation_13", "trainable": true, "activation": "relu"}, "class_name": "Activation", "inbound_nodes": [[["batch_normalization_13", 0, 0, {}]]]}, {"name": "activation_15", "config": {"name": "activation_15", "trainable": true, "activation": "relu"}, "class_name": "Activation", "inbound_nodes": [[["batch_normalization_15", 0, 0, {}]]]}, {"name": "activation_18", "config": {"name": "activation_18", "trainable": true, "activation": "relu"}, "class_name": "Activation", "inbound_nodes": [[["batch_normalization_18", 0, 0, {}]]]}, {"name": "activation_19", "config": {"name": "activation_19", "trainable": true, "activation": "relu"}, "class_name": "Activation", "inbound_nodes": [[["batch_normalization_19", 0, 0, {}]]]}, {"name": "mixed1", "config": {"name": "mixed1", "trainable": true, "axis": 3}, "class_name": "Concatenate", "inbound_nodes": [[["activation_13", 0, 0, {}], ["activation_15", 0, 0, {}], ["activation_18", 0, 0, {}], ["activation_19", 0, 0, {}]]]}, {"name": "conv2d_23", "config": {"name": "conv2d_23", "bias_initializer": {"config": {}, "class_name": "Zeros"}, "trainable": true, "kernel_initializer": {"config": {"seed": null, "mode": "fan_avg", "distribution": "uniform", "scale": 1.0}, "class_name": "VarianceScaling"}, "activation": "linear", "use_bias": false, "activity_regularizer": null, "filters": 64, "strides": [1, 1], "data_format": "channels_last", "bias_regularizer": null, "dilation_rate": [1, 1], "kernel_regularizer": null, "kernel_constraint": null, "bias_constraint": null, "kernel_size": [1, 1], "padding": "same"}, "class_name": "Conv2D", "inbound_nodes": [[["mixed1", 0, 0, {}]]]}, {"name": "batch_normalization_23", "config": {"scale": false, "beta_constraint": null, "moving_mean_initializer": {"config": {}, "class_name": "Zeros"}, "beta_regularizer": null, "trainable": true, "beta_initializer": {"config": {}, "class_name": "Zeros"}, "gamma_initializer": {"config": {}, "class_name": "Ones"}, "gamma_constraint": null, "name": "batch_normalization_23", "epsilon": 0.001, "momentum": 0.99, "moving_variance_initializer": {"config": {}, "class_name": "Ones"}, "axis": 3, "gamma_regularizer": null, "center": true}, "class_name": "BatchNormalization", "inbound_nodes": [[["conv2d_23", 0, 0, {}]]]}, {"name": "activation_23", "config": {"name": "activation_23", "trainable": true, "activation": "relu"}, "class_name": "Activation", "inbound_nodes": [[["batch_normalization_23", 0, 0, {}]]]}, {"name": "conv2d_21", "config": {"name": "conv2d_21", "bias_initializer": {"config": {}, "class_name": "Zeros"}, "trainable": true, "kernel_initializer": {"config": {"seed": null, "mode": "fan_avg", "distribution": "uniform", "scale": 1.0}, "class_name": "VarianceScaling"}, "activation": "linear", "use_bias": false, "activity_regularizer": null, "filters": 48, "strides": [1, 1], "data_format": "channels_last", "bias_regularizer": null, "dilation_rate": [1, 1], "kernel_regularizer": null, "kernel_constraint": null, "bias_constraint": null, "kernel_size": [1, 1], "padding": "same"}, "class_name": "Conv2D", "inbound_nodes": [[["mixed1", 0, 0, {}]]]}, {"name": "conv2d_24", "config": {"name": "conv2d_24", "bias_initializer": {"config": {}, "class_name": "Zeros"}, "trainable": true, "kernel_initializer": {"config": {"seed": null, "mode": "fan_avg", "distribution": "uniform", "scale": 1.0}, "class_name": "VarianceScaling"}, "activation": "linear", "use_bias": false, "activity_regularizer": null, "filters": 96, "strides": [1, 1], "data_format": "channels_last", "bias_regularizer": null, "dilation_rate": [1, 1], "kernel_regularizer": null, "kernel_constraint": null, "bias_constraint": null, "kernel_size": [3, 3], "padding": "same"}, "class_name": "Conv2D", "inbound_nodes": [[["activation_23", 0, 0, {}]]]}, {"name": "batch_normalization_21", "config": {"scale": false, "beta_constraint": null, "moving_mean_initializer": {"config": {}, "class_name": "Zeros"}, "beta_regularizer": null, "trainable": true, "beta_initializer": {"config": {}, "class_name": "Zeros"}, "gamma_initializer": {"config": {}, "class_name": "Ones"}, "gamma_constraint": null, "name": "batch_normalization_21", "epsilon": 0.001, "momentum": 0.99, "moving_variance_initializer": {"config": {}, "class_name": "Ones"}, "axis": 3, "gamma_regularizer": null, "center": true}, "class_name": "BatchNormalization", "inbound_nodes": [[["conv2d_21", 0, 0, {}]]]}, {"name": "batch_normalization_24", "config": {"scale": false, "beta_constraint": null, "moving_mean_initializer": {"config": {}, "class_name": "Zeros"}, "beta_regularizer": null, "trainable": true, "beta_initializer": {"config": {}, "class_name": "Zeros"}, "gamma_initializer": {"config": {}, "class_name": "Ones"}, "gamma_constraint": null, "name": "batch_normalization_24", "epsilon": 0.001, "momentum": 0.99, "moving_variance_initializer": {"config": {}, "class_name": "Ones"}, "axis": 3, "gamma_regularizer": null, "center": true}, "class_name": "BatchNormalization", "inbound_nodes": [[["conv2d_24", 0, 0, {}]]]}, {"name": "activation_21", "config": {"name": "activation_21", "trainable": true, "activation": "relu"}, "class_name": "Activation", "inbound_nodes": [[["batch_normalization_21", 0, 0, {}]]]}, {"name": "activation_24", "config": {"name": "activation_24", "trainable": true, "activation": "relu"}, "class_name": "Activation", "inbound_nodes": [[["batch_normalization_24", 0, 0, {}]]]}, {"name": "average_pooling2d_3", "config": {"name": "average_pooling2d_3", "data_format": "channels_last", "pool_size": [3, 3], "strides": [1, 1], "padding": "same", "trainable": true}, "class_name": "AveragePooling2D", "inbound_nodes": [[["mixed1", 0, 0, {}]]]}, {"name": "conv2d_20", "config": {"name": "conv2d_20", "bias_initializer": {"config": {}, "class_name": "Zeros"}, "trainable": true, "kernel_initializer": {"config": {"seed": null, "mode": "fan_avg", "distribution": "uniform", "scale": 1.0}, "class_name": "VarianceScaling"}, "activation": "linear", "use_bias": false, "activity_regularizer": null, "filters": 64, "strides": [1, 1], "data_format": "channels_last", "bias_regularizer": null, "dilation_rate": [1, 1], "kernel_regularizer": null, "kernel_constraint": null, "bias_constraint": null, "kernel_size": [1, 1], "padding": "same"}, "class_name": "Conv2D", "inbound_nodes": [[["mixed1", 0, 0, {}]]]}, {"name": "conv2d_22", "config": {"name": "conv2d_22", "bias_initializer": {"config": {}, "class_name": "Zeros"}, "trainable": true, "kernel_initializer": {"config": {"seed": null, "mode": "fan_avg", "distribution": "uniform", "scale": 1.0}, "class_name": "VarianceScaling"}, "activation": "linear", "use_bias": false, "activity_regularizer": null, "filters": 64, "strides": [1, 1], "data_format": "channels_last", "bias_regularizer": null, "dilation_rate": [1, 1], "kernel_regularizer": null, "kernel_constraint": null, "bias_constraint": null, "kernel_size": [5, 5], "padding": "same"}, "class_name": "Conv2D", "inbound_nodes": [[["activation_21", 0, 0, {}]]]}, {"name": "conv2d_25", "config": {"name": "conv2d_25", "bias_initializer": {"config": {}, "class_name": "Zeros"}, "trainable": true, "kernel_initializer": {"config": {"seed": null, "mode": "fan_avg", "distribution": "uniform", "scale": 1.0}, "class_name": "VarianceScaling"}, "activation": "linear", "use_bias": false, "activity_regularizer": null, "filters": 96, "strides": [1, 1], "data_format": "channels_last", "bias_regularizer": null, "dilation_rate": [1, 1], "kernel_regularizer": null, "kernel_constraint": null, "bias_constraint": null, "kernel_size": [3, 3], "padding": "same"}, "class_name": "Conv2D", "inbound_nodes": [[["activation_24", 0, 0, {}]]]}, {"name": "conv2d_26", "config": {"name": "conv2d_26", "bias_initializer": {"config": {}, "class_name": "Zeros"}, "trainable": true, "kernel_initializer": {"config": {"seed": null, "mode": "fan_avg", "distribution": "uniform", "scale": 1.0}, "class_name": "VarianceScaling"}, "activation": "linear", "use_bias": false, "activity_regularizer": null, "filters": 64, "strides": [1, 1], "data_format": "channels_last", "bias_regularizer": null, "dilation_rate": [1, 1], "kernel_regularizer": null, "kernel_constraint": null, "bias_constraint": null, "kernel_size": [1, 1], "padding": "same"}, "class_name": "Conv2D", "inbound_nodes": [[["average_pooling2d_3", 0, 0, {}]]]}, {"name": "batch_normalization_20", "config": {"scale": false, "beta_constraint": null, "moving_mean_initializer": {"config": {}, "class_name": "Zeros"}, "beta_regularizer": null, "trainable": true, "beta_initializer": {"config": {}, "class_name": "Zeros"}, "gamma_initializer": {"config": {}, "class_name": "Ones"}, "gamma_constraint": null, "name": "batch_normalization_20", "epsilon": 0.001, "momentum": 0.99, "moving_variance_initializer": {"config": {}, "class_name": "Ones"}, "axis": 3, "gamma_regularizer": null, "center": true}, "class_name": "BatchNormalization", "inbound_nodes": [[["conv2d_20", 0, 0, {}]]]}, {"name": "batch_normalization_22", "config": {"scale": false, "beta_constraint": null, "moving_mean_initializer": {"config": {}, "class_name": "Zeros"}, "beta_regularizer": null, "trainable": true, "beta_initializer": {"config": {}, "class_name": "Zeros"}, "gamma_initializer": {"config": {}, "class_name": "Ones"}, "gamma_constraint": null, "name": "batch_normalization_22", "epsilon": 0.001, "momentum": 0.99, "moving_variance_initializer": {"config": {}, "class_name": "Ones"}, "axis": 3, "gamma_regularizer": null, "center": true}, "class_name": "BatchNormalization", "inbound_nodes": [[["conv2d_22", 0, 0, {}]]]}, {"name": "batch_normalization_25", "config": {"scale": false, "beta_constraint": null, "moving_mean_initializer": {"config": {}, "class_name": "Zeros"}, "beta_regularizer": null, "trainable": true, "beta_initializer": {"config": {}, "class_name": "Zeros"}, "gamma_initializer": {"config": {}, "class_name": "Ones"}, "gamma_constraint": null, "name": "batch_normalization_25", "epsilon": 0.001, "momentum": 0.99, "moving_variance_initializer": {"config": {}, "class_name": "Ones"}, "axis": 3, "gamma_regularizer": null, "center": true}, "class_name": "BatchNormalization", "inbound_nodes": [[["conv2d_25", 0, 0, {}]]]}, {"name": "batch_normalization_26", "config": {"scale": false, "beta_constraint": null, "moving_mean_initializer": {"config": {}, "class_name": "Zeros"}, "beta_regularizer": null, "trainable": true, "beta_initializer": {"config": {}, "class_name": "Zeros"}, "gamma_initializer": {"config": {}, "class_name": "Ones"}, "gamma_constraint": null, "name": "batch_normalization_26", "epsilon": 0.001, "momentum": 0.99, "moving_variance_initializer": {"config": {}, "class_name": "Ones"}, "axis": 3, "gamma_regularizer": null, "center": true}, "class_name": "BatchNormalization", "inbound_nodes": [[["conv2d_26", 0, 0, {}]]]}, {"name": "activation_20", "config": {"name": "activation_20", "trainable": true, "activation": "relu"}, "class_name": "Activation", "inbound_nodes": [[["batch_normalization_20", 0, 0, {}]]]}, {"name": "activation_22", "config": {"name": "activation_22", "trainable": true, "activation": "relu"}, "class_name": "Activation", "inbound_nodes": [[["batch_normalization_22", 0, 0, {}]]]}, {"name": "activation_25", "config": {"name": "activation_25", "trainable": true, "activation": "relu"}, "class_name": "Activation", "inbound_nodes": [[["batch_normalization_25", 0, 0, {}]]]}, {"name": "activation_26", "config": {"name": "activation_26", "trainable": true, "activation": "relu"}, "class_name": "Activation", "inbound_nodes": [[["batch_normalization_26", 0, 0, {}]]]}, {"name": "mixed2", "config": {"name": "mixed2", "trainable": true, "axis": 3}, "class_name": "Concatenate", "inbound_nodes": [[["activation_20", 0, 0, {}], ["activation_22", 0, 0, {}], ["activation_25", 0, 0, {}], ["activation_26", 0, 0, {}]]]}, {"name": "conv2d_28", "config": {"name": "conv2d_28", "bias_initializer": {"config": {}, "class_name": "Zeros"}, "trainable": true, "kernel_initializer": {"config": {"seed": null, "mode": "fan_avg", "distribution": "uniform", "scale": 1.0}, "class_name": "VarianceScaling"}, "activation": "linear", "use_bias": false, "activity_regularizer": null, "filters": 64, "strides": [1, 1], "data_format": "channels_last", "bias_regularizer": null, "dilation_rate": [1, 1], "kernel_regularizer": null, "kernel_constraint": null, "bias_constraint": null, "kernel_size": [1, 1], "padding": "same"}, "class_name": "Conv2D", "inbound_nodes": [[["mixed2", 0, 0, {}]]]}, {"name": "batch_normalization_28", "config": {"scale": false, "beta_constraint": null, "moving_mean_initializer": {"config": {}, "class_name": "Zeros"}, "beta_regularizer": null, "trainable": true, "beta_initializer": {"config": {}, "class_name": "Zeros"}, "gamma_initializer": {"config": {}, "class_name": "Ones"}, "gamma_constraint": null, "name": "batch_normalization_28", "epsilon": 0.001, "momentum": 0.99, "moving_variance_initializer": {"config": {}, "class_name": "Ones"}, "axis": 3, "gamma_regularizer": null, "center": true}, "class_name": "BatchNormalization", "inbound_nodes": [[["conv2d_28", 0, 0, {}]]]}, {"name": "activation_28", "config": {"name": "activation_28", "trainable": true, "activation": "relu"}, "class_name": "Activation", "inbound_nodes": [[["batch_normalization_28", 0, 0, {}]]]}, {"name": "conv2d_29", "config": {"name": "conv2d_29", "bias_initializer": {"config": {}, "class_name": "Zeros"}, "trainable": true, "kernel_initializer": {"config": {"seed": null, "mode": "fan_avg", "distribution": "uniform", "scale": 1.0}, "class_name": "VarianceScaling"}, "activation": "linear", "use_bias": false, "activity_regularizer": null, "filters": 96, "strides": [1, 1], "data_format": "channels_last", "bias_regularizer": null, "dilation_rate": [1, 1], "kernel_regularizer": null, "kernel_constraint": null, "bias_constraint": null, "kernel_size": [3, 3], "padding": "same"}, "class_name": "Conv2D", "inbound_nodes": [[["activation_28", 0, 0, {}]]]}, {"name": "batch_normalization_29", "config": {"scale": false, "beta_constraint": null, "moving_mean_initializer": {"config": {}, "class_name": "Zeros"}, "beta_regularizer": null, "trainable": true, "beta_initializer": {"config": {}, "class_name": "Zeros"}, "gamma_initializer": {"config": {}, "class_name": "Ones"}, "gamma_constraint": null, "name": "batch_normalization_29", "epsilon": 0.001, "momentum": 0.99, "moving_variance_initializer": {"config": {}, "class_name": "Ones"}, "axis": 3, "gamma_regularizer": null, "center": true}, "class_name": "BatchNormalization", "inbound_nodes": [[["conv2d_29", 0, 0, {}]]]}, {"name": "activation_29", "config": {"name": "activation_29", "trainable": true, "activation": "relu"}, "class_name": "Activation", "inbound_nodes": [[["batch_normalization_29", 0, 0, {}]]]}, {"name": "conv2d_27", "config": {"name": "conv2d_27", "bias_initializer": {"config": {}, "class_name": "Zeros"}, "trainable": true, "kernel_initializer": {"config": {"seed": null, "mode": "fan_avg", "distribution": "uniform", "scale": 1.0}, "class_name": "VarianceScaling"}, "activation": "linear", "use_bias": false, "activity_regularizer": null, "filters": 384, "strides": [2, 2], "data_format": "channels_last", "bias_regularizer": null, "dilation_rate": [1, 1], "kernel_regularizer": null, "kernel_constraint": null, "bias_constraint": null, "kernel_size": [3, 3], "padding": "valid"}, "class_name": "Conv2D", "inbound_nodes": [[["mixed2", 0, 0, {}]]]}, {"name": "conv2d_30", "config": {"name": "conv2d_30", "bias_initializer": {"config": {}, "class_name": "Zeros"}, "trainable": true, "kernel_initializer": {"config": {"seed": null, "mode": "fan_avg", "distribution": "uniform", "scale": 1.0}, "class_name": "VarianceScaling"}, "activation": "linear", "use_bias": false, "activity_regularizer": null, "filters": 96, "strides": [2, 2], "data_format": "channels_last", "bias_regularizer": null, "dilation_rate": [1, 1], "kernel_regularizer": null, "kernel_constraint": null, "bias_constraint": null, "kernel_size": [3, 3], "padding": "valid"}, "class_name": "Conv2D", "inbound_nodes": [[["activation_29", 0, 0, {}]]]}, {"name": "batch_normalization_27", "config": {"scale": false, "beta_constraint": null, "moving_mean_initializer": {"config": {}, "class_name": "Zeros"}, "beta_regularizer": null, "trainable": true, "beta_initializer": {"config": {}, "class_name": "Zeros"}, "gamma_initializer": {"config": {}, "class_name": "Ones"}, "gamma_constraint": null, "name": "batch_normalization_27", "epsilon": 0.001, "momentum": 0.99, "moving_variance_initializer": {"config": {}, "class_name": "Ones"}, "axis": 3, "gamma_regularizer": null, "center": true}, "class_name": "BatchNormalization", "inbound_nodes": [[["conv2d_27", 0, 0, {}]]]}, {"name": "batch_normalization_30", "config": {"scale": false, "beta_constraint": null, "moving_mean_initializer": {"config": {}, "class_name": "Zeros"}, "beta_regularizer": null, "trainable": true, "beta_initializer": {"config": {}, "class_name": "Zeros"}, "gamma_initializer": {"config": {}, "class_name": "Ones"}, "gamma_constraint": null, "name": "batch_normalization_30", "epsilon": 0.001, "momentum": 0.99, "moving_variance_initializer": {"config": {}, "class_name": "Ones"}, "axis": 3, "gamma_regularizer": null, "center": true}, "class_name": "BatchNormalization", "inbound_nodes": [[["conv2d_30", 0, 0, {}]]]}, {"name": "activation_27", "config": {"name": "activation_27", "trainable": true, "activation": "relu"}, "class_name": "Activation", "inbound_nodes": [[["batch_normalization_27", 0, 0, {}]]]}, {"name": "activation_30", "config": {"name": "activation_30", "trainable": true, "activation": "relu"}, "class_name": "Activation", "inbound_nodes": [[["batch_normalization_30", 0, 0, {}]]]}, {"name": "max_pooling2d_3", "config": {"name": "max_pooling2d_3", "data_format": "channels_last", "pool_size": [3, 3], "strides": [2, 2], "padding": "valid", "trainable": true}, "class_name": "MaxPooling2D", "inbound_nodes": [[["mixed2", 0, 0, {}]]]}, {"name": "mixed3", "config": {"name": "mixed3", "trainable": true, "axis": 3}, "class_name": "Concatenate", "inbound_nodes": [[["activation_27", 0, 0, {}], ["activation_30", 0, 0, {}], ["max_pooling2d_3", 0, 0, {}]]]}, {"name": "conv2d_35", "config": {"name": "conv2d_35", "bias_initializer": {"config": {}, "class_name": "Zeros"}, "trainable": true, "kernel_initializer": {"config": {"seed": null, "mode": "fan_avg", "distribution": "uniform", "scale": 1.0}, "class_name": "VarianceScaling"}, "activation": "linear", "use_bias": false, "activity_regularizer": null, "filters": 128, "strides": [1, 1], "data_format": "channels_last", "bias_regularizer": null, "dilation_rate": [1, 1], "kernel_regularizer": null, "kernel_constraint": null, "bias_constraint": null, "kernel_size": [1, 1], "padding": "same"}, "class_name": "Conv2D", "inbound_nodes": [[["mixed3", 0, 0, {}]]]}, {"name": "batch_normalization_35", "config": {"scale": false, "beta_constraint": null, "moving_mean_initializer": {"config": {}, "class_name": "Zeros"}, "beta_regularizer": null, "trainable": true, "beta_initializer": {"config": {}, "class_name": "Zeros"}, "gamma_initializer": {"config": {}, "class_name": "Ones"}, "gamma_constraint": null, "name": "batch_normalization_35", "epsilon": 0.001, "momentum": 0.99, "moving_variance_initializer": {"config": {}, "class_name": "Ones"}, "axis": 3, "gamma_regularizer": null, "center": true}, "class_name": "BatchNormalization", "inbound_nodes": [[["conv2d_35", 0, 0, {}]]]}, {"name": "activation_35", "config": {"name": "activation_35", "trainable": true, "activation": "relu"}, "class_name": "Activation", "inbound_nodes": [[["batch_normalization_35", 0, 0, {}]]]}, {"name": "conv2d_36", "config": {"name": "conv2d_36", "bias_initializer": {"config": {}, "class_name": "Zeros"}, "trainable": true, "kernel_initializer": {"config": {"seed": null, "mode": "fan_avg", "distribution": "uniform", "scale": 1.0}, "class_name": "VarianceScaling"}, "activation": "linear", "use_bias": false, "activity_regularizer": null, "filters": 128, "strides": [1, 1], "data_format": "channels_last", "bias_regularizer": null, "dilation_rate": [1, 1], "kernel_regularizer": null, "kernel_constraint": null, "bias_constraint": null, "kernel_size": [7, 1], "padding": "same"}, "class_name": "Conv2D", "inbound_nodes": [[["activation_35", 0, 0, {}]]]}, {"name": "batch_normalization_36", "config": {"scale": false, "beta_constraint": null, "moving_mean_initializer": {"config": {}, "class_name": "Zeros"}, "beta_regularizer": null, "trainable": true, "beta_initializer": {"config": {}, "class_name": "Zeros"}, "gamma_initializer": {"config": {}, "class_name": "Ones"}, "gamma_constraint": null, "name": "batch_normalization_36", "epsilon": 0.001, "momentum": 0.99, "moving_variance_initializer": {"config": {}, "class_name": "Ones"}, "axis": 3, "gamma_regularizer": null, "center": true}, "class_name": "BatchNormalization", "inbound_nodes": [[["conv2d_36", 0, 0, {}]]]}, {"name": "activation_36", "config": {"name": "activation_36", "trainable": true, "activation": "relu"}, "class_name": "Activation", "inbound_nodes": [[["batch_normalization_36", 0, 0, {}]]]}, {"name": "conv2d_32", "config": {"name": "conv2d_32", "bias_initializer": {"config": {}, "class_name": "Zeros"}, "trainable": true, "kernel_initializer": {"config": {"seed": null, "mode": "fan_avg", "distribution": "uniform", "scale": 1.0}, "class_name": "VarianceScaling"}, "activation": "linear", "use_bias": false, "activity_regularizer": null, "filters": 128, "strides": [1, 1], "data_format": "channels_last", "bias_regularizer": null, "dilation_rate": [1, 1], "kernel_regularizer": null, "kernel_constraint": null, "bias_constraint": null, "kernel_size": [1, 1], "padding": "same"}, "class_name": "Conv2D", "inbound_nodes": [[["mixed3", 0, 0, {}]]]}, {"name": "conv2d_37", "config": {"name": "conv2d_37", "bias_initializer": {"config": {}, "class_name": "Zeros"}, "trainable": true, "kernel_initializer": {"config": {"seed": null, "mode": "fan_avg", "distribution": "uniform", "scale": 1.0}, "class_name": "VarianceScaling"}, "activation": "linear", "use_bias": false, "activity_regularizer": null, "filters": 128, "strides": [1, 1], "data_format": "channels_last", "bias_regularizer": null, "dilation_rate": [1, 1], "kernel_regularizer": null, "kernel_constraint": null, "bias_constraint": null, "kernel_size": [1, 7], "padding": "same"}, "class_name": "Conv2D", "inbound_nodes": [[["activation_36", 0, 0, {}]]]}, {"name": "batch_normalization_32", "config": {"scale": false, "beta_constraint": null, "moving_mean_initializer": {"config": {}, "class_name": "Zeros"}, "beta_regularizer": null, "trainable": true, "beta_initializer": {"config": {}, "class_name": "Zeros"}, "gamma_initializer": {"config": {}, "class_name": "Ones"}, "gamma_constraint": null, "name": "batch_normalization_32", "epsilon": 0.001, "momentum": 0.99, "moving_variance_initializer": {"config": {}, "class_name": "Ones"}, "axis": 3, "gamma_regularizer": null, "center": true}, "class_name": "BatchNormalization", "inbound_nodes": [[["conv2d_32", 0, 0, {}]]]}, {"name": "batch_normalization_37", "config": {"scale": false, "beta_constraint": null, "moving_mean_initializer": {"config": {}, "class_name": "Zeros"}, "beta_regularizer": null, "trainable": true, "beta_initializer": {"config": {}, "class_name": "Zeros"}, "gamma_initializer": {"config": {}, "class_name": "Ones"}, "gamma_constraint": null, "name": "batch_normalization_37", "epsilon": 0.001, "momentum": 0.99, "moving_variance_initializer": {"config": {}, "class_name": "Ones"}, "axis": 3, "gamma_regularizer": null, "center": true}, "class_name": "BatchNormalization", "inbound_nodes": [[["conv2d_37", 0, 0, {}]]]}, {"name": "activation_32", "config": {"name": "activation_32", "trainable": true, "activation": "relu"}, "class_name": "Activation", "inbound_nodes": [[["batch_normalization_32", 0, 0, {}]]]}, {"name": "activation_37", "config": {"name": "activation_37", "trainable": true, "activation": "relu"}, "class_name": "Activation", "inbound_nodes": [[["batch_normalization_37", 0, 0, {}]]]}, {"name": "conv2d_33", "config": {"name": "conv2d_33", "bias_initializer": {"config": {}, "class_name": "Zeros"}, "trainable": true, "kernel_initializer": {"config": {"seed": null, "mode": "fan_avg", "distribution": "uniform", "scale": 1.0}, "class_name": "VarianceScaling"}, "activation": "linear", "use_bias": false, "activity_regularizer": null, "filters": 128, "strides": [1, 1], "data_format": "channels_last", "bias_regularizer": null, "dilation_rate": [1, 1], "kernel_regularizer": null, "kernel_constraint": null, "bias_constraint": null, "kernel_size": [1, 7], "padding": "same"}, "class_name": "Conv2D", "inbound_nodes": [[["activation_32", 0, 0, {}]]]}, {"name": "conv2d_38", "config": {"name": "conv2d_38", "bias_initializer": {"config": {}, "class_name": "Zeros"}, "trainable": true, "kernel_initializer": {"config": {"seed": null, "mode": "fan_avg", "distribution": "uniform", "scale": 1.0}, "class_name": "VarianceScaling"}, "activation": "linear", "use_bias": false, "activity_regularizer": null, "filters": 128, "strides": [1, 1], "data_format": "channels_last", "bias_regularizer": null, "dilation_rate": [1, 1], "kernel_regularizer": null, "kernel_constraint": null, "bias_constraint": null, "kernel_size": [7, 1], "padding": "same"}, "class_name": "Conv2D", "inbound_nodes": [[["activation_37", 0, 0, {}]]]}, {"name": "batch_normalization_33", "config": {"scale": false, "beta_constraint": null, "moving_mean_initializer": {"config": {}, "class_name": "Zeros"}, "beta_regularizer": null, "trainable": true, "beta_initializer": {"config": {}, "class_name": "Zeros"}, "gamma_initializer": {"config": {}, "class_name": "Ones"}, "gamma_constraint": null, "name": "batch_normalization_33", "epsilon": 0.001, "momentum": 0.99, "moving_variance_initializer": {"config": {}, "class_name": "Ones"}, "axis": 3, "gamma_regularizer": null, "center": true}, "class_name": "BatchNormalization", "inbound_nodes": [[["conv2d_33", 0, 0, {}]]]}, {"name": "batch_normalization_38", "config": {"scale": false, "beta_constraint": null, "moving_mean_initializer": {"config": {}, "class_name": "Zeros"}, "beta_regularizer": null, "trainable": true, "beta_initializer": {"config": {}, "class_name": "Zeros"}, "gamma_initializer": {"config": {}, "class_name": "Ones"}, "gamma_constraint": null, "name": "batch_normalization_38", "epsilon": 0.001, "momentum": 0.99, "moving_variance_initializer": {"config": {}, "class_name": "Ones"}, "axis": 3, "gamma_regularizer": null, "center": true}, "class_name": "BatchNormalization", "inbound_nodes": [[["conv2d_38", 0, 0, {}]]]}, {"name": "activation_33", "config": {"name": "activation_33", "trainable": true, "activation": "relu"}, "class_name": "Activation", "inbound_nodes": [[["batch_normalization_33", 0, 0, {}]]]}, {"name": "activation_38", "config": {"name": "activation_38", "trainable": true, "activation": "relu"}, "class_name": "Activation", "inbound_nodes": [[["batch_normalization_38", 0, 0, {}]]]}, {"name": "average_pooling2d_4", "config": {"name": "average_pooling2d_4", "data_format": "channels_last", "pool_size": [3, 3], "strides": [1, 1], "padding": "same", "trainable": true}, "class_name": "AveragePooling2D", "inbound_nodes": [[["mixed3", 0, 0, {}]]]}, {"name": "conv2d_31", "config": {"name": "conv2d_31", "bias_initializer": {"config": {}, "class_name": "Zeros"}, "trainable": true, "kernel_initializer": {"config": {"seed": null, "mode": "fan_avg", "distribution": "uniform", "scale": 1.0}, "class_name": "VarianceScaling"}, "activation": "linear", "use_bias": false, "activity_regularizer": null, "filters": 192, "strides": [1, 1], "data_format": "channels_last", "bias_regularizer": null, "dilation_rate": [1, 1], "kernel_regularizer": null, "kernel_constraint": null, "bias_constraint": null, "kernel_size": [1, 1], "padding": "same"}, "class_name": "Conv2D", "inbound_nodes": [[["mixed3", 0, 0, {}]]]}, {"name": "conv2d_34", "config": {"name": "conv2d_34", "bias_initializer": {"config": {}, "class_name": "Zeros"}, "trainable": true, "kernel_initializer": {"config": {"seed": null, "mode": "fan_avg", "distribution": "uniform", "scale": 1.0}, "class_name": "VarianceScaling"}, "activation": "linear", "use_bias": false, "activity_regularizer": null, "filters": 192, "strides": [1, 1], "data_format": "channels_last", "bias_regularizer": null, "dilation_rate": [1, 1], "kernel_regularizer": null, "kernel_constraint": null, "bias_constraint": null, "kernel_size": [7, 1], "padding": "same"}, "class_name": "Conv2D", "inbound_nodes": [[["activation_33", 0, 0, {}]]]}, {"name": "conv2d_39", "config": {"name": "conv2d_39", "bias_initializer": {"config": {}, "class_name": "Zeros"}, "trainable": true, "kernel_initializer": {"config": {"seed": null, "mode": "fan_avg", "distribution": "uniform", "scale": 1.0}, "class_name": "VarianceScaling"}, "activation": "linear", "use_bias": false, "activity_regularizer": null, "filters": 192, "strides": [1, 1], "data_format": "channels_last", "bias_regularizer": null, "dilation_rate": [1, 1], "kernel_regularizer": null, "kernel_constraint": null, "bias_constraint": null, "kernel_size": [1, 7], "padding": "same"}, "class_name": "Conv2D", "inbound_nodes": [[["activation_38", 0, 0, {}]]]}, {"name": "conv2d_40", "config": {"name": "conv2d_40", "bias_initializer": {"config": {}, "class_name": "Zeros"}, "trainable": true, "kernel_initializer": {"config": {"seed": null, "mode": "fan_avg", "distribution": "uniform", "scale": 1.0}, "class_name": "VarianceScaling"}, "activation": "linear", "use_bias": false, "activity_regularizer": null, "filters": 192, "strides": [1, 1], "data_format": "channels_last", "bias_regularizer": null, "dilation_rate": [1, 1], "kernel_regularizer": null, "kernel_constraint": null, "bias_constraint": null, "kernel_size": [1, 1], "padding": "same"}, "class_name": "Conv2D", "inbound_nodes": [[["average_pooling2d_4", 0, 0, {}]]]}, {"name": "batch_normalization_31", "config": {"scale": false, "beta_constraint": null, "moving_mean_initializer": {"config": {}, "class_name": "Zeros"}, "beta_regularizer": null, "trainable": true, "beta_initializer": {"config": {}, "class_name": "Zeros"}, "gamma_initializer": {"config": {}, "class_name": "Ones"}, "gamma_constraint": null, "name": "batch_normalization_31", "epsilon": 0.001, "momentum": 0.99, "moving_variance_initializer": {"config": {}, "class_name": "Ones"}, "axis": 3, "gamma_regularizer": null, "center": true}, "class_name": "BatchNormalization", "inbound_nodes": [[["conv2d_31", 0, 0, {}]]]}, {"name": "batch_normalization_34", "config": {"scale": false, "beta_constraint": null, "moving_mean_initializer": {"config": {}, "class_name": "Zeros"}, "beta_regularizer": null, "trainable": true, "beta_initializer": {"config": {}, "class_name": "Zeros"}, "gamma_initializer": {"config": {}, "class_name": "Ones"}, "gamma_constraint": null, "name": "batch_normalization_34", "epsilon": 0.001, "momentum": 0.99, "moving_variance_initializer": {"config": {}, "class_name": "Ones"}, "axis": 3, "gamma_regularizer": null, "center": true}, "class_name": "BatchNormalization", "inbound_nodes": [[["conv2d_34", 0, 0, {}]]]}, {"name": "batch_normalization_39", "config": {"scale": false, "beta_constraint": null, "moving_mean_initializer": {"config": {}, "class_name": "Zeros"}, "beta_regularizer": null, "trainable": true, "beta_initializer": {"config": {}, "class_name": "Zeros"}, "gamma_initializer": {"config": {}, "class_name": "Ones"}, "gamma_constraint": null, "name": "batch_normalization_39", "epsilon": 0.001, "momentum": 0.99, "moving_variance_initializer": {"config": {}, "class_name": "Ones"}, "axis": 3, "gamma_regularizer": null, "center": true}, "class_name": "BatchNormalization", "inbound_nodes": [[["conv2d_39", 0, 0, {}]]]}, {"name": "batch_normalization_40", "config": {"scale": false, "beta_constraint": null, "moving_mean_initializer": {"config": {}, "class_name": "Zeros"}, "beta_regularizer": null, "trainable": true, "beta_initializer": {"config": {}, "class_name": "Zeros"}, "gamma_initializer": {"config": {}, "class_name": "Ones"}, "gamma_constraint": null, "name": "batch_normalization_40", "epsilon": 0.001, "momentum": 0.99, "moving_variance_initializer": {"config": {}, "class_name": "Ones"}, "axis": 3, "gamma_regularizer": null, "center": true}, "class_name": "BatchNormalization", "inbound_nodes": [[["conv2d_40", 0, 0, {}]]]}, {"name": "activation_31", "config": {"name": "activation_31", "trainable": true, "activation": "relu"}, "class_name": "Activation", "inbound_nodes": [[["batch_normalization_31", 0, 0, {}]]]}, {"name": "activation_34", "config": {"name": "activation_34", "trainable": true, "activation": "relu"}, "class_name": "Activation", "inbound_nodes": [[["batch_normalization_34", 0, 0, {}]]]}, {"name": "activation_39", "config": {"name": "activation_39", "trainable": true, "activation": "relu"}, "class_name": "Activation", "inbound_nodes": [[["batch_normalization_39", 0, 0, {}]]]}, {"name": "activation_40", "config": {"name": "activation_40", "trainable": true, "activation": "relu"}, "class_name": "Activation", "inbound_nodes": [[["batch_normalization_40", 0, 0, {}]]]}, {"name": "mixed4", "config": {"name": "mixed4", "trainable": true, "axis": 3}, "class_name": "Concatenate", "inbound_nodes": [[["activation_31", 0, 0, {}], ["activation_34", 0, 0, {}], ["activation_39", 0, 0, {}], ["activation_40", 0, 0, {}]]]}, {"name": "conv2d_45", "config": {"name": "conv2d_45", "bias_initializer": {"config": {}, "class_name": "Zeros"}, "trainable": true, "kernel_initializer": {"config": {"seed": null, "mode": "fan_avg", "distribution": "uniform", "scale": 1.0}, "class_name": "VarianceScaling"}, "activation": "linear", "use_bias": false, "activity_regularizer": null, "filters": 160, "strides": [1, 1], "data_format": "channels_last", "bias_regularizer": null, "dilation_rate": [1, 1], "kernel_regularizer": null, "kernel_constraint": null, "bias_constraint": null, "kernel_size": [1, 1], "padding": "same"}, "class_name": "Conv2D", "inbound_nodes": [[["mixed4", 0, 0, {}]]]}, {"name": "batch_normalization_45", "config": {"scale": false, "beta_constraint": null, "moving_mean_initializer": {"config": {}, "class_name": "Zeros"}, "beta_regularizer": null, "trainable": true, "beta_initializer": {"config": {}, "class_name": "Zeros"}, "gamma_initializer": {"config": {}, "class_name": "Ones"}, "gamma_constraint": null, "name": "batch_normalization_45", "epsilon": 0.001, "momentum": 0.99, "moving_variance_initializer": {"config": {}, "class_name": "Ones"}, "axis": 3, "gamma_regularizer": null, "center": true}, "class_name": "BatchNormalization", "inbound_nodes": [[["conv2d_45", 0, 0, {}]]]}, {"name": "activation_45", "config": {"name": "activation_45", "trainable": true, "activation": "relu"}, "class_name": "Activation", "inbound_nodes": [[["batch_normalization_45", 0, 0, {}]]]}, {"name": "conv2d_46", "config": {"name": "conv2d_46", "bias_initializer": {"config": {}, "class_name": "Zeros"}, "trainable": true, "kernel_initializer": {"config": {"seed": null, "mode": "fan_avg", "distribution": "uniform", "scale": 1.0}, "class_name": "VarianceScaling"}, "activation": "linear", "use_bias": false, "activity_regularizer": null, "filters": 160, "strides": [1, 1], "data_format": "channels_last", "bias_regularizer": null, "dilation_rate": [1, 1], "kernel_regularizer": null, "kernel_constraint": null, "bias_constraint": null, "kernel_size": [7, 1], "padding": "same"}, "class_name": "Conv2D", "inbound_nodes": [[["activation_45", 0, 0, {}]]]}, {"name": "batch_normalization_46", "config": {"scale": false, "beta_constraint": null, "moving_mean_initializer": {"config": {}, "class_name": "Zeros"}, "beta_regularizer": null, "trainable": true, "beta_initializer": {"config": {}, "class_name": "Zeros"}, "gamma_initializer": {"config": {}, "class_name": "Ones"}, "gamma_constraint": null, "name": "batch_normalization_46", "epsilon": 0.001, "momentum": 0.99, "moving_variance_initializer": {"config": {}, "class_name": "Ones"}, "axis": 3, "gamma_regularizer": null, "center": true}, "class_name": "BatchNormalization", "inbound_nodes": [[["conv2d_46", 0, 0, {}]]]}, {"name": "activation_46", "config": {"name": "activation_46", "trainable": true, "activation": "relu"}, "class_name": "Activation", "inbound_nodes": [[["batch_normalization_46", 0, 0, {}]]]}, {"name": "conv2d_42", "config": {"name": "conv2d_42", "bias_initializer": {"config": {}, "class_name": "Zeros"}, "trainable": true, "kernel_initializer": {"config": {"seed": null, "mode": "fan_avg", "distribution": "uniform", "scale": 1.0}, "class_name": "VarianceScaling"}, "activation": "linear", "use_bias": false, "activity_regularizer": null, "filters": 160, "strides": [1, 1], "data_format": "channels_last", "bias_regularizer": null, "dilation_rate": [1, 1], "kernel_regularizer": null, "kernel_constraint": null, "bias_constraint": null, "kernel_size": [1, 1], "padding": "same"}, "class_name": "Conv2D", "inbound_nodes": [[["mixed4", 0, 0, {}]]]}, {"name": "conv2d_47", "config": {"name": "conv2d_47", "bias_initializer": {"config": {}, "class_name": "Zeros"}, "trainable": true, "kernel_initializer": {"config": {"seed": null, "mode": "fan_avg", "distribution": "uniform", "scale": 1.0}, "class_name": "VarianceScaling"}, "activation": "linear", "use_bias": false, "activity_regularizer": null, "filters": 160, "strides": [1, 1], "data_format": "channels_last", "bias_regularizer": null, "dilation_rate": [1, 1], "kernel_regularizer": null, "kernel_constraint": null, "bias_constraint": null, "kernel_size": [1, 7], "padding": "same"}, "class_name": "Conv2D", "inbound_nodes": [[["activation_46", 0, 0, {}]]]}, {"name": "batch_normalization_42", "config": {"scale": false, "beta_constraint": null, "moving_mean_initializer": {"config": {}, "class_name": "Zeros"}, "beta_regularizer": null, "trainable": true, "beta_initializer": {"config": {}, "class_name": "Zeros"}, "gamma_initializer": {"config": {}, "class_name": "Ones"}, "gamma_constraint": null, "name": "batch_normalization_42", "epsilon": 0.001, "momentum": 0.99, "moving_variance_initializer": {"config": {}, "class_name": "Ones"}, "axis": 3, "gamma_regularizer": null, "center": true}, "class_name": "BatchNormalization", "inbound_nodes": [[["conv2d_42", 0, 0, {}]]]}, {"name": "batch_normalization_47", "config": {"scale": false, "beta_constraint": null, "moving_mean_initializer": {"config": {}, "class_name": "Zeros"}, "beta_regularizer": null, "trainable": true, "beta_initializer": {"config": {}, "class_name": "Zeros"}, "gamma_initializer": {"config": {}, "class_name": "Ones"}, "gamma_constraint": null, "name": "batch_normalization_47", "epsilon": 0.001, "momentum": 0.99, "moving_variance_initializer": {"config": {}, "class_name": "Ones"}, "axis": 3, "gamma_regularizer": null, "center": true}, "class_name": "BatchNormalization", "inbound_nodes": [[["conv2d_47", 0, 0, {}]]]}, {"name": "activation_42", "config": {"name": "activation_42", "trainable": true, "activation": "relu"}, "class_name": "Activation", "inbound_nodes": [[["batch_normalization_42", 0, 0, {}]]]}, {"name": "activation_47", "config": {"name": "activation_47", "trainable": true, "activation": "relu"}, "class_name": "Activation", "inbound_nodes": [[["batch_normalization_47", 0, 0, {}]]]}, {"name": "conv2d_43", "config": {"name": "conv2d_43", "bias_initializer": {"config": {}, "class_name": "Zeros"}, "trainable": true, "kernel_initializer": {"config": {"seed": null, "mode": "fan_avg", "distribution": "uniform", "scale": 1.0}, "class_name": "VarianceScaling"}, "activation": "linear", "use_bias": false, "activity_regularizer": null, "filters": 160, "strides": [1, 1], "data_format": "channels_last", "bias_regularizer": null, "dilation_rate": [1, 1], "kernel_regularizer": null, "kernel_constraint": null, "bias_constraint": null, "kernel_size": [1, 7], "padding": "same"}, "class_name": "Conv2D", "inbound_nodes": [[["activation_42", 0, 0, {}]]]}, {"name": "conv2d_48", "config": {"name": "conv2d_48", "bias_initializer": {"config": {}, "class_name": "Zeros"}, "trainable": true, "kernel_initializer": {"config": {"seed": null, "mode": "fan_avg", "distribution": "uniform", "scale": 1.0}, "class_name": "VarianceScaling"}, "activation": "linear", "use_bias": false, "activity_regularizer": null, "filters": 160, "strides": [1, 1], "data_format": "channels_last", "bias_regularizer": null, "dilation_rate": [1, 1], "kernel_regularizer": null, "kernel_constraint": null, "bias_constraint": null, "kernel_size": [7, 1], "padding": "same"}, "class_name": "Conv2D", "inbound_nodes": [[["activation_47", 0, 0, {}]]]}, {"name": "batch_normalization_43", "config": {"scale": false, "beta_constraint": null, "moving_mean_initializer": {"config": {}, "class_name": "Zeros"}, "beta_regularizer": null, "trainable": true, "beta_initializer": {"config": {}, "class_name": "Zeros"}, "gamma_initializer": {"config": {}, "class_name": "Ones"}, "gamma_constraint": null, "name": "batch_normalization_43", "epsilon": 0.001, "momentum": 0.99, "moving_variance_initializer": {"config": {}, "class_name": "Ones"}, "axis": 3, "gamma_regularizer": null, "center": true}, "class_name": "BatchNormalization", "inbound_nodes": [[["conv2d_43", 0, 0, {}]]]}, {"name": "batch_normalization_48", "config": {"scale": false, "beta_constraint": null, "moving_mean_initializer": {"config": {}, "class_name": "Zeros"}, "beta_regularizer": null, "trainable": true, "beta_initializer": {"config": {}, "class_name": "Zeros"}, "gamma_initializer": {"config": {}, "class_name": "Ones"}, "gamma_constraint": null, "name": "batch_normalization_48", "epsilon": 0.001, "momentum": 0.99, "moving_variance_initializer": {"config": {}, "class_name": "Ones"}, "axis": 3, "gamma_regularizer": null, "center": true}, "class_name": "BatchNormalization", "inbound_nodes": [[["conv2d_48", 0, 0, {}]]]}, {"name": "activation_43", "config": {"name": "activation_43", "trainable": true, "activation": "relu"}, "class_name": "Activation", "inbound_nodes": [[["batch_normalization_43", 0, 0, {}]]]}, {"name": "activation_48", "config": {"name": "activation_48", "trainable": true, "activation": "relu"}, "class_name": "Activation", "inbound_nodes": [[["batch_normalization_48", 0, 0, {}]]]}, {"name": "average_pooling2d_5", "config": {"name": "average_pooling2d_5", "data_format": "channels_last", "pool_size": [3, 3], "strides": [1, 1], "padding": "same", "trainable": true}, "class_name": "AveragePooling2D", "inbound_nodes": [[["mixed4", 0, 0, {}]]]}, {"name": "conv2d_41", "config": {"name": "conv2d_41", "bias_initializer": {"config": {}, "class_name": "Zeros"}, "trainable": true, "kernel_initializer": {"config": {"seed": null, "mode": "fan_avg", "distribution": "uniform", "scale": 1.0}, "class_name": "VarianceScaling"}, "activation": "linear", "use_bias": false, "activity_regularizer": null, "filters": 192, "strides": [1, 1], "data_format": "channels_last", "bias_regularizer": null, "dilation_rate": [1, 1], "kernel_regularizer": null, "kernel_constraint": null, "bias_constraint": null, "kernel_size": [1, 1], "padding": "same"}, "class_name": "Conv2D", "inbound_nodes": [[["mixed4", 0, 0, {}]]]}, {"name": "conv2d_44", "config": {"name": "conv2d_44", "bias_initializer": {"config": {}, "class_name": "Zeros"}, "trainable": true, "kernel_initializer": {"config": {"seed": null, "mode": "fan_avg", "distribution": "uniform", "scale": 1.0}, "class_name": "VarianceScaling"}, "activation": "linear", "use_bias": false, "activity_regularizer": null, "filters": 192, "strides": [1, 1], "data_format": "channels_last", "bias_regularizer": null, "dilation_rate": [1, 1], "kernel_regularizer": null, "kernel_constraint": null, "bias_constraint": null, "kernel_size": [7, 1], "padding": "same"}, "class_name": "Conv2D", "inbound_nodes": [[["activation_43", 0, 0, {}]]]}, {"name": "conv2d_49", "config": {"name": "conv2d_49", "bias_initializer": {"config": {}, "class_name": "Zeros"}, "trainable": true, "kernel_initializer": {"config": {"seed": null, "mode": "fan_avg", "distribution": "uniform", "scale": 1.0}, "class_name": "VarianceScaling"}, "activation": "linear", "use_bias": false, "activity_regularizer": null, "filters": 192, "strides": [1, 1], "data_format": "channels_last", "bias_regularizer": null, "dilation_rate": [1, 1], "kernel_regularizer": null, "kernel_constraint": null, "bias_constraint": null, "kernel_size": [1, 7], "padding": "same"}, "class_name": "Conv2D", "inbound_nodes": [[["activation_48", 0, 0, {}]]]}, {"name": "conv2d_50", "config": {"name": "conv2d_50", "bias_initializer": {"config": {}, "class_name": "Zeros"}, "trainable": true, "kernel_initializer": {"config": {"seed": null, "mode": "fan_avg", "distribution": "uniform", "scale": 1.0}, "class_name": "VarianceScaling"}, "activation": "linear", "use_bias": false, "activity_regularizer": null, "filters": 192, "strides": [1, 1], "data_format": "channels_last", "bias_regularizer": null, "dilation_rate": [1, 1], "kernel_regularizer": null, "kernel_constraint": null, "bias_constraint": null, "kernel_size": [1, 1], "padding": "same"}, "class_name": "Conv2D", "inbound_nodes": [[["average_pooling2d_5", 0, 0, {}]]]}, {"name": "batch_normalization_41", "config": {"scale": false, "beta_constraint": null, "moving_mean_initializer": {"config": {}, "class_name": "Zeros"}, "beta_regularizer": null, "trainable": true, "beta_initializer": {"config": {}, "class_name": "Zeros"}, "gamma_initializer": {"config": {}, "class_name": "Ones"}, "gamma_constraint": null, "name": "batch_normalization_41", "epsilon": 0.001, "momentum": 0.99, "moving_variance_initializer": {"config": {}, "class_name": "Ones"}, "axis": 3, "gamma_regularizer": null, "center": true}, "class_name": "BatchNormalization", "inbound_nodes": [[["conv2d_41", 0, 0, {}]]]}, {"name": "batch_normalization_44", "config": {"scale": false, "beta_constraint": null, "moving_mean_initializer": {"config": {}, "class_name": "Zeros"}, "beta_regularizer": null, "trainable": true, "beta_initializer": {"config": {}, "class_name": "Zeros"}, "gamma_initializer": {"config": {}, "class_name": "Ones"}, "gamma_constraint": null, "name": "batch_normalization_44", "epsilon": 0.001, "momentum": 0.99, "moving_variance_initializer": {"config": {}, "class_name": "Ones"}, "axis": 3, "gamma_regularizer": null, "center": true}, "class_name": "BatchNormalization", "inbound_nodes": [[["conv2d_44", 0, 0, {}]]]}, {"name": "batch_normalization_49", "config": {"scale": false, "beta_constraint": null, "moving_mean_initializer": {"config": {}, "class_name": "Zeros"}, "beta_regularizer": null, "trainable": true, "beta_initializer": {"config": {}, "class_name": "Zeros"}, "gamma_initializer": {"config": {}, "class_name": "Ones"}, "gamma_constraint": null, "name": "batch_normalization_49", "epsilon": 0.001, "momentum": 0.99, "moving_variance_initializer": {"config": {}, "class_name": "Ones"}, "axis": 3, "gamma_regularizer": null, "center": true}, "class_name": "BatchNormalization", "inbound_nodes": [[["conv2d_49", 0, 0, {}]]]}, {"name": "batch_normalization_50", "config": {"scale": false, "beta_constraint": null, "moving_mean_initializer": {"config": {}, "class_name": "Zeros"}, "beta_regularizer": null, "trainable": true, "beta_initializer": {"config": {}, "class_name": "Zeros"}, "gamma_initializer": {"config": {}, "class_name": "Ones"}, "gamma_constraint": null, "name": "batch_normalization_50", "epsilon": 0.001, "momentum": 0.99, "moving_variance_initializer": {"config": {}, "class_name": "Ones"}, "axis": 3, "gamma_regularizer": null, "center": true}, "class_name": "BatchNormalization", "inbound_nodes": [[["conv2d_50", 0, 0, {}]]]}, {"name": "activation_41", "config": {"name": "activation_41", "trainable": true, "activation": "relu"}, "class_name": "Activation", "inbound_nodes": [[["batch_normalization_41", 0, 0, {}]]]}, {"name": "activation_44", "config": {"name": "activation_44", "trainable": true, "activation": "relu"}, "class_name": "Activation", "inbound_nodes": [[["batch_normalization_44", 0, 0, {}]]]}, {"name": "activation_49", "config": {"name": "activation_49", "trainable": true, "activation": "relu"}, "class_name": "Activation", "inbound_nodes": [[["batch_normalization_49", 0, 0, {}]]]}, {"name": "activation_50", "config": {"name": "activation_50", "trainable": true, "activation": "relu"}, "class_name": "Activation", "inbound_nodes": [[["batch_normalization_50", 0, 0, {}]]]}, {"name": "mixed5", "config": {"name": "mixed5", "trainable": true, "axis": 3}, "class_name": "Concatenate", "inbound_nodes": [[["activation_41", 0, 0, {}], ["activation_44", 0, 0, {}], ["activation_49", 0, 0, {}], ["activation_50", 0, 0, {}]]]}, {"name": "global_average_pooling2d_1", "config": {"name": "global_average_pooling2d_1", "trainable": true, "data_format": "channels_last"}, "class_name": "GlobalAveragePooling2D", "inbound_nodes": [[["mixed5", 0, 0, {}]]]}, {"name": "dense_1", "config": {"units": 1024, "bias_initializer": {"config": {}, "class_name": "Zeros"}, "trainable": true, "kernel_initializer": {"config": {"seed": null, "mode": "fan_avg", "distribution": "uniform", "scale": 1.0}, "class_name": "VarianceScaling"}, "activation": "relu", "use_bias": true, "activity_regularizer": null, "name": "dense_1", "bias_regularizer": null, "kernel_regularizer": null, "kernel_constraint": null, "bias_constraint": null}, "class_name": "Dense", "inbound_nodes": [[["global_average_pooling2d_1", 0, 0, {}]]]}, {"name": "dense_2", "config": {"units": 128, "bias_initializer": {"config": {}, "class_name": "Zeros"}, "trainable": true, "kernel_initializer": {"config": {"seed": null, "mode": "fan_avg", "distribution": "uniform", "scale": 1.0}, "class_name": "VarianceScaling"}, "activation": "linear", "use_bias": true, "activity_regularizer": null, "name": "dense_2", "bias_regularizer": null, "kernel_regularizer": null, "kernel_constraint": null, "bias_constraint": null}, "class_name": "Dense", "inbound_nodes": [[["dense_1", 0, 0, {}]]]}], "output_layers": [["dense_2", 0, 0]], "input_layers": [["input_1", 0, 0]]}, "class_name": "Model", "inbound_nodes": [[["input_anchor", 0, 0, {}]], [["input_positive", 0, 0, {}]], [["input_negative", 0, 0, {}]]]}, {"name": "triplet_loss", "config": {"function": ["4wIAAAAAAAAACAAAAAUAAABDAAAAc3oAAAB8AABcAwB9AgB9AwB9BAB0AABqAQB0AABqAgB8AgB8\nAwAYgwEAZAEAZAQAgwEBfQUAdAAAagEAdAAAagIAfAIAfAQAGIMBAGQBAGQFAIMBAX0GAHQAAGoD\nAHQAAGoEAGQDAHwFAHwGABh8AQAXgwIAgwEAfQcAfAcAUykGTtoEYXhpc+kBAAAA5wAAAAAAAAAA\n6f////9yBAAAACkF2gFL2gNzdW3aBnNxdWFyZdoEbWVhbtoHbWF4aW11bSkI2gN2ZWPaBWFscGhh\n2gZhbmNob3LaCHBvc2l0aXZl2ghuZWdhdGl2ZdoDZF9w2gNkX27aBGxvc3OpAHISAAAA+hx0Y25f\ndHJpcGxldGxvc3NfZ2VuZXJhdG9yLnB52gx0cmlwbGV0X2xvc3MeAAAAcwoAAAAAAQ8BIgEiASMB\n", [0.2], null], "name": "triplet_loss", "trainable": true, "output_shape": ["4wEAAAAAAAAABAAAAAMAAABDAAAAcx0AAAB8AABcAwB9AQB9AgB9AwB8AQBkAQAZZAIAZgIAUykD\nTukAAAAA6QEAAACpACkE2gZzaGFwZXPaBnNoYXBlMdoGc2hhcGUy2gZzaGFwZTNyAwAAAHIDAAAA\n+hx0Y25fdHJpcGxldGxvc3NfZ2VuZXJhdG9yLnB52hR0cmlwbGV0X291dHB1dF9zaGFwZTUAAABz\nBAAAAAABDwE=\n", null, null], "output_shape_type": "lambda", "function_type": "lambda", "arguments": {}}, "class_name": "Lambda", "inbound_nodes": [[["model_1", 1, 0, {}], ["model_1", 2, 0, {}], ["model_1", 3, 0, {}]]]}], "output_layers": [["triplet_loss", 0, 0]], "input_layers": [["input_anchor", 0, 0], ["input_positive", 0, 0], ["input_negative", 0, 0]]}, "class_name": "Model", "backend": "tensorflow"}