{"class_name": "Model", "config": {"input_layers": [["input_anchor", 0, 0], ["input_positive", 0, 0], ["input_negative", 0, 0]], "output_layers": [["triplet_loss", 0, 0]], "name": "model_2", "layers": [{"class_name": "InputLayer", "config": {"dtype": "float32", "batch_input_shape": [null, 224, 224, 3], "name": "input_anchor", "sparse": false}, "name": "input_anchor", "inbound_nodes": []}, {"class_name": "InputLayer", "config": {"dtype": "float32", "batch_input_shape": [null, 224, 224, 3], "name": "input_positive", "sparse": false}, "name": "input_positive", "inbound_nodes": []}, {"class_name": "InputLayer", "config": {"dtype": "float32", "batch_input_shape": [null, 224, 224, 3], "name": "input_negative", "sparse": false}, "name": "input_negative", "inbound_nodes": []}, {"class_name": "Model", "config": {"input_layers": [["input_1", 0, 0]], "output_layers": [["dense_2", 0, 0]], "name": "model_1", "layers": [{"class_name": "InputLayer", "config": {"dtype": "float32", "batch_input_shape": [null, null, null, 3], "name": "input_1", "sparse": false}, "inbound_nodes": [], "name": "input_1"}, {"class_name": "Conv2D", "config": {"bias_initializer": {"class_name": "Zeros", "config": {}}, "strides": [2, 2], "activity_regularizer": null, "kernel_initializer": {"class_name": "VarianceScaling", "config": {"scale": 1.0, "seed": null, "mode": "fan_avg", "distribution": "uniform"}}, "trainable": true, "bias_regularizer": null, "filters": 32, "activation": "linear", "data_format": "channels_last", "use_bias": false, "kernel_constraint": null, "name": "conv2d_1", "bias_constraint": null, "kernel_size": [3, 3], "dilation_rate": [1, 1], "kernel_regularizer": null, "padding": "valid"}, "inbound_nodes": [[["input_1", 0, 0, {}]]], "name": "conv2d_1"}, {"class_name": "BatchNormalization", "config": {"scale": false, "beta_regularizer": null, "momentum": 0.99, "beta_initializer": {"class_name": "Zeros", "config": {}}, "gamma_constraint": null, "trainable": true, "beta_constraint": null, "moving_mean_initializer": {"class_name": "Zeros", "config": {}}, "gamma_regularizer": null, "epsilon": 0.001, "axis": 3, "name": "batch_normalization_1", "center": true, "gamma_initializer": {"class_name": "Ones", "config": {}}, "moving_variance_initializer": {"class_name": "Ones", "config": {}}}, "inbound_nodes": [[["conv2d_1", 0, 0, {}]]], "name": "batch_normalization_1"}, {"class_name": "Activation", "config": {"trainable": true, "activation": "relu", "name": "activation_1"}, "inbound_nodes": [[["batch_normalization_1", 0, 0, {}]]], "name": "activation_1"}, {"class_name": "Conv2D", "config": {"bias_initializer": {"class_name": "Zeros", "config": {}}, "strides": [1, 1], "activity_regularizer": null, "kernel_initializer": {"class_name": "VarianceScaling", "config": {"scale": 1.0, "seed": null, "mode": "fan_avg", "distribution": "uniform"}}, "trainable": true, "bias_regularizer": null, "filters": 32, "activation": "linear", "data_format": "channels_last", "use_bias": false, "kernel_constraint": null, "name": "conv2d_2", "bias_constraint": null, "kernel_size": [3, 3], "dilation_rate": [1, 1], "kernel_regularizer": null, "padding": "valid"}, "inbound_nodes": [[["activation_1", 0, 0, {}]]], "name": "conv2d_2"}, {"class_name": "BatchNormalization", "config": {"scale": false, "beta_regularizer": null, "momentum": 0.99, "beta_initializer": {"class_name": "Zeros", "config": {}}, "gamma_constraint": null, "trainable": true, "beta_constraint": null, "moving_mean_initializer": {"class_name": "Zeros", "config": {}}, "gamma_regularizer": null, "epsilon": 0.001, "axis": 3, "name": "batch_normalization_2", "center": true, "gamma_initializer": {"class_name": "Ones", "config": {}}, "moving_variance_initializer": {"class_name": "Ones", "config": {}}}, "inbound_nodes": [[["conv2d_2", 0, 0, {}]]], "name": "batch_normalization_2"}, {"class_name": "Activation", "config": {"trainable": true, "activation": "relu", "name": "activation_2"}, "inbound_nodes": [[["batch_normalization_2", 0, 0, {}]]], "name": "activation_2"}, {"class_name": "Conv2D", "config": {"bias_initializer": {"class_name": "Zeros", "config": {}}, "strides": [1, 1], "activity_regularizer": null, "kernel_initializer": {"class_name": "VarianceScaling", "config": {"scale": 1.0, "seed": null, "mode": "fan_avg", "distribution": "uniform"}}, "trainable": true, "bias_regularizer": null, "filters": 64, "activation": "linear", "data_format": "channels_last", "use_bias": false, "kernel_constraint": null, "name": "conv2d_3", "bias_constraint": null, "kernel_size": [3, 3], "dilation_rate": [1, 1], "kernel_regularizer": null, "padding": "same"}, "inbound_nodes": [[["activation_2", 0, 0, {}]]], "name": "conv2d_3"}, {"class_name": "BatchNormalization", "config": {"scale": false, "beta_regularizer": null, "momentum": 0.99, "beta_initializer": {"class_name": "Zeros", "config": {}}, "gamma_constraint": null, "trainable": true, "beta_constraint": null, "moving_mean_initializer": {"class_name": "Zeros", "config": {}}, "gamma_regularizer": null, "epsilon": 0.001, "axis": 3, "name": "batch_normalization_3", "center": true, "gamma_initializer": {"class_name": "Ones", "config": {}}, "moving_variance_initializer": {"class_name": "Ones", "config": {}}}, "inbound_nodes": [[["conv2d_3", 0, 0, {}]]], "name": "batch_normalization_3"}, {"class_name": "Activation", "config": {"trainable": true, "activation": "relu", "name": "activation_3"}, "inbound_nodes": [[["batch_normalization_3", 0, 0, {}]]], "name": "activation_3"}, {"class_name": "MaxPooling2D", "config": {"strides": [2, 2], "name": "max_pooling2d_1", "pool_size": [3, 3], "trainable": true, "padding": "valid", "data_format": "channels_last"}, "inbound_nodes": [[["activation_3", 0, 0, {}]]], "name": "max_pooling2d_1"}, {"class_name": "Conv2D", "config": {"bias_initializer": {"class_name": "Zeros", "config": {}}, "strides": [1, 1], "activity_regularizer": null, "kernel_initializer": {"class_name": "VarianceScaling", "config": {"scale": 1.0, "seed": null, "mode": "fan_avg", "distribution": "uniform"}}, "trainable": true, "bias_regularizer": null, "filters": 80, "activation": "linear", "data_format": "channels_last", "use_bias": false, "kernel_constraint": null, "name": "conv2d_4", "bias_constraint": null, "kernel_size": [1, 1], "dilation_rate": [1, 1], "kernel_regularizer": null, "padding": "valid"}, "inbound_nodes": [[["max_pooling2d_1", 0, 0, {}]]], "name": "conv2d_4"}, {"class_name": "BatchNormalization", "config": {"scale": false, "beta_regularizer": null, "momentum": 0.99, "beta_initializer": {"class_name": "Zeros", "config": {}}, "gamma_constraint": null, "trainable": true, "beta_constraint": null, "moving_mean_initializer": {"class_name": "Zeros", "config": {}}, "gamma_regularizer": null, "epsilon": 0.001, "axis": 3, "name": "batch_normalization_4", "center": true, "gamma_initializer": {"class_name": "Ones", "config": {}}, "moving_variance_initializer": {"class_name": "Ones", "config": {}}}, "inbound_nodes": [[["conv2d_4", 0, 0, {}]]], "name": "batch_normalization_4"}, {"class_name": "Activation", "config": {"trainable": true, "activation": "relu", "name": "activation_4"}, "inbound_nodes": [[["batch_normalization_4", 0, 0, {}]]], "name": "activation_4"}, {"class_name": "Conv2D", "config": {"bias_initializer": {"class_name": "Zeros", "config": {}}, "strides": [1, 1], "activity_regularizer": null, "kernel_initializer": {"class_name": "VarianceScaling", "config": {"scale": 1.0, "seed": null, "mode": "fan_avg", "distribution": "uniform"}}, "trainable": true, "bias_regularizer": null, "filters": 192, "activation": "linear", "data_format": "channels_last", "use_bias": false, "kernel_constraint": null, "name": "conv2d_5", "bias_constraint": null, "kernel_size": [3, 3], "dilation_rate": [1, 1], "kernel_regularizer": null, "padding": "valid"}, "inbound_nodes": [[["activation_4", 0, 0, {}]]], "name": "conv2d_5"}, {"class_name": "BatchNormalization", "config": {"scale": false, "beta_regularizer": null, "momentum": 0.99, "beta_initializer": {"class_name": "Zeros", "config": {}}, "gamma_constraint": null, "trainable": true, "beta_constraint": null, "moving_mean_initializer": {"class_name": "Zeros", "config": {}}, "gamma_regularizer": null, "epsilon": 0.001, "axis": 3, "name": "batch_normalization_5", "center": true, "gamma_initializer": {"class_name": "Ones", "config": {}}, "moving_variance_initializer": {"class_name": "Ones", "config": {}}}, "inbound_nodes": [[["conv2d_5", 0, 0, {}]]], "name": "batch_normalization_5"}, {"class_name": "Activation", "config": {"trainable": true, "activation": "relu", "name": "activation_5"}, "inbound_nodes": [[["batch_normalization_5", 0, 0, {}]]], "name": "activation_5"}, {"class_name": "MaxPooling2D", "config": {"strides": [2, 2], "name": "max_pooling2d_2", "pool_size": [3, 3], "trainable": true, "padding": "valid", "data_format": "channels_last"}, "inbound_nodes": [[["activation_5", 0, 0, {}]]], "name": "max_pooling2d_2"}, {"class_name": "Conv2D", "config": {"bias_initializer": {"class_name": "Zeros", "config": {}}, "strides": [1, 1], "activity_regularizer": null, "kernel_initializer": {"class_name": "VarianceScaling", "config": {"scale": 1.0, "seed": null, "mode": "fan_avg", "distribution": "uniform"}}, "trainable": true, "bias_regularizer": null, "filters": 64, "activation": "linear", "data_format": "channels_last", "use_bias": false, "kernel_constraint": null, "name": "conv2d_9", "bias_constraint": null, "kernel_size": [1, 1], "dilation_rate": [1, 1], "kernel_regularizer": null, "padding": "same"}, "inbound_nodes": [[["max_pooling2d_2", 0, 0, {}]]], "name": "conv2d_9"}, {"class_name": "BatchNormalization", "config": {"scale": false, "beta_regularizer": null, "momentum": 0.99, "beta_initializer": {"class_name": "Zeros", "config": {}}, "gamma_constraint": null, "trainable": true, "beta_constraint": null, "moving_mean_initializer": {"class_name": "Zeros", "config": {}}, "gamma_regularizer": null, "epsilon": 0.001, "axis": 3, "name": "batch_normalization_9", "center": true, "gamma_initializer": {"class_name": "Ones", "config": {}}, "moving_variance_initializer": {"class_name": "Ones", "config": {}}}, "inbound_nodes": [[["conv2d_9", 0, 0, {}]]], "name": "batch_normalization_9"}, {"class_name": "Activation", "config": {"trainable": true, "activation": "relu", "name": "activation_9"}, "inbound_nodes": [[["batch_normalization_9", 0, 0, {}]]], "name": "activation_9"}, {"class_name": "Conv2D", "config": {"bias_initializer": {"class_name": "Zeros", "config": {}}, "strides": [1, 1], "activity_regularizer": null, "kernel_initializer": {"class_name": "VarianceScaling", "config": {"scale": 1.0, "seed": null, "mode": "fan_avg", "distribution": "uniform"}}, "trainable": true, "bias_regularizer": null, "filters": 48, "activation": "linear", "data_format": "channels_last", "use_bias": false, "kernel_constraint": null, "name": "conv2d_7", "bias_constraint": null, "kernel_size": [1, 1], "dilation_rate": [1, 1], "kernel_regularizer": null, "padding": "same"}, "inbound_nodes": [[["max_pooling2d_2", 0, 0, {}]]], "name": "conv2d_7"}, {"class_name": "Conv2D", "config": {"bias_initializer": {"class_name": "Zeros", "config": {}}, "strides": [1, 1], "activity_regularizer": null, "kernel_initializer": {"class_name": "VarianceScaling", "config": {"scale": 1.0, "seed": null, "mode": "fan_avg", "distribution": "uniform"}}, "trainable": true, "bias_regularizer": null, "filters": 96, "activation": "linear", "data_format": "channels_last", "use_bias": false, "kernel_constraint": null, "name": "conv2d_10", "bias_constraint": null, "kernel_size": [3, 3], "dilation_rate": [1, 1], "kernel_regularizer": null, "padding": "same"}, "inbound_nodes": [[["activation_9", 0, 0, {}]]], "name": "conv2d_10"}, {"class_name": "BatchNormalization", "config": {"scale": false, "beta_regularizer": null, "momentum": 0.99, "beta_initializer": {"class_name": "Zeros", "config": {}}, "gamma_constraint": null, "trainable": true, "beta_constraint": null, "moving_mean_initializer": {"class_name": "Zeros", "config": {}}, "gamma_regularizer": null, "epsilon": 0.001, "axis": 3, "name": "batch_normalization_7", "center": true, "gamma_initializer": {"class_name": "Ones", "config": {}}, "moving_variance_initializer": {"class_name": "Ones", "config": {}}}, "inbound_nodes": [[["conv2d_7", 0, 0, {}]]], "name": "batch_normalization_7"}, {"class_name": "BatchNormalization", "config": {"scale": false, "beta_regularizer": null, "momentum": 0.99, "beta_initializer": {"class_name": "Zeros", "config": {}}, "gamma_constraint": null, "trainable": true, "beta_constraint": null, "moving_mean_initializer": {"class_name": "Zeros", "config": {}}, "gamma_regularizer": null, "epsilon": 0.001, "axis": 3, "name": "batch_normalization_10", "center": true, "gamma_initializer": {"class_name": "Ones", "config": {}}, "moving_variance_initializer": {"class_name": "Ones", "config": {}}}, "inbound_nodes": [[["conv2d_10", 0, 0, {}]]], "name": "batch_normalization_10"}, {"class_name": "Activation", "config": {"trainable": true, "activation": "relu", "name": "activation_7"}, "inbound_nodes": [[["batch_normalization_7", 0, 0, {}]]], "name": "activation_7"}, {"class_name": "Activation", "config": {"trainable": true, "activation": "relu", "name": "activation_10"}, "inbound_nodes": [[["batch_normalization_10", 0, 0, {}]]], "name": "activation_10"}, {"class_name": "AveragePooling2D", "config": {"strides": [1, 1], "name": "average_pooling2d_1", "pool_size": [3, 3], "trainable": true, "padding": "same", "data_format": "channels_last"}, "inbound_nodes": [[["max_pooling2d_2", 0, 0, {}]]], "name": "average_pooling2d_1"}, {"class_name": "Conv2D", "config": {"bias_initializer": {"class_name": "Zeros", "config": {}}, "strides": [1, 1], "activity_regularizer": null, "kernel_initializer": {"class_name": "VarianceScaling", "config": {"scale": 1.0, "seed": null, "mode": "fan_avg", "distribution": "uniform"}}, "trainable": true, "bias_regularizer": null, "filters": 64, "activation": "linear", "data_format": "channels_last", "use_bias": false, "kernel_constraint": null, "name": "conv2d_6", "bias_constraint": null, "kernel_size": [1, 1], "dilation_rate": [1, 1], "kernel_regularizer": null, "padding": "same"}, "inbound_nodes": [[["max_pooling2d_2", 0, 0, {}]]], "name": "conv2d_6"}, {"class_name": "Conv2D", "config": {"bias_initializer": {"class_name": "Zeros", "config": {}}, "strides": [1, 1], "activity_regularizer": null, "kernel_initializer": {"class_name": "VarianceScaling", "config": {"scale": 1.0, "seed": null, "mode": "fan_avg", "distribution": "uniform"}}, "trainable": true, "bias_regularizer": null, "filters": 64, "activation": "linear", "data_format": "channels_last", "use_bias": false, "kernel_constraint": null, "name": "conv2d_8", "bias_constraint": null, "kernel_size": [5, 5], "dilation_rate": [1, 1], "kernel_regularizer": null, "padding": "same"}, "inbound_nodes": [[["activation_7", 0, 0, {}]]], "name": "conv2d_8"}, {"class_name": "Conv2D", "config": {"bias_initializer": {"class_name": "Zeros", "config": {}}, "strides": [1, 1], "activity_regularizer": null, "kernel_initializer": {"class_name": "VarianceScaling", "config": {"scale": 1.0, "seed": null, "mode": "fan_avg", "distribution": "uniform"}}, "trainable": true, "bias_regularizer": null, "filters": 96, "activation": "linear", "data_format": "channels_last", "use_bias": false, "kernel_constraint": null, "name": "conv2d_11", "bias_constraint": null, "kernel_size": [3, 3], "dilation_rate": [1, 1], "kernel_regularizer": null, "padding": "same"}, "inbound_nodes": [[["activation_10", 0, 0, {}]]], "name": "conv2d_11"}, {"class_name": "Conv2D", "config": {"bias_initializer": {"class_name": "Zeros", "config": {}}, "strides": [1, 1], "activity_regularizer": null, "kernel_initializer": {"class_name": "VarianceScaling", "config": {"scale": 1.0, "seed": null, "mode": "fan_avg", "distribution": "uniform"}}, "trainable": true, "bias_regularizer": null, "filters": 32, "activation": "linear", "data_format": "channels_last", "use_bias": false, "kernel_constraint": null, "name": "conv2d_12", "bias_constraint": null, "kernel_size": [1, 1], "dilation_rate": [1, 1], "kernel_regularizer": null, "padding": "same"}, "inbound_nodes": [[["average_pooling2d_1", 0, 0, {}]]], "name": "conv2d_12"}, {"class_name": "BatchNormalization", "config": {"scale": false, "beta_regularizer": null, "momentum": 0.99, "beta_initializer": {"class_name": "Zeros", "config": {}}, "gamma_constraint": null, "trainable": true, "beta_constraint": null, "moving_mean_initializer": {"class_name": "Zeros", "config": {}}, "gamma_regularizer": null, "epsilon": 0.001, "axis": 3, "name": "batch_normalization_6", "center": true, "gamma_initializer": {"class_name": "Ones", "config": {}}, "moving_variance_initializer": {"class_name": "Ones", "config": {}}}, "inbound_nodes": [[["conv2d_6", 0, 0, {}]]], "name": "batch_normalization_6"}, {"class_name": "BatchNormalization", "config": {"scale": false, "beta_regularizer": null, "momentum": 0.99, "beta_initializer": {"class_name": "Zeros", "config": {}}, "gamma_constraint": null, "trainable": true, "beta_constraint": null, "moving_mean_initializer": {"class_name": "Zeros", "config": {}}, "gamma_regularizer": null, "epsilon": 0.001, "axis": 3, "name": "batch_normalization_8", "center": true, "gamma_initializer": {"class_name": "Ones", "config": {}}, "moving_variance_initializer": {"class_name": "Ones", "config": {}}}, "inbound_nodes": [[["conv2d_8", 0, 0, {}]]], "name": "batch_normalization_8"}, {"class_name": "BatchNormalization", "config": {"scale": false, "beta_regularizer": null, "momentum": 0.99, "beta_initializer": {"class_name": "Zeros", "config": {}}, "gamma_constraint": null, "trainable": true, "beta_constraint": null, "moving_mean_initializer": {"class_name": "Zeros", "config": {}}, "gamma_regularizer": null, "epsilon": 0.001, "axis": 3, "name": "batch_normalization_11", "center": true, "gamma_initializer": {"class_name": "Ones", "config": {}}, "moving_variance_initializer": {"class_name": "Ones", "config": {}}}, "inbound_nodes": [[["conv2d_11", 0, 0, {}]]], "name": "batch_normalization_11"}, {"class_name": "BatchNormalization", "config": {"scale": false, "beta_regularizer": null, "momentum": 0.99, "beta_initializer": {"class_name": "Zeros", "config": {}}, "gamma_constraint": null, "trainable": true, "beta_constraint": null, "moving_mean_initializer": {"class_name": "Zeros", "config": {}}, "gamma_regularizer": null, "epsilon": 0.001, "axis": 3, "name": "batch_normalization_12", "center": true, "gamma_initializer": {"class_name": "Ones", "config": {}}, "moving_variance_initializer": {"class_name": "Ones", "config": {}}}, "inbound_nodes": [[["conv2d_12", 0, 0, {}]]], "name": "batch_normalization_12"}, {"class_name": "Activation", "config": {"trainable": true, "activation": "relu", "name": "activation_6"}, "inbound_nodes": [[["batch_normalization_6", 0, 0, {}]]], "name": "activation_6"}, {"class_name": "Activation", "config": {"trainable": true, "activation": "relu", "name": "activation_8"}, "inbound_nodes": [[["batch_normalization_8", 0, 0, {}]]], "name": "activation_8"}, {"class_name": "Activation", "config": {"trainable": true, "activation": "relu", "name": "activation_11"}, "inbound_nodes": [[["batch_normalization_11", 0, 0, {}]]], "name": "activation_11"}, {"class_name": "Activation", "config": {"trainable": true, "activation": "relu", "name": "activation_12"}, "inbound_nodes": [[["batch_normalization_12", 0, 0, {}]]], "name": "activation_12"}, {"class_name": "Concatenate", "config": {"trainable": true, "axis": 3, "name": "mixed0"}, "inbound_nodes": [[["activation_6", 0, 0, {}], ["activation_8", 0, 0, {}], ["activation_11", 0, 0, {}], ["activation_12", 0, 0, {}]]], "name": "mixed0"}, {"class_name": "Conv2D", "config": {"bias_initializer": {"class_name": "Zeros", "config": {}}, "strides": [1, 1], "activity_regularizer": null, "kernel_initializer": {"class_name": "VarianceScaling", "config": {"scale": 1.0, "seed": null, "mode": "fan_avg", "distribution": "uniform"}}, "trainable": true, "bias_regularizer": null, "filters": 64, "activation": "linear", "data_format": "channels_last", "use_bias": false, "kernel_constraint": null, "name": "conv2d_16", "bias_constraint": null, "kernel_size": [1, 1], "dilation_rate": [1, 1], "kernel_regularizer": null, "padding": "same"}, "inbound_nodes": [[["mixed0", 0, 0, {}]]], "name": "conv2d_16"}, {"class_name": "BatchNormalization", "config": {"scale": false, "beta_regularizer": null, "momentum": 0.99, "beta_initializer": {"class_name": "Zeros", "config": {}}, "gamma_constraint": null, "trainable": true, "beta_constraint": null, "moving_mean_initializer": {"class_name": "Zeros", "config": {}}, "gamma_regularizer": null, "epsilon": 0.001, "axis": 3, "name": "batch_normalization_16", "center": true, "gamma_initializer": {"class_name": "Ones", "config": {}}, "moving_variance_initializer": {"class_name": "Ones", "config": {}}}, "inbound_nodes": [[["conv2d_16", 0, 0, {}]]], "name": "batch_normalization_16"}, {"class_name": "Activation", "config": {"trainable": true, "activation": "relu", "name": "activation_16"}, "inbound_nodes": [[["batch_normalization_16", 0, 0, {}]]], "name": "activation_16"}, {"class_name": "Conv2D", "config": {"bias_initializer": {"class_name": "Zeros", "config": {}}, "strides": [1, 1], "activity_regularizer": null, "kernel_initializer": {"class_name": "VarianceScaling", "config": {"scale": 1.0, "seed": null, "mode": "fan_avg", "distribution": "uniform"}}, "trainable": true, "bias_regularizer": null, "filters": 48, "activation": "linear", "data_format": "channels_last", "use_bias": false, "kernel_constraint": null, "name": "conv2d_14", "bias_constraint": null, "kernel_size": [1, 1], "dilation_rate": [1, 1], "kernel_regularizer": null, "padding": "same"}, "inbound_nodes": [[["mixed0", 0, 0, {}]]], "name": "conv2d_14"}, {"class_name": "Conv2D", "config": {"bias_initializer": {"class_name": "Zeros", "config": {}}, "strides": [1, 1], "activity_regularizer": null, "kernel_initializer": {"class_name": "VarianceScaling", "config": {"scale": 1.0, "seed": null, "mode": "fan_avg", "distribution": "uniform"}}, "trainable": true, "bias_regularizer": null, "filters": 96, "activation": "linear", "data_format": "channels_last", "use_bias": false, "kernel_constraint": null, "name": "conv2d_17", "bias_constraint": null, "kernel_size": [3, 3], "dilation_rate": [1, 1], "kernel_regularizer": null, "padding": "same"}, "inbound_nodes": [[["activation_16", 0, 0, {}]]], "name": "conv2d_17"}, {"class_name": "BatchNormalization", "config": {"scale": false, "beta_regularizer": null, "momentum": 0.99, "beta_initializer": {"class_name": "Zeros", "config": {}}, "gamma_constraint": null, "trainable": true, "beta_constraint": null, "moving_mean_initializer": {"class_name": "Zeros", "config": {}}, "gamma_regularizer": null, "epsilon": 0.001, "axis": 3, "name": "batch_normalization_14", "center": true, "gamma_initializer": {"class_name": "Ones", "config": {}}, "moving_variance_initializer": {"class_name": "Ones", "config": {}}}, "inbound_nodes": [[["conv2d_14", 0, 0, {}]]], "name": "batch_normalization_14"}, {"class_name": "BatchNormalization", "config": {"scale": false, "beta_regularizer": null, "momentum": 0.99, "beta_initializer": {"class_name": "Zeros", "config": {}}, "gamma_constraint": null, "trainable": true, "beta_constraint": null, "moving_mean_initializer": {"class_name": "Zeros", "config": {}}, "gamma_regularizer": null, "epsilon": 0.001, "axis": 3, "name": "batch_normalization_17", "center": true, "gamma_initializer": {"class_name": "Ones", "config": {}}, "moving_variance_initializer": {"class_name": "Ones", "config": {}}}, "inbound_nodes": [[["conv2d_17", 0, 0, {}]]], "name": "batch_normalization_17"}, {"class_name": "Activation", "config": {"trainable": true, "activation": "relu", "name": "activation_14"}, "inbound_nodes": [[["batch_normalization_14", 0, 0, {}]]], "name": "activation_14"}, {"class_name": "Activation", "config": {"trainable": true, "activation": "relu", "name": "activation_17"}, "inbound_nodes": [[["batch_normalization_17", 0, 0, {}]]], "name": "activation_17"}, {"class_name": "AveragePooling2D", "config": {"strides": [1, 1], "name": "average_pooling2d_2", "pool_size": [3, 3], "trainable": true, "padding": "same", "data_format": "channels_last"}, "inbound_nodes": [[["mixed0", 0, 0, {}]]], "name": "average_pooling2d_2"}, {"class_name": "Conv2D", "config": {"bias_initializer": {"class_name": "Zeros", "config": {}}, "strides": [1, 1], "activity_regularizer": null, "kernel_initializer": {"class_name": "VarianceScaling", "config": {"scale": 1.0, "seed": null, "mode": "fan_avg", "distribution": "uniform"}}, "trainable": true, "bias_regularizer": null, "filters": 64, "activation": "linear", "data_format": "channels_last", "use_bias": false, "kernel_constraint": null, "name": "conv2d_13", "bias_constraint": null, "kernel_size": [1, 1], "dilation_rate": [1, 1], "kernel_regularizer": null, "padding": "same"}, "inbound_nodes": [[["mixed0", 0, 0, {}]]], "name": "conv2d_13"}, {"class_name": "Conv2D", "config": {"bias_initializer": {"class_name": "Zeros", "config": {}}, "strides": [1, 1], "activity_regularizer": null, "kernel_initializer": {"class_name": "VarianceScaling", "config": {"scale": 1.0, "seed": null, "mode": "fan_avg", "distribution": "uniform"}}, "trainable": true, "bias_regularizer": null, "filters": 64, "activation": "linear", "data_format": "channels_last", "use_bias": false, "kernel_constraint": null, "name": "conv2d_15", "bias_constraint": null, "kernel_size": [5, 5], "dilation_rate": [1, 1], "kernel_regularizer": null, "padding": "same"}, "inbound_nodes": [[["activation_14", 0, 0, {}]]], "name": "conv2d_15"}, {"class_name": "Conv2D", "config": {"bias_initializer": {"class_name": "Zeros", "config": {}}, "strides": [1, 1], "activity_regularizer": null, "kernel_initializer": {"class_name": "VarianceScaling", "config": {"scale": 1.0, "seed": null, "mode": "fan_avg", "distribution": "uniform"}}, "trainable": true, "bias_regularizer": null, "filters": 96, "activation": "linear", "data_format": "channels_last", "use_bias": false, "kernel_constraint": null, "name": "conv2d_18", "bias_constraint": null, "kernel_size": [3, 3], "dilation_rate": [1, 1], "kernel_regularizer": null, "padding": "same"}, "inbound_nodes": [[["activation_17", 0, 0, {}]]], "name": "conv2d_18"}, {"class_name": "Conv2D", "config": {"bias_initializer": {"class_name": "Zeros", "config": {}}, "strides": [1, 1], "activity_regularizer": null, "kernel_initializer": {"class_name": "VarianceScaling", "config": {"scale": 1.0, "seed": null, "mode": "fan_avg", "distribution": "uniform"}}, "trainable": true, "bias_regularizer": null, "filters": 64, "activation": "linear", "data_format": "channels_last", "use_bias": false, "kernel_constraint": null, "name": "conv2d_19", "bias_constraint": null, "kernel_size": [1, 1], "dilation_rate": [1, 1], "kernel_regularizer": null, "padding": "same"}, "inbound_nodes": [[["average_pooling2d_2", 0, 0, {}]]], "name": "conv2d_19"}, {"class_name": "BatchNormalization", "config": {"scale": false, "beta_regularizer": null, "momentum": 0.99, "beta_initializer": {"class_name": "Zeros", "config": {}}, "gamma_constraint": null, "trainable": true, "beta_constraint": null, "moving_mean_initializer": {"class_name": "Zeros", "config": {}}, "gamma_regularizer": null, "epsilon": 0.001, "axis": 3, "name": "batch_normalization_13", "center": true, "gamma_initializer": {"class_name": "Ones", "config": {}}, "moving_variance_initializer": {"class_name": "Ones", "config": {}}}, "inbound_nodes": [[["conv2d_13", 0, 0, {}]]], "name": "batch_normalization_13"}, {"class_name": "BatchNormalization", "config": {"scale": false, "beta_regularizer": null, "momentum": 0.99, "beta_initializer": {"class_name": "Zeros", "config": {}}, "gamma_constraint": null, "trainable": true, "beta_constraint": null, "moving_mean_initializer": {"class_name": "Zeros", "config": {}}, "gamma_regularizer": null, "epsilon": 0.001, "axis": 3, "name": "batch_normalization_15", "center": true, "gamma_initializer": {"class_name": "Ones", "config": {}}, "moving_variance_initializer": {"class_name": "Ones", "config": {}}}, "inbound_nodes": [[["conv2d_15", 0, 0, {}]]], "name": "batch_normalization_15"}, {"class_name": "BatchNormalization", "config": {"scale": false, "beta_regularizer": null, "momentum": 0.99, "beta_initializer": {"class_name": "Zeros", "config": {}}, "gamma_constraint": null, "trainable": true, "beta_constraint": null, "moving_mean_initializer": {"class_name": "Zeros", "config": {}}, "gamma_regularizer": null, "epsilon": 0.001, "axis": 3, "name": "batch_normalization_18", "center": true, "gamma_initializer": {"class_name": "Ones", "config": {}}, "moving_variance_initializer": {"class_name": "Ones", "config": {}}}, "inbound_nodes": [[["conv2d_18", 0, 0, {}]]], "name": "batch_normalization_18"}, {"class_name": "BatchNormalization", "config": {"scale": false, "beta_regularizer": null, "momentum": 0.99, "beta_initializer": {"class_name": "Zeros", "config": {}}, "gamma_constraint": null, "trainable": true, "beta_constraint": null, "moving_mean_initializer": {"class_name": "Zeros", "config": {}}, "gamma_regularizer": null, "epsilon": 0.001, "axis": 3, "name": "batch_normalization_19", "center": true, "gamma_initializer": {"class_name": "Ones", "config": {}}, "moving_variance_initializer": {"class_name": "Ones", "config": {}}}, "inbound_nodes": [[["conv2d_19", 0, 0, {}]]], "name": "batch_normalization_19"}, {"class_name": "Activation", "config": {"trainable": true, "activation": "relu", "name": "activation_13"}, "inbound_nodes": [[["batch_normalization_13", 0, 0, {}]]], "name": "activation_13"}, {"class_name": "Activation", "config": {"trainable": true, "activation": "relu", "name": "activation_15"}, "inbound_nodes": [[["batch_normalization_15", 0, 0, {}]]], "name": "activation_15"}, {"class_name": "Activation", "config": {"trainable": true, "activation": "relu", "name": "activation_18"}, "inbound_nodes": [[["batch_normalization_18", 0, 0, {}]]], "name": "activation_18"}, {"class_name": "Activation", "config": {"trainable": true, "activation": "relu", "name": "activation_19"}, "inbound_nodes": [[["batch_normalization_19", 0, 0, {}]]], "name": "activation_19"}, {"class_name": "Concatenate", "config": {"trainable": true, "axis": 3, "name": "mixed1"}, "inbound_nodes": [[["activation_13", 0, 0, {}], ["activation_15", 0, 0, {}], ["activation_18", 0, 0, {}], ["activation_19", 0, 0, {}]]], "name": "mixed1"}, {"class_name": "Conv2D", "config": {"bias_initializer": {"class_name": "Zeros", "config": {}}, "strides": [1, 1], "activity_regularizer": null, "kernel_initializer": {"class_name": "VarianceScaling", "config": {"scale": 1.0, "seed": null, "mode": "fan_avg", "distribution": "uniform"}}, "trainable": true, "bias_regularizer": null, "filters": 64, "activation": "linear", "data_format": "channels_last", "use_bias": false, "kernel_constraint": null, "name": "conv2d_23", "bias_constraint": null, "kernel_size": [1, 1], "dilation_rate": [1, 1], "kernel_regularizer": null, "padding": "same"}, "inbound_nodes": [[["mixed1", 0, 0, {}]]], "name": "conv2d_23"}, {"class_name": "BatchNormalization", "config": {"scale": false, "beta_regularizer": null, "momentum": 0.99, "beta_initializer": {"class_name": "Zeros", "config": {}}, "gamma_constraint": null, "trainable": true, "beta_constraint": null, "moving_mean_initializer": {"class_name": "Zeros", "config": {}}, "gamma_regularizer": null, "epsilon": 0.001, "axis": 3, "name": "batch_normalization_23", "center": true, "gamma_initializer": {"class_name": "Ones", "config": {}}, "moving_variance_initializer": {"class_name": "Ones", "config": {}}}, "inbound_nodes": [[["conv2d_23", 0, 0, {}]]], "name": "batch_normalization_23"}, {"class_name": "Activation", "config": {"trainable": true, "activation": "relu", "name": "activation_23"}, "inbound_nodes": [[["batch_normalization_23", 0, 0, {}]]], "name": "activation_23"}, {"class_name": "Conv2D", "config": {"bias_initializer": {"class_name": "Zeros", "config": {}}, "strides": [1, 1], "activity_regularizer": null, "kernel_initializer": {"class_name": "VarianceScaling", "config": {"scale": 1.0, "seed": null, "mode": "fan_avg", "distribution": "uniform"}}, "trainable": true, "bias_regularizer": null, "filters": 48, "activation": "linear", "data_format": "channels_last", "use_bias": false, "kernel_constraint": null, "name": "conv2d_21", "bias_constraint": null, "kernel_size": [1, 1], "dilation_rate": [1, 1], "kernel_regularizer": null, "padding": "same"}, "inbound_nodes": [[["mixed1", 0, 0, {}]]], "name": "conv2d_21"}, {"class_name": "Conv2D", "config": {"bias_initializer": {"class_name": "Zeros", "config": {}}, "strides": [1, 1], "activity_regularizer": null, "kernel_initializer": {"class_name": "VarianceScaling", "config": {"scale": 1.0, "seed": null, "mode": "fan_avg", "distribution": "uniform"}}, "trainable": true, "bias_regularizer": null, "filters": 96, "activation": "linear", "data_format": "channels_last", "use_bias": false, "kernel_constraint": null, "name": "conv2d_24", "bias_constraint": null, "kernel_size": [3, 3], "dilation_rate": [1, 1], "kernel_regularizer": null, "padding": "same"}, "inbound_nodes": [[["activation_23", 0, 0, {}]]], "name": "conv2d_24"}, {"class_name": "BatchNormalization", "config": {"scale": false, "beta_regularizer": null, "momentum": 0.99, "beta_initializer": {"class_name": "Zeros", "config": {}}, "gamma_constraint": null, "trainable": true, "beta_constraint": null, "moving_mean_initializer": {"class_name": "Zeros", "config": {}}, "gamma_regularizer": null, "epsilon": 0.001, "axis": 3, "name": "batch_normalization_21", "center": true, "gamma_initializer": {"class_name": "Ones", "config": {}}, "moving_variance_initializer": {"class_name": "Ones", "config": {}}}, "inbound_nodes": [[["conv2d_21", 0, 0, {}]]], "name": "batch_normalization_21"}, {"class_name": "BatchNormalization", "config": {"scale": false, "beta_regularizer": null, "momentum": 0.99, "beta_initializer": {"class_name": "Zeros", "config": {}}, "gamma_constraint": null, "trainable": true, "beta_constraint": null, "moving_mean_initializer": {"class_name": "Zeros", "config": {}}, "gamma_regularizer": null, "epsilon": 0.001, "axis": 3, "name": "batch_normalization_24", "center": true, "gamma_initializer": {"class_name": "Ones", "config": {}}, "moving_variance_initializer": {"class_name": "Ones", "config": {}}}, "inbound_nodes": [[["conv2d_24", 0, 0, {}]]], "name": "batch_normalization_24"}, {"class_name": "Activation", "config": {"trainable": true, "activation": "relu", "name": "activation_21"}, "inbound_nodes": [[["batch_normalization_21", 0, 0, {}]]], "name": "activation_21"}, {"class_name": "Activation", "config": {"trainable": true, "activation": "relu", "name": "activation_24"}, "inbound_nodes": [[["batch_normalization_24", 0, 0, {}]]], "name": "activation_24"}, {"class_name": "AveragePooling2D", "config": {"strides": [1, 1], "name": "average_pooling2d_3", "pool_size": [3, 3], "trainable": true, "padding": "same", "data_format": "channels_last"}, "inbound_nodes": [[["mixed1", 0, 0, {}]]], "name": "average_pooling2d_3"}, {"class_name": "Conv2D", "config": {"bias_initializer": {"class_name": "Zeros", "config": {}}, "strides": [1, 1], "activity_regularizer": null, "kernel_initializer": {"class_name": "VarianceScaling", "config": {"scale": 1.0, "seed": null, "mode": "fan_avg", "distribution": "uniform"}}, "trainable": true, "bias_regularizer": null, "filters": 64, "activation": "linear", "data_format": "channels_last", "use_bias": false, "kernel_constraint": null, "name": "conv2d_20", "bias_constraint": null, "kernel_size": [1, 1], "dilation_rate": [1, 1], "kernel_regularizer": null, "padding": "same"}, "inbound_nodes": [[["mixed1", 0, 0, {}]]], "name": "conv2d_20"}, {"class_name": "Conv2D", "config": {"bias_initializer": {"class_name": "Zeros", "config": {}}, "strides": [1, 1], "activity_regularizer": null, "kernel_initializer": {"class_name": "VarianceScaling", "config": {"scale": 1.0, "seed": null, "mode": "fan_avg", "distribution": "uniform"}}, "trainable": true, "bias_regularizer": null, "filters": 64, "activation": "linear", "data_format": "channels_last", "use_bias": false, "kernel_constraint": null, "name": "conv2d_22", "bias_constraint": null, "kernel_size": [5, 5], "dilation_rate": [1, 1], "kernel_regularizer": null, "padding": "same"}, "inbound_nodes": [[["activation_21", 0, 0, {}]]], "name": "conv2d_22"}, {"class_name": "Conv2D", "config": {"bias_initializer": {"class_name": "Zeros", "config": {}}, "strides": [1, 1], "activity_regularizer": null, "kernel_initializer": {"class_name": "VarianceScaling", "config": {"scale": 1.0, "seed": null, "mode": "fan_avg", "distribution": "uniform"}}, "trainable": true, "bias_regularizer": null, "filters": 96, "activation": "linear", "data_format": "channels_last", "use_bias": false, "kernel_constraint": null, "name": "conv2d_25", "bias_constraint": null, "kernel_size": [3, 3], "dilation_rate": [1, 1], "kernel_regularizer": null, "padding": "same"}, "inbound_nodes": [[["activation_24", 0, 0, {}]]], "name": "conv2d_25"}, {"class_name": "Conv2D", "config": {"bias_initializer": {"class_name": "Zeros", "config": {}}, "strides": [1, 1], "activity_regularizer": null, "kernel_initializer": {"class_name": "VarianceScaling", "config": {"scale": 1.0, "seed": null, "mode": "fan_avg", "distribution": "uniform"}}, "trainable": true, "bias_regularizer": null, "filters": 64, "activation": "linear", "data_format": "channels_last", "use_bias": false, "kernel_constraint": null, "name": "conv2d_26", "bias_constraint": null, "kernel_size": [1, 1], "dilation_rate": [1, 1], "kernel_regularizer": null, "padding": "same"}, "inbound_nodes": [[["average_pooling2d_3", 0, 0, {}]]], "name": "conv2d_26"}, {"class_name": "BatchNormalization", "config": {"scale": false, "beta_regularizer": null, "momentum": 0.99, "beta_initializer": {"class_name": "Zeros", "config": {}}, "gamma_constraint": null, "trainable": true, "beta_constraint": null, "moving_mean_initializer": {"class_name": "Zeros", "config": {}}, "gamma_regularizer": null, "epsilon": 0.001, "axis": 3, "name": "batch_normalization_20", "center": true, "gamma_initializer": {"class_name": "Ones", "config": {}}, "moving_variance_initializer": {"class_name": "Ones", "config": {}}}, "inbound_nodes": [[["conv2d_20", 0, 0, {}]]], "name": "batch_normalization_20"}, {"class_name": "BatchNormalization", "config": {"scale": false, "beta_regularizer": null, "momentum": 0.99, "beta_initializer": {"class_name": "Zeros", "config": {}}, "gamma_constraint": null, "trainable": true, "beta_constraint": null, "moving_mean_initializer": {"class_name": "Zeros", "config": {}}, "gamma_regularizer": null, "epsilon": 0.001, "axis": 3, "name": "batch_normalization_22", "center": true, "gamma_initializer": {"class_name": "Ones", "config": {}}, "moving_variance_initializer": {"class_name": "Ones", "config": {}}}, "inbound_nodes": [[["conv2d_22", 0, 0, {}]]], "name": "batch_normalization_22"}, {"class_name": "BatchNormalization", "config": {"scale": false, "beta_regularizer": null, "momentum": 0.99, "beta_initializer": {"class_name": "Zeros", "config": {}}, "gamma_constraint": null, "trainable": true, "beta_constraint": null, "moving_mean_initializer": {"class_name": "Zeros", "config": {}}, "gamma_regularizer": null, "epsilon": 0.001, "axis": 3, "name": "batch_normalization_25", "center": true, "gamma_initializer": {"class_name": "Ones", "config": {}}, "moving_variance_initializer": {"class_name": "Ones", "config": {}}}, "inbound_nodes": [[["conv2d_25", 0, 0, {}]]], "name": "batch_normalization_25"}, {"class_name": "BatchNormalization", "config": {"scale": false, "beta_regularizer": null, "momentum": 0.99, "beta_initializer": {"class_name": "Zeros", "config": {}}, "gamma_constraint": null, "trainable": true, "beta_constraint": null, "moving_mean_initializer": {"class_name": "Zeros", "config": {}}, "gamma_regularizer": null, "epsilon": 0.001, "axis": 3, "name": "batch_normalization_26", "center": true, "gamma_initializer": {"class_name": "Ones", "config": {}}, "moving_variance_initializer": {"class_name": "Ones", "config": {}}}, "inbound_nodes": [[["conv2d_26", 0, 0, {}]]], "name": "batch_normalization_26"}, {"class_name": "Activation", "config": {"trainable": true, "activation": "relu", "name": "activation_20"}, "inbound_nodes": [[["batch_normalization_20", 0, 0, {}]]], "name": "activation_20"}, {"class_name": "Activation", "config": {"trainable": true, "activation": "relu", "name": "activation_22"}, "inbound_nodes": [[["batch_normalization_22", 0, 0, {}]]], "name": "activation_22"}, {"class_name": "Activation", "config": {"trainable": true, "activation": "relu", "name": "activation_25"}, "inbound_nodes": [[["batch_normalization_25", 0, 0, {}]]], "name": "activation_25"}, {"class_name": "Activation", "config": {"trainable": true, "activation": "relu", "name": "activation_26"}, "inbound_nodes": [[["batch_normalization_26", 0, 0, {}]]], "name": "activation_26"}, {"class_name": "Concatenate", "config": {"trainable": true, "axis": 3, "name": "mixed2"}, "inbound_nodes": [[["activation_20", 0, 0, {}], ["activation_22", 0, 0, {}], ["activation_25", 0, 0, {}], ["activation_26", 0, 0, {}]]], "name": "mixed2"}, {"class_name": "Conv2D", "config": {"bias_initializer": {"class_name": "Zeros", "config": {}}, "strides": [1, 1], "activity_regularizer": null, "kernel_initializer": {"class_name": "VarianceScaling", "config": {"scale": 1.0, "seed": null, "mode": "fan_avg", "distribution": "uniform"}}, "trainable": true, "bias_regularizer": null, "filters": 64, "activation": "linear", "data_format": "channels_last", "use_bias": false, "kernel_constraint": null, "name": "conv2d_28", "bias_constraint": null, "kernel_size": [1, 1], "dilation_rate": [1, 1], "kernel_regularizer": null, "padding": "same"}, "inbound_nodes": [[["mixed2", 0, 0, {}]]], "name": "conv2d_28"}, {"class_name": "BatchNormalization", "config": {"scale": false, "beta_regularizer": null, "momentum": 0.99, "beta_initializer": {"class_name": "Zeros", "config": {}}, "gamma_constraint": null, "trainable": true, "beta_constraint": null, "moving_mean_initializer": {"class_name": "Zeros", "config": {}}, "gamma_regularizer": null, "epsilon": 0.001, "axis": 3, "name": "batch_normalization_28", "center": true, "gamma_initializer": {"class_name": "Ones", "config": {}}, "moving_variance_initializer": {"class_name": "Ones", "config": {}}}, "inbound_nodes": [[["conv2d_28", 0, 0, {}]]], "name": "batch_normalization_28"}, {"class_name": "Activation", "config": {"trainable": true, "activation": "relu", "name": "activation_28"}, "inbound_nodes": [[["batch_normalization_28", 0, 0, {}]]], "name": "activation_28"}, {"class_name": "Conv2D", "config": {"bias_initializer": {"class_name": "Zeros", "config": {}}, "strides": [1, 1], "activity_regularizer": null, "kernel_initializer": {"class_name": "VarianceScaling", "config": {"scale": 1.0, "seed": null, "mode": "fan_avg", "distribution": "uniform"}}, "trainable": true, "bias_regularizer": null, "filters": 96, "activation": "linear", "data_format": "channels_last", "use_bias": false, "kernel_constraint": null, "name": "conv2d_29", "bias_constraint": null, "kernel_size": [3, 3], "dilation_rate": [1, 1], "kernel_regularizer": null, "padding": "same"}, "inbound_nodes": [[["activation_28", 0, 0, {}]]], "name": "conv2d_29"}, {"class_name": "BatchNormalization", "config": {"scale": false, "beta_regularizer": null, "momentum": 0.99, "beta_initializer": {"class_name": "Zeros", "config": {}}, "gamma_constraint": null, "trainable": true, "beta_constraint": null, "moving_mean_initializer": {"class_name": "Zeros", "config": {}}, "gamma_regularizer": null, "epsilon": 0.001, "axis": 3, "name": "batch_normalization_29", "center": true, "gamma_initializer": {"class_name": "Ones", "config": {}}, "moving_variance_initializer": {"class_name": "Ones", "config": {}}}, "inbound_nodes": [[["conv2d_29", 0, 0, {}]]], "name": "batch_normalization_29"}, {"class_name": "Activation", "config": {"trainable": true, "activation": "relu", "name": "activation_29"}, "inbound_nodes": [[["batch_normalization_29", 0, 0, {}]]], "name": "activation_29"}, {"class_name": "Conv2D", "config": {"bias_initializer": {"class_name": "Zeros", "config": {}}, "strides": [2, 2], "activity_regularizer": null, "kernel_initializer": {"class_name": "VarianceScaling", "config": {"scale": 1.0, "seed": null, "mode": "fan_avg", "distribution": "uniform"}}, "trainable": true, "bias_regularizer": null, "filters": 384, "activation": "linear", "data_format": "channels_last", "use_bias": false, "kernel_constraint": null, "name": "conv2d_27", "bias_constraint": null, "kernel_size": [3, 3], "dilation_rate": [1, 1], "kernel_regularizer": null, "padding": "valid"}, "inbound_nodes": [[["mixed2", 0, 0, {}]]], "name": "conv2d_27"}, {"class_name": "Conv2D", "config": {"bias_initializer": {"class_name": "Zeros", "config": {}}, "strides": [2, 2], "activity_regularizer": null, "kernel_initializer": {"class_name": "VarianceScaling", "config": {"scale": 1.0, "seed": null, "mode": "fan_avg", "distribution": "uniform"}}, "trainable": true, "bias_regularizer": null, "filters": 96, "activation": "linear", "data_format": "channels_last", "use_bias": false, "kernel_constraint": null, "name": "conv2d_30", "bias_constraint": null, "kernel_size": [3, 3], "dilation_rate": [1, 1], "kernel_regularizer": null, "padding": "valid"}, "inbound_nodes": [[["activation_29", 0, 0, {}]]], "name": "conv2d_30"}, {"class_name": "BatchNormalization", "config": {"scale": false, "beta_regularizer": null, "momentum": 0.99, "beta_initializer": {"class_name": "Zeros", "config": {}}, "gamma_constraint": null, "trainable": true, "beta_constraint": null, "moving_mean_initializer": {"class_name": "Zeros", "config": {}}, "gamma_regularizer": null, "epsilon": 0.001, "axis": 3, "name": "batch_normalization_27", "center": true, "gamma_initializer": {"class_name": "Ones", "config": {}}, "moving_variance_initializer": {"class_name": "Ones", "config": {}}}, "inbound_nodes": [[["conv2d_27", 0, 0, {}]]], "name": "batch_normalization_27"}, {"class_name": "BatchNormalization", "config": {"scale": false, "beta_regularizer": null, "momentum": 0.99, "beta_initializer": {"class_name": "Zeros", "config": {}}, "gamma_constraint": null, "trainable": true, "beta_constraint": null, "moving_mean_initializer": {"class_name": "Zeros", "config": {}}, "gamma_regularizer": null, "epsilon": 0.001, "axis": 3, "name": "batch_normalization_30", "center": true, "gamma_initializer": {"class_name": "Ones", "config": {}}, "moving_variance_initializer": {"class_name": "Ones", "config": {}}}, "inbound_nodes": [[["conv2d_30", 0, 0, {}]]], "name": "batch_normalization_30"}, {"class_name": "Activation", "config": {"trainable": true, "activation": "relu", "name": "activation_27"}, "inbound_nodes": [[["batch_normalization_27", 0, 0, {}]]], "name": "activation_27"}, {"class_name": "Activation", "config": {"trainable": true, "activation": "relu", "name": "activation_30"}, "inbound_nodes": [[["batch_normalization_30", 0, 0, {}]]], "name": "activation_30"}, {"class_name": "MaxPooling2D", "config": {"strides": [2, 2], "name": "max_pooling2d_3", "pool_size": [3, 3], "trainable": true, "padding": "valid", "data_format": "channels_last"}, "inbound_nodes": [[["mixed2", 0, 0, {}]]], "name": "max_pooling2d_3"}, {"class_name": "Concatenate", "config": {"trainable": true, "axis": 3, "name": "mixed3"}, "inbound_nodes": [[["activation_27", 0, 0, {}], ["activation_30", 0, 0, {}], ["max_pooling2d_3", 0, 0, {}]]], "name": "mixed3"}, {"class_name": "Conv2D", "config": {"bias_initializer": {"class_name": "Zeros", "config": {}}, "strides": [1, 1], "activity_regularizer": null, "kernel_initializer": {"class_name": "VarianceScaling", "config": {"scale": 1.0, "seed": null, "mode": "fan_avg", "distribution": "uniform"}}, "trainable": true, "bias_regularizer": null, "filters": 128, "activation": "linear", "data_format": "channels_last", "use_bias": false, "kernel_constraint": null, "name": "conv2d_35", "bias_constraint": null, "kernel_size": [1, 1], "dilation_rate": [1, 1], "kernel_regularizer": null, "padding": "same"}, "inbound_nodes": [[["mixed3", 0, 0, {}]]], "name": "conv2d_35"}, {"class_name": "BatchNormalization", "config": {"scale": false, "beta_regularizer": null, "momentum": 0.99, "beta_initializer": {"class_name": "Zeros", "config": {}}, "gamma_constraint": null, "trainable": true, "beta_constraint": null, "moving_mean_initializer": {"class_name": "Zeros", "config": {}}, "gamma_regularizer": null, "epsilon": 0.001, "axis": 3, "name": "batch_normalization_35", "center": true, "gamma_initializer": {"class_name": "Ones", "config": {}}, "moving_variance_initializer": {"class_name": "Ones", "config": {}}}, "inbound_nodes": [[["conv2d_35", 0, 0, {}]]], "name": "batch_normalization_35"}, {"class_name": "Activation", "config": {"trainable": true, "activation": "relu", "name": "activation_35"}, "inbound_nodes": [[["batch_normalization_35", 0, 0, {}]]], "name": "activation_35"}, {"class_name": "Conv2D", "config": {"bias_initializer": {"class_name": "Zeros", "config": {}}, "strides": [1, 1], "activity_regularizer": null, "kernel_initializer": {"class_name": "VarianceScaling", "config": {"scale": 1.0, "seed": null, "mode": "fan_avg", "distribution": "uniform"}}, "trainable": true, "bias_regularizer": null, "filters": 128, "activation": "linear", "data_format": "channels_last", "use_bias": false, "kernel_constraint": null, "name": "conv2d_36", "bias_constraint": null, "kernel_size": [7, 1], "dilation_rate": [1, 1], "kernel_regularizer": null, "padding": "same"}, "inbound_nodes": [[["activation_35", 0, 0, {}]]], "name": "conv2d_36"}, {"class_name": "BatchNormalization", "config": {"scale": false, "beta_regularizer": null, "momentum": 0.99, "beta_initializer": {"class_name": "Zeros", "config": {}}, "gamma_constraint": null, "trainable": true, "beta_constraint": null, "moving_mean_initializer": {"class_name": "Zeros", "config": {}}, "gamma_regularizer": null, "epsilon": 0.001, "axis": 3, "name": "batch_normalization_36", "center": true, "gamma_initializer": {"class_name": "Ones", "config": {}}, "moving_variance_initializer": {"class_name": "Ones", "config": {}}}, "inbound_nodes": [[["conv2d_36", 0, 0, {}]]], "name": "batch_normalization_36"}, {"class_name": "Activation", "config": {"trainable": true, "activation": "relu", "name": "activation_36"}, "inbound_nodes": [[["batch_normalization_36", 0, 0, {}]]], "name": "activation_36"}, {"class_name": "Conv2D", "config": {"bias_initializer": {"class_name": "Zeros", "config": {}}, "strides": [1, 1], "activity_regularizer": null, "kernel_initializer": {"class_name": "VarianceScaling", "config": {"scale": 1.0, "seed": null, "mode": "fan_avg", "distribution": "uniform"}}, "trainable": true, "bias_regularizer": null, "filters": 128, "activation": "linear", "data_format": "channels_last", "use_bias": false, "kernel_constraint": null, "name": "conv2d_32", "bias_constraint": null, "kernel_size": [1, 1], "dilation_rate": [1, 1], "kernel_regularizer": null, "padding": "same"}, "inbound_nodes": [[["mixed3", 0, 0, {}]]], "name": "conv2d_32"}, {"class_name": "Conv2D", "config": {"bias_initializer": {"class_name": "Zeros", "config": {}}, "strides": [1, 1], "activity_regularizer": null, "kernel_initializer": {"class_name": "VarianceScaling", "config": {"scale": 1.0, "seed": null, "mode": "fan_avg", "distribution": "uniform"}}, "trainable": true, "bias_regularizer": null, "filters": 128, "activation": "linear", "data_format": "channels_last", "use_bias": false, "kernel_constraint": null, "name": "conv2d_37", "bias_constraint": null, "kernel_size": [1, 7], "dilation_rate": [1, 1], "kernel_regularizer": null, "padding": "same"}, "inbound_nodes": [[["activation_36", 0, 0, {}]]], "name": "conv2d_37"}, {"class_name": "BatchNormalization", "config": {"scale": false, "beta_regularizer": null, "momentum": 0.99, "beta_initializer": {"class_name": "Zeros", "config": {}}, "gamma_constraint": null, "trainable": true, "beta_constraint": null, "moving_mean_initializer": {"class_name": "Zeros", "config": {}}, "gamma_regularizer": null, "epsilon": 0.001, "axis": 3, "name": "batch_normalization_32", "center": true, "gamma_initializer": {"class_name": "Ones", "config": {}}, "moving_variance_initializer": {"class_name": "Ones", "config": {}}}, "inbound_nodes": [[["conv2d_32", 0, 0, {}]]], "name": "batch_normalization_32"}, {"class_name": "BatchNormalization", "config": {"scale": false, "beta_regularizer": null, "momentum": 0.99, "beta_initializer": {"class_name": "Zeros", "config": {}}, "gamma_constraint": null, "trainable": true, "beta_constraint": null, "moving_mean_initializer": {"class_name": "Zeros", "config": {}}, "gamma_regularizer": null, "epsilon": 0.001, "axis": 3, "name": "batch_normalization_37", "center": true, "gamma_initializer": {"class_name": "Ones", "config": {}}, "moving_variance_initializer": {"class_name": "Ones", "config": {}}}, "inbound_nodes": [[["conv2d_37", 0, 0, {}]]], "name": "batch_normalization_37"}, {"class_name": "Activation", "config": {"trainable": true, "activation": "relu", "name": "activation_32"}, "inbound_nodes": [[["batch_normalization_32", 0, 0, {}]]], "name": "activation_32"}, {"class_name": "Activation", "config": {"trainable": true, "activation": "relu", "name": "activation_37"}, "inbound_nodes": [[["batch_normalization_37", 0, 0, {}]]], "name": "activation_37"}, {"class_name": "Conv2D", "config": {"bias_initializer": {"class_name": "Zeros", "config": {}}, "strides": [1, 1], "activity_regularizer": null, "kernel_initializer": {"class_name": "VarianceScaling", "config": {"scale": 1.0, "seed": null, "mode": "fan_avg", "distribution": "uniform"}}, "trainable": true, "bias_regularizer": null, "filters": 128, "activation": "linear", "data_format": "channels_last", "use_bias": false, "kernel_constraint": null, "name": "conv2d_33", "bias_constraint": null, "kernel_size": [1, 7], "dilation_rate": [1, 1], "kernel_regularizer": null, "padding": "same"}, "inbound_nodes": [[["activation_32", 0, 0, {}]]], "name": "conv2d_33"}, {"class_name": "Conv2D", "config": {"bias_initializer": {"class_name": "Zeros", "config": {}}, "strides": [1, 1], "activity_regularizer": null, "kernel_initializer": {"class_name": "VarianceScaling", "config": {"scale": 1.0, "seed": null, "mode": "fan_avg", "distribution": "uniform"}}, "trainable": true, "bias_regularizer": null, "filters": 128, "activation": "linear", "data_format": "channels_last", "use_bias": false, "kernel_constraint": null, "name": "conv2d_38", "bias_constraint": null, "kernel_size": [7, 1], "dilation_rate": [1, 1], "kernel_regularizer": null, "padding": "same"}, "inbound_nodes": [[["activation_37", 0, 0, {}]]], "name": "conv2d_38"}, {"class_name": "BatchNormalization", "config": {"scale": false, "beta_regularizer": null, "momentum": 0.99, "beta_initializer": {"class_name": "Zeros", "config": {}}, "gamma_constraint": null, "trainable": true, "beta_constraint": null, "moving_mean_initializer": {"class_name": "Zeros", "config": {}}, "gamma_regularizer": null, "epsilon": 0.001, "axis": 3, "name": "batch_normalization_33", "center": true, "gamma_initializer": {"class_name": "Ones", "config": {}}, "moving_variance_initializer": {"class_name": "Ones", "config": {}}}, "inbound_nodes": [[["conv2d_33", 0, 0, {}]]], "name": "batch_normalization_33"}, {"class_name": "BatchNormalization", "config": {"scale": false, "beta_regularizer": null, "momentum": 0.99, "beta_initializer": {"class_name": "Zeros", "config": {}}, "gamma_constraint": null, "trainable": true, "beta_constraint": null, "moving_mean_initializer": {"class_name": "Zeros", "config": {}}, "gamma_regularizer": null, "epsilon": 0.001, "axis": 3, "name": "batch_normalization_38", "center": true, "gamma_initializer": {"class_name": "Ones", "config": {}}, "moving_variance_initializer": {"class_name": "Ones", "config": {}}}, "inbound_nodes": [[["conv2d_38", 0, 0, {}]]], "name": "batch_normalization_38"}, {"class_name": "Activation", "config": {"trainable": true, "activation": "relu", "name": "activation_33"}, "inbound_nodes": [[["batch_normalization_33", 0, 0, {}]]], "name": "activation_33"}, {"class_name": "Activation", "config": {"trainable": true, "activation": "relu", "name": "activation_38"}, "inbound_nodes": [[["batch_normalization_38", 0, 0, {}]]], "name": "activation_38"}, {"class_name": "AveragePooling2D", "config": {"strides": [1, 1], "name": "average_pooling2d_4", "pool_size": [3, 3], "trainable": true, "padding": "same", "data_format": "channels_last"}, "inbound_nodes": [[["mixed3", 0, 0, {}]]], "name": "average_pooling2d_4"}, {"class_name": "Conv2D", "config": {"bias_initializer": {"class_name": "Zeros", "config": {}}, "strides": [1, 1], "activity_regularizer": null, "kernel_initializer": {"class_name": "VarianceScaling", "config": {"scale": 1.0, "seed": null, "mode": "fan_avg", "distribution": "uniform"}}, "trainable": true, "bias_regularizer": null, "filters": 192, "activation": "linear", "data_format": "channels_last", "use_bias": false, "kernel_constraint": null, "name": "conv2d_31", "bias_constraint": null, "kernel_size": [1, 1], "dilation_rate": [1, 1], "kernel_regularizer": null, "padding": "same"}, "inbound_nodes": [[["mixed3", 0, 0, {}]]], "name": "conv2d_31"}, {"class_name": "Conv2D", "config": {"bias_initializer": {"class_name": "Zeros", "config": {}}, "strides": [1, 1], "activity_regularizer": null, "kernel_initializer": {"class_name": "VarianceScaling", "config": {"scale": 1.0, "seed": null, "mode": "fan_avg", "distribution": "uniform"}}, "trainable": true, "bias_regularizer": null, "filters": 192, "activation": "linear", "data_format": "channels_last", "use_bias": false, "kernel_constraint": null, "name": "conv2d_34", "bias_constraint": null, "kernel_size": [7, 1], "dilation_rate": [1, 1], "kernel_regularizer": null, "padding": "same"}, "inbound_nodes": [[["activation_33", 0, 0, {}]]], "name": "conv2d_34"}, {"class_name": "Conv2D", "config": {"bias_initializer": {"class_name": "Zeros", "config": {}}, "strides": [1, 1], "activity_regularizer": null, "kernel_initializer": {"class_name": "VarianceScaling", "config": {"scale": 1.0, "seed": null, "mode": "fan_avg", "distribution": "uniform"}}, "trainable": true, "bias_regularizer": null, "filters": 192, "activation": "linear", "data_format": "channels_last", "use_bias": false, "kernel_constraint": null, "name": "conv2d_39", "bias_constraint": null, "kernel_size": [1, 7], "dilation_rate": [1, 1], "kernel_regularizer": null, "padding": "same"}, "inbound_nodes": [[["activation_38", 0, 0, {}]]], "name": "conv2d_39"}, {"class_name": "Conv2D", "config": {"bias_initializer": {"class_name": "Zeros", "config": {}}, "strides": [1, 1], "activity_regularizer": null, "kernel_initializer": {"class_name": "VarianceScaling", "config": {"scale": 1.0, "seed": null, "mode": "fan_avg", "distribution": "uniform"}}, "trainable": true, "bias_regularizer": null, "filters": 192, "activation": "linear", "data_format": "channels_last", "use_bias": false, "kernel_constraint": null, "name": "conv2d_40", "bias_constraint": null, "kernel_size": [1, 1], "dilation_rate": [1, 1], "kernel_regularizer": null, "padding": "same"}, "inbound_nodes": [[["average_pooling2d_4", 0, 0, {}]]], "name": "conv2d_40"}, {"class_name": "BatchNormalization", "config": {"scale": false, "beta_regularizer": null, "momentum": 0.99, "beta_initializer": {"class_name": "Zeros", "config": {}}, "gamma_constraint": null, "trainable": true, "beta_constraint": null, "moving_mean_initializer": {"class_name": "Zeros", "config": {}}, "gamma_regularizer": null, "epsilon": 0.001, "axis": 3, "name": "batch_normalization_31", "center": true, "gamma_initializer": {"class_name": "Ones", "config": {}}, "moving_variance_initializer": {"class_name": "Ones", "config": {}}}, "inbound_nodes": [[["conv2d_31", 0, 0, {}]]], "name": "batch_normalization_31"}, {"class_name": "BatchNormalization", "config": {"scale": false, "beta_regularizer": null, "momentum": 0.99, "beta_initializer": {"class_name": "Zeros", "config": {}}, "gamma_constraint": null, "trainable": true, "beta_constraint": null, "moving_mean_initializer": {"class_name": "Zeros", "config": {}}, "gamma_regularizer": null, "epsilon": 0.001, "axis": 3, "name": "batch_normalization_34", "center": true, "gamma_initializer": {"class_name": "Ones", "config": {}}, "moving_variance_initializer": {"class_name": "Ones", "config": {}}}, "inbound_nodes": [[["conv2d_34", 0, 0, {}]]], "name": "batch_normalization_34"}, {"class_name": "BatchNormalization", "config": {"scale": false, "beta_regularizer": null, "momentum": 0.99, "beta_initializer": {"class_name": "Zeros", "config": {}}, "gamma_constraint": null, "trainable": true, "beta_constraint": null, "moving_mean_initializer": {"class_name": "Zeros", "config": {}}, "gamma_regularizer": null, "epsilon": 0.001, "axis": 3, "name": "batch_normalization_39", "center": true, "gamma_initializer": {"class_name": "Ones", "config": {}}, "moving_variance_initializer": {"class_name": "Ones", "config": {}}}, "inbound_nodes": [[["conv2d_39", 0, 0, {}]]], "name": "batch_normalization_39"}, {"class_name": "BatchNormalization", "config": {"scale": false, "beta_regularizer": null, "momentum": 0.99, "beta_initializer": {"class_name": "Zeros", "config": {}}, "gamma_constraint": null, "trainable": true, "beta_constraint": null, "moving_mean_initializer": {"class_name": "Zeros", "config": {}}, "gamma_regularizer": null, "epsilon": 0.001, "axis": 3, "name": "batch_normalization_40", "center": true, "gamma_initializer": {"class_name": "Ones", "config": {}}, "moving_variance_initializer": {"class_name": "Ones", "config": {}}}, "inbound_nodes": [[["conv2d_40", 0, 0, {}]]], "name": "batch_normalization_40"}, {"class_name": "Activation", "config": {"trainable": true, "activation": "relu", "name": "activation_31"}, "inbound_nodes": [[["batch_normalization_31", 0, 0, {}]]], "name": "activation_31"}, {"class_name": "Activation", "config": {"trainable": true, "activation": "relu", "name": "activation_34"}, "inbound_nodes": [[["batch_normalization_34", 0, 0, {}]]], "name": "activation_34"}, {"class_name": "Activation", "config": {"trainable": true, "activation": "relu", "name": "activation_39"}, "inbound_nodes": [[["batch_normalization_39", 0, 0, {}]]], "name": "activation_39"}, {"class_name": "Activation", "config": {"trainable": true, "activation": "relu", "name": "activation_40"}, "inbound_nodes": [[["batch_normalization_40", 0, 0, {}]]], "name": "activation_40"}, {"class_name": "Concatenate", "config": {"trainable": true, "axis": 3, "name": "mixed4"}, "inbound_nodes": [[["activation_31", 0, 0, {}], ["activation_34", 0, 0, {}], ["activation_39", 0, 0, {}], ["activation_40", 0, 0, {}]]], "name": "mixed4"}, {"class_name": "Conv2D", "config": {"bias_initializer": {"class_name": "Zeros", "config": {}}, "strides": [1, 1], "activity_regularizer": null, "kernel_initializer": {"class_name": "VarianceScaling", "config": {"scale": 1.0, "seed": null, "mode": "fan_avg", "distribution": "uniform"}}, "trainable": true, "bias_regularizer": null, "filters": 160, "activation": "linear", "data_format": "channels_last", "use_bias": false, "kernel_constraint": null, "name": "conv2d_45", "bias_constraint": null, "kernel_size": [1, 1], "dilation_rate": [1, 1], "kernel_regularizer": null, "padding": "same"}, "inbound_nodes": [[["mixed4", 0, 0, {}]]], "name": "conv2d_45"}, {"class_name": "BatchNormalization", "config": {"scale": false, "beta_regularizer": null, "momentum": 0.99, "beta_initializer": {"class_name": "Zeros", "config": {}}, "gamma_constraint": null, "trainable": true, "beta_constraint": null, "moving_mean_initializer": {"class_name": "Zeros", "config": {}}, "gamma_regularizer": null, "epsilon": 0.001, "axis": 3, "name": "batch_normalization_45", "center": true, "gamma_initializer": {"class_name": "Ones", "config": {}}, "moving_variance_initializer": {"class_name": "Ones", "config": {}}}, "inbound_nodes": [[["conv2d_45", 0, 0, {}]]], "name": "batch_normalization_45"}, {"class_name": "Activation", "config": {"trainable": true, "activation": "relu", "name": "activation_45"}, "inbound_nodes": [[["batch_normalization_45", 0, 0, {}]]], "name": "activation_45"}, {"class_name": "Conv2D", "config": {"bias_initializer": {"class_name": "Zeros", "config": {}}, "strides": [1, 1], "activity_regularizer": null, "kernel_initializer": {"class_name": "VarianceScaling", "config": {"scale": 1.0, "seed": null, "mode": "fan_avg", "distribution": "uniform"}}, "trainable": true, "bias_regularizer": null, "filters": 160, "activation": "linear", "data_format": "channels_last", "use_bias": false, "kernel_constraint": null, "name": "conv2d_46", "bias_constraint": null, "kernel_size": [7, 1], "dilation_rate": [1, 1], "kernel_regularizer": null, "padding": "same"}, "inbound_nodes": [[["activation_45", 0, 0, {}]]], "name": "conv2d_46"}, {"class_name": "BatchNormalization", "config": {"scale": false, "beta_regularizer": null, "momentum": 0.99, "beta_initializer": {"class_name": "Zeros", "config": {}}, "gamma_constraint": null, "trainable": true, "beta_constraint": null, "moving_mean_initializer": {"class_name": "Zeros", "config": {}}, "gamma_regularizer": null, "epsilon": 0.001, "axis": 3, "name": "batch_normalization_46", "center": true, "gamma_initializer": {"class_name": "Ones", "config": {}}, "moving_variance_initializer": {"class_name": "Ones", "config": {}}}, "inbound_nodes": [[["conv2d_46", 0, 0, {}]]], "name": "batch_normalization_46"}, {"class_name": "Activation", "config": {"trainable": true, "activation": "relu", "name": "activation_46"}, "inbound_nodes": [[["batch_normalization_46", 0, 0, {}]]], "name": "activation_46"}, {"class_name": "Conv2D", "config": {"bias_initializer": {"class_name": "Zeros", "config": {}}, "strides": [1, 1], "activity_regularizer": null, "kernel_initializer": {"class_name": "VarianceScaling", "config": {"scale": 1.0, "seed": null, "mode": "fan_avg", "distribution": "uniform"}}, "trainable": true, "bias_regularizer": null, "filters": 160, "activation": "linear", "data_format": "channels_last", "use_bias": false, "kernel_constraint": null, "name": "conv2d_42", "bias_constraint": null, "kernel_size": [1, 1], "dilation_rate": [1, 1], "kernel_regularizer": null, "padding": "same"}, "inbound_nodes": [[["mixed4", 0, 0, {}]]], "name": "conv2d_42"}, {"class_name": "Conv2D", "config": {"bias_initializer": {"class_name": "Zeros", "config": {}}, "strides": [1, 1], "activity_regularizer": null, "kernel_initializer": {"class_name": "VarianceScaling", "config": {"scale": 1.0, "seed": null, "mode": "fan_avg", "distribution": "uniform"}}, "trainable": true, "bias_regularizer": null, "filters": 160, "activation": "linear", "data_format": "channels_last", "use_bias": false, "kernel_constraint": null, "name": "conv2d_47", "bias_constraint": null, "kernel_size": [1, 7], "dilation_rate": [1, 1], "kernel_regularizer": null, "padding": "same"}, "inbound_nodes": [[["activation_46", 0, 0, {}]]], "name": "conv2d_47"}, {"class_name": "BatchNormalization", "config": {"scale": false, "beta_regularizer": null, "momentum": 0.99, "beta_initializer": {"class_name": "Zeros", "config": {}}, "gamma_constraint": null, "trainable": true, "beta_constraint": null, "moving_mean_initializer": {"class_name": "Zeros", "config": {}}, "gamma_regularizer": null, "epsilon": 0.001, "axis": 3, "name": "batch_normalization_42", "center": true, "gamma_initializer": {"class_name": "Ones", "config": {}}, "moving_variance_initializer": {"class_name": "Ones", "config": {}}}, "inbound_nodes": [[["conv2d_42", 0, 0, {}]]], "name": "batch_normalization_42"}, {"class_name": "BatchNormalization", "config": {"scale": false, "beta_regularizer": null, "momentum": 0.99, "beta_initializer": {"class_name": "Zeros", "config": {}}, "gamma_constraint": null, "trainable": true, "beta_constraint": null, "moving_mean_initializer": {"class_name": "Zeros", "config": {}}, "gamma_regularizer": null, "epsilon": 0.001, "axis": 3, "name": "batch_normalization_47", "center": true, "gamma_initializer": {"class_name": "Ones", "config": {}}, "moving_variance_initializer": {"class_name": "Ones", "config": {}}}, "inbound_nodes": [[["conv2d_47", 0, 0, {}]]], "name": "batch_normalization_47"}, {"class_name": "Activation", "config": {"trainable": true, "activation": "relu", "name": "activation_42"}, "inbound_nodes": [[["batch_normalization_42", 0, 0, {}]]], "name": "activation_42"}, {"class_name": "Activation", "config": {"trainable": true, "activation": "relu", "name": "activation_47"}, "inbound_nodes": [[["batch_normalization_47", 0, 0, {}]]], "name": "activation_47"}, {"class_name": "Conv2D", "config": {"bias_initializer": {"class_name": "Zeros", "config": {}}, "strides": [1, 1], "activity_regularizer": null, "kernel_initializer": {"class_name": "VarianceScaling", "config": {"scale": 1.0, "seed": null, "mode": "fan_avg", "distribution": "uniform"}}, "trainable": true, "bias_regularizer": null, "filters": 160, "activation": "linear", "data_format": "channels_last", "use_bias": false, "kernel_constraint": null, "name": "conv2d_43", "bias_constraint": null, "kernel_size": [1, 7], "dilation_rate": [1, 1], "kernel_regularizer": null, "padding": "same"}, "inbound_nodes": [[["activation_42", 0, 0, {}]]], "name": "conv2d_43"}, {"class_name": "Conv2D", "config": {"bias_initializer": {"class_name": "Zeros", "config": {}}, "strides": [1, 1], "activity_regularizer": null, "kernel_initializer": {"class_name": "VarianceScaling", "config": {"scale": 1.0, "seed": null, "mode": "fan_avg", "distribution": "uniform"}}, "trainable": true, "bias_regularizer": null, "filters": 160, "activation": "linear", "data_format": "channels_last", "use_bias": false, "kernel_constraint": null, "name": "conv2d_48", "bias_constraint": null, "kernel_size": [7, 1], "dilation_rate": [1, 1], "kernel_regularizer": null, "padding": "same"}, "inbound_nodes": [[["activation_47", 0, 0, {}]]], "name": "conv2d_48"}, {"class_name": "BatchNormalization", "config": {"scale": false, "beta_regularizer": null, "momentum": 0.99, "beta_initializer": {"class_name": "Zeros", "config": {}}, "gamma_constraint": null, "trainable": true, "beta_constraint": null, "moving_mean_initializer": {"class_name": "Zeros", "config": {}}, "gamma_regularizer": null, "epsilon": 0.001, "axis": 3, "name": "batch_normalization_43", "center": true, "gamma_initializer": {"class_name": "Ones", "config": {}}, "moving_variance_initializer": {"class_name": "Ones", "config": {}}}, "inbound_nodes": [[["conv2d_43", 0, 0, {}]]], "name": "batch_normalization_43"}, {"class_name": "BatchNormalization", "config": {"scale": false, "beta_regularizer": null, "momentum": 0.99, "beta_initializer": {"class_name": "Zeros", "config": {}}, "gamma_constraint": null, "trainable": true, "beta_constraint": null, "moving_mean_initializer": {"class_name": "Zeros", "config": {}}, "gamma_regularizer": null, "epsilon": 0.001, "axis": 3, "name": "batch_normalization_48", "center": true, "gamma_initializer": {"class_name": "Ones", "config": {}}, "moving_variance_initializer": {"class_name": "Ones", "config": {}}}, "inbound_nodes": [[["conv2d_48", 0, 0, {}]]], "name": "batch_normalization_48"}, {"class_name": "Activation", "config": {"trainable": true, "activation": "relu", "name": "activation_43"}, "inbound_nodes": [[["batch_normalization_43", 0, 0, {}]]], "name": "activation_43"}, {"class_name": "Activation", "config": {"trainable": true, "activation": "relu", "name": "activation_48"}, "inbound_nodes": [[["batch_normalization_48", 0, 0, {}]]], "name": "activation_48"}, {"class_name": "AveragePooling2D", "config": {"strides": [1, 1], "name": "average_pooling2d_5", "pool_size": [3, 3], "trainable": true, "padding": "same", "data_format": "channels_last"}, "inbound_nodes": [[["mixed4", 0, 0, {}]]], "name": "average_pooling2d_5"}, {"class_name": "Conv2D", "config": {"bias_initializer": {"class_name": "Zeros", "config": {}}, "strides": [1, 1], "activity_regularizer": null, "kernel_initializer": {"class_name": "VarianceScaling", "config": {"scale": 1.0, "seed": null, "mode": "fan_avg", "distribution": "uniform"}}, "trainable": true, "bias_regularizer": null, "filters": 192, "activation": "linear", "data_format": "channels_last", "use_bias": false, "kernel_constraint": null, "name": "conv2d_41", "bias_constraint": null, "kernel_size": [1, 1], "dilation_rate": [1, 1], "kernel_regularizer": null, "padding": "same"}, "inbound_nodes": [[["mixed4", 0, 0, {}]]], "name": "conv2d_41"}, {"class_name": "Conv2D", "config": {"bias_initializer": {"class_name": "Zeros", "config": {}}, "strides": [1, 1], "activity_regularizer": null, "kernel_initializer": {"class_name": "VarianceScaling", "config": {"scale": 1.0, "seed": null, "mode": "fan_avg", "distribution": "uniform"}}, "trainable": true, "bias_regularizer": null, "filters": 192, "activation": "linear", "data_format": "channels_last", "use_bias": false, "kernel_constraint": null, "name": "conv2d_44", "bias_constraint": null, "kernel_size": [7, 1], "dilation_rate": [1, 1], "kernel_regularizer": null, "padding": "same"}, "inbound_nodes": [[["activation_43", 0, 0, {}]]], "name": "conv2d_44"}, {"class_name": "Conv2D", "config": {"bias_initializer": {"class_name": "Zeros", "config": {}}, "strides": [1, 1], "activity_regularizer": null, "kernel_initializer": {"class_name": "VarianceScaling", "config": {"scale": 1.0, "seed": null, "mode": "fan_avg", "distribution": "uniform"}}, "trainable": true, "bias_regularizer": null, "filters": 192, "activation": "linear", "data_format": "channels_last", "use_bias": false, "kernel_constraint": null, "name": "conv2d_49", "bias_constraint": null, "kernel_size": [1, 7], "dilation_rate": [1, 1], "kernel_regularizer": null, "padding": "same"}, "inbound_nodes": [[["activation_48", 0, 0, {}]]], "name": "conv2d_49"}, {"class_name": "Conv2D", "config": {"bias_initializer": {"class_name": "Zeros", "config": {}}, "strides": [1, 1], "activity_regularizer": null, "kernel_initializer": {"class_name": "VarianceScaling", "config": {"scale": 1.0, "seed": null, "mode": "fan_avg", "distribution": "uniform"}}, "trainable": true, "bias_regularizer": null, "filters": 192, "activation": "linear", "data_format": "channels_last", "use_bias": false, "kernel_constraint": null, "name": "conv2d_50", "bias_constraint": null, "kernel_size": [1, 1], "dilation_rate": [1, 1], "kernel_regularizer": null, "padding": "same"}, "inbound_nodes": [[["average_pooling2d_5", 0, 0, {}]]], "name": "conv2d_50"}, {"class_name": "BatchNormalization", "config": {"scale": false, "beta_regularizer": null, "momentum": 0.99, "beta_initializer": {"class_name": "Zeros", "config": {}}, "gamma_constraint": null, "trainable": true, "beta_constraint": null, "moving_mean_initializer": {"class_name": "Zeros", "config": {}}, "gamma_regularizer": null, "epsilon": 0.001, "axis": 3, "name": "batch_normalization_41", "center": true, "gamma_initializer": {"class_name": "Ones", "config": {}}, "moving_variance_initializer": {"class_name": "Ones", "config": {}}}, "inbound_nodes": [[["conv2d_41", 0, 0, {}]]], "name": "batch_normalization_41"}, {"class_name": "BatchNormalization", "config": {"scale": false, "beta_regularizer": null, "momentum": 0.99, "beta_initializer": {"class_name": "Zeros", "config": {}}, "gamma_constraint": null, "trainable": true, "beta_constraint": null, "moving_mean_initializer": {"class_name": "Zeros", "config": {}}, "gamma_regularizer": null, "epsilon": 0.001, "axis": 3, "name": "batch_normalization_44", "center": true, "gamma_initializer": {"class_name": "Ones", "config": {}}, "moving_variance_initializer": {"class_name": "Ones", "config": {}}}, "inbound_nodes": [[["conv2d_44", 0, 0, {}]]], "name": "batch_normalization_44"}, {"class_name": "BatchNormalization", "config": {"scale": false, "beta_regularizer": null, "momentum": 0.99, "beta_initializer": {"class_name": "Zeros", "config": {}}, "gamma_constraint": null, "trainable": true, "beta_constraint": null, "moving_mean_initializer": {"class_name": "Zeros", "config": {}}, "gamma_regularizer": null, "epsilon": 0.001, "axis": 3, "name": "batch_normalization_49", "center": true, "gamma_initializer": {"class_name": "Ones", "config": {}}, "moving_variance_initializer": {"class_name": "Ones", "config": {}}}, "inbound_nodes": [[["conv2d_49", 0, 0, {}]]], "name": "batch_normalization_49"}, {"class_name": "BatchNormalization", "config": {"scale": false, "beta_regularizer": null, "momentum": 0.99, "beta_initializer": {"class_name": "Zeros", "config": {}}, "gamma_constraint": null, "trainable": true, "beta_constraint": null, "moving_mean_initializer": {"class_name": "Zeros", "config": {}}, "gamma_regularizer": null, "epsilon": 0.001, "axis": 3, "name": "batch_normalization_50", "center": true, "gamma_initializer": {"class_name": "Ones", "config": {}}, "moving_variance_initializer": {"class_name": "Ones", "config": {}}}, "inbound_nodes": [[["conv2d_50", 0, 0, {}]]], "name": "batch_normalization_50"}, {"class_name": "Activation", "config": {"trainable": true, "activation": "relu", "name": "activation_41"}, "inbound_nodes": [[["batch_normalization_41", 0, 0, {}]]], "name": "activation_41"}, {"class_name": "Activation", "config": {"trainable": true, "activation": "relu", "name": "activation_44"}, "inbound_nodes": [[["batch_normalization_44", 0, 0, {}]]], "name": "activation_44"}, {"class_name": "Activation", "config": {"trainable": true, "activation": "relu", "name": "activation_49"}, "inbound_nodes": [[["batch_normalization_49", 0, 0, {}]]], "name": "activation_49"}, {"class_name": "Activation", "config": {"trainable": true, "activation": "relu", "name": "activation_50"}, "inbound_nodes": [[["batch_normalization_50", 0, 0, {}]]], "name": "activation_50"}, {"class_name": "Concatenate", "config": {"trainable": true, "axis": 3, "name": "mixed5"}, "inbound_nodes": [[["activation_41", 0, 0, {}], ["activation_44", 0, 0, {}], ["activation_49", 0, 0, {}], ["activation_50", 0, 0, {}]]], "name": "mixed5"}, {"class_name": "Conv2D", "config": {"bias_initializer": {"class_name": "Zeros", "config": {}}, "strides": [1, 1], "activity_regularizer": null, "kernel_initializer": {"class_name": "VarianceScaling", "config": {"scale": 1.0, "seed": null, "mode": "fan_avg", "distribution": "uniform"}}, "trainable": true, "bias_regularizer": null, "filters": 160, "activation": "linear", "data_format": "channels_last", "use_bias": false, "kernel_constraint": null, "name": "conv2d_55", "bias_constraint": null, "kernel_size": [1, 1], "dilation_rate": [1, 1], "kernel_regularizer": null, "padding": "same"}, "inbound_nodes": [[["mixed5", 0, 0, {}]]], "name": "conv2d_55"}, {"class_name": "BatchNormalization", "config": {"scale": false, "beta_regularizer": null, "momentum": 0.99, "beta_initializer": {"class_name": "Zeros", "config": {}}, "gamma_constraint": null, "trainable": true, "beta_constraint": null, "moving_mean_initializer": {"class_name": "Zeros", "config": {}}, "gamma_regularizer": null, "epsilon": 0.001, "axis": 3, "name": "batch_normalization_55", "center": true, "gamma_initializer": {"class_name": "Ones", "config": {}}, "moving_variance_initializer": {"class_name": "Ones", "config": {}}}, "inbound_nodes": [[["conv2d_55", 0, 0, {}]]], "name": "batch_normalization_55"}, {"class_name": "Activation", "config": {"trainable": true, "activation": "relu", "name": "activation_55"}, "inbound_nodes": [[["batch_normalization_55", 0, 0, {}]]], "name": "activation_55"}, {"class_name": "Conv2D", "config": {"bias_initializer": {"class_name": "Zeros", "config": {}}, "strides": [1, 1], "activity_regularizer": null, "kernel_initializer": {"class_name": "VarianceScaling", "config": {"scale": 1.0, "seed": null, "mode": "fan_avg", "distribution": "uniform"}}, "trainable": true, "bias_regularizer": null, "filters": 160, "activation": "linear", "data_format": "channels_last", "use_bias": false, "kernel_constraint": null, "name": "conv2d_56", "bias_constraint": null, "kernel_size": [7, 1], "dilation_rate": [1, 1], "kernel_regularizer": null, "padding": "same"}, "inbound_nodes": [[["activation_55", 0, 0, {}]]], "name": "conv2d_56"}, {"class_name": "BatchNormalization", "config": {"scale": false, "beta_regularizer": null, "momentum": 0.99, "beta_initializer": {"class_name": "Zeros", "config": {}}, "gamma_constraint": null, "trainable": true, "beta_constraint": null, "moving_mean_initializer": {"class_name": "Zeros", "config": {}}, "gamma_regularizer": null, "epsilon": 0.001, "axis": 3, "name": "batch_normalization_56", "center": true, "gamma_initializer": {"class_name": "Ones", "config": {}}, "moving_variance_initializer": {"class_name": "Ones", "config": {}}}, "inbound_nodes": [[["conv2d_56", 0, 0, {}]]], "name": "batch_normalization_56"}, {"class_name": "Activation", "config": {"trainable": true, "activation": "relu", "name": "activation_56"}, "inbound_nodes": [[["batch_normalization_56", 0, 0, {}]]], "name": "activation_56"}, {"class_name": "Conv2D", "config": {"bias_initializer": {"class_name": "Zeros", "config": {}}, "strides": [1, 1], "activity_regularizer": null, "kernel_initializer": {"class_name": "VarianceScaling", "config": {"scale": 1.0, "seed": null, "mode": "fan_avg", "distribution": "uniform"}}, "trainable": true, "bias_regularizer": null, "filters": 160, "activation": "linear", "data_format": "channels_last", "use_bias": false, "kernel_constraint": null, "name": "conv2d_52", "bias_constraint": null, "kernel_size": [1, 1], "dilation_rate": [1, 1], "kernel_regularizer": null, "padding": "same"}, "inbound_nodes": [[["mixed5", 0, 0, {}]]], "name": "conv2d_52"}, {"class_name": "Conv2D", "config": {"bias_initializer": {"class_name": "Zeros", "config": {}}, "strides": [1, 1], "activity_regularizer": null, "kernel_initializer": {"class_name": "VarianceScaling", "config": {"scale": 1.0, "seed": null, "mode": "fan_avg", "distribution": "uniform"}}, "trainable": true, "bias_regularizer": null, "filters": 160, "activation": "linear", "data_format": "channels_last", "use_bias": false, "kernel_constraint": null, "name": "conv2d_57", "bias_constraint": null, "kernel_size": [1, 7], "dilation_rate": [1, 1], "kernel_regularizer": null, "padding": "same"}, "inbound_nodes": [[["activation_56", 0, 0, {}]]], "name": "conv2d_57"}, {"class_name": "BatchNormalization", "config": {"scale": false, "beta_regularizer": null, "momentum": 0.99, "beta_initializer": {"class_name": "Zeros", "config": {}}, "gamma_constraint": null, "trainable": true, "beta_constraint": null, "moving_mean_initializer": {"class_name": "Zeros", "config": {}}, "gamma_regularizer": null, "epsilon": 0.001, "axis": 3, "name": "batch_normalization_52", "center": true, "gamma_initializer": {"class_name": "Ones", "config": {}}, "moving_variance_initializer": {"class_name": "Ones", "config": {}}}, "inbound_nodes": [[["conv2d_52", 0, 0, {}]]], "name": "batch_normalization_52"}, {"class_name": "BatchNormalization", "config": {"scale": false, "beta_regularizer": null, "momentum": 0.99, "beta_initializer": {"class_name": "Zeros", "config": {}}, "gamma_constraint": null, "trainable": true, "beta_constraint": null, "moving_mean_initializer": {"class_name": "Zeros", "config": {}}, "gamma_regularizer": null, "epsilon": 0.001, "axis": 3, "name": "batch_normalization_57", "center": true, "gamma_initializer": {"class_name": "Ones", "config": {}}, "moving_variance_initializer": {"class_name": "Ones", "config": {}}}, "inbound_nodes": [[["conv2d_57", 0, 0, {}]]], "name": "batch_normalization_57"}, {"class_name": "Activation", "config": {"trainable": true, "activation": "relu", "name": "activation_52"}, "inbound_nodes": [[["batch_normalization_52", 0, 0, {}]]], "name": "activation_52"}, {"class_name": "Activation", "config": {"trainable": true, "activation": "relu", "name": "activation_57"}, "inbound_nodes": [[["batch_normalization_57", 0, 0, {}]]], "name": "activation_57"}, {"class_name": "Conv2D", "config": {"bias_initializer": {"class_name": "Zeros", "config": {}}, "strides": [1, 1], "activity_regularizer": null, "kernel_initializer": {"class_name": "VarianceScaling", "config": {"scale": 1.0, "seed": null, "mode": "fan_avg", "distribution": "uniform"}}, "trainable": true, "bias_regularizer": null, "filters": 160, "activation": "linear", "data_format": "channels_last", "use_bias": false, "kernel_constraint": null, "name": "conv2d_53", "bias_constraint": null, "kernel_size": [1, 7], "dilation_rate": [1, 1], "kernel_regularizer": null, "padding": "same"}, "inbound_nodes": [[["activation_52", 0, 0, {}]]], "name": "conv2d_53"}, {"class_name": "Conv2D", "config": {"bias_initializer": {"class_name": "Zeros", "config": {}}, "strides": [1, 1], "activity_regularizer": null, "kernel_initializer": {"class_name": "VarianceScaling", "config": {"scale": 1.0, "seed": null, "mode": "fan_avg", "distribution": "uniform"}}, "trainable": true, "bias_regularizer": null, "filters": 160, "activation": "linear", "data_format": "channels_last", "use_bias": false, "kernel_constraint": null, "name": "conv2d_58", "bias_constraint": null, "kernel_size": [7, 1], "dilation_rate": [1, 1], "kernel_regularizer": null, "padding": "same"}, "inbound_nodes": [[["activation_57", 0, 0, {}]]], "name": "conv2d_58"}, {"class_name": "BatchNormalization", "config": {"scale": false, "beta_regularizer": null, "momentum": 0.99, "beta_initializer": {"class_name": "Zeros", "config": {}}, "gamma_constraint": null, "trainable": true, "beta_constraint": null, "moving_mean_initializer": {"class_name": "Zeros", "config": {}}, "gamma_regularizer": null, "epsilon": 0.001, "axis": 3, "name": "batch_normalization_53", "center": true, "gamma_initializer": {"class_name": "Ones", "config": {}}, "moving_variance_initializer": {"class_name": "Ones", "config": {}}}, "inbound_nodes": [[["conv2d_53", 0, 0, {}]]], "name": "batch_normalization_53"}, {"class_name": "BatchNormalization", "config": {"scale": false, "beta_regularizer": null, "momentum": 0.99, "beta_initializer": {"class_name": "Zeros", "config": {}}, "gamma_constraint": null, "trainable": true, "beta_constraint": null, "moving_mean_initializer": {"class_name": "Zeros", "config": {}}, "gamma_regularizer": null, "epsilon": 0.001, "axis": 3, "name": "batch_normalization_58", "center": true, "gamma_initializer": {"class_name": "Ones", "config": {}}, "moving_variance_initializer": {"class_name": "Ones", "config": {}}}, "inbound_nodes": [[["conv2d_58", 0, 0, {}]]], "name": "batch_normalization_58"}, {"class_name": "Activation", "config": {"trainable": true, "activation": "relu", "name": "activation_53"}, "inbound_nodes": [[["batch_normalization_53", 0, 0, {}]]], "name": "activation_53"}, {"class_name": "Activation", "config": {"trainable": true, "activation": "relu", "name": "activation_58"}, "inbound_nodes": [[["batch_normalization_58", 0, 0, {}]]], "name": "activation_58"}, {"class_name": "AveragePooling2D", "config": {"strides": [1, 1], "name": "average_pooling2d_6", "pool_size": [3, 3], "trainable": true, "padding": "same", "data_format": "channels_last"}, "inbound_nodes": [[["mixed5", 0, 0, {}]]], "name": "average_pooling2d_6"}, {"class_name": "Conv2D", "config": {"bias_initializer": {"class_name": "Zeros", "config": {}}, "strides": [1, 1], "activity_regularizer": null, "kernel_initializer": {"class_name": "VarianceScaling", "config": {"scale": 1.0, "seed": null, "mode": "fan_avg", "distribution": "uniform"}}, "trainable": true, "bias_regularizer": null, "filters": 192, "activation": "linear", "data_format": "channels_last", "use_bias": false, "kernel_constraint": null, "name": "conv2d_51", "bias_constraint": null, "kernel_size": [1, 1], "dilation_rate": [1, 1], "kernel_regularizer": null, "padding": "same"}, "inbound_nodes": [[["mixed5", 0, 0, {}]]], "name": "conv2d_51"}, {"class_name": "Conv2D", "config": {"bias_initializer": {"class_name": "Zeros", "config": {}}, "strides": [1, 1], "activity_regularizer": null, "kernel_initializer": {"class_name": "VarianceScaling", "config": {"scale": 1.0, "seed": null, "mode": "fan_avg", "distribution": "uniform"}}, "trainable": true, "bias_regularizer": null, "filters": 192, "activation": "linear", "data_format": "channels_last", "use_bias": false, "kernel_constraint": null, "name": "conv2d_54", "bias_constraint": null, "kernel_size": [7, 1], "dilation_rate": [1, 1], "kernel_regularizer": null, "padding": "same"}, "inbound_nodes": [[["activation_53", 0, 0, {}]]], "name": "conv2d_54"}, {"class_name": "Conv2D", "config": {"bias_initializer": {"class_name": "Zeros", "config": {}}, "strides": [1, 1], "activity_regularizer": null, "kernel_initializer": {"class_name": "VarianceScaling", "config": {"scale": 1.0, "seed": null, "mode": "fan_avg", "distribution": "uniform"}}, "trainable": true, "bias_regularizer": null, "filters": 192, "activation": "linear", "data_format": "channels_last", "use_bias": false, "kernel_constraint": null, "name": "conv2d_59", "bias_constraint": null, "kernel_size": [1, 7], "dilation_rate": [1, 1], "kernel_regularizer": null, "padding": "same"}, "inbound_nodes": [[["activation_58", 0, 0, {}]]], "name": "conv2d_59"}, {"class_name": "Conv2D", "config": {"bias_initializer": {"class_name": "Zeros", "config": {}}, "strides": [1, 1], "activity_regularizer": null, "kernel_initializer": {"class_name": "VarianceScaling", "config": {"scale": 1.0, "seed": null, "mode": "fan_avg", "distribution": "uniform"}}, "trainable": true, "bias_regularizer": null, "filters": 192, "activation": "linear", "data_format": "channels_last", "use_bias": false, "kernel_constraint": null, "name": "conv2d_60", "bias_constraint": null, "kernel_size": [1, 1], "dilation_rate": [1, 1], "kernel_regularizer": null, "padding": "same"}, "inbound_nodes": [[["average_pooling2d_6", 0, 0, {}]]], "name": "conv2d_60"}, {"class_name": "BatchNormalization", "config": {"scale": false, "beta_regularizer": null, "momentum": 0.99, "beta_initializer": {"class_name": "Zeros", "config": {}}, "gamma_constraint": null, "trainable": true, "beta_constraint": null, "moving_mean_initializer": {"class_name": "Zeros", "config": {}}, "gamma_regularizer": null, "epsilon": 0.001, "axis": 3, "name": "batch_normalization_51", "center": true, "gamma_initializer": {"class_name": "Ones", "config": {}}, "moving_variance_initializer": {"class_name": "Ones", "config": {}}}, "inbound_nodes": [[["conv2d_51", 0, 0, {}]]], "name": "batch_normalization_51"}, {"class_name": "BatchNormalization", "config": {"scale": false, "beta_regularizer": null, "momentum": 0.99, "beta_initializer": {"class_name": "Zeros", "config": {}}, "gamma_constraint": null, "trainable": true, "beta_constraint": null, "moving_mean_initializer": {"class_name": "Zeros", "config": {}}, "gamma_regularizer": null, "epsilon": 0.001, "axis": 3, "name": "batch_normalization_54", "center": true, "gamma_initializer": {"class_name": "Ones", "config": {}}, "moving_variance_initializer": {"class_name": "Ones", "config": {}}}, "inbound_nodes": [[["conv2d_54", 0, 0, {}]]], "name": "batch_normalization_54"}, {"class_name": "BatchNormalization", "config": {"scale": false, "beta_regularizer": null, "momentum": 0.99, "beta_initializer": {"class_name": "Zeros", "config": {}}, "gamma_constraint": null, "trainable": true, "beta_constraint": null, "moving_mean_initializer": {"class_name": "Zeros", "config": {}}, "gamma_regularizer": null, "epsilon": 0.001, "axis": 3, "name": "batch_normalization_59", "center": true, "gamma_initializer": {"class_name": "Ones", "config": {}}, "moving_variance_initializer": {"class_name": "Ones", "config": {}}}, "inbound_nodes": [[["conv2d_59", 0, 0, {}]]], "name": "batch_normalization_59"}, {"class_name": "BatchNormalization", "config": {"scale": false, "beta_regularizer": null, "momentum": 0.99, "beta_initializer": {"class_name": "Zeros", "config": {}}, "gamma_constraint": null, "trainable": true, "beta_constraint": null, "moving_mean_initializer": {"class_name": "Zeros", "config": {}}, "gamma_regularizer": null, "epsilon": 0.001, "axis": 3, "name": "batch_normalization_60", "center": true, "gamma_initializer": {"class_name": "Ones", "config": {}}, "moving_variance_initializer": {"class_name": "Ones", "config": {}}}, "inbound_nodes": [[["conv2d_60", 0, 0, {}]]], "name": "batch_normalization_60"}, {"class_name": "Activation", "config": {"trainable": true, "activation": "relu", "name": "activation_51"}, "inbound_nodes": [[["batch_normalization_51", 0, 0, {}]]], "name": "activation_51"}, {"class_name": "Activation", "config": {"trainable": true, "activation": "relu", "name": "activation_54"}, "inbound_nodes": [[["batch_normalization_54", 0, 0, {}]]], "name": "activation_54"}, {"class_name": "Activation", "config": {"trainable": true, "activation": "relu", "name": "activation_59"}, "inbound_nodes": [[["batch_normalization_59", 0, 0, {}]]], "name": "activation_59"}, {"class_name": "Activation", "config": {"trainable": true, "activation": "relu", "name": "activation_60"}, "inbound_nodes": [[["batch_normalization_60", 0, 0, {}]]], "name": "activation_60"}, {"class_name": "Concatenate", "config": {"trainable": true, "axis": 3, "name": "mixed6"}, "inbound_nodes": [[["activation_51", 0, 0, {}], ["activation_54", 0, 0, {}], ["activation_59", 0, 0, {}], ["activation_60", 0, 0, {}]]], "name": "mixed6"}, {"class_name": "Conv2D", "config": {"bias_initializer": {"class_name": "Zeros", "config": {}}, "strides": [1, 1], "activity_regularizer": null, "kernel_initializer": {"class_name": "VarianceScaling", "config": {"scale": 1.0, "seed": null, "mode": "fan_avg", "distribution": "uniform"}}, "trainable": true, "bias_regularizer": null, "filters": 192, "activation": "linear", "data_format": "channels_last", "use_bias": false, "kernel_constraint": null, "name": "conv2d_65", "bias_constraint": null, "kernel_size": [1, 1], "dilation_rate": [1, 1], "kernel_regularizer": null, "padding": "same"}, "inbound_nodes": [[["mixed6", 0, 0, {}]]], "name": "conv2d_65"}, {"class_name": "BatchNormalization", "config": {"scale": false, "beta_regularizer": null, "momentum": 0.99, "beta_initializer": {"class_name": "Zeros", "config": {}}, "gamma_constraint": null, "trainable": true, "beta_constraint": null, "moving_mean_initializer": {"class_name": "Zeros", "config": {}}, "gamma_regularizer": null, "epsilon": 0.001, "axis": 3, "name": "batch_normalization_65", "center": true, "gamma_initializer": {"class_name": "Ones", "config": {}}, "moving_variance_initializer": {"class_name": "Ones", "config": {}}}, "inbound_nodes": [[["conv2d_65", 0, 0, {}]]], "name": "batch_normalization_65"}, {"class_name": "Activation", "config": {"trainable": true, "activation": "relu", "name": "activation_65"}, "inbound_nodes": [[["batch_normalization_65", 0, 0, {}]]], "name": "activation_65"}, {"class_name": "Conv2D", "config": {"bias_initializer": {"class_name": "Zeros", "config": {}}, "strides": [1, 1], "activity_regularizer": null, "kernel_initializer": {"class_name": "VarianceScaling", "config": {"scale": 1.0, "seed": null, "mode": "fan_avg", "distribution": "uniform"}}, "trainable": true, "bias_regularizer": null, "filters": 192, "activation": "linear", "data_format": "channels_last", "use_bias": false, "kernel_constraint": null, "name": "conv2d_66", "bias_constraint": null, "kernel_size": [7, 1], "dilation_rate": [1, 1], "kernel_regularizer": null, "padding": "same"}, "inbound_nodes": [[["activation_65", 0, 0, {}]]], "name": "conv2d_66"}, {"class_name": "BatchNormalization", "config": {"scale": false, "beta_regularizer": null, "momentum": 0.99, "beta_initializer": {"class_name": "Zeros", "config": {}}, "gamma_constraint": null, "trainable": true, "beta_constraint": null, "moving_mean_initializer": {"class_name": "Zeros", "config": {}}, "gamma_regularizer": null, "epsilon": 0.001, "axis": 3, "name": "batch_normalization_66", "center": true, "gamma_initializer": {"class_name": "Ones", "config": {}}, "moving_variance_initializer": {"class_name": "Ones", "config": {}}}, "inbound_nodes": [[["conv2d_66", 0, 0, {}]]], "name": "batch_normalization_66"}, {"class_name": "Activation", "config": {"trainable": true, "activation": "relu", "name": "activation_66"}, "inbound_nodes": [[["batch_normalization_66", 0, 0, {}]]], "name": "activation_66"}, {"class_name": "Conv2D", "config": {"bias_initializer": {"class_name": "Zeros", "config": {}}, "strides": [1, 1], "activity_regularizer": null, "kernel_initializer": {"class_name": "VarianceScaling", "config": {"scale": 1.0, "seed": null, "mode": "fan_avg", "distribution": "uniform"}}, "trainable": true, "bias_regularizer": null, "filters": 192, "activation": "linear", "data_format": "channels_last", "use_bias": false, "kernel_constraint": null, "name": "conv2d_62", "bias_constraint": null, "kernel_size": [1, 1], "dilation_rate": [1, 1], "kernel_regularizer": null, "padding": "same"}, "inbound_nodes": [[["mixed6", 0, 0, {}]]], "name": "conv2d_62"}, {"class_name": "Conv2D", "config": {"bias_initializer": {"class_name": "Zeros", "config": {}}, "strides": [1, 1], "activity_regularizer": null, "kernel_initializer": {"class_name": "VarianceScaling", "config": {"scale": 1.0, "seed": null, "mode": "fan_avg", "distribution": "uniform"}}, "trainable": true, "bias_regularizer": null, "filters": 192, "activation": "linear", "data_format": "channels_last", "use_bias": false, "kernel_constraint": null, "name": "conv2d_67", "bias_constraint": null, "kernel_size": [1, 7], "dilation_rate": [1, 1], "kernel_regularizer": null, "padding": "same"}, "inbound_nodes": [[["activation_66", 0, 0, {}]]], "name": "conv2d_67"}, {"class_name": "BatchNormalization", "config": {"scale": false, "beta_regularizer": null, "momentum": 0.99, "beta_initializer": {"class_name": "Zeros", "config": {}}, "gamma_constraint": null, "trainable": true, "beta_constraint": null, "moving_mean_initializer": {"class_name": "Zeros", "config": {}}, "gamma_regularizer": null, "epsilon": 0.001, "axis": 3, "name": "batch_normalization_62", "center": true, "gamma_initializer": {"class_name": "Ones", "config": {}}, "moving_variance_initializer": {"class_name": "Ones", "config": {}}}, "inbound_nodes": [[["conv2d_62", 0, 0, {}]]], "name": "batch_normalization_62"}, {"class_name": "BatchNormalization", "config": {"scale": false, "beta_regularizer": null, "momentum": 0.99, "beta_initializer": {"class_name": "Zeros", "config": {}}, "gamma_constraint": null, "trainable": true, "beta_constraint": null, "moving_mean_initializer": {"class_name": "Zeros", "config": {}}, "gamma_regularizer": null, "epsilon": 0.001, "axis": 3, "name": "batch_normalization_67", "center": true, "gamma_initializer": {"class_name": "Ones", "config": {}}, "moving_variance_initializer": {"class_name": "Ones", "config": {}}}, "inbound_nodes": [[["conv2d_67", 0, 0, {}]]], "name": "batch_normalization_67"}, {"class_name": "Activation", "config": {"trainable": true, "activation": "relu", "name": "activation_62"}, "inbound_nodes": [[["batch_normalization_62", 0, 0, {}]]], "name": "activation_62"}, {"class_name": "Activation", "config": {"trainable": true, "activation": "relu", "name": "activation_67"}, "inbound_nodes": [[["batch_normalization_67", 0, 0, {}]]], "name": "activation_67"}, {"class_name": "Conv2D", "config": {"bias_initializer": {"class_name": "Zeros", "config": {}}, "strides": [1, 1], "activity_regularizer": null, "kernel_initializer": {"class_name": "VarianceScaling", "config": {"scale": 1.0, "seed": null, "mode": "fan_avg", "distribution": "uniform"}}, "trainable": true, "bias_regularizer": null, "filters": 192, "activation": "linear", "data_format": "channels_last", "use_bias": false, "kernel_constraint": null, "name": "conv2d_63", "bias_constraint": null, "kernel_size": [1, 7], "dilation_rate": [1, 1], "kernel_regularizer": null, "padding": "same"}, "inbound_nodes": [[["activation_62", 0, 0, {}]]], "name": "conv2d_63"}, {"class_name": "Conv2D", "config": {"bias_initializer": {"class_name": "Zeros", "config": {}}, "strides": [1, 1], "activity_regularizer": null, "kernel_initializer": {"class_name": "VarianceScaling", "config": {"scale": 1.0, "seed": null, "mode": "fan_avg", "distribution": "uniform"}}, "trainable": true, "bias_regularizer": null, "filters": 192, "activation": "linear", "data_format": "channels_last", "use_bias": false, "kernel_constraint": null, "name": "conv2d_68", "bias_constraint": null, "kernel_size": [7, 1], "dilation_rate": [1, 1], "kernel_regularizer": null, "padding": "same"}, "inbound_nodes": [[["activation_67", 0, 0, {}]]], "name": "conv2d_68"}, {"class_name": "BatchNormalization", "config": {"scale": false, "beta_regularizer": null, "momentum": 0.99, "beta_initializer": {"class_name": "Zeros", "config": {}}, "gamma_constraint": null, "trainable": true, "beta_constraint": null, "moving_mean_initializer": {"class_name": "Zeros", "config": {}}, "gamma_regularizer": null, "epsilon": 0.001, "axis": 3, "name": "batch_normalization_63", "center": true, "gamma_initializer": {"class_name": "Ones", "config": {}}, "moving_variance_initializer": {"class_name": "Ones", "config": {}}}, "inbound_nodes": [[["conv2d_63", 0, 0, {}]]], "name": "batch_normalization_63"}, {"class_name": "BatchNormalization", "config": {"scale": false, "beta_regularizer": null, "momentum": 0.99, "beta_initializer": {"class_name": "Zeros", "config": {}}, "gamma_constraint": null, "trainable": true, "beta_constraint": null, "moving_mean_initializer": {"class_name": "Zeros", "config": {}}, "gamma_regularizer": null, "epsilon": 0.001, "axis": 3, "name": "batch_normalization_68", "center": true, "gamma_initializer": {"class_name": "Ones", "config": {}}, "moving_variance_initializer": {"class_name": "Ones", "config": {}}}, "inbound_nodes": [[["conv2d_68", 0, 0, {}]]], "name": "batch_normalization_68"}, {"class_name": "Activation", "config": {"trainable": true, "activation": "relu", "name": "activation_63"}, "inbound_nodes": [[["batch_normalization_63", 0, 0, {}]]], "name": "activation_63"}, {"class_name": "Activation", "config": {"trainable": true, "activation": "relu", "name": "activation_68"}, "inbound_nodes": [[["batch_normalization_68", 0, 0, {}]]], "name": "activation_68"}, {"class_name": "AveragePooling2D", "config": {"strides": [1, 1], "name": "average_pooling2d_7", "pool_size": [3, 3], "trainable": true, "padding": "same", "data_format": "channels_last"}, "inbound_nodes": [[["mixed6", 0, 0, {}]]], "name": "average_pooling2d_7"}, {"class_name": "Conv2D", "config": {"bias_initializer": {"class_name": "Zeros", "config": {}}, "strides": [1, 1], "activity_regularizer": null, "kernel_initializer": {"class_name": "VarianceScaling", "config": {"scale": 1.0, "seed": null, "mode": "fan_avg", "distribution": "uniform"}}, "trainable": true, "bias_regularizer": null, "filters": 192, "activation": "linear", "data_format": "channels_last", "use_bias": false, "kernel_constraint": null, "name": "conv2d_61", "bias_constraint": null, "kernel_size": [1, 1], "dilation_rate": [1, 1], "kernel_regularizer": null, "padding": "same"}, "inbound_nodes": [[["mixed6", 0, 0, {}]]], "name": "conv2d_61"}, {"class_name": "Conv2D", "config": {"bias_initializer": {"class_name": "Zeros", "config": {}}, "strides": [1, 1], "activity_regularizer": null, "kernel_initializer": {"class_name": "VarianceScaling", "config": {"scale": 1.0, "seed": null, "mode": "fan_avg", "distribution": "uniform"}}, "trainable": true, "bias_regularizer": null, "filters": 192, "activation": "linear", "data_format": "channels_last", "use_bias": false, "kernel_constraint": null, "name": "conv2d_64", "bias_constraint": null, "kernel_size": [7, 1], "dilation_rate": [1, 1], "kernel_regularizer": null, "padding": "same"}, "inbound_nodes": [[["activation_63", 0, 0, {}]]], "name": "conv2d_64"}, {"class_name": "Conv2D", "config": {"bias_initializer": {"class_name": "Zeros", "config": {}}, "strides": [1, 1], "activity_regularizer": null, "kernel_initializer": {"class_name": "VarianceScaling", "config": {"scale": 1.0, "seed": null, "mode": "fan_avg", "distribution": "uniform"}}, "trainable": true, "bias_regularizer": null, "filters": 192, "activation": "linear", "data_format": "channels_last", "use_bias": false, "kernel_constraint": null, "name": "conv2d_69", "bias_constraint": null, "kernel_size": [1, 7], "dilation_rate": [1, 1], "kernel_regularizer": null, "padding": "same"}, "inbound_nodes": [[["activation_68", 0, 0, {}]]], "name": "conv2d_69"}, {"class_name": "Conv2D", "config": {"bias_initializer": {"class_name": "Zeros", "config": {}}, "strides": [1, 1], "activity_regularizer": null, "kernel_initializer": {"class_name": "VarianceScaling", "config": {"scale": 1.0, "seed": null, "mode": "fan_avg", "distribution": "uniform"}}, "trainable": true, "bias_regularizer": null, "filters": 192, "activation": "linear", "data_format": "channels_last", "use_bias": false, "kernel_constraint": null, "name": "conv2d_70", "bias_constraint": null, "kernel_size": [1, 1], "dilation_rate": [1, 1], "kernel_regularizer": null, "padding": "same"}, "inbound_nodes": [[["average_pooling2d_7", 0, 0, {}]]], "name": "conv2d_70"}, {"class_name": "BatchNormalization", "config": {"scale": false, "beta_regularizer": null, "momentum": 0.99, "beta_initializer": {"class_name": "Zeros", "config": {}}, "gamma_constraint": null, "trainable": true, "beta_constraint": null, "moving_mean_initializer": {"class_name": "Zeros", "config": {}}, "gamma_regularizer": null, "epsilon": 0.001, "axis": 3, "name": "batch_normalization_61", "center": true, "gamma_initializer": {"class_name": "Ones", "config": {}}, "moving_variance_initializer": {"class_name": "Ones", "config": {}}}, "inbound_nodes": [[["conv2d_61", 0, 0, {}]]], "name": "batch_normalization_61"}, {"class_name": "BatchNormalization", "config": {"scale": false, "beta_regularizer": null, "momentum": 0.99, "beta_initializer": {"class_name": "Zeros", "config": {}}, "gamma_constraint": null, "trainable": true, "beta_constraint": null, "moving_mean_initializer": {"class_name": "Zeros", "config": {}}, "gamma_regularizer": null, "epsilon": 0.001, "axis": 3, "name": "batch_normalization_64", "center": true, "gamma_initializer": {"class_name": "Ones", "config": {}}, "moving_variance_initializer": {"class_name": "Ones", "config": {}}}, "inbound_nodes": [[["conv2d_64", 0, 0, {}]]], "name": "batch_normalization_64"}, {"class_name": "BatchNormalization", "config": {"scale": false, "beta_regularizer": null, "momentum": 0.99, "beta_initializer": {"class_name": "Zeros", "config": {}}, "gamma_constraint": null, "trainable": true, "beta_constraint": null, "moving_mean_initializer": {"class_name": "Zeros", "config": {}}, "gamma_regularizer": null, "epsilon": 0.001, "axis": 3, "name": "batch_normalization_69", "center": true, "gamma_initializer": {"class_name": "Ones", "config": {}}, "moving_variance_initializer": {"class_name": "Ones", "config": {}}}, "inbound_nodes": [[["conv2d_69", 0, 0, {}]]], "name": "batch_normalization_69"}, {"class_name": "BatchNormalization", "config": {"scale": false, "beta_regularizer": null, "momentum": 0.99, "beta_initializer": {"class_name": "Zeros", "config": {}}, "gamma_constraint": null, "trainable": true, "beta_constraint": null, "moving_mean_initializer": {"class_name": "Zeros", "config": {}}, "gamma_regularizer": null, "epsilon": 0.001, "axis": 3, "name": "batch_normalization_70", "center": true, "gamma_initializer": {"class_name": "Ones", "config": {}}, "moving_variance_initializer": {"class_name": "Ones", "config": {}}}, "inbound_nodes": [[["conv2d_70", 0, 0, {}]]], "name": "batch_normalization_70"}, {"class_name": "Activation", "config": {"trainable": true, "activation": "relu", "name": "activation_61"}, "inbound_nodes": [[["batch_normalization_61", 0, 0, {}]]], "name": "activation_61"}, {"class_name": "Activation", "config": {"trainable": true, "activation": "relu", "name": "activation_64"}, "inbound_nodes": [[["batch_normalization_64", 0, 0, {}]]], "name": "activation_64"}, {"class_name": "Activation", "config": {"trainable": true, "activation": "relu", "name": "activation_69"}, "inbound_nodes": [[["batch_normalization_69", 0, 0, {}]]], "name": "activation_69"}, {"class_name": "Activation", "config": {"trainable": true, "activation": "relu", "name": "activation_70"}, "inbound_nodes": [[["batch_normalization_70", 0, 0, {}]]], "name": "activation_70"}, {"class_name": "Concatenate", "config": {"trainable": true, "axis": 3, "name": "mixed7"}, "inbound_nodes": [[["activation_61", 0, 0, {}], ["activation_64", 0, 0, {}], ["activation_69", 0, 0, {}], ["activation_70", 0, 0, {}]]], "name": "mixed7"}, {"class_name": "Conv2D", "config": {"bias_initializer": {"class_name": "Zeros", "config": {}}, "strides": [1, 1], "activity_regularizer": null, "kernel_initializer": {"class_name": "VarianceScaling", "config": {"scale": 1.0, "seed": null, "mode": "fan_avg", "distribution": "uniform"}}, "trainable": true, "bias_regularizer": null, "filters": 192, "activation": "linear", "data_format": "channels_last", "use_bias": false, "kernel_constraint": null, "name": "conv2d_73", "bias_constraint": null, "kernel_size": [1, 1], "dilation_rate": [1, 1], "kernel_regularizer": null, "padding": "same"}, "inbound_nodes": [[["mixed7", 0, 0, {}]]], "name": "conv2d_73"}, {"class_name": "BatchNormalization", "config": {"scale": false, "beta_regularizer": null, "momentum": 0.99, "beta_initializer": {"class_name": "Zeros", "config": {}}, "gamma_constraint": null, "trainable": true, "beta_constraint": null, "moving_mean_initializer": {"class_name": "Zeros", "config": {}}, "gamma_regularizer": null, "epsilon": 0.001, "axis": 3, "name": "batch_normalization_73", "center": true, "gamma_initializer": {"class_name": "Ones", "config": {}}, "moving_variance_initializer": {"class_name": "Ones", "config": {}}}, "inbound_nodes": [[["conv2d_73", 0, 0, {}]]], "name": "batch_normalization_73"}, {"class_name": "Activation", "config": {"trainable": true, "activation": "relu", "name": "activation_73"}, "inbound_nodes": [[["batch_normalization_73", 0, 0, {}]]], "name": "activation_73"}, {"class_name": "Conv2D", "config": {"bias_initializer": {"class_name": "Zeros", "config": {}}, "strides": [1, 1], "activity_regularizer": null, "kernel_initializer": {"class_name": "VarianceScaling", "config": {"scale": 1.0, "seed": null, "mode": "fan_avg", "distribution": "uniform"}}, "trainable": true, "bias_regularizer": null, "filters": 192, "activation": "linear", "data_format": "channels_last", "use_bias": false, "kernel_constraint": null, "name": "conv2d_74", "bias_constraint": null, "kernel_size": [1, 7], "dilation_rate": [1, 1], "kernel_regularizer": null, "padding": "same"}, "inbound_nodes": [[["activation_73", 0, 0, {}]]], "name": "conv2d_74"}, {"class_name": "BatchNormalization", "config": {"scale": false, "beta_regularizer": null, "momentum": 0.99, "beta_initializer": {"class_name": "Zeros", "config": {}}, "gamma_constraint": null, "trainable": true, "beta_constraint": null, "moving_mean_initializer": {"class_name": "Zeros", "config": {}}, "gamma_regularizer": null, "epsilon": 0.001, "axis": 3, "name": "batch_normalization_74", "center": true, "gamma_initializer": {"class_name": "Ones", "config": {}}, "moving_variance_initializer": {"class_name": "Ones", "config": {}}}, "inbound_nodes": [[["conv2d_74", 0, 0, {}]]], "name": "batch_normalization_74"}, {"class_name": "Activation", "config": {"trainable": true, "activation": "relu", "name": "activation_74"}, "inbound_nodes": [[["batch_normalization_74", 0, 0, {}]]], "name": "activation_74"}, {"class_name": "Conv2D", "config": {"bias_initializer": {"class_name": "Zeros", "config": {}}, "strides": [1, 1], "activity_regularizer": null, "kernel_initializer": {"class_name": "VarianceScaling", "config": {"scale": 1.0, "seed": null, "mode": "fan_avg", "distribution": "uniform"}}, "trainable": true, "bias_regularizer": null, "filters": 192, "activation": "linear", "data_format": "channels_last", "use_bias": false, "kernel_constraint": null, "name": "conv2d_71", "bias_constraint": null, "kernel_size": [1, 1], "dilation_rate": [1, 1], "kernel_regularizer": null, "padding": "same"}, "inbound_nodes": [[["mixed7", 0, 0, {}]]], "name": "conv2d_71"}, {"class_name": "Conv2D", "config": {"bias_initializer": {"class_name": "Zeros", "config": {}}, "strides": [1, 1], "activity_regularizer": null, "kernel_initializer": {"class_name": "VarianceScaling", "config": {"scale": 1.0, "seed": null, "mode": "fan_avg", "distribution": "uniform"}}, "trainable": true, "bias_regularizer": null, "filters": 192, "activation": "linear", "data_format": "channels_last", "use_bias": false, "kernel_constraint": null, "name": "conv2d_75", "bias_constraint": null, "kernel_size": [7, 1], "dilation_rate": [1, 1], "kernel_regularizer": null, "padding": "same"}, "inbound_nodes": [[["activation_74", 0, 0, {}]]], "name": "conv2d_75"}, {"class_name": "BatchNormalization", "config": {"scale": false, "beta_regularizer": null, "momentum": 0.99, "beta_initializer": {"class_name": "Zeros", "config": {}}, "gamma_constraint": null, "trainable": true, "beta_constraint": null, "moving_mean_initializer": {"class_name": "Zeros", "config": {}}, "gamma_regularizer": null, "epsilon": 0.001, "axis": 3, "name": "batch_normalization_71", "center": true, "gamma_initializer": {"class_name": "Ones", "config": {}}, "moving_variance_initializer": {"class_name": "Ones", "config": {}}}, "inbound_nodes": [[["conv2d_71", 0, 0, {}]]], "name": "batch_normalization_71"}, {"class_name": "BatchNormalization", "config": {"scale": false, "beta_regularizer": null, "momentum": 0.99, "beta_initializer": {"class_name": "Zeros", "config": {}}, "gamma_constraint": null, "trainable": true, "beta_constraint": null, "moving_mean_initializer": {"class_name": "Zeros", "config": {}}, "gamma_regularizer": null, "epsilon": 0.001, "axis": 3, "name": "batch_normalization_75", "center": true, "gamma_initializer": {"class_name": "Ones", "config": {}}, "moving_variance_initializer": {"class_name": "Ones", "config": {}}}, "inbound_nodes": [[["conv2d_75", 0, 0, {}]]], "name": "batch_normalization_75"}, {"class_name": "Activation", "config": {"trainable": true, "activation": "relu", "name": "activation_71"}, "inbound_nodes": [[["batch_normalization_71", 0, 0, {}]]], "name": "activation_71"}, {"class_name": "Activation", "config": {"trainable": true, "activation": "relu", "name": "activation_75"}, "inbound_nodes": [[["batch_normalization_75", 0, 0, {}]]], "name": "activation_75"}, {"class_name": "Conv2D", "config": {"bias_initializer": {"class_name": "Zeros", "config": {}}, "strides": [2, 2], "activity_regularizer": null, "kernel_initializer": {"class_name": "VarianceScaling", "config": {"scale": 1.0, "seed": null, "mode": "fan_avg", "distribution": "uniform"}}, "trainable": true, "bias_regularizer": null, "filters": 320, "activation": "linear", "data_format": "channels_last", "use_bias": false, "kernel_constraint": null, "name": "conv2d_72", "bias_constraint": null, "kernel_size": [3, 3], "dilation_rate": [1, 1], "kernel_regularizer": null, "padding": "valid"}, "inbound_nodes": [[["activation_71", 0, 0, {}]]], "name": "conv2d_72"}, {"class_name": "Conv2D", "config": {"bias_initializer": {"class_name": "Zeros", "config": {}}, "strides": [2, 2], "activity_regularizer": null, "kernel_initializer": {"class_name": "VarianceScaling", "config": {"scale": 1.0, "seed": null, "mode": "fan_avg", "distribution": "uniform"}}, "trainable": true, "bias_regularizer": null, "filters": 192, "activation": "linear", "data_format": "channels_last", "use_bias": false, "kernel_constraint": null, "name": "conv2d_76", "bias_constraint": null, "kernel_size": [3, 3], "dilation_rate": [1, 1], "kernel_regularizer": null, "padding": "valid"}, "inbound_nodes": [[["activation_75", 0, 0, {}]]], "name": "conv2d_76"}, {"class_name": "BatchNormalization", "config": {"scale": false, "beta_regularizer": null, "momentum": 0.99, "beta_initializer": {"class_name": "Zeros", "config": {}}, "gamma_constraint": null, "trainable": true, "beta_constraint": null, "moving_mean_initializer": {"class_name": "Zeros", "config": {}}, "gamma_regularizer": null, "epsilon": 0.001, "axis": 3, "name": "batch_normalization_72", "center": true, "gamma_initializer": {"class_name": "Ones", "config": {}}, "moving_variance_initializer": {"class_name": "Ones", "config": {}}}, "inbound_nodes": [[["conv2d_72", 0, 0, {}]]], "name": "batch_normalization_72"}, {"class_name": "BatchNormalization", "config": {"scale": false, "beta_regularizer": null, "momentum": 0.99, "beta_initializer": {"class_name": "Zeros", "config": {}}, "gamma_constraint": null, "trainable": true, "beta_constraint": null, "moving_mean_initializer": {"class_name": "Zeros", "config": {}}, "gamma_regularizer": null, "epsilon": 0.001, "axis": 3, "name": "batch_normalization_76", "center": true, "gamma_initializer": {"class_name": "Ones", "config": {}}, "moving_variance_initializer": {"class_name": "Ones", "config": {}}}, "inbound_nodes": [[["conv2d_76", 0, 0, {}]]], "name": "batch_normalization_76"}, {"class_name": "Activation", "config": {"trainable": true, "activation": "relu", "name": "activation_72"}, "inbound_nodes": [[["batch_normalization_72", 0, 0, {}]]], "name": "activation_72"}, {"class_name": "Activation", "config": {"trainable": true, "activation": "relu", "name": "activation_76"}, "inbound_nodes": [[["batch_normalization_76", 0, 0, {}]]], "name": "activation_76"}, {"class_name": "MaxPooling2D", "config": {"strides": [2, 2], "name": "max_pooling2d_4", "pool_size": [3, 3], "trainable": true, "padding": "valid", "data_format": "channels_last"}, "inbound_nodes": [[["mixed7", 0, 0, {}]]], "name": "max_pooling2d_4"}, {"class_name": "Concatenate", "config": {"trainable": true, "axis": 3, "name": "mixed8"}, "inbound_nodes": [[["activation_72", 0, 0, {}], ["activation_76", 0, 0, {}], ["max_pooling2d_4", 0, 0, {}]]], "name": "mixed8"}, {"class_name": "Conv2D", "config": {"bias_initializer": {"class_name": "Zeros", "config": {}}, "strides": [1, 1], "activity_regularizer": null, "kernel_initializer": {"class_name": "VarianceScaling", "config": {"scale": 1.0, "seed": null, "mode": "fan_avg", "distribution": "uniform"}}, "trainable": true, "bias_regularizer": null, "filters": 448, "activation": "linear", "data_format": "channels_last", "use_bias": false, "kernel_constraint": null, "name": "conv2d_81", "bias_constraint": null, "kernel_size": [1, 1], "dilation_rate": [1, 1], "kernel_regularizer": null, "padding": "same"}, "inbound_nodes": [[["mixed8", 0, 0, {}]]], "name": "conv2d_81"}, {"class_name": "BatchNormalization", "config": {"scale": false, "beta_regularizer": null, "momentum": 0.99, "beta_initializer": {"class_name": "Zeros", "config": {}}, "gamma_constraint": null, "trainable": true, "beta_constraint": null, "moving_mean_initializer": {"class_name": "Zeros", "config": {}}, "gamma_regularizer": null, "epsilon": 0.001, "axis": 3, "name": "batch_normalization_81", "center": true, "gamma_initializer": {"class_name": "Ones", "config": {}}, "moving_variance_initializer": {"class_name": "Ones", "config": {}}}, "inbound_nodes": [[["conv2d_81", 0, 0, {}]]], "name": "batch_normalization_81"}, {"class_name": "Activation", "config": {"trainable": true, "activation": "relu", "name": "activation_81"}, "inbound_nodes": [[["batch_normalization_81", 0, 0, {}]]], "name": "activation_81"}, {"class_name": "Conv2D", "config": {"bias_initializer": {"class_name": "Zeros", "config": {}}, "strides": [1, 1], "activity_regularizer": null, "kernel_initializer": {"class_name": "VarianceScaling", "config": {"scale": 1.0, "seed": null, "mode": "fan_avg", "distribution": "uniform"}}, "trainable": true, "bias_regularizer": null, "filters": 384, "activation": "linear", "data_format": "channels_last", "use_bias": false, "kernel_constraint": null, "name": "conv2d_78", "bias_constraint": null, "kernel_size": [1, 1], "dilation_rate": [1, 1], "kernel_regularizer": null, "padding": "same"}, "inbound_nodes": [[["mixed8", 0, 0, {}]]], "name": "conv2d_78"}, {"class_name": "Conv2D", "config": {"bias_initializer": {"class_name": "Zeros", "config": {}}, "strides": [1, 1], "activity_regularizer": null, "kernel_initializer": {"class_name": "VarianceScaling", "config": {"scale": 1.0, "seed": null, "mode": "fan_avg", "distribution": "uniform"}}, "trainable": true, "bias_regularizer": null, "filters": 384, "activation": "linear", "data_format": "channels_last", "use_bias": false, "kernel_constraint": null, "name": "conv2d_82", "bias_constraint": null, "kernel_size": [3, 3], "dilation_rate": [1, 1], "kernel_regularizer": null, "padding": "same"}, "inbound_nodes": [[["activation_81", 0, 0, {}]]], "name": "conv2d_82"}, {"class_name": "BatchNormalization", "config": {"scale": false, "beta_regularizer": null, "momentum": 0.99, "beta_initializer": {"class_name": "Zeros", "config": {}}, "gamma_constraint": null, "trainable": true, "beta_constraint": null, "moving_mean_initializer": {"class_name": "Zeros", "config": {}}, "gamma_regularizer": null, "epsilon": 0.001, "axis": 3, "name": "batch_normalization_78", "center": true, "gamma_initializer": {"class_name": "Ones", "config": {}}, "moving_variance_initializer": {"class_name": "Ones", "config": {}}}, "inbound_nodes": [[["conv2d_78", 0, 0, {}]]], "name": "batch_normalization_78"}, {"class_name": "BatchNormalization", "config": {"scale": false, "beta_regularizer": null, "momentum": 0.99, "beta_initializer": {"class_name": "Zeros", "config": {}}, "gamma_constraint": null, "trainable": true, "beta_constraint": null, "moving_mean_initializer": {"class_name": "Zeros", "config": {}}, "gamma_regularizer": null, "epsilon": 0.001, "axis": 3, "name": "batch_normalization_82", "center": true, "gamma_initializer": {"class_name": "Ones", "config": {}}, "moving_variance_initializer": {"class_name": "Ones", "config": {}}}, "inbound_nodes": [[["conv2d_82", 0, 0, {}]]], "name": "batch_normalization_82"}, {"class_name": "Activation", "config": {"trainable": true, "activation": "relu", "name": "activation_78"}, "inbound_nodes": [[["batch_normalization_78", 0, 0, {}]]], "name": "activation_78"}, {"class_name": "Activation", "config": {"trainable": true, "activation": "relu", "name": "activation_82"}, "inbound_nodes": [[["batch_normalization_82", 0, 0, {}]]], "name": "activation_82"}, {"class_name": "Conv2D", "config": {"bias_initializer": {"class_name": "Zeros", "config": {}}, "strides": [1, 1], "activity_regularizer": null, "kernel_initializer": {"class_name": "VarianceScaling", "config": {"scale": 1.0, "seed": null, "mode": "fan_avg", "distribution": "uniform"}}, "trainable": true, "bias_regularizer": null, "filters": 384, "activation": "linear", "data_format": "channels_last", "use_bias": false, "kernel_constraint": null, "name": "conv2d_79", "bias_constraint": null, "kernel_size": [1, 3], "dilation_rate": [1, 1], "kernel_regularizer": null, "padding": "same"}, "inbound_nodes": [[["activation_78", 0, 0, {}]]], "name": "conv2d_79"}, {"class_name": "Conv2D", "config": {"bias_initializer": {"class_name": "Zeros", "config": {}}, "strides": [1, 1], "activity_regularizer": null, "kernel_initializer": {"class_name": "VarianceScaling", "config": {"scale": 1.0, "seed": null, "mode": "fan_avg", "distribution": "uniform"}}, "trainable": true, "bias_regularizer": null, "filters": 384, "activation": "linear", "data_format": "channels_last", "use_bias": false, "kernel_constraint": null, "name": "conv2d_80", "bias_constraint": null, "kernel_size": [3, 1], "dilation_rate": [1, 1], "kernel_regularizer": null, "padding": "same"}, "inbound_nodes": [[["activation_78", 0, 0, {}]]], "name": "conv2d_80"}, {"class_name": "Conv2D", "config": {"bias_initializer": {"class_name": "Zeros", "config": {}}, "strides": [1, 1], "activity_regularizer": null, "kernel_initializer": {"class_name": "VarianceScaling", "config": {"scale": 1.0, "seed": null, "mode": "fan_avg", "distribution": "uniform"}}, "trainable": true, "bias_regularizer": null, "filters": 384, "activation": "linear", "data_format": "channels_last", "use_bias": false, "kernel_constraint": null, "name": "conv2d_83", "bias_constraint": null, "kernel_size": [1, 3], "dilation_rate": [1, 1], "kernel_regularizer": null, "padding": "same"}, "inbound_nodes": [[["activation_82", 0, 0, {}]]], "name": "conv2d_83"}, {"class_name": "Conv2D", "config": {"bias_initializer": {"class_name": "Zeros", "config": {}}, "strides": [1, 1], "activity_regularizer": null, "kernel_initializer": {"class_name": "VarianceScaling", "config": {"scale": 1.0, "seed": null, "mode": "fan_avg", "distribution": "uniform"}}, "trainable": true, "bias_regularizer": null, "filters": 384, "activation": "linear", "data_format": "channels_last", "use_bias": false, "kernel_constraint": null, "name": "conv2d_84", "bias_constraint": null, "kernel_size": [3, 1], "dilation_rate": [1, 1], "kernel_regularizer": null, "padding": "same"}, "inbound_nodes": [[["activation_82", 0, 0, {}]]], "name": "conv2d_84"}, {"class_name": "AveragePooling2D", "config": {"strides": [1, 1], "name": "average_pooling2d_8", "pool_size": [3, 3], "trainable": true, "padding": "same", "data_format": "channels_last"}, "inbound_nodes": [[["mixed8", 0, 0, {}]]], "name": "average_pooling2d_8"}, {"class_name": "Conv2D", "config": {"bias_initializer": {"class_name": "Zeros", "config": {}}, "strides": [1, 1], "activity_regularizer": null, "kernel_initializer": {"class_name": "VarianceScaling", "config": {"scale": 1.0, "seed": null, "mode": "fan_avg", "distribution": "uniform"}}, "trainable": true, "bias_regularizer": null, "filters": 320, "activation": "linear", "data_format": "channels_last", "use_bias": false, "kernel_constraint": null, "name": "conv2d_77", "bias_constraint": null, "kernel_size": [1, 1], "dilation_rate": [1, 1], "kernel_regularizer": null, "padding": "same"}, "inbound_nodes": [[["mixed8", 0, 0, {}]]], "name": "conv2d_77"}, {"class_name": "BatchNormalization", "config": {"scale": false, "beta_regularizer": null, "momentum": 0.99, "beta_initializer": {"class_name": "Zeros", "config": {}}, "gamma_constraint": null, "trainable": true, "beta_constraint": null, "moving_mean_initializer": {"class_name": "Zeros", "config": {}}, "gamma_regularizer": null, "epsilon": 0.001, "axis": 3, "name": "batch_normalization_79", "center": true, "gamma_initializer": {"class_name": "Ones", "config": {}}, "moving_variance_initializer": {"class_name": "Ones", "config": {}}}, "inbound_nodes": [[["conv2d_79", 0, 0, {}]]], "name": "batch_normalization_79"}, {"class_name": "BatchNormalization", "config": {"scale": false, "beta_regularizer": null, "momentum": 0.99, "beta_initializer": {"class_name": "Zeros", "config": {}}, "gamma_constraint": null, "trainable": true, "beta_constraint": null, "moving_mean_initializer": {"class_name": "Zeros", "config": {}}, "gamma_regularizer": null, "epsilon": 0.001, "axis": 3, "name": "batch_normalization_80", "center": true, "gamma_initializer": {"class_name": "Ones", "config": {}}, "moving_variance_initializer": {"class_name": "Ones", "config": {}}}, "inbound_nodes": [[["conv2d_80", 0, 0, {}]]], "name": "batch_normalization_80"}, {"class_name": "BatchNormalization", "config": {"scale": false, "beta_regularizer": null, "momentum": 0.99, "beta_initializer": {"class_name": "Zeros", "config": {}}, "gamma_constraint": null, "trainable": true, "beta_constraint": null, "moving_mean_initializer": {"class_name": "Zeros", "config": {}}, "gamma_regularizer": null, "epsilon": 0.001, "axis": 3, "name": "batch_normalization_83", "center": true, "gamma_initializer": {"class_name": "Ones", "config": {}}, "moving_variance_initializer": {"class_name": "Ones", "config": {}}}, "inbound_nodes": [[["conv2d_83", 0, 0, {}]]], "name": "batch_normalization_83"}, {"class_name": "BatchNormalization", "config": {"scale": false, "beta_regularizer": null, "momentum": 0.99, "beta_initializer": {"class_name": "Zeros", "config": {}}, "gamma_constraint": null, "trainable": true, "beta_constraint": null, "moving_mean_initializer": {"class_name": "Zeros", "config": {}}, "gamma_regularizer": null, "epsilon": 0.001, "axis": 3, "name": "batch_normalization_84", "center": true, "gamma_initializer": {"class_name": "Ones", "config": {}}, "moving_variance_initializer": {"class_name": "Ones", "config": {}}}, "inbound_nodes": [[["conv2d_84", 0, 0, {}]]], "name": "batch_normalization_84"}, {"class_name": "Conv2D", "config": {"bias_initializer": {"class_name": "Zeros", "config": {}}, "strides": [1, 1], "activity_regularizer": null, "kernel_initializer": {"class_name": "VarianceScaling", "config": {"scale": 1.0, "seed": null, "mode": "fan_avg", "distribution": "uniform"}}, "trainable": true, "bias_regularizer": null, "filters": 192, "activation": "linear", "data_format": "channels_last", "use_bias": false, "kernel_constraint": null, "name": "conv2d_85", "bias_constraint": null, "kernel_size": [1, 1], "dilation_rate": [1, 1], "kernel_regularizer": null, "padding": "same"}, "inbound_nodes": [[["average_pooling2d_8", 0, 0, {}]]], "name": "conv2d_85"}, {"class_name": "BatchNormalization", "config": {"scale": false, "beta_regularizer": null, "momentum": 0.99, "beta_initializer": {"class_name": "Zeros", "config": {}}, "gamma_constraint": null, "trainable": true, "beta_constraint": null, "moving_mean_initializer": {"class_name": "Zeros", "config": {}}, "gamma_regularizer": null, "epsilon": 0.001, "axis": 3, "name": "batch_normalization_77", "center": true, "gamma_initializer": {"class_name": "Ones", "config": {}}, "moving_variance_initializer": {"class_name": "Ones", "config": {}}}, "inbound_nodes": [[["conv2d_77", 0, 0, {}]]], "name": "batch_normalization_77"}, {"class_name": "Activation", "config": {"trainable": true, "activation": "relu", "name": "activation_79"}, "inbound_nodes": [[["batch_normalization_79", 0, 0, {}]]], "name": "activation_79"}, {"class_name": "Activation", "config": {"trainable": true, "activation": "relu", "name": "activation_80"}, "inbound_nodes": [[["batch_normalization_80", 0, 0, {}]]], "name": "activation_80"}, {"class_name": "Activation", "config": {"trainable": true, "activation": "relu", "name": "activation_83"}, "inbound_nodes": [[["batch_normalization_83", 0, 0, {}]]], "name": "activation_83"}, {"class_name": "Activation", "config": {"trainable": true, "activation": "relu", "name": "activation_84"}, "inbound_nodes": [[["batch_normalization_84", 0, 0, {}]]], "name": "activation_84"}, {"class_name": "BatchNormalization", "config": {"scale": false, "beta_regularizer": null, "momentum": 0.99, "beta_initializer": {"class_name": "Zeros", "config": {}}, "gamma_constraint": null, "trainable": true, "beta_constraint": null, "moving_mean_initializer": {"class_name": "Zeros", "config": {}}, "gamma_regularizer": null, "epsilon": 0.001, "axis": 3, "name": "batch_normalization_85", "center": true, "gamma_initializer": {"class_name": "Ones", "config": {}}, "moving_variance_initializer": {"class_name": "Ones", "config": {}}}, "inbound_nodes": [[["conv2d_85", 0, 0, {}]]], "name": "batch_normalization_85"}, {"class_name": "Activation", "config": {"trainable": true, "activation": "relu", "name": "activation_77"}, "inbound_nodes": [[["batch_normalization_77", 0, 0, {}]]], "name": "activation_77"}, {"class_name": "Concatenate", "config": {"trainable": true, "axis": 3, "name": "mixed9_0"}, "inbound_nodes": [[["activation_79", 0, 0, {}], ["activation_80", 0, 0, {}]]], "name": "mixed9_0"}, {"class_name": "Concatenate", "config": {"trainable": true, "axis": 3, "name": "concatenate_1"}, "inbound_nodes": [[["activation_83", 0, 0, {}], ["activation_84", 0, 0, {}]]], "name": "concatenate_1"}, {"class_name": "Activation", "config": {"trainable": true, "activation": "relu", "name": "activation_85"}, "inbound_nodes": [[["batch_normalization_85", 0, 0, {}]]], "name": "activation_85"}, {"class_name": "Concatenate", "config": {"trainable": true, "axis": 3, "name": "mixed9"}, "inbound_nodes": [[["activation_77", 0, 0, {}], ["mixed9_0", 0, 0, {}], ["concatenate_1", 0, 0, {}], ["activation_85", 0, 0, {}]]], "name": "mixed9"}, {"class_name": "GlobalAveragePooling2D", "config": {"trainable": true, "name": "global_average_pooling2d_1", "data_format": "channels_last"}, "inbound_nodes": [[["mixed9", 0, 0, {}]]], "name": "global_average_pooling2d_1"}, {"class_name": "Dense", "config": {"units": 1024, "bias_initializer": {"class_name": "Zeros", "config": {}}, "activity_regularizer": null, "kernel_initializer": {"class_name": "VarianceScaling", "config": {"scale": 1.0, "seed": null, "mode": "fan_avg", "distribution": "uniform"}}, "trainable": true, "bias_constraint": null, "kernel_constraint": null, "use_bias": true, "activation": "relu", "name": "dense_1", "bias_regularizer": null, "kernel_regularizer": null}, "inbound_nodes": [[["global_average_pooling2d_1", 0, 0, {}]]], "name": "dense_1"}, {"class_name": "Dense", "config": {"units": 128, "bias_initializer": {"class_name": "Zeros", "config": {}}, "activity_regularizer": null, "kernel_initializer": {"class_name": "VarianceScaling", "config": {"scale": 1.0, "seed": null, "mode": "fan_avg", "distribution": "uniform"}}, "trainable": true, "bias_constraint": null, "kernel_constraint": null, "use_bias": true, "activation": "linear", "name": "dense_2", "bias_regularizer": null, "kernel_regularizer": null}, "inbound_nodes": [[["dense_1", 0, 0, {}]]], "name": "dense_2"}]}, "name": "model_1", "inbound_nodes": [[["input_anchor", 0, 0, {}]], [["input_positive", 0, 0, {}]], [["input_negative", 0, 0, {}]]]}, {"class_name": "Lambda", "config": {"output_shape": ["4wEAAAAAAAAABAAAAAMAAABDAAAAcx0AAAB8AABcAwB9AQB9AgB9AwB8AQBkAQAZZAIAZgIAUykD\nTukAAAAA6QEAAACpACkE2gZzaGFwZXPaBnNoYXBlMdoGc2hhcGUy2gZzaGFwZTNyAwAAAHIDAAAA\n+hx0Y25fdHJpcGxldGxvc3NfZ2VuZXJhdG9yLnB52hR0cmlwbGV0X291dHB1dF9zaGFwZTYAAABz\nBAAAAAABDwE=\n", null, null], "name": "triplet_loss", "arguments": {}, "trainable": true, "function": ["4wIAAAAAAAAACAAAAAUAAABDAAAAc3oAAAB8AABcAwB9AgB9AwB9BAB0AABqAQB0AABqAgB8AgB8\nAwAYgwEAZAEAZAQAgwEBfQUAdAAAagEAdAAAagIAfAIAfAQAGIMBAGQBAGQFAIMBAX0GAHQAAGoD\nAHQAAGoEAGQDAHwFAHwGABh8AQAXgwIAgwEAfQcAfAcAUykGTtoEYXhpc+kBAAAA5wAAAAAAAAAA\n6f////9yBAAAACkF2gFL2gNzdW3aBnNxdWFyZdoEbWVhbtoHbWF4aW11bSkI2gN2ZWPaBWFscGhh\n2gZhbmNob3LaCHBvc2l0aXZl2ghuZWdhdGl2ZdoDZF9w2gNkX27aBGxvc3OpAHISAAAA+hx0Y25f\ndHJpcGxldGxvc3NfZ2VuZXJhdG9yLnB52gx0cmlwbGV0X2xvc3MfAAAAcwoAAAAAAQ8BIgEiASMB\n", [0.2], null], "output_shape_type": "lambda", "function_type": "lambda"}, "name": "triplet_loss", "inbound_nodes": [[["model_1", 1, 0, {}], ["model_1", 2, 0, {}], ["model_1", 3, 0, {}]]]}]}, "backend": "tensorflow", "keras_version": "2.1.2"}