{"backend": "tensorflow", "config": {"name": "model_2", "output_layers": [["triplet_loss", 0, 0]], "layers": [{"name": "input_anchor", "inbound_nodes": [], "config": {"name": "input_anchor", "sparse": false, "batch_input_shape": [null, 224, 224, 3], "dtype": "float32"}, "class_name": "InputLayer"}, {"name": "input_positive", "inbound_nodes": [], "config": {"name": "input_positive", "sparse": false, "batch_input_shape": [null, 224, 224, 3], "dtype": "float32"}, "class_name": "InputLayer"}, {"name": "input_negative", "inbound_nodes": [], "config": {"name": "input_negative", "sparse": false, "batch_input_shape": [null, 224, 224, 3], "dtype": "float32"}, "class_name": "InputLayer"}, {"name": "model_1", "inbound_nodes": [[["input_anchor", 0, 0, {}]], [["input_positive", 0, 0, {}]], [["input_negative", 0, 0, {}]]], "config": {"output_layers": [["dense_2", 0, 0]], "name": "model_1", "input_layers": [["input_1", 0, 0]], "layers": [{"inbound_nodes": [], "name": "input_1", "config": {"name": "input_1", "sparse": false, "batch_input_shape": [null, null, null, 3], "dtype": "float32"}, "class_name": "InputLayer"}, {"inbound_nodes": [[["input_1", 0, 0, {}]]], "name": "conv2d_1", "config": {"bias_initializer": {"config": {}, "class_name": "Zeros"}, "kernel_constraint": null, "activity_regularizer": null, "strides": [2, 2], "activation": "linear", "kernel_initializer": {"config": {"seed": null, "mode": "fan_avg", "scale": 1.0, "distribution": "uniform"}, "class_name": "VarianceScaling"}, "use_bias": false, "kernel_regularizer": null, "kernel_size": [3, 3], "trainable": true, "bias_constraint": null, "bias_regularizer": null, "filters": 32, "padding": "valid", "dilation_rate": [1, 1], "name": "conv2d_1", "data_format": "channels_last"}, "class_name": "Conv2D"}, {"inbound_nodes": [[["conv2d_1", 0, 0, {}]]], "name": "batch_normalization_1", "config": {"gamma_constraint": null, "epsilon": 0.001, "moving_mean_initializer": {"config": {}, "class_name": "Zeros"}, "momentum": 0.99, "center": true, "moving_variance_initializer": {"config": {}, "class_name": "Ones"}, "trainable": true, "gamma_initializer": {"config": {}, "class_name": "Ones"}, "beta_constraint": null, "scale": false, "beta_regularizer": null, "name": "batch_normalization_1", "axis": 3, "beta_initializer": {"config": {}, "class_name": "Zeros"}, "gamma_regularizer": null}, "class_name": "BatchNormalization"}, {"inbound_nodes": [[["batch_normalization_1", 0, 0, {}]]], "name": "activation_1", "config": {"trainable": true, "activation": "relu", "name": "activation_1"}, "class_name": "Activation"}, {"inbound_nodes": [[["activation_1", 0, 0, {}]]], "name": "conv2d_2", "config": {"bias_initializer": {"config": {}, "class_name": "Zeros"}, "kernel_constraint": null, "activity_regularizer": null, "strides": [1, 1], "activation": "linear", "kernel_initializer": {"config": {"seed": null, "mode": "fan_avg", "scale": 1.0, "distribution": "uniform"}, "class_name": "VarianceScaling"}, "use_bias": false, "kernel_regularizer": null, "kernel_size": [3, 3], "trainable": true, "bias_constraint": null, "bias_regularizer": null, "filters": 32, "padding": "valid", "dilation_rate": [1, 1], "name": "conv2d_2", "data_format": "channels_last"}, "class_name": "Conv2D"}, {"inbound_nodes": [[["conv2d_2", 0, 0, {}]]], "name": "batch_normalization_2", "config": {"gamma_constraint": null, "epsilon": 0.001, "moving_mean_initializer": {"config": {}, "class_name": "Zeros"}, "momentum": 0.99, "center": true, "moving_variance_initializer": {"config": {}, "class_name": "Ones"}, "trainable": true, "gamma_initializer": {"config": {}, "class_name": "Ones"}, "beta_constraint": null, "scale": false, "beta_regularizer": null, "name": "batch_normalization_2", "axis": 3, "beta_initializer": {"config": {}, "class_name": "Zeros"}, "gamma_regularizer": null}, "class_name": "BatchNormalization"}, {"inbound_nodes": [[["batch_normalization_2", 0, 0, {}]]], "name": "activation_2", "config": {"trainable": true, "activation": "relu", "name": "activation_2"}, "class_name": "Activation"}, {"inbound_nodes": [[["activation_2", 0, 0, {}]]], "name": "conv2d_3", "config": {"bias_initializer": {"config": {}, "class_name": "Zeros"}, "kernel_constraint": null, "activity_regularizer": null, "strides": [1, 1], "activation": "linear", "kernel_initializer": {"config": {"seed": null, "mode": "fan_avg", "scale": 1.0, "distribution": "uniform"}, "class_name": "VarianceScaling"}, "use_bias": false, "kernel_regularizer": null, "kernel_size": [3, 3], "trainable": true, "bias_constraint": null, "bias_regularizer": null, "filters": 64, "padding": "same", "dilation_rate": [1, 1], "name": "conv2d_3", "data_format": "channels_last"}, "class_name": "Conv2D"}, {"inbound_nodes": [[["conv2d_3", 0, 0, {}]]], "name": "batch_normalization_3", "config": {"gamma_constraint": null, "epsilon": 0.001, "moving_mean_initializer": {"config": {}, "class_name": "Zeros"}, "momentum": 0.99, "center": true, "moving_variance_initializer": {"config": {}, "class_name": "Ones"}, "trainable": true, "gamma_initializer": {"config": {}, "class_name": "Ones"}, "beta_constraint": null, "scale": false, "beta_regularizer": null, "name": "batch_normalization_3", "axis": 3, "beta_initializer": {"config": {}, "class_name": "Zeros"}, "gamma_regularizer": null}, "class_name": "BatchNormalization"}, {"inbound_nodes": [[["batch_normalization_3", 0, 0, {}]]], "name": "activation_3", "config": {"trainable": true, "activation": "relu", "name": "activation_3"}, "class_name": "Activation"}, {"inbound_nodes": [[["activation_3", 0, 0, {}]]], "name": "max_pooling2d_1", "config": {"trainable": true, "padding": "valid", "strides": [2, 2], "name": "max_pooling2d_1", "pool_size": [3, 3], "data_format": "channels_last"}, "class_name": "MaxPooling2D"}, {"inbound_nodes": [[["max_pooling2d_1", 0, 0, {}]]], "name": "conv2d_4", "config": {"bias_initializer": {"config": {}, "class_name": "Zeros"}, "kernel_constraint": null, "activity_regularizer": null, "strides": [1, 1], "activation": "linear", "kernel_initializer": {"config": {"seed": null, "mode": "fan_avg", "scale": 1.0, "distribution": "uniform"}, "class_name": "VarianceScaling"}, "use_bias": false, "kernel_regularizer": null, "kernel_size": [1, 1], "trainable": true, "bias_constraint": null, "bias_regularizer": null, "filters": 80, "padding": "valid", "dilation_rate": [1, 1], "name": "conv2d_4", "data_format": "channels_last"}, "class_name": "Conv2D"}, {"inbound_nodes": [[["conv2d_4", 0, 0, {}]]], "name": "batch_normalization_4", "config": {"gamma_constraint": null, "epsilon": 0.001, "moving_mean_initializer": {"config": {}, "class_name": "Zeros"}, "momentum": 0.99, "center": true, "moving_variance_initializer": {"config": {}, "class_name": "Ones"}, "trainable": true, "gamma_initializer": {"config": {}, "class_name": "Ones"}, "beta_constraint": null, "scale": false, "beta_regularizer": null, "name": "batch_normalization_4", "axis": 3, "beta_initializer": {"config": {}, "class_name": "Zeros"}, "gamma_regularizer": null}, "class_name": "BatchNormalization"}, {"inbound_nodes": [[["batch_normalization_4", 0, 0, {}]]], "name": "activation_4", "config": {"trainable": true, "activation": "relu", "name": "activation_4"}, "class_name": "Activation"}, {"inbound_nodes": [[["activation_4", 0, 0, {}]]], "name": "conv2d_5", "config": {"bias_initializer": {"config": {}, "class_name": "Zeros"}, "kernel_constraint": null, "activity_regularizer": null, "strides": [1, 1], "activation": "linear", "kernel_initializer": {"config": {"seed": null, "mode": "fan_avg", "scale": 1.0, "distribution": "uniform"}, "class_name": "VarianceScaling"}, "use_bias": false, "kernel_regularizer": null, "kernel_size": [3, 3], "trainable": true, "bias_constraint": null, "bias_regularizer": null, "filters": 192, "padding": "valid", "dilation_rate": [1, 1], "name": "conv2d_5", "data_format": "channels_last"}, "class_name": "Conv2D"}, {"inbound_nodes": [[["conv2d_5", 0, 0, {}]]], "name": "batch_normalization_5", "config": {"gamma_constraint": null, "epsilon": 0.001, "moving_mean_initializer": {"config": {}, "class_name": "Zeros"}, "momentum": 0.99, "center": true, "moving_variance_initializer": {"config": {}, "class_name": "Ones"}, "trainable": true, "gamma_initializer": {"config": {}, "class_name": "Ones"}, "beta_constraint": null, "scale": false, "beta_regularizer": null, "name": "batch_normalization_5", "axis": 3, "beta_initializer": {"config": {}, "class_name": "Zeros"}, "gamma_regularizer": null}, "class_name": "BatchNormalization"}, {"inbound_nodes": [[["batch_normalization_5", 0, 0, {}]]], "name": "activation_5", "config": {"trainable": true, "activation": "relu", "name": "activation_5"}, "class_name": "Activation"}, {"inbound_nodes": [[["activation_5", 0, 0, {}]]], "name": "max_pooling2d_2", "config": {"trainable": true, "padding": "valid", "strides": [2, 2], "name": "max_pooling2d_2", "pool_size": [3, 3], "data_format": "channels_last"}, "class_name": "MaxPooling2D"}, {"inbound_nodes": [[["max_pooling2d_2", 0, 0, {}]]], "name": "conv2d_9", "config": {"bias_initializer": {"config": {}, "class_name": "Zeros"}, "kernel_constraint": null, "activity_regularizer": null, "strides": [1, 1], "activation": "linear", "kernel_initializer": {"config": {"seed": null, "mode": "fan_avg", "scale": 1.0, "distribution": "uniform"}, "class_name": "VarianceScaling"}, "use_bias": false, "kernel_regularizer": null, "kernel_size": [1, 1], "trainable": true, "bias_constraint": null, "bias_regularizer": null, "filters": 64, "padding": "same", "dilation_rate": [1, 1], "name": "conv2d_9", "data_format": "channels_last"}, "class_name": "Conv2D"}, {"inbound_nodes": [[["conv2d_9", 0, 0, {}]]], "name": "batch_normalization_9", "config": {"gamma_constraint": null, "epsilon": 0.001, "moving_mean_initializer": {"config": {}, "class_name": "Zeros"}, "momentum": 0.99, "center": true, "moving_variance_initializer": {"config": {}, "class_name": "Ones"}, "trainable": true, "gamma_initializer": {"config": {}, "class_name": "Ones"}, "beta_constraint": null, "scale": false, "beta_regularizer": null, "name": "batch_normalization_9", "axis": 3, "beta_initializer": {"config": {}, "class_name": "Zeros"}, "gamma_regularizer": null}, "class_name": "BatchNormalization"}, {"inbound_nodes": [[["batch_normalization_9", 0, 0, {}]]], "name": "activation_9", "config": {"trainable": true, "activation": "relu", "name": "activation_9"}, "class_name": "Activation"}, {"inbound_nodes": [[["max_pooling2d_2", 0, 0, {}]]], "name": "conv2d_7", "config": {"bias_initializer": {"config": {}, "class_name": "Zeros"}, "kernel_constraint": null, "activity_regularizer": null, "strides": [1, 1], "activation": "linear", "kernel_initializer": {"config": {"seed": null, "mode": "fan_avg", "scale": 1.0, "distribution": "uniform"}, "class_name": "VarianceScaling"}, "use_bias": false, "kernel_regularizer": null, "kernel_size": [1, 1], "trainable": true, "bias_constraint": null, "bias_regularizer": null, "filters": 48, "padding": "same", "dilation_rate": [1, 1], "name": "conv2d_7", "data_format": "channels_last"}, "class_name": "Conv2D"}, {"inbound_nodes": [[["activation_9", 0, 0, {}]]], "name": "conv2d_10", "config": {"bias_initializer": {"config": {}, "class_name": "Zeros"}, "kernel_constraint": null, "activity_regularizer": null, "strides": [1, 1], "activation": "linear", "kernel_initializer": {"config": {"seed": null, "mode": "fan_avg", "scale": 1.0, "distribution": "uniform"}, "class_name": "VarianceScaling"}, "use_bias": false, "kernel_regularizer": null, "kernel_size": [3, 3], "trainable": true, "bias_constraint": null, "bias_regularizer": null, "filters": 96, "padding": "same", "dilation_rate": [1, 1], "name": "conv2d_10", "data_format": "channels_last"}, "class_name": "Conv2D"}, {"inbound_nodes": [[["conv2d_7", 0, 0, {}]]], "name": "batch_normalization_7", "config": {"gamma_constraint": null, "epsilon": 0.001, "moving_mean_initializer": {"config": {}, "class_name": "Zeros"}, "momentum": 0.99, "center": true, "moving_variance_initializer": {"config": {}, "class_name": "Ones"}, "trainable": true, "gamma_initializer": {"config": {}, "class_name": "Ones"}, "beta_constraint": null, "scale": false, "beta_regularizer": null, "name": "batch_normalization_7", "axis": 3, "beta_initializer": {"config": {}, "class_name": "Zeros"}, "gamma_regularizer": null}, "class_name": "BatchNormalization"}, {"inbound_nodes": [[["conv2d_10", 0, 0, {}]]], "name": "batch_normalization_10", "config": {"gamma_constraint": null, "epsilon": 0.001, "moving_mean_initializer": {"config": {}, "class_name": "Zeros"}, "momentum": 0.99, "center": true, "moving_variance_initializer": {"config": {}, "class_name": "Ones"}, "trainable": true, "gamma_initializer": {"config": {}, "class_name": "Ones"}, "beta_constraint": null, "scale": false, "beta_regularizer": null, "name": "batch_normalization_10", "axis": 3, "beta_initializer": {"config": {}, "class_name": "Zeros"}, "gamma_regularizer": null}, "class_name": "BatchNormalization"}, {"inbound_nodes": [[["batch_normalization_7", 0, 0, {}]]], "name": "activation_7", "config": {"trainable": true, "activation": "relu", "name": "activation_7"}, "class_name": "Activation"}, {"inbound_nodes": [[["batch_normalization_10", 0, 0, {}]]], "name": "activation_10", "config": {"trainable": true, "activation": "relu", "name": "activation_10"}, "class_name": "Activation"}, {"inbound_nodes": [[["max_pooling2d_2", 0, 0, {}]]], "name": "average_pooling2d_1", "config": {"trainable": true, "padding": "same", "strides": [1, 1], "name": "average_pooling2d_1", "pool_size": [3, 3], "data_format": "channels_last"}, "class_name": "AveragePooling2D"}, {"inbound_nodes": [[["max_pooling2d_2", 0, 0, {}]]], "name": "conv2d_6", "config": {"bias_initializer": {"config": {}, "class_name": "Zeros"}, "kernel_constraint": null, "activity_regularizer": null, "strides": [1, 1], "activation": "linear", "kernel_initializer": {"config": {"seed": null, "mode": "fan_avg", "scale": 1.0, "distribution": "uniform"}, "class_name": "VarianceScaling"}, "use_bias": false, "kernel_regularizer": null, "kernel_size": [1, 1], "trainable": true, "bias_constraint": null, "bias_regularizer": null, "filters": 64, "padding": "same", "dilation_rate": [1, 1], "name": "conv2d_6", "data_format": "channels_last"}, "class_name": "Conv2D"}, {"inbound_nodes": [[["activation_7", 0, 0, {}]]], "name": "conv2d_8", "config": {"bias_initializer": {"config": {}, "class_name": "Zeros"}, "kernel_constraint": null, "activity_regularizer": null, "strides": [1, 1], "activation": "linear", "kernel_initializer": {"config": {"seed": null, "mode": "fan_avg", "scale": 1.0, "distribution": "uniform"}, "class_name": "VarianceScaling"}, "use_bias": false, "kernel_regularizer": null, "kernel_size": [5, 5], "trainable": true, "bias_constraint": null, "bias_regularizer": null, "filters": 64, "padding": "same", "dilation_rate": [1, 1], "name": "conv2d_8", "data_format": "channels_last"}, "class_name": "Conv2D"}, {"inbound_nodes": [[["activation_10", 0, 0, {}]]], "name": "conv2d_11", "config": {"bias_initializer": {"config": {}, "class_name": "Zeros"}, "kernel_constraint": null, "activity_regularizer": null, "strides": [1, 1], "activation": "linear", "kernel_initializer": {"config": {"seed": null, "mode": "fan_avg", "scale": 1.0, "distribution": "uniform"}, "class_name": "VarianceScaling"}, "use_bias": false, "kernel_regularizer": null, "kernel_size": [3, 3], "trainable": true, "bias_constraint": null, "bias_regularizer": null, "filters": 96, "padding": "same", "dilation_rate": [1, 1], "name": "conv2d_11", "data_format": "channels_last"}, "class_name": "Conv2D"}, {"inbound_nodes": [[["average_pooling2d_1", 0, 0, {}]]], "name": "conv2d_12", "config": {"bias_initializer": {"config": {}, "class_name": "Zeros"}, "kernel_constraint": null, "activity_regularizer": null, "strides": [1, 1], "activation": "linear", "kernel_initializer": {"config": {"seed": null, "mode": "fan_avg", "scale": 1.0, "distribution": "uniform"}, "class_name": "VarianceScaling"}, "use_bias": false, "kernel_regularizer": null, "kernel_size": [1, 1], "trainable": true, "bias_constraint": null, "bias_regularizer": null, "filters": 32, "padding": "same", "dilation_rate": [1, 1], "name": "conv2d_12", "data_format": "channels_last"}, "class_name": "Conv2D"}, {"inbound_nodes": [[["conv2d_6", 0, 0, {}]]], "name": "batch_normalization_6", "config": {"gamma_constraint": null, "epsilon": 0.001, "moving_mean_initializer": {"config": {}, "class_name": "Zeros"}, "momentum": 0.99, "center": true, "moving_variance_initializer": {"config": {}, "class_name": "Ones"}, "trainable": true, "gamma_initializer": {"config": {}, "class_name": "Ones"}, "beta_constraint": null, "scale": false, "beta_regularizer": null, "name": "batch_normalization_6", "axis": 3, "beta_initializer": {"config": {}, "class_name": "Zeros"}, "gamma_regularizer": null}, "class_name": "BatchNormalization"}, {"inbound_nodes": [[["conv2d_8", 0, 0, {}]]], "name": "batch_normalization_8", "config": {"gamma_constraint": null, "epsilon": 0.001, "moving_mean_initializer": {"config": {}, "class_name": "Zeros"}, "momentum": 0.99, "center": true, "moving_variance_initializer": {"config": {}, "class_name": "Ones"}, "trainable": true, "gamma_initializer": {"config": {}, "class_name": "Ones"}, "beta_constraint": null, "scale": false, "beta_regularizer": null, "name": "batch_normalization_8", "axis": 3, "beta_initializer": {"config": {}, "class_name": "Zeros"}, "gamma_regularizer": null}, "class_name": "BatchNormalization"}, {"inbound_nodes": [[["conv2d_11", 0, 0, {}]]], "name": "batch_normalization_11", "config": {"gamma_constraint": null, "epsilon": 0.001, "moving_mean_initializer": {"config": {}, "class_name": "Zeros"}, "momentum": 0.99, "center": true, "moving_variance_initializer": {"config": {}, "class_name": "Ones"}, "trainable": true, "gamma_initializer": {"config": {}, "class_name": "Ones"}, "beta_constraint": null, "scale": false, "beta_regularizer": null, "name": "batch_normalization_11", "axis": 3, "beta_initializer": {"config": {}, "class_name": "Zeros"}, "gamma_regularizer": null}, "class_name": "BatchNormalization"}, {"inbound_nodes": [[["conv2d_12", 0, 0, {}]]], "name": "batch_normalization_12", "config": {"gamma_constraint": null, "epsilon": 0.001, "moving_mean_initializer": {"config": {}, "class_name": "Zeros"}, "momentum": 0.99, "center": true, "moving_variance_initializer": {"config": {}, "class_name": "Ones"}, "trainable": true, "gamma_initializer": {"config": {}, "class_name": "Ones"}, "beta_constraint": null, "scale": false, "beta_regularizer": null, "name": "batch_normalization_12", "axis": 3, "beta_initializer": {"config": {}, "class_name": "Zeros"}, "gamma_regularizer": null}, "class_name": "BatchNormalization"}, {"inbound_nodes": [[["batch_normalization_6", 0, 0, {}]]], "name": "activation_6", "config": {"trainable": true, "activation": "relu", "name": "activation_6"}, "class_name": "Activation"}, {"inbound_nodes": [[["batch_normalization_8", 0, 0, {}]]], "name": "activation_8", "config": {"trainable": true, "activation": "relu", "name": "activation_8"}, "class_name": "Activation"}, {"inbound_nodes": [[["batch_normalization_11", 0, 0, {}]]], "name": "activation_11", "config": {"trainable": true, "activation": "relu", "name": "activation_11"}, "class_name": "Activation"}, {"inbound_nodes": [[["batch_normalization_12", 0, 0, {}]]], "name": "activation_12", "config": {"trainable": true, "activation": "relu", "name": "activation_12"}, "class_name": "Activation"}, {"inbound_nodes": [[["activation_6", 0, 0, {}], ["activation_8", 0, 0, {}], ["activation_11", 0, 0, {}], ["activation_12", 0, 0, {}]]], "name": "mixed0", "config": {"trainable": true, "name": "mixed0", "axis": 3}, "class_name": "Concatenate"}, {"inbound_nodes": [[["mixed0", 0, 0, {}]]], "name": "conv2d_16", "config": {"bias_initializer": {"config": {}, "class_name": "Zeros"}, "kernel_constraint": null, "activity_regularizer": null, "strides": [1, 1], "activation": "linear", "kernel_initializer": {"config": {"seed": null, "mode": "fan_avg", "scale": 1.0, "distribution": "uniform"}, "class_name": "VarianceScaling"}, "use_bias": false, "kernel_regularizer": null, "kernel_size": [1, 1], "trainable": true, "bias_constraint": null, "bias_regularizer": null, "filters": 64, "padding": "same", "dilation_rate": [1, 1], "name": "conv2d_16", "data_format": "channels_last"}, "class_name": "Conv2D"}, {"inbound_nodes": [[["conv2d_16", 0, 0, {}]]], "name": "batch_normalization_16", "config": {"gamma_constraint": null, "epsilon": 0.001, "moving_mean_initializer": {"config": {}, "class_name": "Zeros"}, "momentum": 0.99, "center": true, "moving_variance_initializer": {"config": {}, "class_name": "Ones"}, "trainable": true, "gamma_initializer": {"config": {}, "class_name": "Ones"}, "beta_constraint": null, "scale": false, "beta_regularizer": null, "name": "batch_normalization_16", "axis": 3, "beta_initializer": {"config": {}, "class_name": "Zeros"}, "gamma_regularizer": null}, "class_name": "BatchNormalization"}, {"inbound_nodes": [[["batch_normalization_16", 0, 0, {}]]], "name": "activation_16", "config": {"trainable": true, "activation": "relu", "name": "activation_16"}, "class_name": "Activation"}, {"inbound_nodes": [[["mixed0", 0, 0, {}]]], "name": "conv2d_14", "config": {"bias_initializer": {"config": {}, "class_name": "Zeros"}, "kernel_constraint": null, "activity_regularizer": null, "strides": [1, 1], "activation": "linear", "kernel_initializer": {"config": {"seed": null, "mode": "fan_avg", "scale": 1.0, "distribution": "uniform"}, "class_name": "VarianceScaling"}, "use_bias": false, "kernel_regularizer": null, "kernel_size": [1, 1], "trainable": true, "bias_constraint": null, "bias_regularizer": null, "filters": 48, "padding": "same", "dilation_rate": [1, 1], "name": "conv2d_14", "data_format": "channels_last"}, "class_name": "Conv2D"}, {"inbound_nodes": [[["activation_16", 0, 0, {}]]], "name": "conv2d_17", "config": {"bias_initializer": {"config": {}, "class_name": "Zeros"}, "kernel_constraint": null, "activity_regularizer": null, "strides": [1, 1], "activation": "linear", "kernel_initializer": {"config": {"seed": null, "mode": "fan_avg", "scale": 1.0, "distribution": "uniform"}, "class_name": "VarianceScaling"}, "use_bias": false, "kernel_regularizer": null, "kernel_size": [3, 3], "trainable": true, "bias_constraint": null, "bias_regularizer": null, "filters": 96, "padding": "same", "dilation_rate": [1, 1], "name": "conv2d_17", "data_format": "channels_last"}, "class_name": "Conv2D"}, {"inbound_nodes": [[["conv2d_14", 0, 0, {}]]], "name": "batch_normalization_14", "config": {"gamma_constraint": null, "epsilon": 0.001, "moving_mean_initializer": {"config": {}, "class_name": "Zeros"}, "momentum": 0.99, "center": true, "moving_variance_initializer": {"config": {}, "class_name": "Ones"}, "trainable": true, "gamma_initializer": {"config": {}, "class_name": "Ones"}, "beta_constraint": null, "scale": false, "beta_regularizer": null, "name": "batch_normalization_14", "axis": 3, "beta_initializer": {"config": {}, "class_name": "Zeros"}, "gamma_regularizer": null}, "class_name": "BatchNormalization"}, {"inbound_nodes": [[["conv2d_17", 0, 0, {}]]], "name": "batch_normalization_17", "config": {"gamma_constraint": null, "epsilon": 0.001, "moving_mean_initializer": {"config": {}, "class_name": "Zeros"}, "momentum": 0.99, "center": true, "moving_variance_initializer": {"config": {}, "class_name": "Ones"}, "trainable": true, "gamma_initializer": {"config": {}, "class_name": "Ones"}, "beta_constraint": null, "scale": false, "beta_regularizer": null, "name": "batch_normalization_17", "axis": 3, "beta_initializer": {"config": {}, "class_name": "Zeros"}, "gamma_regularizer": null}, "class_name": "BatchNormalization"}, {"inbound_nodes": [[["batch_normalization_14", 0, 0, {}]]], "name": "activation_14", "config": {"trainable": true, "activation": "relu", "name": "activation_14"}, "class_name": "Activation"}, {"inbound_nodes": [[["batch_normalization_17", 0, 0, {}]]], "name": "activation_17", "config": {"trainable": true, "activation": "relu", "name": "activation_17"}, "class_name": "Activation"}, {"inbound_nodes": [[["mixed0", 0, 0, {}]]], "name": "average_pooling2d_2", "config": {"trainable": true, "padding": "same", "strides": [1, 1], "name": "average_pooling2d_2", "pool_size": [3, 3], "data_format": "channels_last"}, "class_name": "AveragePooling2D"}, {"inbound_nodes": [[["mixed0", 0, 0, {}]]], "name": "conv2d_13", "config": {"bias_initializer": {"config": {}, "class_name": "Zeros"}, "kernel_constraint": null, "activity_regularizer": null, "strides": [1, 1], "activation": "linear", "kernel_initializer": {"config": {"seed": null, "mode": "fan_avg", "scale": 1.0, "distribution": "uniform"}, "class_name": "VarianceScaling"}, "use_bias": false, "kernel_regularizer": null, "kernel_size": [1, 1], "trainable": true, "bias_constraint": null, "bias_regularizer": null, "filters": 64, "padding": "same", "dilation_rate": [1, 1], "name": "conv2d_13", "data_format": "channels_last"}, "class_name": "Conv2D"}, {"inbound_nodes": [[["activation_14", 0, 0, {}]]], "name": "conv2d_15", "config": {"bias_initializer": {"config": {}, "class_name": "Zeros"}, "kernel_constraint": null, "activity_regularizer": null, "strides": [1, 1], "activation": "linear", "kernel_initializer": {"config": {"seed": null, "mode": "fan_avg", "scale": 1.0, "distribution": "uniform"}, "class_name": "VarianceScaling"}, "use_bias": false, "kernel_regularizer": null, "kernel_size": [5, 5], "trainable": true, "bias_constraint": null, "bias_regularizer": null, "filters": 64, "padding": "same", "dilation_rate": [1, 1], "name": "conv2d_15", "data_format": "channels_last"}, "class_name": "Conv2D"}, {"inbound_nodes": [[["activation_17", 0, 0, {}]]], "name": "conv2d_18", "config": {"bias_initializer": {"config": {}, "class_name": "Zeros"}, "kernel_constraint": null, "activity_regularizer": null, "strides": [1, 1], "activation": "linear", "kernel_initializer": {"config": {"seed": null, "mode": "fan_avg", "scale": 1.0, "distribution": "uniform"}, "class_name": "VarianceScaling"}, "use_bias": false, "kernel_regularizer": null, "kernel_size": [3, 3], "trainable": true, "bias_constraint": null, "bias_regularizer": null, "filters": 96, "padding": "same", "dilation_rate": [1, 1], "name": "conv2d_18", "data_format": "channels_last"}, "class_name": "Conv2D"}, {"inbound_nodes": [[["average_pooling2d_2", 0, 0, {}]]], "name": "conv2d_19", "config": {"bias_initializer": {"config": {}, "class_name": "Zeros"}, "kernel_constraint": null, "activity_regularizer": null, "strides": [1, 1], "activation": "linear", "kernel_initializer": {"config": {"seed": null, "mode": "fan_avg", "scale": 1.0, "distribution": "uniform"}, "class_name": "VarianceScaling"}, "use_bias": false, "kernel_regularizer": null, "kernel_size": [1, 1], "trainable": true, "bias_constraint": null, "bias_regularizer": null, "filters": 64, "padding": "same", "dilation_rate": [1, 1], "name": "conv2d_19", "data_format": "channels_last"}, "class_name": "Conv2D"}, {"inbound_nodes": [[["conv2d_13", 0, 0, {}]]], "name": "batch_normalization_13", "config": {"gamma_constraint": null, "epsilon": 0.001, "moving_mean_initializer": {"config": {}, "class_name": "Zeros"}, "momentum": 0.99, "center": true, "moving_variance_initializer": {"config": {}, "class_name": "Ones"}, "trainable": true, "gamma_initializer": {"config": {}, "class_name": "Ones"}, "beta_constraint": null, "scale": false, "beta_regularizer": null, "name": "batch_normalization_13", "axis": 3, "beta_initializer": {"config": {}, "class_name": "Zeros"}, "gamma_regularizer": null}, "class_name": "BatchNormalization"}, {"inbound_nodes": [[["conv2d_15", 0, 0, {}]]], "name": "batch_normalization_15", "config": {"gamma_constraint": null, "epsilon": 0.001, "moving_mean_initializer": {"config": {}, "class_name": "Zeros"}, "momentum": 0.99, "center": true, "moving_variance_initializer": {"config": {}, "class_name": "Ones"}, "trainable": true, "gamma_initializer": {"config": {}, "class_name": "Ones"}, "beta_constraint": null, "scale": false, "beta_regularizer": null, "name": "batch_normalization_15", "axis": 3, "beta_initializer": {"config": {}, "class_name": "Zeros"}, "gamma_regularizer": null}, "class_name": "BatchNormalization"}, {"inbound_nodes": [[["conv2d_18", 0, 0, {}]]], "name": "batch_normalization_18", "config": {"gamma_constraint": null, "epsilon": 0.001, "moving_mean_initializer": {"config": {}, "class_name": "Zeros"}, "momentum": 0.99, "center": true, "moving_variance_initializer": {"config": {}, "class_name": "Ones"}, "trainable": true, "gamma_initializer": {"config": {}, "class_name": "Ones"}, "beta_constraint": null, "scale": false, "beta_regularizer": null, "name": "batch_normalization_18", "axis": 3, "beta_initializer": {"config": {}, "class_name": "Zeros"}, "gamma_regularizer": null}, "class_name": "BatchNormalization"}, {"inbound_nodes": [[["conv2d_19", 0, 0, {}]]], "name": "batch_normalization_19", "config": {"gamma_constraint": null, "epsilon": 0.001, "moving_mean_initializer": {"config": {}, "class_name": "Zeros"}, "momentum": 0.99, "center": true, "moving_variance_initializer": {"config": {}, "class_name": "Ones"}, "trainable": true, "gamma_initializer": {"config": {}, "class_name": "Ones"}, "beta_constraint": null, "scale": false, "beta_regularizer": null, "name": "batch_normalization_19", "axis": 3, "beta_initializer": {"config": {}, "class_name": "Zeros"}, "gamma_regularizer": null}, "class_name": "BatchNormalization"}, {"inbound_nodes": [[["batch_normalization_13", 0, 0, {}]]], "name": "activation_13", "config": {"trainable": true, "activation": "relu", "name": "activation_13"}, "class_name": "Activation"}, {"inbound_nodes": [[["batch_normalization_15", 0, 0, {}]]], "name": "activation_15", "config": {"trainable": true, "activation": "relu", "name": "activation_15"}, "class_name": "Activation"}, {"inbound_nodes": [[["batch_normalization_18", 0, 0, {}]]], "name": "activation_18", "config": {"trainable": true, "activation": "relu", "name": "activation_18"}, "class_name": "Activation"}, {"inbound_nodes": [[["batch_normalization_19", 0, 0, {}]]], "name": "activation_19", "config": {"trainable": true, "activation": "relu", "name": "activation_19"}, "class_name": "Activation"}, {"inbound_nodes": [[["activation_13", 0, 0, {}], ["activation_15", 0, 0, {}], ["activation_18", 0, 0, {}], ["activation_19", 0, 0, {}]]], "name": "mixed1", "config": {"trainable": true, "name": "mixed1", "axis": 3}, "class_name": "Concatenate"}, {"inbound_nodes": [[["mixed1", 0, 0, {}]]], "name": "conv2d_23", "config": {"bias_initializer": {"config": {}, "class_name": "Zeros"}, "kernel_constraint": null, "activity_regularizer": null, "strides": [1, 1], "activation": "linear", "kernel_initializer": {"config": {"seed": null, "mode": "fan_avg", "scale": 1.0, "distribution": "uniform"}, "class_name": "VarianceScaling"}, "use_bias": false, "kernel_regularizer": null, "kernel_size": [1, 1], "trainable": true, "bias_constraint": null, "bias_regularizer": null, "filters": 64, "padding": "same", "dilation_rate": [1, 1], "name": "conv2d_23", "data_format": "channels_last"}, "class_name": "Conv2D"}, {"inbound_nodes": [[["conv2d_23", 0, 0, {}]]], "name": "batch_normalization_23", "config": {"gamma_constraint": null, "epsilon": 0.001, "moving_mean_initializer": {"config": {}, "class_name": "Zeros"}, "momentum": 0.99, "center": true, "moving_variance_initializer": {"config": {}, "class_name": "Ones"}, "trainable": true, "gamma_initializer": {"config": {}, "class_name": "Ones"}, "beta_constraint": null, "scale": false, "beta_regularizer": null, "name": "batch_normalization_23", "axis": 3, "beta_initializer": {"config": {}, "class_name": "Zeros"}, "gamma_regularizer": null}, "class_name": "BatchNormalization"}, {"inbound_nodes": [[["batch_normalization_23", 0, 0, {}]]], "name": "activation_23", "config": {"trainable": true, "activation": "relu", "name": "activation_23"}, "class_name": "Activation"}, {"inbound_nodes": [[["mixed1", 0, 0, {}]]], "name": "conv2d_21", "config": {"bias_initializer": {"config": {}, "class_name": "Zeros"}, "kernel_constraint": null, "activity_regularizer": null, "strides": [1, 1], "activation": "linear", "kernel_initializer": {"config": {"seed": null, "mode": "fan_avg", "scale": 1.0, "distribution": "uniform"}, "class_name": "VarianceScaling"}, "use_bias": false, "kernel_regularizer": null, "kernel_size": [1, 1], "trainable": true, "bias_constraint": null, "bias_regularizer": null, "filters": 48, "padding": "same", "dilation_rate": [1, 1], "name": "conv2d_21", "data_format": "channels_last"}, "class_name": "Conv2D"}, {"inbound_nodes": [[["activation_23", 0, 0, {}]]], "name": "conv2d_24", "config": {"bias_initializer": {"config": {}, "class_name": "Zeros"}, "kernel_constraint": null, "activity_regularizer": null, "strides": [1, 1], "activation": "linear", "kernel_initializer": {"config": {"seed": null, "mode": "fan_avg", "scale": 1.0, "distribution": "uniform"}, "class_name": "VarianceScaling"}, "use_bias": false, "kernel_regularizer": null, "kernel_size": [3, 3], "trainable": true, "bias_constraint": null, "bias_regularizer": null, "filters": 96, "padding": "same", "dilation_rate": [1, 1], "name": "conv2d_24", "data_format": "channels_last"}, "class_name": "Conv2D"}, {"inbound_nodes": [[["conv2d_21", 0, 0, {}]]], "name": "batch_normalization_21", "config": {"gamma_constraint": null, "epsilon": 0.001, "moving_mean_initializer": {"config": {}, "class_name": "Zeros"}, "momentum": 0.99, "center": true, "moving_variance_initializer": {"config": {}, "class_name": "Ones"}, "trainable": true, "gamma_initializer": {"config": {}, "class_name": "Ones"}, "beta_constraint": null, "scale": false, "beta_regularizer": null, "name": "batch_normalization_21", "axis": 3, "beta_initializer": {"config": {}, "class_name": "Zeros"}, "gamma_regularizer": null}, "class_name": "BatchNormalization"}, {"inbound_nodes": [[["conv2d_24", 0, 0, {}]]], "name": "batch_normalization_24", "config": {"gamma_constraint": null, "epsilon": 0.001, "moving_mean_initializer": {"config": {}, "class_name": "Zeros"}, "momentum": 0.99, "center": true, "moving_variance_initializer": {"config": {}, "class_name": "Ones"}, "trainable": true, "gamma_initializer": {"config": {}, "class_name": "Ones"}, "beta_constraint": null, "scale": false, "beta_regularizer": null, "name": "batch_normalization_24", "axis": 3, "beta_initializer": {"config": {}, "class_name": "Zeros"}, "gamma_regularizer": null}, "class_name": "BatchNormalization"}, {"inbound_nodes": [[["batch_normalization_21", 0, 0, {}]]], "name": "activation_21", "config": {"trainable": true, "activation": "relu", "name": "activation_21"}, "class_name": "Activation"}, {"inbound_nodes": [[["batch_normalization_24", 0, 0, {}]]], "name": "activation_24", "config": {"trainable": true, "activation": "relu", "name": "activation_24"}, "class_name": "Activation"}, {"inbound_nodes": [[["mixed1", 0, 0, {}]]], "name": "average_pooling2d_3", "config": {"trainable": true, "padding": "same", "strides": [1, 1], "name": "average_pooling2d_3", "pool_size": [3, 3], "data_format": "channels_last"}, "class_name": "AveragePooling2D"}, {"inbound_nodes": [[["mixed1", 0, 0, {}]]], "name": "conv2d_20", "config": {"bias_initializer": {"config": {}, "class_name": "Zeros"}, "kernel_constraint": null, "activity_regularizer": null, "strides": [1, 1], "activation": "linear", "kernel_initializer": {"config": {"seed": null, "mode": "fan_avg", "scale": 1.0, "distribution": "uniform"}, "class_name": "VarianceScaling"}, "use_bias": false, "kernel_regularizer": null, "kernel_size": [1, 1], "trainable": true, "bias_constraint": null, "bias_regularizer": null, "filters": 64, "padding": "same", "dilation_rate": [1, 1], "name": "conv2d_20", "data_format": "channels_last"}, "class_name": "Conv2D"}, {"inbound_nodes": [[["activation_21", 0, 0, {}]]], "name": "conv2d_22", "config": {"bias_initializer": {"config": {}, "class_name": "Zeros"}, "kernel_constraint": null, "activity_regularizer": null, "strides": [1, 1], "activation": "linear", "kernel_initializer": {"config": {"seed": null, "mode": "fan_avg", "scale": 1.0, "distribution": "uniform"}, "class_name": "VarianceScaling"}, "use_bias": false, "kernel_regularizer": null, "kernel_size": [5, 5], "trainable": true, "bias_constraint": null, "bias_regularizer": null, "filters": 64, "padding": "same", "dilation_rate": [1, 1], "name": "conv2d_22", "data_format": "channels_last"}, "class_name": "Conv2D"}, {"inbound_nodes": [[["activation_24", 0, 0, {}]]], "name": "conv2d_25", "config": {"bias_initializer": {"config": {}, "class_name": "Zeros"}, "kernel_constraint": null, "activity_regularizer": null, "strides": [1, 1], "activation": "linear", "kernel_initializer": {"config": {"seed": null, "mode": "fan_avg", "scale": 1.0, "distribution": "uniform"}, "class_name": "VarianceScaling"}, "use_bias": false, "kernel_regularizer": null, "kernel_size": [3, 3], "trainable": true, "bias_constraint": null, "bias_regularizer": null, "filters": 96, "padding": "same", "dilation_rate": [1, 1], "name": "conv2d_25", "data_format": "channels_last"}, "class_name": "Conv2D"}, {"inbound_nodes": [[["average_pooling2d_3", 0, 0, {}]]], "name": "conv2d_26", "config": {"bias_initializer": {"config": {}, "class_name": "Zeros"}, "kernel_constraint": null, "activity_regularizer": null, "strides": [1, 1], "activation": "linear", "kernel_initializer": {"config": {"seed": null, "mode": "fan_avg", "scale": 1.0, "distribution": "uniform"}, "class_name": "VarianceScaling"}, "use_bias": false, "kernel_regularizer": null, "kernel_size": [1, 1], "trainable": true, "bias_constraint": null, "bias_regularizer": null, "filters": 64, "padding": "same", "dilation_rate": [1, 1], "name": "conv2d_26", "data_format": "channels_last"}, "class_name": "Conv2D"}, {"inbound_nodes": [[["conv2d_20", 0, 0, {}]]], "name": "batch_normalization_20", "config": {"gamma_constraint": null, "epsilon": 0.001, "moving_mean_initializer": {"config": {}, "class_name": "Zeros"}, "momentum": 0.99, "center": true, "moving_variance_initializer": {"config": {}, "class_name": "Ones"}, "trainable": true, "gamma_initializer": {"config": {}, "class_name": "Ones"}, "beta_constraint": null, "scale": false, "beta_regularizer": null, "name": "batch_normalization_20", "axis": 3, "beta_initializer": {"config": {}, "class_name": "Zeros"}, "gamma_regularizer": null}, "class_name": "BatchNormalization"}, {"inbound_nodes": [[["conv2d_22", 0, 0, {}]]], "name": "batch_normalization_22", "config": {"gamma_constraint": null, "epsilon": 0.001, "moving_mean_initializer": {"config": {}, "class_name": "Zeros"}, "momentum": 0.99, "center": true, "moving_variance_initializer": {"config": {}, "class_name": "Ones"}, "trainable": true, "gamma_initializer": {"config": {}, "class_name": "Ones"}, "beta_constraint": null, "scale": false, "beta_regularizer": null, "name": "batch_normalization_22", "axis": 3, "beta_initializer": {"config": {}, "class_name": "Zeros"}, "gamma_regularizer": null}, "class_name": "BatchNormalization"}, {"inbound_nodes": [[["conv2d_25", 0, 0, {}]]], "name": "batch_normalization_25", "config": {"gamma_constraint": null, "epsilon": 0.001, "moving_mean_initializer": {"config": {}, "class_name": "Zeros"}, "momentum": 0.99, "center": true, "moving_variance_initializer": {"config": {}, "class_name": "Ones"}, "trainable": true, "gamma_initializer": {"config": {}, "class_name": "Ones"}, "beta_constraint": null, "scale": false, "beta_regularizer": null, "name": "batch_normalization_25", "axis": 3, "beta_initializer": {"config": {}, "class_name": "Zeros"}, "gamma_regularizer": null}, "class_name": "BatchNormalization"}, {"inbound_nodes": [[["conv2d_26", 0, 0, {}]]], "name": "batch_normalization_26", "config": {"gamma_constraint": null, "epsilon": 0.001, "moving_mean_initializer": {"config": {}, "class_name": "Zeros"}, "momentum": 0.99, "center": true, "moving_variance_initializer": {"config": {}, "class_name": "Ones"}, "trainable": true, "gamma_initializer": {"config": {}, "class_name": "Ones"}, "beta_constraint": null, "scale": false, "beta_regularizer": null, "name": "batch_normalization_26", "axis": 3, "beta_initializer": {"config": {}, "class_name": "Zeros"}, "gamma_regularizer": null}, "class_name": "BatchNormalization"}, {"inbound_nodes": [[["batch_normalization_20", 0, 0, {}]]], "name": "activation_20", "config": {"trainable": true, "activation": "relu", "name": "activation_20"}, "class_name": "Activation"}, {"inbound_nodes": [[["batch_normalization_22", 0, 0, {}]]], "name": "activation_22", "config": {"trainable": true, "activation": "relu", "name": "activation_22"}, "class_name": "Activation"}, {"inbound_nodes": [[["batch_normalization_25", 0, 0, {}]]], "name": "activation_25", "config": {"trainable": true, "activation": "relu", "name": "activation_25"}, "class_name": "Activation"}, {"inbound_nodes": [[["batch_normalization_26", 0, 0, {}]]], "name": "activation_26", "config": {"trainable": true, "activation": "relu", "name": "activation_26"}, "class_name": "Activation"}, {"inbound_nodes": [[["activation_20", 0, 0, {}], ["activation_22", 0, 0, {}], ["activation_25", 0, 0, {}], ["activation_26", 0, 0, {}]]], "name": "mixed2", "config": {"trainable": true, "name": "mixed2", "axis": 3}, "class_name": "Concatenate"}, {"inbound_nodes": [[["mixed2", 0, 0, {}]]], "name": "conv2d_28", "config": {"bias_initializer": {"config": {}, "class_name": "Zeros"}, "kernel_constraint": null, "activity_regularizer": null, "strides": [1, 1], "activation": "linear", "kernel_initializer": {"config": {"seed": null, "mode": "fan_avg", "scale": 1.0, "distribution": "uniform"}, "class_name": "VarianceScaling"}, "use_bias": false, "kernel_regularizer": null, "kernel_size": [1, 1], "trainable": true, "bias_constraint": null, "bias_regularizer": null, "filters": 64, "padding": "same", "dilation_rate": [1, 1], "name": "conv2d_28", "data_format": "channels_last"}, "class_name": "Conv2D"}, {"inbound_nodes": [[["conv2d_28", 0, 0, {}]]], "name": "batch_normalization_28", "config": {"gamma_constraint": null, "epsilon": 0.001, "moving_mean_initializer": {"config": {}, "class_name": "Zeros"}, "momentum": 0.99, "center": true, "moving_variance_initializer": {"config": {}, "class_name": "Ones"}, "trainable": true, "gamma_initializer": {"config": {}, "class_name": "Ones"}, "beta_constraint": null, "scale": false, "beta_regularizer": null, "name": "batch_normalization_28", "axis": 3, "beta_initializer": {"config": {}, "class_name": "Zeros"}, "gamma_regularizer": null}, "class_name": "BatchNormalization"}, {"inbound_nodes": [[["batch_normalization_28", 0, 0, {}]]], "name": "activation_28", "config": {"trainable": true, "activation": "relu", "name": "activation_28"}, "class_name": "Activation"}, {"inbound_nodes": [[["activation_28", 0, 0, {}]]], "name": "conv2d_29", "config": {"bias_initializer": {"config": {}, "class_name": "Zeros"}, "kernel_constraint": null, "activity_regularizer": null, "strides": [1, 1], "activation": "linear", "kernel_initializer": {"config": {"seed": null, "mode": "fan_avg", "scale": 1.0, "distribution": "uniform"}, "class_name": "VarianceScaling"}, "use_bias": false, "kernel_regularizer": null, "kernel_size": [3, 3], "trainable": true, "bias_constraint": null, "bias_regularizer": null, "filters": 96, "padding": "same", "dilation_rate": [1, 1], "name": "conv2d_29", "data_format": "channels_last"}, "class_name": "Conv2D"}, {"inbound_nodes": [[["conv2d_29", 0, 0, {}]]], "name": "batch_normalization_29", "config": {"gamma_constraint": null, "epsilon": 0.001, "moving_mean_initializer": {"config": {}, "class_name": "Zeros"}, "momentum": 0.99, "center": true, "moving_variance_initializer": {"config": {}, "class_name": "Ones"}, "trainable": true, "gamma_initializer": {"config": {}, "class_name": "Ones"}, "beta_constraint": null, "scale": false, "beta_regularizer": null, "name": "batch_normalization_29", "axis": 3, "beta_initializer": {"config": {}, "class_name": "Zeros"}, "gamma_regularizer": null}, "class_name": "BatchNormalization"}, {"inbound_nodes": [[["batch_normalization_29", 0, 0, {}]]], "name": "activation_29", "config": {"trainable": true, "activation": "relu", "name": "activation_29"}, "class_name": "Activation"}, {"inbound_nodes": [[["mixed2", 0, 0, {}]]], "name": "conv2d_27", "config": {"bias_initializer": {"config": {}, "class_name": "Zeros"}, "kernel_constraint": null, "activity_regularizer": null, "strides": [2, 2], "activation": "linear", "kernel_initializer": {"config": {"seed": null, "mode": "fan_avg", "scale": 1.0, "distribution": "uniform"}, "class_name": "VarianceScaling"}, "use_bias": false, "kernel_regularizer": null, "kernel_size": [3, 3], "trainable": true, "bias_constraint": null, "bias_regularizer": null, "filters": 384, "padding": "valid", "dilation_rate": [1, 1], "name": "conv2d_27", "data_format": "channels_last"}, "class_name": "Conv2D"}, {"inbound_nodes": [[["activation_29", 0, 0, {}]]], "name": "conv2d_30", "config": {"bias_initializer": {"config": {}, "class_name": "Zeros"}, "kernel_constraint": null, "activity_regularizer": null, "strides": [2, 2], "activation": "linear", "kernel_initializer": {"config": {"seed": null, "mode": "fan_avg", "scale": 1.0, "distribution": "uniform"}, "class_name": "VarianceScaling"}, "use_bias": false, "kernel_regularizer": null, "kernel_size": [3, 3], "trainable": true, "bias_constraint": null, "bias_regularizer": null, "filters": 96, "padding": "valid", "dilation_rate": [1, 1], "name": "conv2d_30", "data_format": "channels_last"}, "class_name": "Conv2D"}, {"inbound_nodes": [[["conv2d_27", 0, 0, {}]]], "name": "batch_normalization_27", "config": {"gamma_constraint": null, "epsilon": 0.001, "moving_mean_initializer": {"config": {}, "class_name": "Zeros"}, "momentum": 0.99, "center": true, "moving_variance_initializer": {"config": {}, "class_name": "Ones"}, "trainable": true, "gamma_initializer": {"config": {}, "class_name": "Ones"}, "beta_constraint": null, "scale": false, "beta_regularizer": null, "name": "batch_normalization_27", "axis": 3, "beta_initializer": {"config": {}, "class_name": "Zeros"}, "gamma_regularizer": null}, "class_name": "BatchNormalization"}, {"inbound_nodes": [[["conv2d_30", 0, 0, {}]]], "name": "batch_normalization_30", "config": {"gamma_constraint": null, "epsilon": 0.001, "moving_mean_initializer": {"config": {}, "class_name": "Zeros"}, "momentum": 0.99, "center": true, "moving_variance_initializer": {"config": {}, "class_name": "Ones"}, "trainable": true, "gamma_initializer": {"config": {}, "class_name": "Ones"}, "beta_constraint": null, "scale": false, "beta_regularizer": null, "name": "batch_normalization_30", "axis": 3, "beta_initializer": {"config": {}, "class_name": "Zeros"}, "gamma_regularizer": null}, "class_name": "BatchNormalization"}, {"inbound_nodes": [[["batch_normalization_27", 0, 0, {}]]], "name": "activation_27", "config": {"trainable": true, "activation": "relu", "name": "activation_27"}, "class_name": "Activation"}, {"inbound_nodes": [[["batch_normalization_30", 0, 0, {}]]], "name": "activation_30", "config": {"trainable": true, "activation": "relu", "name": "activation_30"}, "class_name": "Activation"}, {"inbound_nodes": [[["mixed2", 0, 0, {}]]], "name": "max_pooling2d_3", "config": {"trainable": true, "padding": "valid", "strides": [2, 2], "name": "max_pooling2d_3", "pool_size": [3, 3], "data_format": "channels_last"}, "class_name": "MaxPooling2D"}, {"inbound_nodes": [[["activation_27", 0, 0, {}], ["activation_30", 0, 0, {}], ["max_pooling2d_3", 0, 0, {}]]], "name": "mixed3", "config": {"trainable": true, "name": "mixed3", "axis": 3}, "class_name": "Concatenate"}, {"inbound_nodes": [[["mixed3", 0, 0, {}]]], "name": "conv2d_35", "config": {"bias_initializer": {"config": {}, "class_name": "Zeros"}, "kernel_constraint": null, "activity_regularizer": null, "strides": [1, 1], "activation": "linear", "kernel_initializer": {"config": {"seed": null, "mode": "fan_avg", "scale": 1.0, "distribution": "uniform"}, "class_name": "VarianceScaling"}, "use_bias": false, "kernel_regularizer": null, "kernel_size": [1, 1], "trainable": true, "bias_constraint": null, "bias_regularizer": null, "filters": 128, "padding": "same", "dilation_rate": [1, 1], "name": "conv2d_35", "data_format": "channels_last"}, "class_name": "Conv2D"}, {"inbound_nodes": [[["conv2d_35", 0, 0, {}]]], "name": "batch_normalization_35", "config": {"gamma_constraint": null, "epsilon": 0.001, "moving_mean_initializer": {"config": {}, "class_name": "Zeros"}, "momentum": 0.99, "center": true, "moving_variance_initializer": {"config": {}, "class_name": "Ones"}, "trainable": true, "gamma_initializer": {"config": {}, "class_name": "Ones"}, "beta_constraint": null, "scale": false, "beta_regularizer": null, "name": "batch_normalization_35", "axis": 3, "beta_initializer": {"config": {}, "class_name": "Zeros"}, "gamma_regularizer": null}, "class_name": "BatchNormalization"}, {"inbound_nodes": [[["batch_normalization_35", 0, 0, {}]]], "name": "activation_35", "config": {"trainable": true, "activation": "relu", "name": "activation_35"}, "class_name": "Activation"}, {"inbound_nodes": [[["activation_35", 0, 0, {}]]], "name": "conv2d_36", "config": {"bias_initializer": {"config": {}, "class_name": "Zeros"}, "kernel_constraint": null, "activity_regularizer": null, "strides": [1, 1], "activation": "linear", "kernel_initializer": {"config": {"seed": null, "mode": "fan_avg", "scale": 1.0, "distribution": "uniform"}, "class_name": "VarianceScaling"}, "use_bias": false, "kernel_regularizer": null, "kernel_size": [7, 1], "trainable": true, "bias_constraint": null, "bias_regularizer": null, "filters": 128, "padding": "same", "dilation_rate": [1, 1], "name": "conv2d_36", "data_format": "channels_last"}, "class_name": "Conv2D"}, {"inbound_nodes": [[["conv2d_36", 0, 0, {}]]], "name": "batch_normalization_36", "config": {"gamma_constraint": null, "epsilon": 0.001, "moving_mean_initializer": {"config": {}, "class_name": "Zeros"}, "momentum": 0.99, "center": true, "moving_variance_initializer": {"config": {}, "class_name": "Ones"}, "trainable": true, "gamma_initializer": {"config": {}, "class_name": "Ones"}, "beta_constraint": null, "scale": false, "beta_regularizer": null, "name": "batch_normalization_36", "axis": 3, "beta_initializer": {"config": {}, "class_name": "Zeros"}, "gamma_regularizer": null}, "class_name": "BatchNormalization"}, {"inbound_nodes": [[["batch_normalization_36", 0, 0, {}]]], "name": "activation_36", "config": {"trainable": true, "activation": "relu", "name": "activation_36"}, "class_name": "Activation"}, {"inbound_nodes": [[["mixed3", 0, 0, {}]]], "name": "conv2d_32", "config": {"bias_initializer": {"config": {}, "class_name": "Zeros"}, "kernel_constraint": null, "activity_regularizer": null, "strides": [1, 1], "activation": "linear", "kernel_initializer": {"config": {"seed": null, "mode": "fan_avg", "scale": 1.0, "distribution": "uniform"}, "class_name": "VarianceScaling"}, "use_bias": false, "kernel_regularizer": null, "kernel_size": [1, 1], "trainable": true, "bias_constraint": null, "bias_regularizer": null, "filters": 128, "padding": "same", "dilation_rate": [1, 1], "name": "conv2d_32", "data_format": "channels_last"}, "class_name": "Conv2D"}, {"inbound_nodes": [[["activation_36", 0, 0, {}]]], "name": "conv2d_37", "config": {"bias_initializer": {"config": {}, "class_name": "Zeros"}, "kernel_constraint": null, "activity_regularizer": null, "strides": [1, 1], "activation": "linear", "kernel_initializer": {"config": {"seed": null, "mode": "fan_avg", "scale": 1.0, "distribution": "uniform"}, "class_name": "VarianceScaling"}, "use_bias": false, "kernel_regularizer": null, "kernel_size": [1, 7], "trainable": true, "bias_constraint": null, "bias_regularizer": null, "filters": 128, "padding": "same", "dilation_rate": [1, 1], "name": "conv2d_37", "data_format": "channels_last"}, "class_name": "Conv2D"}, {"inbound_nodes": [[["conv2d_32", 0, 0, {}]]], "name": "batch_normalization_32", "config": {"gamma_constraint": null, "epsilon": 0.001, "moving_mean_initializer": {"config": {}, "class_name": "Zeros"}, "momentum": 0.99, "center": true, "moving_variance_initializer": {"config": {}, "class_name": "Ones"}, "trainable": true, "gamma_initializer": {"config": {}, "class_name": "Ones"}, "beta_constraint": null, "scale": false, "beta_regularizer": null, "name": "batch_normalization_32", "axis": 3, "beta_initializer": {"config": {}, "class_name": "Zeros"}, "gamma_regularizer": null}, "class_name": "BatchNormalization"}, {"inbound_nodes": [[["conv2d_37", 0, 0, {}]]], "name": "batch_normalization_37", "config": {"gamma_constraint": null, "epsilon": 0.001, "moving_mean_initializer": {"config": {}, "class_name": "Zeros"}, "momentum": 0.99, "center": true, "moving_variance_initializer": {"config": {}, "class_name": "Ones"}, "trainable": true, "gamma_initializer": {"config": {}, "class_name": "Ones"}, "beta_constraint": null, "scale": false, "beta_regularizer": null, "name": "batch_normalization_37", "axis": 3, "beta_initializer": {"config": {}, "class_name": "Zeros"}, "gamma_regularizer": null}, "class_name": "BatchNormalization"}, {"inbound_nodes": [[["batch_normalization_32", 0, 0, {}]]], "name": "activation_32", "config": {"trainable": true, "activation": "relu", "name": "activation_32"}, "class_name": "Activation"}, {"inbound_nodes": [[["batch_normalization_37", 0, 0, {}]]], "name": "activation_37", "config": {"trainable": true, "activation": "relu", "name": "activation_37"}, "class_name": "Activation"}, {"inbound_nodes": [[["activation_32", 0, 0, {}]]], "name": "conv2d_33", "config": {"bias_initializer": {"config": {}, "class_name": "Zeros"}, "kernel_constraint": null, "activity_regularizer": null, "strides": [1, 1], "activation": "linear", "kernel_initializer": {"config": {"seed": null, "mode": "fan_avg", "scale": 1.0, "distribution": "uniform"}, "class_name": "VarianceScaling"}, "use_bias": false, "kernel_regularizer": null, "kernel_size": [1, 7], "trainable": true, "bias_constraint": null, "bias_regularizer": null, "filters": 128, "padding": "same", "dilation_rate": [1, 1], "name": "conv2d_33", "data_format": "channels_last"}, "class_name": "Conv2D"}, {"inbound_nodes": [[["activation_37", 0, 0, {}]]], "name": "conv2d_38", "config": {"bias_initializer": {"config": {}, "class_name": "Zeros"}, "kernel_constraint": null, "activity_regularizer": null, "strides": [1, 1], "activation": "linear", "kernel_initializer": {"config": {"seed": null, "mode": "fan_avg", "scale": 1.0, "distribution": "uniform"}, "class_name": "VarianceScaling"}, "use_bias": false, "kernel_regularizer": null, "kernel_size": [7, 1], "trainable": true, "bias_constraint": null, "bias_regularizer": null, "filters": 128, "padding": "same", "dilation_rate": [1, 1], "name": "conv2d_38", "data_format": "channels_last"}, "class_name": "Conv2D"}, {"inbound_nodes": [[["conv2d_33", 0, 0, {}]]], "name": "batch_normalization_33", "config": {"gamma_constraint": null, "epsilon": 0.001, "moving_mean_initializer": {"config": {}, "class_name": "Zeros"}, "momentum": 0.99, "center": true, "moving_variance_initializer": {"config": {}, "class_name": "Ones"}, "trainable": true, "gamma_initializer": {"config": {}, "class_name": "Ones"}, "beta_constraint": null, "scale": false, "beta_regularizer": null, "name": "batch_normalization_33", "axis": 3, "beta_initializer": {"config": {}, "class_name": "Zeros"}, "gamma_regularizer": null}, "class_name": "BatchNormalization"}, {"inbound_nodes": [[["conv2d_38", 0, 0, {}]]], "name": "batch_normalization_38", "config": {"gamma_constraint": null, "epsilon": 0.001, "moving_mean_initializer": {"config": {}, "class_name": "Zeros"}, "momentum": 0.99, "center": true, "moving_variance_initializer": {"config": {}, "class_name": "Ones"}, "trainable": true, "gamma_initializer": {"config": {}, "class_name": "Ones"}, "beta_constraint": null, "scale": false, "beta_regularizer": null, "name": "batch_normalization_38", "axis": 3, "beta_initializer": {"config": {}, "class_name": "Zeros"}, "gamma_regularizer": null}, "class_name": "BatchNormalization"}, {"inbound_nodes": [[["batch_normalization_33", 0, 0, {}]]], "name": "activation_33", "config": {"trainable": true, "activation": "relu", "name": "activation_33"}, "class_name": "Activation"}, {"inbound_nodes": [[["batch_normalization_38", 0, 0, {}]]], "name": "activation_38", "config": {"trainable": true, "activation": "relu", "name": "activation_38"}, "class_name": "Activation"}, {"inbound_nodes": [[["mixed3", 0, 0, {}]]], "name": "average_pooling2d_4", "config": {"trainable": true, "padding": "same", "strides": [1, 1], "name": "average_pooling2d_4", "pool_size": [3, 3], "data_format": "channels_last"}, "class_name": "AveragePooling2D"}, {"inbound_nodes": [[["mixed3", 0, 0, {}]]], "name": "conv2d_31", "config": {"bias_initializer": {"config": {}, "class_name": "Zeros"}, "kernel_constraint": null, "activity_regularizer": null, "strides": [1, 1], "activation": "linear", "kernel_initializer": {"config": {"seed": null, "mode": "fan_avg", "scale": 1.0, "distribution": "uniform"}, "class_name": "VarianceScaling"}, "use_bias": false, "kernel_regularizer": null, "kernel_size": [1, 1], "trainable": true, "bias_constraint": null, "bias_regularizer": null, "filters": 192, "padding": "same", "dilation_rate": [1, 1], "name": "conv2d_31", "data_format": "channels_last"}, "class_name": "Conv2D"}, {"inbound_nodes": [[["activation_33", 0, 0, {}]]], "name": "conv2d_34", "config": {"bias_initializer": {"config": {}, "class_name": "Zeros"}, "kernel_constraint": null, "activity_regularizer": null, "strides": [1, 1], "activation": "linear", "kernel_initializer": {"config": {"seed": null, "mode": "fan_avg", "scale": 1.0, "distribution": "uniform"}, "class_name": "VarianceScaling"}, "use_bias": false, "kernel_regularizer": null, "kernel_size": [7, 1], "trainable": true, "bias_constraint": null, "bias_regularizer": null, "filters": 192, "padding": "same", "dilation_rate": [1, 1], "name": "conv2d_34", "data_format": "channels_last"}, "class_name": "Conv2D"}, {"inbound_nodes": [[["activation_38", 0, 0, {}]]], "name": "conv2d_39", "config": {"bias_initializer": {"config": {}, "class_name": "Zeros"}, "kernel_constraint": null, "activity_regularizer": null, "strides": [1, 1], "activation": "linear", "kernel_initializer": {"config": {"seed": null, "mode": "fan_avg", "scale": 1.0, "distribution": "uniform"}, "class_name": "VarianceScaling"}, "use_bias": false, "kernel_regularizer": null, "kernel_size": [1, 7], "trainable": true, "bias_constraint": null, "bias_regularizer": null, "filters": 192, "padding": "same", "dilation_rate": [1, 1], "name": "conv2d_39", "data_format": "channels_last"}, "class_name": "Conv2D"}, {"inbound_nodes": [[["average_pooling2d_4", 0, 0, {}]]], "name": "conv2d_40", "config": {"bias_initializer": {"config": {}, "class_name": "Zeros"}, "kernel_constraint": null, "activity_regularizer": null, "strides": [1, 1], "activation": "linear", "kernel_initializer": {"config": {"seed": null, "mode": "fan_avg", "scale": 1.0, "distribution": "uniform"}, "class_name": "VarianceScaling"}, "use_bias": false, "kernel_regularizer": null, "kernel_size": [1, 1], "trainable": true, "bias_constraint": null, "bias_regularizer": null, "filters": 192, "padding": "same", "dilation_rate": [1, 1], "name": "conv2d_40", "data_format": "channels_last"}, "class_name": "Conv2D"}, {"inbound_nodes": [[["conv2d_31", 0, 0, {}]]], "name": "batch_normalization_31", "config": {"gamma_constraint": null, "epsilon": 0.001, "moving_mean_initializer": {"config": {}, "class_name": "Zeros"}, "momentum": 0.99, "center": true, "moving_variance_initializer": {"config": {}, "class_name": "Ones"}, "trainable": true, "gamma_initializer": {"config": {}, "class_name": "Ones"}, "beta_constraint": null, "scale": false, "beta_regularizer": null, "name": "batch_normalization_31", "axis": 3, "beta_initializer": {"config": {}, "class_name": "Zeros"}, "gamma_regularizer": null}, "class_name": "BatchNormalization"}, {"inbound_nodes": [[["conv2d_34", 0, 0, {}]]], "name": "batch_normalization_34", "config": {"gamma_constraint": null, "epsilon": 0.001, "moving_mean_initializer": {"config": {}, "class_name": "Zeros"}, "momentum": 0.99, "center": true, "moving_variance_initializer": {"config": {}, "class_name": "Ones"}, "trainable": true, "gamma_initializer": {"config": {}, "class_name": "Ones"}, "beta_constraint": null, "scale": false, "beta_regularizer": null, "name": "batch_normalization_34", "axis": 3, "beta_initializer": {"config": {}, "class_name": "Zeros"}, "gamma_regularizer": null}, "class_name": "BatchNormalization"}, {"inbound_nodes": [[["conv2d_39", 0, 0, {}]]], "name": "batch_normalization_39", "config": {"gamma_constraint": null, "epsilon": 0.001, "moving_mean_initializer": {"config": {}, "class_name": "Zeros"}, "momentum": 0.99, "center": true, "moving_variance_initializer": {"config": {}, "class_name": "Ones"}, "trainable": true, "gamma_initializer": {"config": {}, "class_name": "Ones"}, "beta_constraint": null, "scale": false, "beta_regularizer": null, "name": "batch_normalization_39", "axis": 3, "beta_initializer": {"config": {}, "class_name": "Zeros"}, "gamma_regularizer": null}, "class_name": "BatchNormalization"}, {"inbound_nodes": [[["conv2d_40", 0, 0, {}]]], "name": "batch_normalization_40", "config": {"gamma_constraint": null, "epsilon": 0.001, "moving_mean_initializer": {"config": {}, "class_name": "Zeros"}, "momentum": 0.99, "center": true, "moving_variance_initializer": {"config": {}, "class_name": "Ones"}, "trainable": true, "gamma_initializer": {"config": {}, "class_name": "Ones"}, "beta_constraint": null, "scale": false, "beta_regularizer": null, "name": "batch_normalization_40", "axis": 3, "beta_initializer": {"config": {}, "class_name": "Zeros"}, "gamma_regularizer": null}, "class_name": "BatchNormalization"}, {"inbound_nodes": [[["batch_normalization_31", 0, 0, {}]]], "name": "activation_31", "config": {"trainable": true, "activation": "relu", "name": "activation_31"}, "class_name": "Activation"}, {"inbound_nodes": [[["batch_normalization_34", 0, 0, {}]]], "name": "activation_34", "config": {"trainable": true, "activation": "relu", "name": "activation_34"}, "class_name": "Activation"}, {"inbound_nodes": [[["batch_normalization_39", 0, 0, {}]]], "name": "activation_39", "config": {"trainable": true, "activation": "relu", "name": "activation_39"}, "class_name": "Activation"}, {"inbound_nodes": [[["batch_normalization_40", 0, 0, {}]]], "name": "activation_40", "config": {"trainable": true, "activation": "relu", "name": "activation_40"}, "class_name": "Activation"}, {"inbound_nodes": [[["activation_31", 0, 0, {}], ["activation_34", 0, 0, {}], ["activation_39", 0, 0, {}], ["activation_40", 0, 0, {}]]], "name": "mixed4", "config": {"trainable": true, "name": "mixed4", "axis": 3}, "class_name": "Concatenate"}, {"inbound_nodes": [[["mixed4", 0, 0, {}]]], "name": "conv2d_45", "config": {"bias_initializer": {"config": {}, "class_name": "Zeros"}, "kernel_constraint": null, "activity_regularizer": null, "strides": [1, 1], "activation": "linear", "kernel_initializer": {"config": {"seed": null, "mode": "fan_avg", "scale": 1.0, "distribution": "uniform"}, "class_name": "VarianceScaling"}, "use_bias": false, "kernel_regularizer": null, "kernel_size": [1, 1], "trainable": true, "bias_constraint": null, "bias_regularizer": null, "filters": 160, "padding": "same", "dilation_rate": [1, 1], "name": "conv2d_45", "data_format": "channels_last"}, "class_name": "Conv2D"}, {"inbound_nodes": [[["conv2d_45", 0, 0, {}]]], "name": "batch_normalization_45", "config": {"gamma_constraint": null, "epsilon": 0.001, "moving_mean_initializer": {"config": {}, "class_name": "Zeros"}, "momentum": 0.99, "center": true, "moving_variance_initializer": {"config": {}, "class_name": "Ones"}, "trainable": true, "gamma_initializer": {"config": {}, "class_name": "Ones"}, "beta_constraint": null, "scale": false, "beta_regularizer": null, "name": "batch_normalization_45", "axis": 3, "beta_initializer": {"config": {}, "class_name": "Zeros"}, "gamma_regularizer": null}, "class_name": "BatchNormalization"}, {"inbound_nodes": [[["batch_normalization_45", 0, 0, {}]]], "name": "activation_45", "config": {"trainable": true, "activation": "relu", "name": "activation_45"}, "class_name": "Activation"}, {"inbound_nodes": [[["activation_45", 0, 0, {}]]], "name": "conv2d_46", "config": {"bias_initializer": {"config": {}, "class_name": "Zeros"}, "kernel_constraint": null, "activity_regularizer": null, "strides": [1, 1], "activation": "linear", "kernel_initializer": {"config": {"seed": null, "mode": "fan_avg", "scale": 1.0, "distribution": "uniform"}, "class_name": "VarianceScaling"}, "use_bias": false, "kernel_regularizer": null, "kernel_size": [7, 1], "trainable": true, "bias_constraint": null, "bias_regularizer": null, "filters": 160, "padding": "same", "dilation_rate": [1, 1], "name": "conv2d_46", "data_format": "channels_last"}, "class_name": "Conv2D"}, {"inbound_nodes": [[["conv2d_46", 0, 0, {}]]], "name": "batch_normalization_46", "config": {"gamma_constraint": null, "epsilon": 0.001, "moving_mean_initializer": {"config": {}, "class_name": "Zeros"}, "momentum": 0.99, "center": true, "moving_variance_initializer": {"config": {}, "class_name": "Ones"}, "trainable": true, "gamma_initializer": {"config": {}, "class_name": "Ones"}, "beta_constraint": null, "scale": false, "beta_regularizer": null, "name": "batch_normalization_46", "axis": 3, "beta_initializer": {"config": {}, "class_name": "Zeros"}, "gamma_regularizer": null}, "class_name": "BatchNormalization"}, {"inbound_nodes": [[["batch_normalization_46", 0, 0, {}]]], "name": "activation_46", "config": {"trainable": true, "activation": "relu", "name": "activation_46"}, "class_name": "Activation"}, {"inbound_nodes": [[["mixed4", 0, 0, {}]]], "name": "conv2d_42", "config": {"bias_initializer": {"config": {}, "class_name": "Zeros"}, "kernel_constraint": null, "activity_regularizer": null, "strides": [1, 1], "activation": "linear", "kernel_initializer": {"config": {"seed": null, "mode": "fan_avg", "scale": 1.0, "distribution": "uniform"}, "class_name": "VarianceScaling"}, "use_bias": false, "kernel_regularizer": null, "kernel_size": [1, 1], "trainable": true, "bias_constraint": null, "bias_regularizer": null, "filters": 160, "padding": "same", "dilation_rate": [1, 1], "name": "conv2d_42", "data_format": "channels_last"}, "class_name": "Conv2D"}, {"inbound_nodes": [[["activation_46", 0, 0, {}]]], "name": "conv2d_47", "config": {"bias_initializer": {"config": {}, "class_name": "Zeros"}, "kernel_constraint": null, "activity_regularizer": null, "strides": [1, 1], "activation": "linear", "kernel_initializer": {"config": {"seed": null, "mode": "fan_avg", "scale": 1.0, "distribution": "uniform"}, "class_name": "VarianceScaling"}, "use_bias": false, "kernel_regularizer": null, "kernel_size": [1, 7], "trainable": true, "bias_constraint": null, "bias_regularizer": null, "filters": 160, "padding": "same", "dilation_rate": [1, 1], "name": "conv2d_47", "data_format": "channels_last"}, "class_name": "Conv2D"}, {"inbound_nodes": [[["conv2d_42", 0, 0, {}]]], "name": "batch_normalization_42", "config": {"gamma_constraint": null, "epsilon": 0.001, "moving_mean_initializer": {"config": {}, "class_name": "Zeros"}, "momentum": 0.99, "center": true, "moving_variance_initializer": {"config": {}, "class_name": "Ones"}, "trainable": true, "gamma_initializer": {"config": {}, "class_name": "Ones"}, "beta_constraint": null, "scale": false, "beta_regularizer": null, "name": "batch_normalization_42", "axis": 3, "beta_initializer": {"config": {}, "class_name": "Zeros"}, "gamma_regularizer": null}, "class_name": "BatchNormalization"}, {"inbound_nodes": [[["conv2d_47", 0, 0, {}]]], "name": "batch_normalization_47", "config": {"gamma_constraint": null, "epsilon": 0.001, "moving_mean_initializer": {"config": {}, "class_name": "Zeros"}, "momentum": 0.99, "center": true, "moving_variance_initializer": {"config": {}, "class_name": "Ones"}, "trainable": true, "gamma_initializer": {"config": {}, "class_name": "Ones"}, "beta_constraint": null, "scale": false, "beta_regularizer": null, "name": "batch_normalization_47", "axis": 3, "beta_initializer": {"config": {}, "class_name": "Zeros"}, "gamma_regularizer": null}, "class_name": "BatchNormalization"}, {"inbound_nodes": [[["batch_normalization_42", 0, 0, {}]]], "name": "activation_42", "config": {"trainable": true, "activation": "relu", "name": "activation_42"}, "class_name": "Activation"}, {"inbound_nodes": [[["batch_normalization_47", 0, 0, {}]]], "name": "activation_47", "config": {"trainable": true, "activation": "relu", "name": "activation_47"}, "class_name": "Activation"}, {"inbound_nodes": [[["activation_42", 0, 0, {}]]], "name": "conv2d_43", "config": {"bias_initializer": {"config": {}, "class_name": "Zeros"}, "kernel_constraint": null, "activity_regularizer": null, "strides": [1, 1], "activation": "linear", "kernel_initializer": {"config": {"seed": null, "mode": "fan_avg", "scale": 1.0, "distribution": "uniform"}, "class_name": "VarianceScaling"}, "use_bias": false, "kernel_regularizer": null, "kernel_size": [1, 7], "trainable": true, "bias_constraint": null, "bias_regularizer": null, "filters": 160, "padding": "same", "dilation_rate": [1, 1], "name": "conv2d_43", "data_format": "channels_last"}, "class_name": "Conv2D"}, {"inbound_nodes": [[["activation_47", 0, 0, {}]]], "name": "conv2d_48", "config": {"bias_initializer": {"config": {}, "class_name": "Zeros"}, "kernel_constraint": null, "activity_regularizer": null, "strides": [1, 1], "activation": "linear", "kernel_initializer": {"config": {"seed": null, "mode": "fan_avg", "scale": 1.0, "distribution": "uniform"}, "class_name": "VarianceScaling"}, "use_bias": false, "kernel_regularizer": null, "kernel_size": [7, 1], "trainable": true, "bias_constraint": null, "bias_regularizer": null, "filters": 160, "padding": "same", "dilation_rate": [1, 1], "name": "conv2d_48", "data_format": "channels_last"}, "class_name": "Conv2D"}, {"inbound_nodes": [[["conv2d_43", 0, 0, {}]]], "name": "batch_normalization_43", "config": {"gamma_constraint": null, "epsilon": 0.001, "moving_mean_initializer": {"config": {}, "class_name": "Zeros"}, "momentum": 0.99, "center": true, "moving_variance_initializer": {"config": {}, "class_name": "Ones"}, "trainable": true, "gamma_initializer": {"config": {}, "class_name": "Ones"}, "beta_constraint": null, "scale": false, "beta_regularizer": null, "name": "batch_normalization_43", "axis": 3, "beta_initializer": {"config": {}, "class_name": "Zeros"}, "gamma_regularizer": null}, "class_name": "BatchNormalization"}, {"inbound_nodes": [[["conv2d_48", 0, 0, {}]]], "name": "batch_normalization_48", "config": {"gamma_constraint": null, "epsilon": 0.001, "moving_mean_initializer": {"config": {}, "class_name": "Zeros"}, "momentum": 0.99, "center": true, "moving_variance_initializer": {"config": {}, "class_name": "Ones"}, "trainable": true, "gamma_initializer": {"config": {}, "class_name": "Ones"}, "beta_constraint": null, "scale": false, "beta_regularizer": null, "name": "batch_normalization_48", "axis": 3, "beta_initializer": {"config": {}, "class_name": "Zeros"}, "gamma_regularizer": null}, "class_name": "BatchNormalization"}, {"inbound_nodes": [[["batch_normalization_43", 0, 0, {}]]], "name": "activation_43", "config": {"trainable": true, "activation": "relu", "name": "activation_43"}, "class_name": "Activation"}, {"inbound_nodes": [[["batch_normalization_48", 0, 0, {}]]], "name": "activation_48", "config": {"trainable": true, "activation": "relu", "name": "activation_48"}, "class_name": "Activation"}, {"inbound_nodes": [[["mixed4", 0, 0, {}]]], "name": "average_pooling2d_5", "config": {"trainable": true, "padding": "same", "strides": [1, 1], "name": "average_pooling2d_5", "pool_size": [3, 3], "data_format": "channels_last"}, "class_name": "AveragePooling2D"}, {"inbound_nodes": [[["mixed4", 0, 0, {}]]], "name": "conv2d_41", "config": {"bias_initializer": {"config": {}, "class_name": "Zeros"}, "kernel_constraint": null, "activity_regularizer": null, "strides": [1, 1], "activation": "linear", "kernel_initializer": {"config": {"seed": null, "mode": "fan_avg", "scale": 1.0, "distribution": "uniform"}, "class_name": "VarianceScaling"}, "use_bias": false, "kernel_regularizer": null, "kernel_size": [1, 1], "trainable": true, "bias_constraint": null, "bias_regularizer": null, "filters": 192, "padding": "same", "dilation_rate": [1, 1], "name": "conv2d_41", "data_format": "channels_last"}, "class_name": "Conv2D"}, {"inbound_nodes": [[["activation_43", 0, 0, {}]]], "name": "conv2d_44", "config": {"bias_initializer": {"config": {}, "class_name": "Zeros"}, "kernel_constraint": null, "activity_regularizer": null, "strides": [1, 1], "activation": "linear", "kernel_initializer": {"config": {"seed": null, "mode": "fan_avg", "scale": 1.0, "distribution": "uniform"}, "class_name": "VarianceScaling"}, "use_bias": false, "kernel_regularizer": null, "kernel_size": [7, 1], "trainable": true, "bias_constraint": null, "bias_regularizer": null, "filters": 192, "padding": "same", "dilation_rate": [1, 1], "name": "conv2d_44", "data_format": "channels_last"}, "class_name": "Conv2D"}, {"inbound_nodes": [[["activation_48", 0, 0, {}]]], "name": "conv2d_49", "config": {"bias_initializer": {"config": {}, "class_name": "Zeros"}, "kernel_constraint": null, "activity_regularizer": null, "strides": [1, 1], "activation": "linear", "kernel_initializer": {"config": {"seed": null, "mode": "fan_avg", "scale": 1.0, "distribution": "uniform"}, "class_name": "VarianceScaling"}, "use_bias": false, "kernel_regularizer": null, "kernel_size": [1, 7], "trainable": true, "bias_constraint": null, "bias_regularizer": null, "filters": 192, "padding": "same", "dilation_rate": [1, 1], "name": "conv2d_49", "data_format": "channels_last"}, "class_name": "Conv2D"}, {"inbound_nodes": [[["average_pooling2d_5", 0, 0, {}]]], "name": "conv2d_50", "config": {"bias_initializer": {"config": {}, "class_name": "Zeros"}, "kernel_constraint": null, "activity_regularizer": null, "strides": [1, 1], "activation": "linear", "kernel_initializer": {"config": {"seed": null, "mode": "fan_avg", "scale": 1.0, "distribution": "uniform"}, "class_name": "VarianceScaling"}, "use_bias": false, "kernel_regularizer": null, "kernel_size": [1, 1], "trainable": true, "bias_constraint": null, "bias_regularizer": null, "filters": 192, "padding": "same", "dilation_rate": [1, 1], "name": "conv2d_50", "data_format": "channels_last"}, "class_name": "Conv2D"}, {"inbound_nodes": [[["conv2d_41", 0, 0, {}]]], "name": "batch_normalization_41", "config": {"gamma_constraint": null, "epsilon": 0.001, "moving_mean_initializer": {"config": {}, "class_name": "Zeros"}, "momentum": 0.99, "center": true, "moving_variance_initializer": {"config": {}, "class_name": "Ones"}, "trainable": true, "gamma_initializer": {"config": {}, "class_name": "Ones"}, "beta_constraint": null, "scale": false, "beta_regularizer": null, "name": "batch_normalization_41", "axis": 3, "beta_initializer": {"config": {}, "class_name": "Zeros"}, "gamma_regularizer": null}, "class_name": "BatchNormalization"}, {"inbound_nodes": [[["conv2d_44", 0, 0, {}]]], "name": "batch_normalization_44", "config": {"gamma_constraint": null, "epsilon": 0.001, "moving_mean_initializer": {"config": {}, "class_name": "Zeros"}, "momentum": 0.99, "center": true, "moving_variance_initializer": {"config": {}, "class_name": "Ones"}, "trainable": true, "gamma_initializer": {"config": {}, "class_name": "Ones"}, "beta_constraint": null, "scale": false, "beta_regularizer": null, "name": "batch_normalization_44", "axis": 3, "beta_initializer": {"config": {}, "class_name": "Zeros"}, "gamma_regularizer": null}, "class_name": "BatchNormalization"}, {"inbound_nodes": [[["conv2d_49", 0, 0, {}]]], "name": "batch_normalization_49", "config": {"gamma_constraint": null, "epsilon": 0.001, "moving_mean_initializer": {"config": {}, "class_name": "Zeros"}, "momentum": 0.99, "center": true, "moving_variance_initializer": {"config": {}, "class_name": "Ones"}, "trainable": true, "gamma_initializer": {"config": {}, "class_name": "Ones"}, "beta_constraint": null, "scale": false, "beta_regularizer": null, "name": "batch_normalization_49", "axis": 3, "beta_initializer": {"config": {}, "class_name": "Zeros"}, "gamma_regularizer": null}, "class_name": "BatchNormalization"}, {"inbound_nodes": [[["conv2d_50", 0, 0, {}]]], "name": "batch_normalization_50", "config": {"gamma_constraint": null, "epsilon": 0.001, "moving_mean_initializer": {"config": {}, "class_name": "Zeros"}, "momentum": 0.99, "center": true, "moving_variance_initializer": {"config": {}, "class_name": "Ones"}, "trainable": true, "gamma_initializer": {"config": {}, "class_name": "Ones"}, "beta_constraint": null, "scale": false, "beta_regularizer": null, "name": "batch_normalization_50", "axis": 3, "beta_initializer": {"config": {}, "class_name": "Zeros"}, "gamma_regularizer": null}, "class_name": "BatchNormalization"}, {"inbound_nodes": [[["batch_normalization_41", 0, 0, {}]]], "name": "activation_41", "config": {"trainable": true, "activation": "relu", "name": "activation_41"}, "class_name": "Activation"}, {"inbound_nodes": [[["batch_normalization_44", 0, 0, {}]]], "name": "activation_44", "config": {"trainable": true, "activation": "relu", "name": "activation_44"}, "class_name": "Activation"}, {"inbound_nodes": [[["batch_normalization_49", 0, 0, {}]]], "name": "activation_49", "config": {"trainable": true, "activation": "relu", "name": "activation_49"}, "class_name": "Activation"}, {"inbound_nodes": [[["batch_normalization_50", 0, 0, {}]]], "name": "activation_50", "config": {"trainable": true, "activation": "relu", "name": "activation_50"}, "class_name": "Activation"}, {"inbound_nodes": [[["activation_41", 0, 0, {}], ["activation_44", 0, 0, {}], ["activation_49", 0, 0, {}], ["activation_50", 0, 0, {}]]], "name": "mixed5", "config": {"trainable": true, "name": "mixed5", "axis": 3}, "class_name": "Concatenate"}, {"inbound_nodes": [[["mixed5", 0, 0, {}]]], "name": "global_average_pooling2d_1", "config": {"trainable": true, "name": "global_average_pooling2d_1", "data_format": "channels_last"}, "class_name": "GlobalAveragePooling2D"}, {"inbound_nodes": [[["global_average_pooling2d_1", 0, 0, {}]]], "name": "dense_1", "config": {"bias_initializer": {"config": {}, "class_name": "Zeros"}, "activity_regularizer": null, "activation": "relu", "use_bias": true, "kernel_regularizer": null, "kernel_constraint": null, "trainable": true, "bias_constraint": null, "bias_regularizer": null, "kernel_initializer": {"config": {"seed": null, "mode": "fan_avg", "scale": 1.0, "distribution": "uniform"}, "class_name": "VarianceScaling"}, "name": "dense_1", "units": 1024}, "class_name": "Dense"}, {"inbound_nodes": [[["dense_1", 0, 0, {}]]], "name": "dense_2", "config": {"bias_initializer": {"config": {}, "class_name": "Zeros"}, "activity_regularizer": null, "activation": "linear", "use_bias": true, "kernel_regularizer": null, "kernel_constraint": null, "trainable": true, "bias_constraint": null, "bias_regularizer": null, "kernel_initializer": {"config": {"seed": null, "mode": "fan_avg", "scale": 1.0, "distribution": "uniform"}, "class_name": "VarianceScaling"}, "name": "dense_2", "units": 128}, "class_name": "Dense"}]}, "class_name": "Model"}, {"name": "triplet_loss", "inbound_nodes": [[["model_1", 1, 0, {}], ["model_1", 2, 0, {}], ["model_1", 3, 0, {}]]], "config": {"trainable": true, "function": ["4wIAAAAAAAAACAAAAAUAAABDAAAAc3oAAAB8AABcAwB9AgB9AwB9BAB0AABqAQB0AABqAgB8AgB8\nAwAYgwEAZAEAZAQAgwEBfQUAdAAAagEAdAAAagIAfAIAfAQAGIMBAGQBAGQFAIMBAX0GAHQAAGoD\nAHQAAGoEAGQDAHwFAHwGABh8AQAXgwIAgwEAfQcAfAcAUykGTtoEYXhpc+kBAAAA5wAAAAAAAAAA\n6f////9yBAAAACkF2gFL2gNzdW3aBnNxdWFyZdoEbWVhbtoHbWF4aW11bSkI2gN2ZWPaBWFscGhh\n2gZhbmNob3LaCHBvc2l0aXZl2ghuZWdhdGl2ZdoDZF9w2gNkX27aBGxvc3OpAHISAAAA+hx0Y25f\ndHJpcGxldGxvc3NfZ2VuZXJhdG9yLnB52gx0cmlwbGV0X2xvc3MeAAAAcwoAAAAAAQ8BIgEiASMB\n", [0.2], null], "output_shape": ["4wEAAAAAAAAABAAAAAMAAABDAAAAcx0AAAB8AABcAwB9AQB9AgB9AwB8AQBkAQAZZAIAZgIAUykD\nTukAAAAA6QEAAACpACkE2gZzaGFwZXPaBnNoYXBlMdoGc2hhcGUy2gZzaGFwZTNyAwAAAHIDAAAA\n+hx0Y25fdHJpcGxldGxvc3NfZ2VuZXJhdG9yLnB52hR0cmlwbGV0X291dHB1dF9zaGFwZTUAAABz\nBAAAAAABDwE=\n", null, null], "output_shape_type": "lambda", "name": "triplet_loss", "function_type": "lambda", "arguments": {}}, "class_name": "Lambda"}], "input_layers": [["input_anchor", 0, 0], ["input_positive", 0, 0], ["input_negative", 0, 0]]}, "keras_version": "2.1.2", "class_name": "Model"}